model/purkinje_exp1.pt (torch, 9801 bytes, 18 tensors)

node_bias_0 f4 [8]
0.0 0.0 0.0 0.0 0.0 0.0 0.0 0.0
00000000: 0000 0000 0000 0000 0000 0000 0000 0000
00000010: 0000 0000 0000 0000 0000 0000 0000 0000

node_scale_0 f4 [8]
1.0 1.0 1.0 1.0 1.0 1.0 1.0 1.0
00000000: 0000 803f 0000 803f 0000 803f 0000 803f
00000010: 0000 803f 0000 803f 0000 803f 0000 803f

subnode_bias_0 f4 [8]
0.0 0.0 0.0 0.0 0.0 0.0 0.0 0.0
00000000: 0000 0000 0000 0000 0000 0000 0000 0000
00000010: 0000 0000 0000 0000 0000 0000 0000 0000

subnode_scale_0 f4 [8]
1.0 1.0 1.0 1.0 1.0 1.0 1.0 1.0
00000000: 0000 803f 0000 803f 0000 803f 0000 803f
00000010: 0000 803f 0000 803f 0000 803f 0000 803f

act_fun.0.grid f4 [2, 15]
-1.75 -1.5 -1.25 -1.0 -0.75 -0.5 -0.25 0.0
0.25 0.5 0.75 1.0 1.25 1.5 1.75 -1.75
-1.5 -1.25 -1.0 -0.75 -0.5 -0.25 0.0 0.25
0.5 0.75 1.0 1.25 1.5 1.75
00000000: 0000 e0bf 0000 c0bf 0000 a0bf 0000 80bf
00000010: 0000 40bf 0000 00bf 0000 80be 0000 0000
00000020: 0000 803e 0000 003f 0000 403f 0000 803f
00000030: 0000 a03f 0000 c03f 0000 e03f 0000 e0bf
00000040: 0000 c0bf 0000 a0bf 0000 80bf 0000 40bf
00000050: 0000 00bf 0000 80be 0000 0000 0000 803e
00000060: 0000 003f 0000 403f 0000 803f 0000 a03f
00000070: 0000 c03f 0000 e03f

act_fun.0.coef f4 [2, 8, 11]
0.0047947248 0.014616333 -0.005292956 0.022861674 -0.011896975 -0.007758962 -0.02013013 0.00917812
0.02177739 0.01038646 0.001496019 -0.0050391145 -0.013820473 0.010665965 -0.029292814 0.004002285
0.0009498093 -0.026319692 0.019446664 -0.031315703 0.031163257 0.011104873 -0.006425092 -0.0126943365
0.03539303 -0.03053401 -0.020222958 0.0032696677 0.0049649524 -0.01628786 0.012332041 -0.018974576
-0.0063006044 0.0019325209 0.01037441 0.009373829 -0.012860825 -0.012192896 0.007994446 -0.0033534244
-0.0137515515 0.024304084 0.0004891772 -0.0018470432 -0.0049830414 -0.022583682 -0.010593862 0.0230634
0.017127847 -0.030528441 0.019607622 0.018171912 0.0107415505 0.02036083 0.0048868903 0.0072038975
0.020716917 -0.022603394 0.001751014 -0.0031396719 -0.016538527 -0.010538729 -0.00645933 0.015561156
0.014104035 0.0025712107 -0.0006206089 -0.0042023165 -0.0057142163 0.008202417 0.021050002 0.019653171
-0.038462173 0.034185015 -0.034851342 0.023801956 0.009756128 0.004586775 0.016060786 -0.011596244
-0.018201645 0.032122802 -0.02011085 0.02194026 0.014223801 -0.030122604 0.02525489 0.009049217
0.0043490436 0.00784141 -0.020075273 0.036409203 -0.015174522 0.01902122 -0.0059571 -0.011874495
-0.019265698 0.020900493 0.00682183 -0.0015613637 -0.004212208 0.0046352334 -0.008942042 -0.016465642
-0.00028724596 0.024028236 -0.03254926 0.010495468 0.0047005685 -0.00023940555 0.00064559653 0.004687664
0.0118068475 0.015149336 0.011962348 0.0055095307 0.0029383218 0.018904205 0.029432323 -0.0245087
-0.0083273 -0.0020269016 -0.002447147 0.017365312 -0.005866216 0.0074317325 0.011054465 -0.026912112
0.012233006 -0.016145537 -0.018714374 -0.0034697796 0.006739065 0.016388206 -0.03120373 -0.0015477762
-0.021872118 0.016314019 -0.0024790228 0.016203122 0.014780567 -0.015376259 -0.0048253555 -0.0052457415
-0.014542177 0.019573094 0.005990863 0.014290135 0.009922388 0.0017877771 0.009948634 -0.018268777
0.0008590594 0.0017323955 -0.0032353112 -0.0051983446 0.015826456 -0.026679022 0.031172376 -0.02971152
-0.016513908 0.02044176 -0.029070595 -0.009933669 -0.00015183259 -0.004718516 -0.008881733 0.03011738
-0.0048752874 0.022470543 0.014768798 -0.024918698 0.031527843 -0.017159868 0.013200875 0.0055149095
00000000: 111d 9d3b 5879 6f3c 8870 adbb 6848 bb3c
00000010: 88eb 42bc e43e febb f1e7 a4bc d35f 163c
00000020: 7f66 b23c f92b 2a3c 1116 c43a 281f a5bb
00000030: 446f 62bc 4dc0 2e3c 7cf7 efbc 9a25 833b
00000040: a0fc 783a 659c d7bc 9c4e 9f3c e544 00bd
00000050: 164a ff3c 37f1 353c 9489 d2bb e8fb 4fbc
00000060: 48f8 103d 7622 fabc 9eaa a5bc ec47 563b
00000070: 0ab1 a23b 1e6e 85bc 540c 4a3c 9270 9bbc
00000080: 4d75 cebb a44c fd3a 6ef9 293c b094 193c
00000090: 36b6 52bc b6c4 47bc 23fb 023c 20c5 5bbb
000000a0: 304e 61bc 5c19 c73c 203c 003a 7c18 f2ba
000000b0: c848 a3bb 6a01 b9bc e191 2dbc 75ef bc3c
000000c0: b34f 8c3c c816 fabc 2aa0 a03c 43dd 943c
000000d0: 54fd 2f3c c1cb a63c 3522 a03b ac0e ec3b
000000e0: 86b6 a93c c12a b9bc 4882 e53a f4c2 4dbb
000000f0: ce7b 87bc a2aa 2cbc caa8 d3bb 38f4 7e3c
00000100: 9c14 673c c281 283b 5cb0 22ba 96b3 89bb
00000110: 523e bbbb 6e63 063c 0e71 ac3c b0ff a03c
00000120: 838a 1dbd 9605 0c3d 48c0 0ebd 52fc c23c
00000130: 2bd8 1f3c a84c 963b e991 833c 2cfe 3dbc
00000140: 9e1b 95bc 3393 033d 82bf a4bc 0fbc b33c
00000150: f20a 693c aec3 f6bc 58e3 ce3c 2b43 143c
00000160: 6c82 8e3b 4279 003c e674 a4bc d121 153d
00000170: 8f9e 78bc 64d2 9b3c c733 c3bb 3e8d 42bc
00000180: 19d3 9dbc 8337 ab3c a889 df3b aca6 ccba
00000190: 9006 8abb 28e3 973b a481 12bc f4e2 86bc
000001a0: 8099 96b9 ddd6 c43c 5f52 05bd 2ff5 2b3c
000001b0: 3a07 9a3b f008 7bb9 403d 293a fa9a 993b
000001c0: 8271 413c ec34 783c b9fd 433c 4b89 b43b
000001d0: dc90 403b fedc 9a3c 0e1c f13c 78c6 c8bc
000001e0: 3a6f 08bc c4d5 04bb 5060 20bb b341 8e3c
000001f0: 6339 c0bb e485 f33b c91d 353c ca76 dcbc
00000200: f26c 483c a543 84bc e34e 99bc 3e65 63bb
00000210: 60d3 dc3b 8f40 863c f79e ffbc c0de caba
00000220: 282d b3bc faa4 853c 1a77 22bb 69bc 843c
00000230: 312a 723c b4ec 7bbc 041e 9ebb 78e4 abbb
00000240: 5042 6ebc c157 a03c 004f c43b 2c21 6a3c
00000250: 8391 223c d853 ea3a 98ff 223c 67a8 95bc
00000260: 8032 613a 8c11 e33a 8407 54bb e056 aabb
00000270: 7ca6 813c f78d dabc 365d ff3c 9365 f3bc
00000280: 2d48 87bc 7a75 a73c 7525 eebc d4c0 22bc
00000290: 4035 1fb9 c89d 9abb b084 11bc b9b8 f63c
000002a0: e0c0 9fbb 2514 b83c d4f8 713c 4c22 ccbc
000002b0: 5723 013d da92 8cbc 7c48 583c 6ab6 b43b

act_fun.0.mask f4 [2, 8]
1.0 1.0 1.0 1.0 1.0 1.0 1.0 1.0
1.0 1.0 1.0 1.0 1.0 1.0 1.0 1.0
00000000: 0000 803f 0000 803f 0000 803f 0000 803f
00000010: 0000 803f 0000 803f 0000 803f 0000 803f
00000020: 0000 803f 0000 803f 0000 803f 0000 803f
00000030: 0000 803f 0000 803f 0000 803f 0000 803f

act_fun.0.scale_base f4 [2, 8]
0.21884094 -0.16011395 0.27176997 0.22852612 0.43171623 0.4761966 -0.23946364 0.69086146
-0.08174702 -0.02429336 -0.667424 -0.4551054 -0.41309425 -0.3024458 0.1884009 -0.23106909
00000000: d717 603e e9f4 23be 6f25 8b3e c002 6a3e
00000010: e909 dd3e 0ad0 f33e f535 75be 4cdc 303f
00000020: fb6a a7bd de02 c7bc 4ddc 2abf 9303 e9be
00000030: 1781 d3be 2dda 9abe 2aec 403e 609d 6cbe

act_fun.0.scale_sp f4 [2, 8]
0.70710677 0.70710677 0.70710677 0.70710677 0.70710677 0.70710677 0.70710677 0.70710677
0.70710677 0.70710677 0.70710677 0.70710677 0.70710677 0.70710677 0.70710677 0.70710677
00000000: f304 353f f304 353f f304 353f f304 353f
00000010: f304 353f f304 353f f304 353f f304 353f
00000020: f304 353f f304 353f f304 353f f304 353f
00000030: f304 353f f304 353f f304 353f f304 353f

act_fun.1.grid f4 [8, 15]
-1.75 -1.5 -1.25 -1.0 -0.75 -0.5 -0.25 0.0
0.25 0.5 0.75 1.0 1.25 1.5 1.75 -1.75
-1.5 -1.25 -1.0 -0.75 -0.5 -0.25 0.0 0.25
0.5 0.75 1.0 1.25 1.5 1.75 -1.75 -1.5
-1.25 -1.0 -0.75 -0.5 -0.25 0.0 0.25 0.5
0.75 1.0 1.25 1.5 1.75 -1.75 -1.5 -1.25
-1.0 -0.75 -0.5 -0.25 0.0 0.25 0.5 0.75
1.0 1.25 1.5 1.75 -1.75 -1.5 -1.25 -1.0
-0.75 -0.5 -0.25 0.0 0.25 0.5 0.75 1.0
1.25 1.5 1.75 -1.75 -1.5 -1.25 -1.0 -0.75
-0.5 -0.25 0.0 0.25 0.5 0.75 1.0 1.25
1.5 1.75 -1.75 -1.5 -1.25 -1.0 -0.75 -0.5
-0.25 0.0 0.25 0.5 0.75 1.0 1.25 1.5
1.75 -1.75 -1.5 -1.25 -1.0 -0.75 -0.5 -0.25
0.0 0.25 0.5 0.75 1.0 1.25 1.5 1.75
00000000: 0000 e0bf 0000 c0bf 0000 a0bf 0000 80bf
00000010: 0000 40bf 0000 00bf 0000 80be 0000 0000
00000020: 0000 803e 0000 003f 0000 403f 0000 803f
00000030: 0000 a03f 0000 c03f 0000 e03f 0000 e0bf
00000040: 0000 c0bf 0000 a0bf 0000 80bf 0000 40bf
00000050: 0000 00bf 0000 80be 0000 0000 0000 803e
00000060: 0000 003f 0000 403f 0000 803f 0000 a03f
00000070: 0000 c03f 0000 e03f 0000 e0bf 0000 c0bf
00000080: 0000 a0bf 0000 80bf 0000 40bf 0000 00bf
00000090: 0000 80be 0000 0000 0000 803e 0000 003f
000000a0: 0000 403f 0000 803f 0000 a03f 0000 c03f
000000b0: 0000 e03f 0000 e0bf 0000 c0bf 0000 a0bf
000000c0: 0000 80bf 0000 40bf 0000 00bf 0000 80be
000000d0: 0000 0000 0000 803e 0000 003f 0000 403f
000000e0: 0000 803f 0000 a03f 0000 c03f 0000 e03f
000000f0: 0000 e0bf 0000 c0bf 0000 a0bf 0000 80bf
00000100: 0000 40bf 0000 00bf 0000 80be 0000 0000
00000110: 0000 803e 0000 003f 0000 403f 0000 803f
00000120: 0000 a03f 0000 c03f 0000 e03f 0000 e0bf
00000130: 0000 c0bf 0000 a0bf 0000 80bf 0000 40bf
00000140: 0000 00bf 0000 80be 0000 0000 0000 803e
00000150: 0000 003f 0000 403f 0000 803f 0000 a03f
00000160: 0000 c03f 0000 e03f 0000 e0bf 0000 c0bf
00000170: 0000 a0bf 0000 80bf 0000 40bf 0000 00bf
00000180: 0000 80be 0000 0000 0000 803e 0000 003f
00000190: 0000 403f 0000 803f 0000 a03f 0000 c03f
000001a0: 0000 e03f 0000 e0bf 0000 c0bf 0000 a0bf
000001b0: 0000 80bf 0000 40bf 0000 00bf 0000 80be
000001c0: 0000 0000 0000 803e 0000 003f 0000 403f
000001d0: 0000 803f 0000 a03f 0000 c03f 0000 e03f

act_fun.1.coef f4 [8, 1, 11]
-0.001113222 -0.014023997 -0.02685992 0.03181039 -0.02365126 -0.009766481 0.009877338 -0.0024964872
0.019232998 0.008727042 0.00085762935 0.004639188 0.013618681 -0.015829563 -0.001573531 0.025706097
0.002126079 -0.027838662 0.026043044 -0.023301458 -0.014020737 -0.0014455877 0.0033443682 0.010312634
-0.008575836 -0.010463279 -0.027397588 0.022795001 0.017656095 0.0026275315 -0.010123482 -0.0038373442
-0.00030096434 0.005106099 0.016753497 0.0007450953 0.028375084 -0.02632561 -0.010764478 -0.00975165
0.0061316006 0.01954393 0.014886795 0.002751716 -0.005339656 -0.016124524 0.011622148 -0.009811506
-0.00050825835 0.008024465 0.021241117 -0.025224216 -0.02154075 0.025700651 0.007848158 0.0010202592
0.0045104483 0.0053296294 0.0019603837 -0.022266285 0.026274262 -0.010556101 0.019299438 0.015318828
0.021487653 0.0051280637 -0.008750316 -0.018596118 0.042179096 -0.0378334 0.012235884 0.029143725
-0.018763589 0.03714881 -0.031747002 0.001358347 0.003485423 -0.0062609743 -0.013268199 0.03405787
-0.013317671 -0.0030091656 -0.01794981 -0.0039338395 0.030095505 -0.023455055 -0.015521277 -0.0019016517
00000000: 88e9 91ba e8c4 65bc 5609 dcbc 9d4b 023d
00000010: 4ac0 c1bc 9703 20bc 8fd4 213c 1b9c 23bb
00000020: 858e 9d3c defb 0e3c 88d2 603a 5404 983b
00000030: e320 5f3c 00ad 81bc f03e ceba 9895 d23c
00000040: b055 0b3b e80d e4bc 3958 d53c b3e2 bebc
00000050: 3cb7 65bc e079 bdba 302d 5b3b 52f6 283c
00000060: aa81 0cbc 2c6e 2bbc e870 e0bc 95bc ba3c
00000070: 84a3 903c aa32 2c3b f6dc 25bc f47b 7bbb
00000080: c0ca 9db9 1051 a73b a13e 893c 8052 433a
00000090: dd72 e83c cea8 d7bc 7e5d 30bc 62c5 1fbc
000000a0: 98eb c83b 981a a03c bee7 733c 2256 343b
000000b0: 48f8 aebb 9417 84bc d26a 3e3c 70c0 20bc
000000c0: a43c 05ba 0c79 033c da01 ae3c 04a3 cebc
000000d0: 3a76 b0bc 2c8a d23c 8f95 003c 38ba 853a
000000e0: 62cc 933b 2ca4 ae3b c879 003b c967 b6bc
000000f0: 1f3d d73c 7ff3 2cbc db19 9e3c d2fb 7a3c
00000100: e006 b03c 5109 a83b 7c5d 0fbc e356 98bc
00000110: fdc3 2c3d 32f7 1abd 0479 483c d2be ee3c
00000120: 19b6 99bc 5a29 183d 2509 02bd 900a b23a
00000130: b26b 643b dc28 cdbb dc62 59bc 4480 0b3d
00000140: 5c32 5abc 6c35 45bb 7b0b 93bc 70e7 80bb
00000150: d98a f63c d124 c0bc f44c 7ebc d840 f9ba

act_fun.1.mask f4 [8, 1]
1.0 1.0 1.0 1.0 1.0 1.0 1.0 1.0
00000000: 0000 803f 0000 803f 0000 803f 0000 803f
00000010: 0000 803f 0000 803f 0000 803f 0000 803f

act_fun.1.scale_base f4 [8, 1]
0.34811252 -0.07531612 -0.14546429 0.086187065 -0.24724855 0.23238365 8.17823e-06 -0.280538
00000000: ce3b b23e 573f 9abd 97f4 14be d882 b03d
00000010: b92e 7dbe fbf5 6d3e 3b35 0937 ada2 8fbe

act_fun.1.scale_sp f4 [8, 1]
0.35355338 0.35355338 0.35355338 0.35355338 0.35355338 0.35355338 0.35355338 0.35355338
00000000: f304 b53e f304 b53e f304 b53e f304 b53e
00000010: f304 b53e f304 b53e f304 b53e f304 b53e

symbolic_fun.0.mask f4 [8, 2]
0.0 0.0 0.0 0.0 0.0 0.0 0.0 0.0
0.0 0.0 0.0 0.0 0.0 0.0 0.0 0.0
00000000: 0000 0000 0000 0000 0000 0000 0000 0000
00000010: 0000 0000 0000 0000 0000 0000 0000 0000
00000020: 0000 0000 0000 0000 0000 0000 0000 0000
00000030: 0000 0000 0000 0000 0000 0000 0000 0000

symbolic_fun.0.affine f4 [8, 2, 4]
0.0 0.0 0.0 0.0 0.0 0.0 0.0 0.0
0.0 0.0 0.0 0.0 0.0 0.0 0.0 0.0
0.0 0.0 0.0 0.0 0.0 0.0 0.0 0.0
0.0 0.0 0.0 0.0 0.0 0.0 0.0 0.0
0.0 0.0 0.0 0.0 0.0 0.0 0.0 0.0
0.0 0.0 0.0 0.0 0.0 0.0 0.0 0.0
0.0 0.0 0.0 0.0 0.0 0.0 0.0 0.0
0.0 0.0 0.0 0.0 0.0 0.0 0.0 0.0
00000000: 0000 0000 0000 0000 0000 0000 0000 0000
00000010: 0000 0000 0000 0000 0000 0000 0000 0000
00000020: 0000 0000 0000 0000 0000 0000 0000 0000
00000030: 0000 0000 0000 0000 0000 0000 0000 0000
00000040: 0000 0000 0000 0000 0000 0000 0000 0000
00000050: 0000 0000 0000 0000 0000 0000 0000 0000
00000060: 0000 0000 0000 0000 0000 0000 0000 0000
00000070: 0000 0000 0000 0000 0000 0000 0000 0000
00000080: 0000 0000 0000 0000 0000 0000 0000 0000
00000090: 0000 0000 0000 0000 0000 0000 0000 0000
000000a0: 0000 0000 0000 0000 0000 0000 0000 0000
000000b0: 0000 0000 0000 0000 0000 0000 0000 0000
000000c0: 0000 0000 0000 0000 0000 0000 0000 0000
000000d0: 0000 0000 0000 0000 0000 0000 0000 0000
000000e0: 0000 0000 0000 0000 0000 0000 0000 0000
000000f0: 0000 0000 0000 0000 0000 0000 0000 0000

symbolic_fun.1.mask f4 [1, 8]
0.0 0.0 0.0 0.0 0.0 0.0 0.0 0.0
00000000: 0000 0000 0000 0000 0000 0000 0000 0000
00000010: 0000 0000 0000 0000 0000 0000 0000 0000

symbolic_fun.1.affine f4 [1, 8, 4]
0.0 0.0 0.0 0.0 0.0 0.0 0.0 0.0
0.0 0.0 0.0 0.0 0.0 0.0 0.0 0.0
0.0 0.0 0.0 0.0 0.0 0.0 0.0 0.0
0.0 0.0 0.0 0.0 0.0 0.0 0.0 0.0
00000000: 0000 0000 0000 0000 0000 0000 0000 0000
00000010: 0000 0000 0000 0000 0000 0000 0000 0000
00000020: 0000 0000 0000 0000 0000 0000 0000 0000
00000030: 0000 0000 0000 0000 0000 0000 0000 0000
00000040: 0000 0000 0000 0000 0000 0000 0000 0000
00000050: 0000 0000 0000 0000 0000 0000 0000 0000
00000060: 0000 0000 0000 0000 0000 0000 0000 0000
00000070: 0000 0000 0000 0000 0000 0000 0000 0000
