models_cerebelo/kan_model_granule_lif.pt (torch, 54306 bytes, 29 tensors)

node_bias_0 f4 [32]
000000 00 00 00 00 00 00 00 00 00 00 00 00 00 00 00 00
       0.0 0.0 0.0 0.0
000010 00 00 00 00 00 00 00 00 00 00 00 00 00 00 00 00
       0.0 0.0 0.0 0.0
000020 00 00 00 00 00 00 00 00 00 00 00 00 00 00 00 00
       0.0 0.0 0.0 0.0
000030 00 00 00 00 00 00 00 00 00 00 00 00 00 00 00 00
       0.0 0.0 0.0 0.0
000040 00 00 00 00 00 00 00 00 00 00 00 00 00 00 00 00
       0.0 0.0 0.0 0.0
000050 00 00 00 00 00 00 00 00 00 00 00 00 00 00 00 00
       0.0 0.0 0.0 0.0
000060 00 00 00 00 00 00 00 00 00 00 00 00 00 00 00 00
       0.0 0.0 0.0 0.0
000070 00 00 00 00 00 00 00 00 00 00 00 00 00 00 00 00
       0.0 0.0 0.0 0.0

node_scale_0 f4 [32]
000000 00 00 80 3f 00 00 80 3f 00 00 80 3f 00 00 80 3f
       1.0 1.0 1.0 1.0
000010 00 00 80 3f 00 00 80 3f 00 00 80 3f 00 00 80 3f
       1.0 1.0 1.0 1.0
000020 00 00 80 3f 00 00 80 3f 00 00 80 3f 00 00 80 3f
       1.0 1.0 1.0 1.0
000030 00 00 80 3f 00 00 80 3f 00 00 80 3f 00 00 80 3f
       1.0 1.0 1.0 1.0
000040 00 00 80 3f 00 00 80 3f 00 00 80 3f 00 00 80 3f
       1.0 1.0 1.0 1.0
000050 00 00 80 3f 00 00 80 3f 00 00 80 3f 00 00 80 3f
       1.0 1.0 1.0 1.0
000060 00 00 80 3f 00 00 80 3f 00 00 80 3f 00 00 80 3f
       1.0 1.0 1.0 1.0
000070 00 00 80 3f 00 00 80 3f 00 00 80 3f 00 00 80 3f
       1.0 1.0 1.0 1.0

subnode_bias_0 f4 [32]
000000 00 00 00 00 00 00 00 00 00 00 00 00 00 00 00 00
       0.0 0.0 0.0 0.0
000010 00 00 00 00 00 00 00 00 00 00 00 00 00 00 00 00
       0.0 0.0 0.0 0.0
000020 00 00 00 00 00 00 00 00 00 00 00 00 00 00 00 00
       0.0 0.0 0.0 0.0
000030 00 00 00 00 00 00 00 00 00 00 00 00 00 00 00 00
       0.0 0.0 0.0 0.0
000040 00 00 00 00 00 00 00 00 00 00 00 00 00 00 00 00
       0.0 0.0 0.0 0.0
000050 00 00 00 00 00 00 00 00 00 00 00 00 00 00 00 00
       0.0 0.0 0.0 0.0
000060 00 00 00 00 00 00 00 00 00 00 00 00 00 00 00 00
       0.0 0.0 0.0 0.0
000070 00 00 00 00 00 00 00 00 00 00 00 00 00 00 00 00
       0.0 0.0 0.0 0.0

subnode_scale_0 f4 [32]
000000 00 00 80 3f 00 00 80 3f 00 00 80 3f 00 00 80 3f
       1.0 1.0 1.0 1.0
000010 00 00 80 3f 00 00 80 3f 00 00 80 3f 00 00 80 3f
       1.0 1.0 1.0 1.0
000020 00 00 80 3f 00 00 80 3f 00 00 80 3f 00 00 80 3f
       1.0 1.0 1.0 1.0
000030 00 00 80 3f 00 00 80 3f 00 00 80 3f 00 00 80 3f
       1.0 1.0 1.0 1.0
000040 00 00 80 3f 00 00 80 3f 00 00 80 3f 00 00 80 3f
       1.0 1.0 1.0 1.0
000050 00 00 80 3f 00 00 80 3f 00 00 80 3f 00 00 80 3f
       1.0 1.0 1.0 1.0
000060 00 00 80 3f 00 00 80 3f 00 00 80 3f 00 00 80 3f
       1.0 1.0 1.0 1.0
000070 00 00 80 3f 00 00 80 3f 00 00 80 3f 00 00 80 3f
       1.0 1.0 1.0 1.0

node_bias_1 f4 [16]
000000 00 00 00 00 00 00 00 00 00 00 00 00 00 00 00 00
       0.0 0.0 0.0 0.0
000010 00 00 00 00 00 00 00 00 00 00 00 00 00 00 00 00
       0.0 0.0 0.0 0.0
000020 00 00 00 00 00 00 00 00 00 00 00 00 00 00 00 00
       0.0 0.0 0.0 0.0
000030 00 00 00 00 00 00 00 00 00 00 00 00 00 00 00 00
       0.0 0.0 0.0 0.0

node_scale_1 f4 [16]
000000 00 00 80 3f 00 00 80 3f 00 00 80 3f 00 00 80 3f
       1.0 1.0 1.0 1.0
000010 00 00 80 3f 00 00 80 3f 00 00 80 3f 00 00 80 3f
       1.0 1.0 1.0 1.0
000020 00 00 80 3f 00 00 80 3f 00 00 80 3f 00 00 80 3f
       1.0 1.0 1.0 1.0
000030 00 00 80 3f 00 00 80 3f 00 00 80 3f 00 00 80 3f
       1.0 1.0 1.0 1.0

subnode_bias_1 f4 [16]
000000 00 00 00 00 00 00 00 00 00 00 00 00 00 00 00 00
       0.0 0.0 0.0 0.0
000010 00 00 00 00 00 00 00 00 00 00 00 00 00 00 00 00
       0.0 0.0 0.0 0.0
000020 00 00 00 00 00 00 00 00 00 00 00 00 00 00 00 00
       0.0 0.0 0.0 0.0
000030 00 00 00 00 00 00 00 00 00 00 00 00 00 00 00 00
       0.0 0.0 0.0 0.0

subnode_scale_1 f4 [16]
000000 00 00 80 3f 00 00 80 3f 00 00 80 3f 00 00 80 3f
       1.0 1.0 1.0 1.0
000010 00 00 80 3f 00 00 80 3f 00 00 80 3f 00 00 80 3f
       1.0 1.0 1.0 1.0
000020 00 00 80 3f 00 00 80 3f 00 00 80 3f 00 00 80 3f
       1.0 1.0 1.0 1.0
000030 00 00 80 3f 00 00 80 3f 00 00 80 3f 00 00 80 3f
       1.0 1.0 1.0 1.0

act_fun.0.grid f4 [3, 12]
000000 cd cc 0c c0 66 66 e6 bf 33 33 b3 bf 00 00 80 bf
       -2.2 -1.8 -1.4 -1.0
000010 9a 99 19 bf cc cc 4c be cc cc 4c 3e 9a 99 19 3f
       -0.6 -0.19999999 0.19999999 0.6
000020 00 00 80 3f 33 33 b3 3f 66 66 e6 3f cd cc 0c 40
       1.0 1.4 1.8 2.2
000030 cd cc 0c c0 66 66 e6 bf 33 33 b3 bf 00 00 80 bf
       -2.2 -1.8 -1.4 -1.0
000040 9a 99 19 bf cc cc 4c be cc cc 4c 3e 9a 99 19 3f
       -0.6 -0.19999999 0.19999999 0.6
000050 00 00 80 3f 33 33 b3 3f 66 66 e6 3f cd cc 0c 40
       1.0 1.4 1.8 2.2
000060 cd cc 0c c0 66 66 e6 bf 33 33 b3 bf 00 00 80 bf
       -2.2 -1.8 -1.4 -1.0
000070 9a 99 19 bf cc cc 4c be cc cc 4c 3e 9a 99 19 3f
       -0.6 -0.19999999 0.19999999 0.6
000080 00 00 80 3f 33 33 b3 3f 66 66 e6 3f cd cc 0c 40
       1.0 1.4 1.8 2.2

act_fun.0.coef f4 [3, 32, 8]
000000 0a 65 f5 bd 97 7c c9 bd 6d 3d ad bd af 44 0f 3e
       -0.11982162 -0.09838217 -0.08458982 0.13991044
000010 d4 d6 24 3e e4 79 d0 3d fa de 0f 3e 5a 33 f2 3d
       0.16097575 0.10179499 0.14049903 0.11826201
000020 56 73 96 bd 9d ae 39 bd 08 7e fe bd 55 1d 18 3e
       -0.07346217 -0.04533254 -0.12426382 0.1485494
000030 91 76 4b 3d 38 11 0b 3e 7a 0f 3b 3d 8b 47 48 3d
       0.04967362 0.13580787 0.045669056 0.048896354
000040 27 43 c7 bd 5d 72 ce bd 5c ec 2d bd b0 be ed 3d
       -0.09729605 -0.10080407 -0.042461738 0.116086364
000050 16 c1 ef 3d 1c df 9a 3d c4 fb b7 3d 60 ed ba 3d
       0.1170675 0.07562086 0.08983567 0.09127307
000060 6d d3 12 3e 91 6b 34 3e b5 7b 7d 3d ba f7 f7 bd
       0.14338465 0.17619158 0.061885554 -0.12107797
000070 35 a1 0e be a1 56 07 be cc e7 d7 bd f0 c1 d8 bd
       -0.13928683 -0.1321664 -0.105422586 -0.10583866
000080 ef ad d1 bd 97 0c da bd ec 41 e3 bd d3 9c 0a 3e
       -0.10238253 -0.106469326 -0.11096558 0.13536386
000090 f3 c9 51 3d 22 11 1c 3e c2 3a 7c 3d 2d b2 8e 3d
       0.051217984 0.1524091 0.061579473 0.06967578
0000a0 86 6d 03 3e d7 21 08 3e 5a 47 05 3e e1 22 fd bd
       0.12834749 0.13294159 0.130155 -0.12360168
0000b0 36 61 31 be a7 bd e0 bd 2b 90 15 be 6f fd f2 bd
       -0.1732224 -0.10973673 -0.14605777 -0.11864745
0000c0 a5 86 04 be 5c fe 12 be 40 d2 f3 bd d6 d6 0a 3e
       -0.12941988 -0.14354843 -0.119053364 0.13558516
0000d0 fe 1d 12 3e 63 f2 c3 3d 42 56 10 3e fb 45 f1 3d
       0.14269254 0.09567716 0.14095405 0.11780926
0000e0 c1 b4 90 bd 7e 8d 45 bd 6a c9 d7 bd ce 3d fb 3d
       -0.07065726 -0.04823064 -0.105364636 0.12267648
0000f0 f1 7e 4f 3d 53 57 64 3d 3d 06 00 3d 5d ff 59 3b
       0.05065817 0.05574734 0.03125595 0.003326378
000100 4e 57 e5 bd f2 e1 aa bd 1f 0a e4 bd dd 88 bd 3d
       -0.11198293 -0.08343877 -0.11134743 0.0925462
000110 2b e0 be 3d cc df 16 3e cc 6d 1a 3e c0 fb f7 3d
       0.093201004 0.14733809 0.15080947 0.121085644
000120 39 b5 87 3d 4d 8a 38 3d 1a fb 55 3c 30 00 d9 bd
       0.06626362 0.04505377 0.013060356 -0.10595739
000130 26 b8 b3 bd 25 8f 70 bd a6 81 ac bc ef 71 ee bc
       -0.08775358 -0.058730263 -0.021057915 -0.029107062
000140 3b 79 14 3e 93 b2 33 3e 6e c3 56 3d a5 69 8a bd
       0.14499371 0.1754859 0.05243247 -0.06758431
000150 89 0d 24 be a7 17 c4 bd db da d9 bd bc ba de bd
       -0.16020788 -0.09574824 -0.106374465 -0.108754605
000160 da 4b ee bd e1 63 dc bd 28 3a 1d be 44 92 22 3e
       -0.11635561 -0.10761238 -0.15354216 0.15876108
000170 d4 c1 d9 3d 6c 5b b9 3d a4 c6 0a 3e 9d be ed 3d
       0.10632673 0.090506405 0.13552338 0.11608622
000180 2e 06 0c 3e 99 a2 27 3e c1 26 88 3d fb 41 e5 bd
       0.13674232 0.1637062 0.06648017 -0.111942254
000190 df 9f d3 bd 85 c0 19 be d7 82 ac bd be a5 ac bd
       -0.10333227 -0.15014847 -0.08423393 -0.0843005
0001a0 c3 70 d7 bd 24 9f c7 bd 4d 4a f4 bd a2 ce c2 3d
       -0.105195545 -0.097471505 -0.11928234 0.09512068
0001b0 0b f7 d2 3d a7 2b e7 3d ef 11 d8 3d 68 d0 d3 3d
       0.10301026 0.11287623 0.105502956 0.10342485
0001c0 24 2f 01 3e 06 4b 0c 3e 53 45 36 3e 19 01 2c be
       0.12615639 0.13700494 0.17799883 -0.16797294
0001d0 37 58 08 be f2 4c cd bd 7a c4 fa bd 32 d2 e1 bd
       -0.13314901 -0.10024442 -0.12244506 -0.1102642
0001e0 e6 9e f4 bd 74 59 fe bd 61 ef a1 bd de 6d a7 3d
       -0.1194437 -0.124194056 -0.07906986 0.081752524
0001f0 9d 3b e8 3d 0e 15 b1 3d 45 e5 dc 3d 02 bd c3 3d
       0.11339495 0.08646594 0.10785917 0.09557535
000200 2d 31 05 3e d0 0e 1c 3e d3 94 fc 3d 7b c3 06 be
       0.1300704 0.15240026 0.123330735 -0.13160507
000210 7e 8b 19 be e6 bb 01 be 4c 7f be bd b3 6a c5 bd
       -0.14994618 -0.12669334 -0.09301624 -0.09639492
000220 d7 ba f2 3d c1 30 02 3e 4d 40 5d 3d 2c 3e b7 bd
       0.11852043 0.1271391 0.0540164 -0.08947405
000230 c7 99 9e bd fb 0e b1 bd ce 9f 82 bd f9 e9 a8 bd
       -0.077441745 -0.086454354 -0.063781366 -0.08247752
000240 d4 e2 ff 3d bd 5e e5 3d ea a0 a3 3d c3 33 aa bd
       0.12494436 0.111997105 0.07989676 -0.08310654
000250 84 84 1f be 37 b2 ca bd 0d 14 fd bd 8a 5e d8 bd
       -0.15577894 -0.09897273 -0.1235734 -0.10564907
000260 86 bc 0c 3e f1 e8 15 3e 73 bc cd 3d 80 25 db bd
       0.13743791 0.14639641 0.100457095 -0.10700512
000270 50 f2 fd bd a4 63 ee bd 12 75 0d be 56 9b f0 bd
       -0.12399733 -0.11640099 -0.1381419 -0.11748378
000280 b4 b9 f0 3d d6 87 d0 3d 3f 8a 16 3e 28 80 35 be
       0.1175417 0.10182159 0.14701174 -0.17724669
000290 54 c7 00 be a9 02 fe bd 2d ae f6 bd e1 aa c8 bd
       -0.12576038 -0.12402851 -0.1204494 -0.097982176
0002a0 28 4c f6 3d 62 82 f4 3d 54 2c 5b 3d 7e bb 18 be
       0.120262444 0.11938931 0.05350907 -0.14915273
0002b0 fe e4 cc bd 26 b1 1d be 8c c7 dd bd 32 a5 a2 bd
       -0.10004614 -0.15399608 -0.10829076 -0.07941665
0002c0 d4 c7 01 be 5b e8 0b be 0d f8 f7 bd 1a 5f e0 3d
       -0.12673885 -0.13662855 -0.12107859 0.10955639
0002d0 ba ad 3e 3e 30 16 5c 3d 2f bf 0a 3e 75 69 f6 3d
       0.18620959 0.053732097 0.13549493 0.12031833
0002e0 be ff 11 3e f4 fb 29 3e 3d e9 98 3d 4e 57 a4 bd
       0.14257714 0.16600019 0.07466362 -0.080244645
0002f0 71 95 de bd db f7 1e be 53 ef 9c bd 51 08 c3 bd
       -0.108683474 -0.15524237 -0.07662835 -0.095230706
000300 39 50 98 bd a2 da c6 bd 1c 40 80 3c 19 21 ec 3d
       -0.07437176 -0.0970967 0.01565557 0.115297504
000310 8b 01 3b 3d 1f 1c 4f 3d 73 61 df 3d 52 e1 9d 3d
       0.04565577 0.050563928 0.10907259 0.07708992
000320 e6 e4 d2 bd 88 fb eb bd 38 bd ce bd 40 94 b9 3d
       -0.10297565 -0.11522585 -0.10094684 0.090614796
000330 41 46 fc 3d ef c7 dc 3d 89 fb fb 3d cb 2a d4 3d
       0.12318087 0.10780322 0.12303836 0.103597246
000340 53 ef d3 3d 57 b9 c0 3d 08 5b 94 3d 81 2a e4 bd
       0.10348382 0.09410351 0.07243925 -0.111409195
000350 49 60 89 bd 2e 6d f4 bd c9 0e c4 bd 70 f9 51 3d
       -0.06707818 -0.11934887 -0.095731325 0.051263273
000360 6c f0 e9 3d fa de c7 3d 5f f0 bd 3d cb 19 0b be
       0.1142281 0.09759326 0.09274363 -0.13584058
000370 8e 37 b9 bd 7e b1 ed bd 59 c4 cd bd 53 94 08 3c
       -0.09043799 -0.116061196 -0.10047216 0.0083361445
000380 2d 36 05 3e a6 02 0b 3e e5 8c c6 3d 28 0e 25 be
       0.13008948 0.13575229 0.09694842 -0.16118681
000390 bc 6a c7 bd 38 5f a3 bd a8 4a 0c be 76 31 fa bd
       -0.09737155 -0.07977146 -0.13700354 -0.12216465
0003a0 6f 4a ca 3d 5d c0 8f 3d c6 db 9b 3d 40 13 ae bd
       0.09877478 0.07019112 0.07610278 -0.084997654
0003b0 db 60 98 bd 8a 96 b4 bd b8 f7 cb bd dc 94 8c bd
       -0.07440349 -0.088177755 -0.09959358 -0.0686433
0003c0 e0 0e 0f 3e 5e 64 2d 3e fd 13 cb 3d 3a 07 12 be
       0.13970518 0.16932818 0.09915922 -0.14260569
0003d0 25 c4 0b be 0f bd a7 bd 5a f5 fc bd 4f d5 ec bd
       -0.13649042 -0.08190357 -0.123514846 -0.11564123
0003e0 e5 8d ed 3d 0e d2 bb 3d 0c 8f b7 3d a2 17 09 be
       0.1159933 0.09170924 0.08962831 -0.13387921
0003f0 c9 d1 d7 bd 34 74 06 be b7 e6 15 be 8f c1 e4 bd
       -0.1053806 -0.13130265 -0.14638792 -0.11169731

act_fun.0.mask f4 [3, 32]
000000 00 00 80 3f 00 00 80 3f 00 00 80 3f 00 00 80 3f
       1.0 1.0 1.0 1.0
000010 00 00 80 3f 00 00 80 3f 00 00 80 3f 00 00 80 3f
       1.0 1.0 1.0 1.0
000020 00 00 80 3f 00 00 80 3f 00 00 80 3f 00 00 80 3f
       1.0 1.0 1.0 1.0
000030 00 00 80 3f 00 00 80 3f 00 00 80 3f 00 00 80 3f
       1.0 1.0 1.0 1.0
000040 00 00 80 3f 00 00 80 3f 00 00 80 3f 00 00 80 3f
       1.0 1.0 1.0 1.0
000050 00 00 80 3f 00 00 80 3f 00 00 80 3f 00 00 80 3f
       1.0 1.0 1.0 1.0
000060 00 00 80 3f 00 00 80 3f 00 00 80 3f 00 00 80 3f
       1.0 1.0 1.0 1.0
000070 00 00 80 3f 00 00 80 3f 00 00 80 3f 00 00 80 3f
       1.0 1.0 1.0 1.0
000080 00 00 80 3f 00 00 80 3f 00 00 80 3f 00 00 80 3f
       1.0 1.0 1.0 1.0
000090 00 00 80 3f 00 00 80 3f 00 00 80 3f 00 00 80 3f
       1.0 1.0 1.0 1.0
0000a0 00 00 80 3f 00 00 80 3f 00 00 80 3f 00 00 80 3f
       1.0 1.0 1.0 1.0
0000b0 00 00 80 3f 00 00 80 3f 00 00 80 3f 00 00 80 3f
       1.0 1.0 1.0 1.0
0000c0 00 00 80 3f 00 00 80 3f 00 00 80 3f 00 00 80 3f
       1.0 1.0 1.0 1.0
0000d0 00 00 80 3f 00 00 80 3f 00 00 80 3f 00 00 80 3f
       1.0 1.0 1.0 1.0
0000e0 00 00 80 3f 00 00 80 3f 00 00 80 3f 00 00 80 3f
       1.0 1.0 1.0 1.0
0000f0 00 00 80 3f 00 00 80 3f 00 00 80 3f 00 00 80 3f
       1.0 1.0 1.0 1.0
000100 00 00 80 3f 00 00 80 3f 00 00 80 3f 00 00 80 3f
       1.0 1.0 1.0 1.0
000110 00 00 80 3f 00 00 80 3f 00 00 80 3f 00 00 80 3f
       1.0 1.0 1.0 1.0
000120 00 00 80 3f 00 00 80 3f 00 00 80 3f 00 00 80 3f
       1.0 1.0 1.0 1.0
000130 00 00 80 3f 00 00 80 3f 00 00 80 3f 00 00 80 3f
       1.0 1.0 1.0 1.0
000140 00 00 80 3f 00 00 80 3f 00 00 80 3f 00 00 80 3f
       1.0 1.0 1.0 1.0
000150 00 00 80 3f 00 00 80 3f 00 00 80 3f 00 00 80 3f
       1.0 1.0 1.0 1.0
000160 00 00 80 3f 00 00 80 3f 00 00 80 3f 00 00 80 3f
       1.0 1.0 1.0 1.0
000170 00 00 80 3f 00 00 80 3f 00 00 80 3f 00 00 80 3f
       1.0 1.0 1.0 1.0

act_fun.0.scale_base f4 [3, 32]
000000 e1 31 57 bd 95 16 c1 3e 0d dc 3f be 04 b6 c7 be
       -0.052537803 0.3771254 -0.18736286 -0.39006054
000010 e9 21 e5 3e d9 a6 1e bf 63 b2 3d 3e cc f4 0a 3f
       0.44752434 -0.6197334 0.1852508 0.5427978
000020 52 23 5b 3e f0 11 de 3d c2 03 e8 be 86 9f da 3d
       0.21400192 0.10843265 -0.45315367 0.10674958
000030 c5 32 9b bd 1c 1d 81 3e 19 cb da 3d de 9e 19 3f
       -0.07578043 0.2521752 0.10683269 0.6000804
000040 46 d0 0f bf be 89 a5 bd cf c9 cd be 92 5f 14 bf
       -0.56177175 -0.08082913 -0.4019303 -0.5795833
000050 17 88 29 be 23 52 1c bf f8 57 04 3f 48 e7 51 bd
       -0.1655582 -0.6106283 0.5169673 -0.051245958
000060 e6 48 75 be 63 76 cd 3e f2 ee 1f bf 40 dc a5 be
       -0.2395359 0.40129384 -0.62473977 -0.323946
000070 61 b5 6f be 15 ab 17 bf 14 da f9 be f0 f9 52 be
       -0.23409034 -0.59245425 -0.48799193 -0.20603156
000080 f6 e5 0e 3f 6a ef 22 3f d4 43 f5 3e da e2 ed be
       0.5581964 0.63646567 0.4790331 -0.46462137
000090 61 a5 8d be 2e c4 c2 3e d3 14 a6 3e 4c 96 a3 3d
       -0.27665237 0.38040298 0.32437763 0.07987651
0000a0 9f e8 4a 3e 77 34 08 bf e6 c8 a0 be a9 94 2c 3f
       0.198153 -0.53205055 -0.31403273 0.6741434
0000b0 79 cc 82 be 2b fa a9 3d 86 63 19 bf 39 37 5c be
       -0.25546625 0.08299669 -0.59917486 -0.21505441
0000c0 d3 10 0e be 64 3b ec be 73 90 44 be 2b 81 db 3d
       -0.13873605 -0.4613906 -0.19195728 0.10717996
0000d0 93 b9 2f bf 50 31 6b 3d d3 c4 85 be 16 d2 ce be
       -0.6864254 0.057420075 -0.26126727 -0.40394658
0000e0 b6 26 9d 3e 89 cf 0f 3f cd 93 84 be 1b e6 b0 be
       0.30693597 0.5617605 -0.25894013 -0.34550557
0000f0 82 ba 24 bf 55 a1 ce be 8c 95 20 bf 4f 00 80 be
       -0.6434709 -0.40357462 -0.6272819 -0.25000235
000100 47 8d 31 3e 8a 79 d8 be ab e8 21 3f a4 37 89 3e
       0.1733905 -0.42280227 0.6324565 0.26800263
000110 8c 78 f3 be 62 c4 2d be 76 15 6f 3e 7c f6 b3 39
       -0.47552907 -0.16969445 0.2334803 0.00034325186
000120 c0 eb 45 3b 30 76 8b be e1 8b ca 3e 24 19 5c be
       0.0030200332 -0.27238607 0.39559844 -0.21493965
000130 60 92 eb 3e 32 6c 25 3e 5d 1a 69 3d 10 0e d2 3e
       0.46010113 0.16154554 0.056909908 0.41026354
000140 94 3e 8d bd db d3 5c be f4 60 e3 bc 27 34 cd 3e
       -0.068967015 -0.21565191 -0.027756192 0.40078852
000150 0d 19 9c be 75 bb 84 3d f7 e3 12 bf 10 90 64 3e
       -0.30487862 0.06481067 -0.57379097 0.2232058
000160 03 13 96 3e 23 f5 01 3e cd f7 f3 3d cc 6c f0 bb
       0.2931138 0.12691168 0.119124986 -0.0073371883
000170 e8 da 6c 3e d2 9c ae be 96 02 81 bc c2 f7 3a 3e
       0.23130381 -0.3410402 -0.015748303 0.18258575

act_fun.0.scale_sp f4 [3, 32]
000000 e3 24 2e 3f 03 a6 27 3f 3e b3 2e 3f 59 a5 35 3f
       0.68025035 0.6548769 0.6824225 0.70955426
000010 ea 79 30 3f 24 d2 35 3f 00 42 35 3f ef 8a 26 3f
       0.68936026 0.71023774 0.70803833 0.65055746
000020 d1 cb 2b 3f c7 b6 1e 3f c9 35 31 3f dc 66 35 3f
       0.67107874 0.61997646 0.69222695 0.70860076
000030 e2 71 30 3f 9d 52 2d 3f 3b aa 35 3f 8f cc 2b 3f
       0.6892377 0.6770418 0.70962876 0.67109007
000040 6c 79 33 3f a2 96 24 3f c7 af 2a 3f 0f 1a 34 3f
       0.7010715 0.6429235 0.66674465 0.7035226
000050 f3 8e 35 3f 69 1e 2e 3f d0 da 34 3f ea 26 30 3f
       0.7092125 0.6801515 0.7064638 0.6880938
000060 ce 50 27 3f 8e 43 2e 3f fa 0c 27 3f f1 cc 27 3f
       0.65357673 0.6807183 0.65254176 0.6554709
000070 f9 88 30 3f 35 e7 1d 3f 3d e7 35 3f 9b 01 2c 3f
       0.68959004 0.6168092 0.71055967 0.6718995
000080 a4 bd 32 3f 32 8e 21 3f e3 e9 24 3f 51 d2 34 3f
       0.6982062 0.631076 0.6441938 0.7063342
000090 8e 79 30 3f 91 d7 35 3f 86 b3 33 3f 9c ea 24 3f
       0.6893548 0.71032053 0.70195806 0.64420485
0000a0 7c 15 34 3f 4b 30 1b 3f 60 35 35 3f 98 d0 2a 3f
       0.7034528 0.60620564 0.7078457 0.6672454
0000b0 07 e8 35 3f 41 fa 30 3f f6 c1 30 3f f5 b8 34 3f
       0.7105717 0.6913186 0.6904596 0.7059472
0000c0 b1 1c 36 3f c5 cd 29 3f 40 b5 35 3f f2 dc 2f 3f
       0.7113753 0.66329604 0.7097969 0.6869651
0000d0 e2 38 35 3f 55 bf 2b 3f d2 0d 35 3f 5b 2b 30 3f
       0.7078992 0.67088825 0.70724213 0.68816155
0000e0 76 8e 26 3f b2 7c 30 3f db d9 2f 3f 45 f3 22 3f
       0.6506113 0.6894027 0.68691796 0.6365245
0000f0 0b 0c 2e 3f f3 71 2e 3f 74 89 35 3f 21 fa 2a 3f
       0.67987126 0.6814262 0.7091286 0.66787916
000100 e9 d4 2d 3f 8d ee 32 3f e9 63 32 3f e5 08 36 3f
       0.67903 0.6989525 0.696837 0.7110732
000110 26 71 2c 3f f8 5e 33 3f f5 3b 35 3f 4d a1 2d 3f
       0.6736015 0.70066786 0.7079461 0.6782425
000120 78 9c 35 3f dc a0 20 3f ba 2f 2e 3f cc be 2f 3f
       0.7094188 0.6274545 0.68041575 0.6865051
000130 0d 53 35 3f 01 66 33 3f 0f 9e 36 3f e5 7c 34 3f
       0.7082985 0.7007752 0.7133493 0.70503074
000140 41 cc 34 3f 6f bd 31 3f 17 48 35 3f 45 7f 36 3f
       0.70624167 0.6942968 0.70813125 0.7128795
000150 66 73 2d 3f a8 6a 35 3f bf 29 34 3f f1 aa 2e 3f
       0.6775421 0.7086587 0.703762 0.68229586
000160 89 0f 30 3f 06 e0 28 3f 5a 7a 34 3f 11 1f 2a 3f
       0.68773705 0.6596683 0.70499194 0.66453654
000170 26 48 36 3f 6e 89 2b 3f ee e9 35 3f 6f 20 35 3f
       0.7120384 0.67006576 0.71060073 0.70752615

act_fun.1.grid f4 [32, 12]
000000 cd cc 0c c0 66 66 e6 bf 33 33 b3 bf 00 00 80 bf
       -2.2 -1.8 -1.4 -1.0
000010 9a 99 19 bf cc cc 4c be cc cc 4c 3e 9a 99 19 3f
       -0.6 -0.19999999 0.19999999 0.6
000020 00 00 80 3f 33 33 b3 3f 66 66 e6 3f cd cc 0c 40
       1.0 1.4 1.8 2.2
000030 cd cc 0c c0 66 66 e6 bf 33 33 b3 bf 00 00 80 bf
       -2.2 -1.8 -1.4 -1.0
000040 9a 99 19 bf cc cc 4c be cc cc 4c 3e 9a 99 19 3f
       -0.6 -0.19999999 0.19999999 0.6
000050 00 00 80 3f 33 33 b3 3f 66 66 e6 3f cd cc 0c 40
       1.0 1.4 1.8 2.2
000060 cd cc 0c c0 66 66 e6 bf 33 33 b3 bf 00 00 80 bf
       -2.2 -1.8 -1.4 -1.0
000070 9a 99 19 bf cc cc 4c be cc cc 4c 3e 9a 99 19 3f
       -0.6 -0.19999999 0.19999999 0.6
000080 00 00 80 3f 33 33 b3 3f 66 66 e6 3f cd cc 0c 40
       1.0 1.4 1.8 2.2
000090 cd cc 0c c0 66 66 e6 bf 33 33 b3 bf 00 00 80 bf
       -2.2 -1.8 -1.4 -1.0
0000a0 9a 99 19 bf cc cc 4c be cc cc 4c 3e 9a 99 19 3f
       -0.6 -0.19999999 0.19999999 0.6
0000b0 00 00 80 3f 33 33 b3 3f 66 66 e6 3f cd cc 0c 40
       1.0 1.4 1.8 2.2
0000c0 cd cc 0c c0 66 66 e6 bf 33 33 b3 bf 00 00 80 bf
       -2.2 -1.8 -1.4 -1.0
0000d0 9a 99 19 bf cc cc 4c be cc cc 4c 3e 9a 99 19 3f
       -0.6 -0.19999999 0.19999999 0.6
0000e0 00 00 80 3f 33 33 b3 3f 66 66 e6 3f cd cc 0c 40
       1.0 1.4 1.8 2.2
0000f0 cd cc 0c c0 66 66 e6 bf 33 33 b3 bf 00 00 80 bf
       -2.2 -1.8 -1.4 -1.0
000100 9a 99 19 bf cc cc 4c be cc cc 4c 3e 9a 99 19 3f
       -0.6 -0.19999999 0.19999999 0.6
000110 00 00 80 3f 33 33 b3 3f 66 66 e6 3f cd cc 0c 40
       1.0 1.4 1.8 2.2
000120 cd cc 0c c0 66 66 e6 bf 33 33 b3 bf 00 00 80 bf
       -2.2 -1.8 -1.4 -1.0
000130 9a 99 19 bf cc cc 4c be cc cc 4c 3e 9a 99 19 3f
       -0.6 -0.19999999 0.19999999 0.6
000140 00 00 80 3f 33 33 b3 3f 66 66 e6 3f cd cc 0c 40
       1.0 1.4 1.8 2.2
000150 cd cc 0c c0 66 66 e6 bf 33 33 b3 bf 00 00 80 bf
       -2.2 -1.8 -1.4 -1.0
000160 9a 99 19 bf cc cc 4c be cc cc 4c 3e 9a 99 19 3f
       -0.6 -0.19999999 0.19999999 0.6
000170 00 00 80 3f 33 33 b3 3f 66 66 e6 3f cd cc 0c 40
       1.0 1.4 1.8 2.2
000180 cd cc 0c c0 66 66 e6 bf 33 33 b3 bf 00 00 80 bf
       -2.2 -1.8 -1.4 -1.0
000190 9a 99 19 bf cc cc 4c be cc cc 4c 3e 9a 99 19 3f
       -0.6 -0.19999999 0.19999999 0.6
0001a0 00 00 80 3f 33 33 b3 3f 66 66 e6 3f cd cc 0c 40
       1.0 1.4 1.8 2.2
0001b0 cd cc 0c c0 66 66 e6 bf 33 33 b3 bf 00 00 80 bf
       -2.2 -1.8 -1.4 -1.0
0001c0 9a 99 19 bf cc cc 4c be cc cc 4c 3e 9a 99 19 3f
       -0.6 -0.19999999 0.19999999 0.6
0001d0 00 00 80 3f 33 33 b3 3f 66 66 e6 3f cd cc 0c 40
       1.0 1.4 1.8 2.2
0001e0 cd cc 0c c0 66 66 e6 bf 33 33 b3 bf 00 00 80 bf
       -2.2 -1.8 -1.4 -1.0
0001f0 9a 99 19 bf cc cc 4c be cc cc 4c 3e 9a 99 19 3f
       -0.6 -0.19999999 0.19999999 0.6
000200 00 00 80 3f 33 33 b3 3f 66 66 e6 3f cd cc 0c 40
       1.0 1.4 1.8 2.2
000210 cd cc 0c c0 66 66 e6 bf 33 33 b3 bf 00 00 80 bf
       -2.2 -1.8 -1.4 -1.0
000220 9a 99 19 bf cc cc 4c be cc cc 4c 3e 9a 99 19 3f
       -0.6 -0.19999999 0.19999999 0.6
000230 00 00 80 3f 33 33 b3 3f 66 66 e6 3f cd cc 0c 40
       1.0 1.4 1.8 2.2
000240 cd cc 0c c0 66 66 e6 bf 33 33 b3 bf 00 00 80 bf
       -2.2 -1.8 -1.4 -1.0
000250 9a 99 19 bf cc cc 4c be cc cc 4c 3e 9a 99 19 3f
       -0.6 -0.19999999 0.19999999 0.6
000260 00 00 80 3f 33 33 b3 3f 66 66 e6 3f cd cc 0c 40
       1.0 1.4 1.8 2.2
000270 cd cc 0c c0 66 66 e6 bf 33 33 b3 bf 00 00 80 bf
       -2.2 -1.8 -1.4 -1.0
000280 9a 99 19 bf cc cc 4c be cc cc 4c 3e 9a 99 19 3f
       -0.6 -0.19999999 0.19999999 0.6
000290 00 00 80 3f 33 33 b3 3f 66 66 e6 3f cd cc 0c 40
       1.0 1.4 1.8 2.2
0002a0 cd cc 0c c0 66 66 e6 bf 33 33 b3 bf 00 00 80 bf
       -2.2 -1.8 -1.4 -1.0
0002b0 9a 99 19 bf cc cc 4c be cc cc 4c 3e 9a 99 19 3f
       -0.6 -0.19999999 0.19999999 0.6
0002c0 00 00 80 3f 33 33 b3 3f 66 66 e6 3f cd cc 0c 40
       1.0 1.4 1.8 2.2
0002d0 cd cc 0c c0 66 66 e6 bf 33 33 b3 bf 00 00 80 bf
       -2.2 -1.8 -1.4 -1.0
0002e0 9a 99 19 bf cc cc 4c be cc cc 4c 3e 9a 99 19 3f
       -0.6 -0.19999999 0.19999999 0.6
0002f0 00 00 80 3f 33 33 b3 3f 66 66 e6 3f cd cc 0c 40
       1.0 1.4 1.8 2.2
000300 cd cc 0c c0 66 66 e6 bf 33 33 b3 bf 00 00 80 bf
       -2.2 -1.8 -1.4 -1.0
000310 9a 99 19 bf cc cc 4c be cc cc 4c 3e 9a 99 19 3f
       -0.6 -0.19999999 0.19999999 0.6
000320 00 00 80 3f 33 33 b3 3f 66 66 e6 3f cd cc 0c 40
       1.0 1.4 1.8 2.2
000330 cd cc 0c c0 66 66 e6 bf 33 33 b3 bf 00 00 80 bf
       -2.2 -1.8 -1.4 -1.0
000340 9a 99 19 bf cc cc 4c be cc cc 4c 3e 9a 99 19 3f
       -0.6 -0.19999999 0.19999999 0.6
000350 00 00 80 3f 33 33 b3 3f 66 66 e6 3f cd cc 0c 40
       1.0 1.4 1.8 2.2
000360 cd cc 0c c0 66 66 e6 bf 33 33 b3 bf 00 00 80 bf
       -2.2 -1.8 -1.4 -1.0
000370 9a 99 19 bf cc cc 4c be cc cc 4c 3e 9a 99 19 3f
       -0.6 -0.19999999 0.19999999 0.6
000380 00 00 80 3f 33 33 b3 3f 66 66 e6 3f cd cc 0c 40
       1.0 1.4 1.8 2.2
000390 cd cc 0c c0 66 66 e6 bf 33 33 b3 bf 00 00 80 bf
       -2.2 -1.8 -1.4 -1.0
0003a0 9a 99 19 bf cc cc 4c be cc cc 4c 3e 9a 99 19 3f
       -0.6 -0.19999999 0.19999999 0.6
0003b0 00 00 80 3f 33 33 b3 3f 66 66 e6 3f cd cc 0c 40
       1.0 1.4 1.8 2.2
0003c0 cd cc 0c c0 66 66 e6 bf 33 33 b3 bf 00 00 80 bf
       -2.2 -1.8 -1.4 -1.0
0003d0 9a 99 19 bf cc cc 4c be cc cc 4c 3e 9a 99 19 3f
       -0.6 -0.19999999 0.19999999 0.6
0003e0 00 00 80 3f 33 33 b3 3f 66 66 e6 3f cd cc 0c 40
       1.0 1.4 1.8 2.2
0003f0 cd cc 0c c0 66 66 e6 bf 33 33 b3 bf 00 00 80 bf
       -2.2 -1.8 -1.4 -1.0

act_fun.1.coef f4 [32, 16, 8]
000000 bc e5 44 3c 94 3a 93 3d 56 0e ec 3d 25 0c f2 3d
       0.012017664 0.07188907 0.11526172 0.11818723
000010 1c b7 08 3d c0 66 f5 bd ce b1 04 be 1b 71 65 bd
       0.03337775 -0.11982489 -0.12958452 -0.05601607
000020 d0 be 30 3c 44 cd 58 3d d3 d4 8b bd 47 1e 96 bd
       0.010787681 0.05293013 -0.068277024 -0.07329994
000030 90 88 d0 3d 8d eb 29 3e f4 3f 21 3e 10 24 89 3d
       0.10182297 0.16593762 0.15747052 0.066963315
000040 64 13 1b bc 33 bf 22 bc 57 ca 0a bd aa b2 b2 bd
       -0.009465072 -0.009933281 -0.033884373 -0.08725484
000050 9e 3b d9 3d 02 be 2e 3e 74 15 f6 3d ba 1d 60 3d
       0.10607074 0.1706467 0.120158106 0.05471585
000060 98 04 27 3c 17 01 9e 3d 4d 3c eb 3d ef 0b e0 3d
       0.010193966 0.077150516 0.11486111 0.10939776
000070 da ab 37 3d 12 3c 20 be f5 4e b1 bd 2f c8 37 bd
       0.044841625 -0.15647915 -0.08657638 -0.044868644
000080 50 c8 bb bb b0 6a ae bc 96 df c9 bd 36 0f 19 be
       -0.005730666 -0.021291107 -0.09857099 -0.14947209
000090 22 6e f9 3d 89 4d ef 3d 77 71 24 3e 67 bf 8a 3d
       0.12179209 0.116847105 0.16058908 0.06774788
0000a0 c0 c6 e8 bb bb ad c2 bb 90 fd b0 bd 67 a4 f6 bd
       -0.007103771 -0.0059411204 -0.08642113 -0.12043076
0000b0 d6 1a 2e 3e ab bb ab 3d 3d ca 2d 3e 0f 85 a2 3d
       0.17002425 0.08385404 0.16971679 0.07935535
0000c0 48 5f bc bb 28 8b f2 3b ff 76 d8 3d 81 32 40 3e
       -0.005748663 0.0074018426 0.10569572 0.18769266
0000d0 f0 e2 77 3d 23 27 9f bd 66 e7 33 be 2c ee a2 bd
       0.06051916 -0.077711366 -0.1756874 -0.07955584
0000e0 34 af 1e bc 18 a4 b9 3c f8 b2 36 3e c2 c0 ab 3d
       -0.009685326 0.022661254 0.17841709 0.08386375
0000f0 7e a7 25 3d 22 27 34 be 3e 1e 09 be ed c1 5e bd
       0.040442936 -0.17593053 -0.13390443 -0.05438416
000100 84 45 be 3b 01 3b 89 3d 68 41 1c 3e d5 52 1b 3e
       0.0058066268 0.06700707 0.15259326 0.15168317
000110 c4 43 2a bd 11 0c a9 bd 23 e6 2d be c7 cf a1 bd
       -0.041568533 -0.082542546 -0.16982321 -0.079009585
000120 80 f6 17 3c a2 86 6a 3d f4 cf 9f 3d 65 29 2e 3e
       0.009275079 0.057257302 0.07803336 0.17007978
000130 55 a1 58 3d ea b3 f6 bd 4c e4 11 be df e3 78 bd
       0.052888233 -0.12046035 -0.14247245 -0.06076419
000140 d0 b7 d0 39 94 26 96 3c 48 16 7e 3d 79 53 21 3e
       0.00039809803 0.018328942 0.062032968 0.15754499
000150 bd 07 2e bd 52 27 c5 bd c9 ee 15 be 3e 19 82 bd
       -0.04248785 -0.096266404 -0.1464187 -0.06352471
000160 10 3c 11 3c 37 9c 2c 3d e0 01 c4 bd 77 38 d3 bd
       0.008864418 0.042141166 -0.0957067 -0.10313504
000170 13 93 cd 3d 0a 9e 0a 3e 63 4a 11 3e 33 b3 7e 3d
       0.10037818 0.1353685 0.14188533 0.062182616
000180 b8 e8 9d ba e4 c9 9e 3c cf 58 cf 3d a4 0d f5 3d
       -0.0012047505 0.019383378 0.10124361 0.11965492
000190 4f a2 41 3d 5c f2 2a be 14 9c a5 bd d6 c4 1a bd
       0.04727393 -0.16694015 -0.0808641 -0.037785374
0001a0 c6 81 86 3c 2d b8 95 3d 65 08 91 bd d6 30 30 bd
       0.016419303 0.07310519 -0.07081679 -0.043015324
0001b0 b6 d8 d0 3a 92 fc e2 3d 8a eb a8 3d 3d 9b 50 3d
       0.0015933726 0.1108333 0.082480505 0.050929297
0001c0 a0 b7 0d bc 8a 37 d4 bc 1f d9 e7 bd 7b 0f a0 bd
       -0.008649737 -0.02590539 -0.113207094 -0.07815453
0001d0 37 3a d3 3d 93 2d 22 3e af 88 c1 3d c8 0c 52 3d
       0.10313838 0.15837698 0.094498985 0.05128172
0001e0 9c 3d 42 39 c7 f7 b7 bb c5 2a e8 bd b3 9b 32 bd
       0.00018524233 -0.005614254 -0.11336283 -0.043605518
0001f0 6c 22 e2 3d 23 ca a0 3d 1e 2c ab 3d 47 af 5d 3d
       0.11041722 0.078510545 0.08358024 0.054122236
000200 cd 9a 0a 3a bc 90 46 3d 40 07 b2 3d 87 c0 d5 3d
       0.00052873493 0.048477873 0.08692789 0.10437112
000210 64 8d 20 be e3 96 73 bd c4 e4 61 ba 5a 35 14 3d
       -0.15678936 -0.05947007 -0.00086171576 0.036183693
000220 50 78 21 3b 60 d5 df bc 8b 39 1f bd c2 fa 9d bd
       0.0024638362 -0.027323425 -0.038873237 -0.07713844
000230 57 9b cb 3d 36 62 21 3e f5 8f d3 3d 35 56 cd 3d
       0.09941738 0.15760121 0.10330192 0.10026208
000240 f3 fd c8 3b 09 87 35 bc 58 31 66 bd 52 ca 83 bd
       0.0061337887 -0.011079558 -0.0561994 -0.06435074
000250 c5 c1 c2 3d 8d 19 12 3e 5e f3 db 3d c1 01 c3 3d
       0.09509615 0.1426756 0.10739778 0.09521819
000260 c1 57 d8 3d a1 db 0d 3e 50 03 27 3e 1e b5 5b 3d
       0.10563613 0.13853313 0.16309857 0.053639524
000270 85 b4 09 bd 92 f2 df bd 5b da d6 bd 1a a3 a3 bd
       -0.033619422 -0.109349385 -0.10490867 -0.079900935
000280 84 4c 7b 3c 03 1a 22 3c 14 14 c5 bd a3 1f bc bd
       0.015338067 0.009893897 -0.0962297 -0.09185722
000290 82 e5 12 3e 97 c6 fc 3d a3 80 cc 3d a9 54 d0 3d
       0.14345363 0.123425655 0.09985473 0.10172398
0002a0 86 99 84 3c 24 ac c7 bc d9 d3 02 be f1 e6 c0 bd
       0.016186487 -0.024374075 -0.12776126 -0.094190486
0002b0 4c 08 be 3d 82 66 c8 3d 4e 8f 06 3e 6a 25 f0 3d
       0.09278926 0.09785177 0.13140604 0.11725886
0002c0 c5 d8 ca 3d c3 4f e9 3d 4e 9e fe 3d e9 de 10 3e
       0.09904627 0.113921665 0.12432538 0.14147533
0002d0 e2 ba f3 bd f4 51 de bd 6a 65 cb bc 06 3b 5e ba
       -0.119008794 -0.10855475 -0.024828631 -0.0008477423
0002e0 cb ed fb 3d 25 1f 14 3e 4e 73 ee 3d 03 66 e2 3d
       0.12301215 0.14465006 0.116430864 0.110546134
0002f0 f5 0b a3 bd da d9 ac bd ed 1e d9 ba 74 ba b0 bc
       -0.07961265 -0.084399894 -0.0016565003 -0.021573283
000300 c1 84 e6 3d 21 cc 0e 3e cb fc 12 3e 20 2e e8 3d
       0.112557895 0.13945056 0.14354245 0.11336923
000310 85 1e f5 bd 72 8a a7 bd ad 38 6c 3b f6 f6 37 bc
       -0.11968712 -0.08180703 0.0036044524 -0.011228314
000320 32 14 f4 3d 36 59 15 3e 3f 03 02 3e f7 cc 1d 3e
       0.119179145 0.14584813 0.12696551 0.15410219
000330 83 1f fd bd 0f 36 7f bd d8 41 8e bd 76 ee 04 bd
       -0.12359526 -0.062307414 -0.069461524 -0.032453977
000340 9f 78 18 ba 14 bd 9d 3d ad a0 3e 3e 60 f8 44 3d
       -0.0005816314 0.077020794 0.1861598 0.04808843
000350 61 43 99 bd b3 15 1c be fb 26 93 39 ce b6 ba 3c
       -0.07483555 -0.15242653 0.00028067068 0.022792246
000360 b3 4e 86 3d a1 d1 37 3d 08 3b 4b bd 72 ab f9 bd
       0.065579794 0.044877652 -0.049616843 -0.12190904
000370 20 c9 b7 3d 97 60 30 3e 56 de c4 3d cf 2d d1 3d
       0.089739084 0.17224346 0.0961272 0.102138154
000380 c5 1a 28 3c 0a 44 fd 3d a0 83 18 3e fb 44 83 3d
       0.010260289 0.12366493 0.14893961 0.06409641
000390 42 8d 2f bd 6d ce 0c be 72 98 9e 3c 6d 7e dc 3c
       -0.042859323 -0.1375062 0.019359801 0.026915753
0003a0 d9 49 ea bb c6 42 b5 3b 5a 22 7b 3d a8 ed 8f bd
       -0.0071499166 0.0055316417 0.061312057 -0.07027751
0003b0 bf 48 9f 3d 1e 34 e9 3d c0 6d 1f bc 24 05 e4 bc
       0.07777547 0.11386894 -0.009730756 -0.027834482
0003c0 4d d2 65 3c 76 b2 14 bd 61 1a 8c bd 09 59 48 bd
       0.01402719 -0.036303006 -0.06840969 -0.048913036
0003d0 fd 30 8a 3d a5 40 1e 3e ce fe 0f 3e 5c 49 e2 3d
       0.06747625 0.15454347 0.14062044 0.110491484
0003e0 d5 eb a7 3d ff 65 99 bc 93 d7 80 3d d5 c8 04 be
       0.08199278 -0.018725393 0.062911175 -0.12967236
0003f0 9f 54 60 3d 84 d4 10 3e 8b 77 37 3d ac 9f 8e 3d
       0.0547682 0.14143568 0.04479174 0.06964049

act_fun.1.mask f4 [32, 16]
000000 00 00 80 3f 00 00 80 3f 00 00 80 3f 00 00 80 3f
       1.0 1.0 1.0 1.0
000010 00 00 80 3f 00 00 80 3f 00 00 80 3f 00 00 80 3f
       1.0 1.0 1.0 1.0
000020 00 00 80 3f 00 00 80 3f 00 00 80 3f 00 00 80 3f
       1.0 1.0 1.0 1.0
000030 00 00 80 3f 00 00 80 3f 00 00 80 3f 00 00 80 3f
       1.0 1.0 1.0 1.0
000040 00 00 80 3f 00 00 80 3f 00 00 80 3f 00 00 80 3f
       1.0 1.0 1.0 1.0
000050 00 00 80 3f 00 00 80 3f 00 00 80 3f 00 00 80 3f
       1.0 1.0 1.0 1.0
000060 00 00 80 3f 00 00 80 3f 00 00 80 3f 00 00 80 3f
       1.0 1.0 1.0 1.0
000070 00 00 80 3f 00 00 80 3f 00 00 80 3f 00 00 80 3f
       1.0 1.0 1.0 1.0
000080 00 00 80 3f 00 00 80 3f 00 00 80 3f 00 00 80 3f
       1.0 1.0 1.0 1.0
000090 00 00 80 3f 00 00 80 3f 00 00 80 3f 00 00 80 3f
       1.0 1.0 1.0 1.0
0000a0 00 00 80 3f 00 00 80 3f 00 00 80 3f 00 00 80 3f
       1.0 1.0 1.0 1.0
0000b0 00 00 80 3f 00 00 80 3f 00 00 80 3f 00 00 80 3f
       1.0 1.0 1.0 1.0
0000c0 00 00 80 3f 00 00 80 3f 00 00 80 3f 00 00 80 3f
       1.0 1.0 1.0 1.0
0000d0 00 00 80 3f 00 00 80 3f 00 00 80 3f 00 00 80 3f
       1.0 1.0 1.0 1.0
0000e0 00 00 80 3f 00 00 80 3f 00 00 80 3f 00 00 80 3f
       1.0 1.0 1.0 1.0
0000f0 00 00 80 3f 00 00 80 3f 00 00 80 3f 00 00 80 3f
       1.0 1.0 1.0 1.0
000100 00 00 80 3f 00 00 80 3f 00 00 80 3f 00 00 80 3f
       1.0 1.0 1.0 1.0
000110 00 00 80 3f 00 00 80 3f 00 00 80 3f 00 00 80 3f
       1.0 1.0 1.0 1.0
000120 00 00 80 3f 00 00 80 3f 00 00 80 3f 00 00 80 3f
       1.0 1.0 1.0 1.0
000130 00 00 80 3f 00 00 80 3f 00 00 80 3f 00 00 80 3f
       1.0 1.0 1.0 1.0
000140 00 00 80 3f 00 00 80 3f 00 00 80 3f 00 00 80 3f
       1.0 1.0 1.0 1.0
000150 00 00 80 3f 00 00 80 3f 00 00 80 3f 00 00 80 3f
       1.0 1.0 1.0 1.0
000160 00 00 80 3f 00 00 80 3f 00 00 80 3f 00 00 80 3f
       1.0 1.0 1.0 1.0
000170 00 00 80 3f 00 00 80 3f 00 00 80 3f 00 00 80 3f
       1.0 1.0 1.0 1.0
000180 00 00 80 3f 00 00 80 3f 00 00 80 3f 00 00 80 3f
       1.0 1.0 1.0 1.0
000190 00 00 80 3f 00 00 80 3f 00 00 80 3f 00 00 80 3f
       1.0 1.0 1.0 1.0
0001a0 00 00 80 3f 00 00 80 3f 00 00 80 3f 00 00 80 3f
       1.0 1.0 1.0 1.0
0001b0 00 00 80 3f 00 00 80 3f 00 00 80 3f 00 00 80 3f
       1.0 1.0 1.0 1.0
0001c0 00 00 80 3f 00 00 80 3f 00 00 80 3f 00 00 80 3f
       1.0 1.0 1.0 1.0
0001d0 00 00 80 3f 00 00 80 3f 00 00 80 3f 00 00 80 3f
       1.0 1.0 1.0 1.0
0001e0 00 00 80 3f 00 00 80 3f 00 00 80 3f 00 00 80 3f
       1.0 1.0 1.0 1.0
0001f0 00 00 80 3f 00 00 80 3f 00 00 80 3f 00 00 80 3f
       1.0 1.0 1.0 1.0
000200 00 00 80 3f 00 00 80 3f 00 00 80 3f 00 00 80 3f
       1.0 1.0 1.0 1.0
000210 00 00 80 3f 00 00 80 3f 00 00 80 3f 00 00 80 3f
       1.0 1.0 1.0 1.0
000220 00 00 80 3f 00 00 80 3f 00 00 80 3f 00 00 80 3f
       1.0 1.0 1.0 1.0
000230 00 00 80 3f 00 00 80 3f 00 00 80 3f 00 00 80 3f
       1.0 1.0 1.0 1.0
000240 00 00 80 3f 00 00 80 3f 00 00 80 3f 00 00 80 3f
       1.0 1.0 1.0 1.0
000250 00 00 80 3f 00 00 80 3f 00 00 80 3f 00 00 80 3f
       1.0 1.0 1.0 1.0
000260 00 00 80 3f 00 00 80 3f 00 00 80 3f 00 00 80 3f
       1.0 1.0 1.0 1.0
000270 00 00 80 3f 00 00 80 3f 00 00 80 3f 00 00 80 3f
       1.0 1.0 1.0 1.0
000280 00 00 80 3f 00 00 80 3f 00 00 80 3f 00 00 80 3f
       1.0 1.0 1.0 1.0
000290 00 00 80 3f 00 00 80 3f 00 00 80 3f 00 00 80 3f
       1.0 1.0 1.0 1.0
0002a0 00 00 80 3f 00 00 80 3f 00 00 80 3f 00 00 80 3f
       1.0 1.0 1.0 1.0
0002b0 00 00 80 3f 00 00 80 3f 00 00 80 3f 00 00 80 3f
       1.0 1.0 1.0 1.0
0002c0 00 00 80 3f 00 00 80 3f 00 00 80 3f 00 00 80 3f
       1.0 1.0 1.0 1.0
0002d0 00 00 80 3f 00 00 80 3f 00 00 80 3f 00 00 80 3f
       1.0 1.0 1.0 1.0
0002e0 00 00 80 3f 00 00 80 3f 00 00 80 3f 00 00 80 3f
       1.0 1.0 1.0 1.0
0002f0 00 00 80 3f 00 00 80 3f 00 00 80 3f 00 00 80 3f
       1.0 1.0 1.0 1.0
000300 00 00 80 3f 00 00 80 3f 00 00 80 3f 00 00 80 3f
       1.0 1.0 1.0 1.0
000310 00 00 80 3f 00 00 80 3f 00 00 80 3f 00 00 80 3f
       1.0 1.0 1.0 1.0
000320 00 00 80 3f 00 00 80 3f 00 00 80 3f 00 00 80 3f
       1.0 1.0 1.0 1.0
000330 00 00 80 3f 00 00 80 3f 00 00 80 3f 00 00 80 3f
       1.0 1.0 1.0 1.0
000340 00 00 80 3f 00 00 80 3f 00 00 80 3f 00 00 80 3f
       1.0 1.0 1.0 1.0
000350 00 00 80 3f 00 00 80 3f 00 00 80 3f 00 00 80 3f
       1.0 1.0 1.0 1.0
000360 00 00 80 3f 00 00 80 3f 00 00 80 3f 00 00 80 3f
       1.0 1.0 1.0 1.0
000370 00 00 80 3f 00 00 80 3f 00 00 80 3f 00 00 80 3f
       1.0 1.0 1.0 1.0
000380 00 00 80 3f 00 00 80 3f 00 00 80 3f 00 00 80 3f
       1.0 1.0 1.0 1.0
000390 00 00 80 3f 00 00 80 3f 00 00 80 3f 00 00 80 3f
       1.0 1.0 1.0 1.0
0003a0 00 00 80 3f 00 00 80 3f 00 00 80 3f 00 00 80 3f
       1.0 1.0 1.0 1.0
0003b0 00 00 80 3f 00 00 80 3f 00 00 80 3f 00 00 80 3f
       1.0 1.0 1.0 1.0
0003c0 00 00 80 3f 00 00 80 3f 00 00 80 3f 00 00 80 3f
       1.0 1.0 1.0 1.0
0003d0 00 00 80 3f 00 00 80 3f 00 00 80 3f 00 00 80 3f
       1.0 1.0 1.0 1.0
0003e0 00 00 80 3f 00 00 80 3f 00 00 80 3f 00 00 80 3f
       1.0 1.0 1.0 1.0
0003f0 00 00 80 3f 00 00 80 3f 00 00 80 3f 00 00 80 3f
       1.0 1.0 1.0 1.0

act_fun.1.scale_base f4 [32, 16]
000000 c6 9c f2 bd 5b 93 16 3e a0 d3 bd 3c e6 fc 81 bd
       -0.118463084 0.14704649 0.0231722 -0.06347065
000010 04 d1 20 3e ab 04 79 3e 09 16 10 bc 48 1d 88 be
       0.15704733 0.24318187 -0.008794316 -0.2658484
000020 ee 07 80 be f8 bf 3e be 65 db 7d be c4 6b 37 3e
       -0.2500605 -0.18627918 -0.24790724 0.17912203
000030 18 9a 6f be a3 87 41 bd 84 f1 30 3e 3d f4 5c 3e
       -0.23398626 -0.047248494 0.17279631 0.21577545
000040 f2 cd 1f be dc 32 94 bd d8 a6 03 3e d6 cb 8b bb
       -0.15605906 -0.07236263 0.12856615 -0.0042662425
000050 4a 06 76 3e 31 0f 04 3e 78 24 c2 3c 3f db 88 be
       0.24025837 0.1289642 0.02369903 -0.26729771
000060 40 40 8e 3d 79 2c 5e be b8 c7 5c be b3 21 74 3e
       0.069458485 -0.21696652 -0.21560562 0.2384098
000070 a3 f7 06 be 9c d2 2f 3e 49 45 a2 bc 86 df 68 3e
       -0.13180403 0.17170185 -0.019808428 0.22741517
000080 88 27 80 3d a0 99 02 3e a5 8b 6e 3e b9 06 22 be
       0.0625754 0.12753916 0.23295458 -0.15822877
000090 c9 ed 0a 3d 28 f0 28 3e 2e a4 a4 3c e7 3b 2b be
       0.033918176 0.16497862 0.020097818 -0.1672207
0000a0 85 6c 10 3d ab 87 d7 bd 5d 3a 3c be 73 15 03 3e
       0.035259742 -0.105239235 -0.18381639 0.12801151
0000b0 fd 78 72 be 5b a7 8d bd d2 a4 13 3e 6e 68 2b 3e
       -0.23678966 -0.06916686 0.14418343 0.16739056
0000c0 6a a1 35 3e fa a2 02 be a4 da 71 be ab c2 1b bd
       0.17737356 -0.12757483 -0.23618561 -0.038027447
0000d0 1e 65 86 3d cf 59 88 be 35 3c 25 3e 44 3c 85 3e
       0.06562255 -0.2663102 0.16136248 0.26022542
0000e0 96 82 79 3e ba 30 c0 b9 e8 f6 50 3d 3b 71 80 be
       0.24366221 -0.00036657398 0.05101672 -0.25086388
0000f0 c5 2b 5c 3e 3f 76 44 be 2b 40 89 be 2d 77 56 be
       0.21501072 -0.19185732 -0.2680677 -0.209439
000100 89 ea ca 3d ee 7a 5d 3e d4 9c 5b 3e b8 b1 0e 3d
       0.09908015 0.21628925 0.21446544 0.034837455
000110 79 1d 80 3c 93 3b e8 3b ef 15 54 be ec bc 67 bd
       0.015639054 0.00708718 -0.20711492 -0.056576654
000120 5a 08 0b bd 78 e0 92 bd 65 cc 4d be 75 ad fd 3d
       -0.03394351 -0.0717172 -0.20097502 0.123866
000130 d1 1c 21 be f0 f7 3b bd c6 bf 9a 3d 47 83 b6 3d
       -0.15733649 -0.04589075 0.07556109 0.08911758
000140 3e fb 86 bd ac 86 09 3d 6a 9f 3e be 02 ad 29 3e
       -0.065908894 0.0335757 -0.18615499 0.16569903
000150 e3 f9 67 3b 0c 79 39 bd ae a8 76 3e 82 7a 62 3e
       0.0035396747 -0.045281455 0.24087784 0.22117046
000160 a1 5b 7a 3e 0c de 20 3e f4 f8 63 3e 33 c9 4c be
       0.24449016 0.15709704 0.22262937 -0.19998626
000170 c5 9b 08 3c 62 a4 7a 3a 80 b7 8f bd 5b 77 9e bd
       0.00833792 0.0009561238 -0.07017422 -0.07737609
000180 f4 05 88 be db 5d 32 3e a5 8f 6c 3e a9 95 03 be
       -0.26567042 0.17418616 0.23101671 -0.1285006
000190 06 5b 22 3e dc f6 4b 3e b6 55 93 be ed 77 16 be
       0.15855035 0.19918388 -0.2877633 -0.14694186
0001a0 de 4f 36 be 0e 92 52 be 3b f3 c6 bb a4 eb 97 3e
       -0.17803904 -0.20563528 -0.006071476 0.29671967
0001b0 b6 1e a7 bd 6a 77 46 3e 7f 61 73 bc 15 99 00 3e
       -0.081601545 0.1938149 -0.014854788 0.12558396
0001c0 2a 41 f9 bd 53 39 b9 bb 68 e1 0b 3e 07 42 0d bd
       -0.12170632 -0.0056525855 0.13660204 -0.034486797
0001d0 25 b3 c1 3d a0 2c 3e 3e 13 76 24 bc c4 e8 5c 3d
       0.09457997 0.1857171 -0.010037917 0.05393292
0001e0 02 a4 b1 bd f8 dc bb bd f0 c1 c0 bd 4a ac 0b 3e
       -0.0867386 -0.09173006 -0.09411991 0.13639942
0001f0 90 67 51 be aa b6 3b 3d a8 71 3d bd a3 2f 24 bd
       -0.20449662 0.0458285 -0.04625097 -0.040084492
000200 f8 7f 89 be cd a9 7c 3e 1a ad 64 3c 87 d7 fa bd
       -0.26855445 0.24674149 0.013957286 -0.1224814
000210 16 10 0a 3e ef a5 8d 3e e5 85 04 bd 8e 82 7a be
       0.13482699 0.2766566 -0.032354254 -0.24463865
000220 2d 5e 77 3d 45 d2 90 be 68 a0 b2 bd 27 25 91 3e
       0.060392547 -0.28285423 -0.08722001 0.28348657
000230 b0 87 3f 3d 8b e2 1d 3d 5e a0 ee ba a0 57 33 3e
       0.04676026 0.038546126 -0.0018205752 0.17513895
000240 28 69 81 3e c9 ca 56 be ee 4d 1c be 01 34 b3 bc
       0.2527554 -0.20975794 -0.15264103 -0.021875383
000250 28 03 61 bd bc 9d ab bd a6 16 52 3e 24 ea 35 3d
       -0.05493465 -0.08379695 0.20516452 0.044412747
000260 b4 00 69 bd 97 b4 10 3d 6f 16 68 bc 76 9d 2c be
       -0.056885436 0.035328474 -0.014165505 -0.16856942
000270 51 09 3d 3e 13 a4 62 be 56 2d fd bd c6 19 8c be
       0.18460585 -0.22132902 -0.12362163 -0.27363414
000280 f3 e6 9b bc d2 ce 66 be 2a 00 28 be 31 ff 6b 3c
       -0.019031024 -0.22539833 -0.16406313 0.014404104
000290 0e 51 95 bd be ef 5d bb eb 75 76 3e ae 08 31 3e
       -0.072908506 -0.0033864821 0.2406842 0.17288467
0002a0 2d c1 db 3d 56 7a a2 3d 83 f4 65 3e f2 75 54 be
       0.10730205 0.0793349 0.22456555 -0.20748118
0002b0 e9 de 69 3e 35 5c 29 be e0 dc 70 be 00 d7 2b bd
       0.2283894 -0.1653908 -0.23521757 -0.041953087
0002c0 b3 b4 3c be 09 95 12 3e d7 52 88 3e 2f bf bf bc
       -0.18428306 0.14314665 0.26625702 -0.023406593
0002d0 f3 7f 90 3e 8a e7 2d 3d 35 94 45 be 3e bb 0d be
       0.28222618 0.04245714 -0.19294818 -0.13840958
0002e0 cd 7d 13 be 42 b4 41 be 51 fe f3 bd 4a 49 8d 3e
       -0.14403458 -0.18916419 -0.119137414 0.27594978
0002f0 ae 2f 4f be 4f f5 32 3e cb 57 45 3e 21 0d 50 3e
       -0.20233032 0.1747639 0.19271772 0.20317508
000300 5e a8 03 3e a0 dd ba bd 5c 7c b0 bc bf 3d 0a 3d
       0.12857196 -0.09124303 -0.021543674 0.033750292
000310 68 9f 3e be b3 37 4a 3d 36 5c 87 3e 75 11 4b ba
       -0.18615496 0.049369525 0.2643754 -0.0007746437
000320 42 88 87 3e d8 ac 20 3e a2 6e f2 3d 0c 32 c9 3d
       0.26471144 0.15690935 0.11837508 0.09823999
000330 37 e1 85 3d 6a 76 dc bc 0b 1e ef 3b f1 3f e1 bd
       0.06537097 -0.026911933 0.0072972826 -0.10998524
000340 c6 15 28 be f4 be 43 3d 5b 8f 95 3e a3 f9 ca bc
       -0.16414556 0.04778953 0.29210934 -0.02477724
000350 21 f8 ba 3d c5 c2 f2 3d ea a1 d1 bd 55 15 65 be
       0.09129358 0.118535556 -0.10235961 -0.22371419
000360 04 fc 82 bd 55 f0 81 be 7d 3c fa bd d5 ac bb 3d
       -0.063957244 -0.2537867 -0.122185685 0.091638245
000370 52 8f 39 be 57 2b 7d 3e 40 5e 2c 3e 11 77 31 3e
       -0.18121079 0.24723564 0.16832829 0.17330576
000380 4c b4 85 ba 76 0d b1 bd d0 e8 92 bd 05 0d 57 3e
       -0.0010200827 -0.086451456 -0.07173312 0.2100106
000390 d9 2f 2b be 8c d4 20 be fd b0 c6 bc 9a ba 6e 3e
       -0.16717471 -0.1570608 -0.024254316 0.2331337
0003a0 72 3d 74 3e 3c df 50 3e bc cb 59 3e e2 30 30 bc
       0.23851565 0.20397657 0.21269125 -0.010753842
0003b0 ba de 92 3e b3 6c 8a bc c1 a4 57 bd 8a a6 58 bd
       0.28685552 -0.016897535 -0.052647356 -0.0528932
0003c0 d6 67 35 be 21 da 22 3e 07 dc 26 3e 2b fc 71 be
       -0.17715392 0.15903522 0.16294871 -0.2363135
0003d0 a9 64 84 3d 6b 4b 04 3c 0a b8 5e be be e3 55 3c
       0.06464512 0.008074622 -0.21749893 0.013054786
0003e0 d8 c2 0d 3d 5e 6b 03 be 97 19 4f bd c8 ce a4 3d
       0.034609646 -0.12833926 -0.050561514 0.08047253
0003f0 8b 42 33 bd 22 99 48 3d e1 c3 b1 3c aa 85 99 bb
       -0.043764632 0.048974164 0.021699848 -0.0046851235

act_fun.1.scale_sp f4 [32, 16]
000000 14 e4 9c 3e d5 09 94 3e 57 e0 9c 3e aa e4 9a 3e
       0.3064276 0.2891375 0.30639908 0.30252582
000010 c6 eb 9c 3e c2 cb 93 3e 64 32 9c 3e 5e 81 8b 3e
       0.3064863 0.28866392 0.30507195 0.27247137
000020 ac ec 9c 3e e0 ae 9c 3e ab e0 9b 3e 85 e5 98 3e
       0.30649316 0.3060217 0.30444846 0.2986261
000030 10 78 9c 3e 0f a6 62 3e e6 90 8e 3e 32 d6 7f 3e
       0.3056035 0.22133659 0.27844924 0.24984053
000040 d0 14 81 3e b5 c5 98 3e 19 96 99 3e 78 77 92 3e
       0.2521119 0.29838338 0.29997328 0.28606772
000050 4e c5 99 3e be 1a 91 3e 63 97 98 3e 2a 9a 8b 3e
       0.30033344 0.28340715 0.29803 0.27266055
000060 21 68 98 3e b4 cb 9a 3e a2 0c 98 3e 3d e1 98 3e
       0.29766944 0.30233538 0.29697138 0.29859343
000070 2b bb 95 3e 3b 96 6e 3e cf 02 9a 3e 2a 6a 94 3e
       0.2924436 0.23299496 0.30080268 0.28987247
000080 51 55 9b 3e c8 1f 86 3e a3 05 90 3e db 04 80 3e
       0.3033853 0.26196122 0.281293 0.25003704
000090 8c ef 89 3e 89 c1 9b 3e d6 ef 8d 3e 84 9b 92 3e
       0.26940572 0.30421093 0.27722043 0.28634274
0000a0 6c 0e 9d 3e 65 55 9d 3e cc e5 93 3e 5d fa 92 3e
       0.30675066 0.30729213 0.2888626 0.28706637
0000b0 1d dd 8f 3e 71 21 8d 3e 65 13 98 3e 7a f4 91 3e
       0.28098384 0.27564576 0.29702297 0.28506833
0000c0 8e 38 85 3e 7d 59 98 3e f4 ce 98 3e e3 2f 85 3e
       0.2601971 0.29755774 0.29845393 0.26013097
0000d0 a0 0c 99 3e f7 73 9b 3e f1 56 9a 3e 35 b0 81 3e
       0.29892445 0.30361912 0.30144456 0.25329748
0000e0 ad 13 99 3e dd 88 8b 3e 5c f6 8b 3e da 80 99 3e
       0.29897824 0.27252856 0.27336395 0.29981118
0000f0 8e be 94 3e fd 62 0a 3e 02 50 8e 3e 3f 90 84 3e
       0.29051632 0.13514324 0.27795416 0.258913
000100 6d 9b 84 3e 16 c6 98 3e 75 4e 99 3e a2 29 90 3e
       0.2589983 0.29838628 0.2994267 0.28156763
000110 4e e3 9a 3e b4 4c 98 3e d2 9c 9b 3e 22 65 9c 3e
       0.30251545 0.2974602 0.30393082 0.30545908
000120 cd cd 99 3e e8 fb 9a 3e 30 8e 97 3e c5 04 98 3e
       0.30039826 0.30270314 0.29600668 0.2969114
000130 43 66 6d 3e 6f 76 92 3e be 57 9c 3e 5d 34 83 3e
       0.23183541 0.28605983 0.30535692 0.25625888
000140 61 22 70 3e 9b 5d 95 3e f0 5d 8c 3e 79 bb 8a 3e
       0.23450615 0.29172978 0.2741542 0.27096155
000150 a1 45 96 3e 67 8b 82 3e 6c a7 8e 3e 36 30 9e 3e
       0.29349998 0.2549698 0.27862108 0.30896157
000160 f9 39 9b 3e fd 27 8a 3e ff f0 94 3e b1 43 99 3e
       0.30317667 0.26983634 0.29090115 0.29934457
000170 19 54 83 3e cc 19 64 3e 4c 2d 99 3e 1a 6f 81 3e
       0.256501 0.22275466 0.2991737 0.25280076
000180 11 f6 5f 3e 89 88 51 3e e2 f7 80 3e a2 ec 9c 3e
       0.2187121 0.2046224 0.2518912 0.30649287
000190 b1 c6 9c 3e e0 09 9b 3e 09 ce 9b 3e 93 0c 97 3e
       0.3062034 0.30280972 0.3043063 0.2950178
0001a0 34 f8 89 3e 18 6b 60 3e 1c be 9b 3e c9 f1 98 3e
       0.26947176 0.21915853 0.3041848 0.29871967
0001b0 3a 1f 9b 3e 4a ef 73 3e 3a 01 9b 3e 69 4f 6b 3e
       0.3029726 0.2382175 0.30274373 0.22979511
0001c0 2a 20 95 3e f9 34 97 3e ff 67 96 3e 09 5b 67 3e
       0.29126102 0.29532602 0.29376218 0.22593321
0001d0 43 37 98 3e 71 23 7a 3e ea c0 99 3e 99 4f 9c 3e
       0.2972966 0.24427582 0.30029994 0.30529478
0001e0 0c 65 8f 3e 96 2a 8a 3e b8 87 89 3e 77 71 7d 3e
       0.2800678 0.26985615 0.26861358 0.24750315
0001f0 e6 7d 8a 3e 25 50 60 3e 9e 26 99 3e 88 72 7d 3e
       0.27049178 0.21905573 0.29912275 0.24750721
000200 11 1a 9b 3e fa 88 9b 3e 1a e0 8e 3e 9d d5 78 3e
       0.30293325 0.30377942 0.2790535 0.24300237
000210 32 78 9a 3e 14 27 8c 3e a3 b4 9a 3e bc 1e 9e 3e
       0.30169827 0.27373564 0.3021594 0.30882823
000220 a3 3b 8a 3e 22 d1 76 3e 0f 7f 9b 3e 3b 03 9c 3e
       0.26998624 0.24103215 0.30370376 0.30471215
000230 df b5 99 3e 20 a5 53 3e e3 30 74 3e 48 38 8c 3e
       0.3002157 0.20668459 0.23846774 0.2738669
000240 87 b8 9a 3e b0 ef 88 3e ec 97 9c 3e 11 0d 89 3e
       0.30218908 0.26745367 0.30584657 0.2676778
000250 5c 98 9e 3e 04 86 9e 3e 9d 58 9d 3e c5 28 8a 3e
       0.30975616 0.3096162 0.3073167 0.2698423
000260 7c e6 96 3e ec 6d 68 3e a9 7b 51 3e 9e aa 87 3e
       0.2947272 0.22698182 0.20457329 0.26497358
000270 28 f4 9d 3e 2a 48 38 3e ff 01 98 3e 17 30 92 3e
       0.3085034 0.17996278 0.29689023 0.28552315
000280 1b 11 8e 3e 00 31 6e 3e 3b 09 6e 3e df db 87 3e
       0.27747425 0.2326088 0.23245709 0.26534936
000290 0b 44 99 3e a2 2d 91 3e 02 a2 90 3e c7 64 96 3e
       0.29934725 0.28355128 0.28248602 0.29373762
0002a0 c2 d9 86 3e 8a ba 98 3e 4b 9c 85 3e f9 5a 9b 3e
       0.2633801 0.29829818 0.26095805 0.30342844
0002b0 f7 aa 8c 3e 7b e1 85 3e 54 37 98 3e 5b 22 91 3e
       0.27474186 0.2614859 0.29729712 0.28346524
0002c0 c4 09 9c 3e f3 9d 99 3e 95 9c 97 3e c5 29 98 3e
       0.304762 0.30003318 0.2961165 0.29719368
0002d0 61 ae 98 3e 17 44 8c 3e 2a d6 99 3e d8 a0 95 3e
       0.2982054 0.27395698 0.30046207 0.29224277
0002e0 c0 69 9a 3e 28 1e 9d 3e 98 9a 97 3e 85 41 87 3e
       0.30158806 0.3068707 0.29610133 0.26417175
0002f0 37 c1 8f 3e 61 93 84 3e 18 70 8f 3e 87 a0 91 3e
       0.280771 0.2589369 0.28015208 0.28442785
000300 09 23 34 3e 81 ad 99 3e 98 f9 99 3e 28 09 93 3e
       0.1759149 0.30015185 0.30073237 0.28717923
000310 e2 e6 5f 3e 52 44 9d 3e 10 c5 9b 3e fa 9f 9e 3e
       0.21865419 0.30716187 0.30423784 0.30981427
000320 07 4d 72 3e 33 53 9d 3e 8e 6e 49 3e 9b a3 88 3e
       0.23662196 0.30727538 0.1967108 0.2668732
000330 49 27 9b 3e da 10 82 3e a6 b7 9c 3e 0c 82 91 3e
       0.3030341 0.25403482 0.30608863 0.2841953
000340 81 3a 9c 3e 06 ba 9d 3e 41 52 90 3e 87 48 8f 3e
       0.30513385 0.30805987 0.28187755 0.2798502
000350 be 6c 9e 3e 77 ee 83 3e 6e 40 7e 3e e0 26 8e 3e
       0.3094234 0.25767872 0.24829265 0.27764034
000360 79 38 9c 3e 50 65 68 3e cf f3 8f 3e a7 51 8e 3e
       0.30511835 0.22694898 0.281157 0.2779667
000370 4b 6a 9a 3e 0d 81 9a 3e ed 76 7a 3e 51 ac 4f 3e
       0.3015922 0.30176583 0.24459429 0.20280577
000380 95 b3 84 3e 6f 34 6e 3e a7 c2 91 3e f8 4b 9c 3e
       0.2591826 0.2326219 0.2846882 0.3052671
000390 62 d7 9c 3e 28 55 92 3e 15 e6 9b 3e 84 70 9e 3e
       0.30633074 0.28580594 0.30448976 0.30945218
0003a0 93 40 88 3e b2 99 91 3e a1 cd 9b 3e 89 16 9a 3e
       0.26611766 0.28437573 0.3043032 0.30095318
0003b0 8a 79 9b 3e 4c a8 8c 3e 04 62 80 3e 33 03 81 3e
       0.30366164 0.2747215 0.2507478 0.25197753
0003c0 bf 10 98 3e 17 32 99 3e de b4 9c 3e 51 af 8a 3e
       0.29700276 0.29921028 0.3060674 0.2708688
0003d0 8b 5f 7d 3e e2 a9 9d 3e 46 e1 9b 3e 58 f7 9d 3e
       0.24743478 0.30793673 0.30445307 0.3085277
0003e0 98 de 9c 3e 16 2b 9b 3e 40 c7 5c 3e e6 ed 96 3e
       0.30638576 0.3030631 0.21560383 0.29478377
0003f0 68 72 98 3e 59 e2 99 3e f0 60 9c 3e d9 50 99 3e
       0.29774785 0.30055502 0.30542707 0.29944494
