models_cerebelo/kan_model_golgi_lif.pt (torch, 54228 bytes, 29 tensors)

node_bias_0 f4 [32]
0	0x00000000	0.0
1	0x00000000	0.0
2	0x00000000	0.0
3	0x00000000	0.0
4	0x00000000	0.0
5	0x00000000	0.0
6	0x00000000	0.0
7	0x00000000	0.0
8	0x00000000	0.0
9	0x00000000	0.0
10	0x00000000	0.0
11	0x00000000	0.0
12	0x00000000	0.0
13	0x00000000	0.0
14	0x00000000	0.0
15	0x00000000	0.0
16	0x00000000	0.0
17	0x00000000	0.0
18	0x00000000	0.0
19	0x00000000	0.0
20	0x00000000	0.0
21	0x00000000	0.0
22	0x00000000	0.0
23	0x00000000	0.0
24	0x00000000	0.0
25	0x00000000	0.0
26	0x00000000	0.0
27	0x00000000	0.0
28	0x00000000	0.0
29	0x00000000	0.0
30	0x00000000	0.0
31	0x00000000	0.0

node_scale_0 f4 [32]
0	0x3f800000	1.0
1	0x3f800000	1.0
2	0x3f800000	1.0
3	0x3f800000	1.0
4	0x3f800000	1.0
5	0x3f800000	1.0
6	0x3f800000	1.0
7	0x3f800000	1.0
8	0x3f800000	1.0
9	0x3f800000	1.0
10	0x3f800000	1.0
11	0x3f800000	1.0
12	0x3f800000	1.0
13	0x3f800000	1.0
14	0x3f800000	1.0
15	0x3f800000	1.0
16	0x3f800000	1.0
17	0x3f800000	1.0
18	0x3f800000	1.0
19	0x3f800000	1.0
20	0x3f800000	1.0
21	0x3f800000	1.0
22	0x3f800000	1.0
23	0x3f800000	1.0
24	0x3f800000	1.0
25	0x3f800000	1.0
26	0x3f800000	1.0
27	0x3f800000	1.0
28	0x3f800000	1.0
29	0x3f800000	1.0
30	0x3f800000	1.0
31	0x3f800000	1.0

subnode_bias_0 f4 [32]
0	0x00000000	0.0
1	0x00000000	0.0
2	0x00000000	0.0
3	0x00000000	0.0
4	0x00000000	0.0
5	0x00000000	0.0
6	0x00000000	0.0
7	0x00000000	0.0
8	0x00000000	0.0
9	0x00000000	0.0
10	0x00000000	0.0
11	0x00000000	0.0
12	0x00000000	0.0
13	0x00000000	0.0
14	0x00000000	0.0
15	0x00000000	0.0
16	0x00000000	0.0
17	0x00000000	0.0
18	0x00000000	0.0
19	0x00000000	0.0
20	0x00000000	0.0
21	0x00000000	0.0
22	0x00000000	0.0
23	0x00000000	0.0
24	0x00000000	0.0
25	0x00000000	0.0
26	0x00000000	0.0
27	0x00000000	0.0
28	0x00000000	0.0
29	0x00000000	0.0
30	0x00000000	0.0
31	0x00000000	0.0

subnode_scale_0 f4 [32]
0	0x3f800000	1.0
1	0x3f800000	1.0
2	0x3f800000	1.0
3	0x3f800000	1.0
4	0x3f800000	1.0
5	0x3f800000	1.0
6	0x3f800000	1.0
7	0x3f800000	1.0
8	0x3f800000	1.0
9	0x3f800000	1.0
10	0x3f800000	1.0
11	0x3f800000	1.0
12	0x3f800000	1.0
13	0x3f800000	1.0
14	0x3f800000	1.0
15	0x3f800000	1.0
16	0x3f800000	1.0
17	0x3f800000	1.0
18	0x3f800000	1.0
19	0x3f800000	1.0
20	0x3f800000	1.0
21	0x3f800000	1.0
22	0x3f800000	1.0
23	0x3f800000	1.0
24	0x3f800000	1.0
25	0x3f800000	1.0
26	0x3f800000	1.0
27	0x3f800000	1.0
28	0x3f800000	1.0
29	0x3f800000	1.0
30	0x3f800000	1.0
31	0x3f800000	1.0

node_bias_1 f4 [16]
0	0x00000000	0.0
1	0x00000000	0.0
2	0x00000000	0.0
3	0x00000000	0.0
4	0x00000000	0.0
5	0x00000000	0.0
6	0x00000000	0.0
7	0x00000000	0.0
8	0x00000000	0.0
9	0x00000000	0.0
10	0x00000000	0.0
11	0x00000000	0.0
12	0x00000000	0.0
13	0x00000000	0.0
14	0x00000000	0.0
15	0x00000000	0.0

node_scale_1 f4 [16]
0	0x3f800000	1.0
1	0x3f800000	1.0
2	0x3f800000	1.0
3	0x3f800000	1.0
4	0x3f800000	1.0
5	0x3f800000	1.0
6	0x3f800000	1.0
7	0x3f800000	1.0
8	0x3f800000	1.0
9	0x3f800000	1.0
10	0x3f800000	1.0
11	0x3f800000	1.0
12	0x3f800000	1.0
13	0x3f800000	1.0
14	0x3f800000	1.0
15	0x3f800000	1.0

subnode_bias_1 f4 [16]
0	0x00000000	0.0
1	0x00000000	0.0
2	0x00000000	0.0
3	0x00000000	0.0
4	0x00000000	0.0
5	0x00000000	0.0
6	0x00000000	0.0
7	0x00000000	0.0
8	0x00000000	0.0
9	0x00000000	0.0
10	0x00000000	0.0
11	0x00000000	0.0
12	0x00000000	0.0
13	0x00000000	0.0
14	0x00000000	0.0
15	0x00000000	0.0

subnode_scale_1 f4 [16]
0	0x3f800000	1.0
1	0x3f800000	1.0
2	0x3f800000	1.0
3	0x3f800000	1.0
4	0x3f800000	1.0
5	0x3f800000	1.0
6	0x3f800000	1.0
7	0x3f800000	1.0
8	0x3f800000	1.0
9	0x3f800000	1.0
10	0x3f800000	1.0
11	0x3f800000	1.0
12	0x3f800000	1.0
13	0x3f800000	1.0
14	0x3f800000	1.0
15	0x3f800000	1.0

act_fun.0.grid f4 [3, 12]
0	0xc00ccccd	-2.2
1	0xbfe66666	-1.8
2	0xbfb33333	-1.4
3	0xbf800000	-1.0
4	0xbf19999a	-0.6
5	0xbe4ccccc	-0.19999999
6	0x3e4ccccc	0.19999999
7	0x3f19999a	0.6
8	0x3f800000	1.0
9	0x3fb33333	1.4
10	0x3fe66666	1.8
11	0x400ccccd	2.2
12	0xc00ccccd	-2.2
13	0xbfe66666	-1.8
14	0xbfb33333	-1.4
15	0xbf800000	-1.0
16	0xbf19999a	-0.6
17	0xbe4ccccc	-0.19999999
18	0x3e4ccccc	0.19999999
19	0x3f19999a	0.6
20	0x3f800000	1.0
21	0x3fb33333	1.4
22	0x3fe66666	1.8
23	0x400ccccd	2.2
24	0xc00ccccd	-2.2
25	0xbfe66666	-1.8
26	0xbfb33333	-1.4
27	0xbf800000	-1.0
28	0xbf19999a	-0.6
29	0xbe4ccccc	-0.19999999
30	0x3e4ccccc	0.19999999
31	0x3f19999a	0.6
32	0x3f800000	1.0
33	0x3fb33333	1.4
34	0x3fe66666	1.8
35	0x400ccccd	2.2

act_fun.0.coef f4 [3, 32, 8]
0	0xbdf5ae7e	-0.11996172
1	0xbdc9bbbb	-0.0985026
2	0xbdb10489	-0.08643443
3	0x3e0e30d1	0.1388581
4	0x3e24fff9	0.16113271
5	0x3dd4482c	0.10365328
6	0x3e1028a8	0.14078009
7	0x3dfcdd18	0.12346858
8	0xbd94e915	-0.07271019
9	0xbd350fe6	-0.044204615
10	0xbdf6be40	-0.12048006
11	0x3e17b3b1	0.1481464
12	0x3d4aeb42	0.049540766
13	0x3e0d1a87	0.1377965
14	0x3d3ce415	0.046115953
15	0x3d5e06ad	0.054205585
16	0xbe01167f	-0.12606238
17	0xbe065667	-0.13118897
18	0xbe04b6cc	-0.12960356
19	0x3e01c273	0.12671833
20	0x3e038421	0.12843372
21	0x3db00f93	0.085967205
22	0x3dceba0a	0.10094078
23	0x3dec3b0a	0.11534698
24	0x3e139639	0.14412774
25	0x3e350a2c	0.17679662
26	0x3d804e8b	0.06264981
27	0xbdf554cd	-0.11979065
28	0xbe0de2d1	-0.13856055
29	0xbe075aea	-0.13218275
30	0xbdd5a775	-0.104323305
31	0xbde016f3	-0.10941877
32	0x3e088088	0.13330281
33	0x3e029ab6	0.1275433
34	0x3dbeeb6e	0.093222484
35	0xbde1c1ee	-0.11023317
36	0xbe403da8	-0.1877352
37	0xbd9ce496	-0.07660787
38	0xbe22057a	-0.15822402
39	0xbe08a17f	-0.13342856
40	0x3e03a28a	0.12854972
41	0x3e085934	0.13315278
42	0x3e061d15	0.13097031
43	0xbdfc8031	-0.12329138
44	0xbe313565	-0.17305525
45	0xbde4d250	-0.111729264
46	0xbe1567e4	-0.14590412
47	0xbdf82679	-0.12116713
48	0xbe04d5dd	-0.12972207
49	0xbe13407a	-0.14380065
50	0xbdf729bc	-0.12068507
51	0x3e0a1be5	0.13487203
52	0x3e12bf2e	0.14330742
53	0x3dc92b2f	0.0982269
54	0x3e119f95	0.14221032
55	0x3dfdb9be	0.12388943
56	0xbd94cd18	-0.07265681
57	0xbd4d544e	-0.050129227
58	0xbdf8439e	-0.12122272
59	0x3e0072b0	0.1254375
60	0x3d5d86e0	0.054083705
61	0x3d835ff9	0.0641479
62	0x3d4aec17	0.04954156
63	0x3ce3ec45	0.027822623
64	0xbde8fdcc	-0.11376533
65	0xbdaeae1c	-0.085293025
66	0xbdee4673	-0.11634531
67	0x3dbcc68e	0.09217559
68	0x3dc0fc95	0.09423176
69	0x3e191aa8	0.14951575
70	0x3e189c74	0.14903432
71	0x3dfa8318	0.122320354
72	0x3da0410d	0.078249075
73	0x3d692cde	0.056927554
74	0x3d5c3217	0.053758707
75	0xbddbe9ea	-0.10737975
76	0xbdbb69b1	-0.091510184
77	0xbd8cac03	-0.06868746
78	0xbd1dc47f	-0.03851747
79	0xbd7cfc92	-0.061764307
80	0x3e1617fb	0.14657585
81	0x3e352d59	0.1769308
82	0x3d5dc2fb	0.054141026
83	0xbd89b9cb	-0.0672489
84	0xbe247c72	-0.16063097
85	0xbdc8e797	-0.09809797
86	0xbddab5a8	-0.106791794
87	0xbde5a436	-0.112129614
88	0xbdee5c57	-0.11638706
89	0xbddc5f18	-0.10760325
90	0xbe1e49ac	-0.15457791
91	0x3e22d2c7	0.15900718
92	0x3ddab0ff	0.106782906
93	0x3dbd392b	0.092394195
94	0x3e0bfdac	0.13670987
95	0x3dfa453e	0.12220238
96	0xbdea3a4d	-0.11436901
97	0xbdb11d85	-0.086482085
98	0xbe33d00d	-0.17559834
99	0x3e0f338e	0.1398451
100	0x3e0e791e	0.1391339
101	0x3da891e1	0.08230949
102	0x3e131530	0.14363551
103	0x3e07d920	0.1326642
104	0xbdda585e	-0.10661386
105	0xbdca9dde	-0.09893392
106	0xbe05d3a5	-0.13069017
107	0x3dc5cba6	0.096579835
108	0x3dd60cf8	0.10451692
109	0x3ded6642	0.1159177
110	0x3ddbaed6	0.10726707
111	0x3de003d7	0.109382324
112	0x3e017af6	0.12644562
113	0x3e0c742d	0.13716193
114	0x3e360f33	0.17779236
115	0xbe2be154	-0.16785175
116	0xbe08bdf6	-0.13353714
117	0xbdd09f9f	-0.10186695
118	0xbdfc63c7	-0.123237185
119	0xbdf24c4e	-0.1183096
120	0xbe02a505	-0.12758262
121	0xbe079833	-0.13241653
122	0xbdc4c913	-0.09608664
123	0x3d882a93	0.066487454
124	0x3de4a609	0.11164481
125	0x3db285ae	0.087169036
126	0x3dd37f62	0.10327031
127	0x3dcce875	0.10005275
128	0x3e073a18	0.13205755
129	0x3e1e3510	0.15449929
130	0x3e02ae84	0.12761885
131	0xbe077f95	-0.13232262
132	0xbe1b22a9	-0.1514994
133	0xbe06033d	-0.13087173
134	0xbdc5b650	-0.09653914
135	0xbdd97a23	-0.10618999
136	0x3df98642	0.12183811
137	0x3e055b60	0.13023138
138	0x3d6fc5db	0.0585383
139	0xbdb173af	-0.08664643
140	0xbda2c088	-0.07946879
141	0xbdba1f99	-0.09088058
142	0xbd83dbd6	-0.06438415
143	0xbdb66899	-0.08906669
144	0x3e006b9a	0.12541047
145	0x3de640fa	0.11242862
146	0x3da651ef	0.08121096
147	0xbda9f111	-0.08297933
148	0xbe205843	-0.15658669
149	0xbdd1bad9	-0.102407165
150	0xbe007628	-0.12545073
151	0xbde6edae	-0.112758026
152	0xbdd7470a	-0.105115965
153	0xbdc14108	-0.09436232
154	0xbd04a404	-0.03238298
155	0x3e0b90e5	0.13629492
156	0x3de3c484	0.11121467
157	0x3dd6f84d	0.10496578
158	0xbdaf75ba	-0.085673764
159	0xbdc5f413	-0.09665694
160	0x3df0000a	0.117187575
161	0x3dcf8e72	0.10134591
162	0x3e16444f	0.14674495
163	0xbe36eae1	-0.17863037
164	0xbe024db9	-0.12724961
165	0xbe04ba0f	-0.129616
166	0xbdfe42ca	-0.12415083
167	0xbde8769d	-0.11350749
168	0x3df8aca9	0.12142307
169	0x3df72e11	0.12069333
170	0x3d99bb0e	0.07506381
171	0xbe1842c9	-0.14869227
172	0xbdce66f0	-0.100782275
173	0xbe22513e	-0.15851304
174	0xbdf00847	-0.11720329
175	0xbdc81f45	-0.09771589
176	0xbdfe91d2	-0.12430157
177	0xbe091a12	-0.13388851
178	0xbdd752c9	-0.10513837
179	0x3decd0ac	0.115632385
180	0x3e449f59	0.19201411
181	0x3d80e75c	0.06294128
182	0x3e1160ac	0.14197034
183	0x3e04451b	0.12916987
184	0x3e1140c3	0.14184861
185	0x3e28f302	0.1649895
186	0x3d913c3a	0.070915654
187	0xbd56b2f9	-0.052416775
188	0xbddb8291	-0.10718263
189	0xbe15ec81	-0.14641
190	0xbd414b0a	-0.047190703
191	0xbd88eaab	-0.06685384
192	0xbe04075d	-0.12893434
193	0xbe1cc5c6	-0.1530982
194	0xbdaeeadf	-0.08540892
195	0x3e10eeb4	0.14153558
196	0x3dae7cef	0.08519923
197	0x3dc2bfe1	0.09509254
198	0x3e1ccf43	0.15313439
199	0x3dfdbec3	0.123899005
200	0xbdd08fa9	-0.10183651
201	0xbde9789c	-0.113999575
202	0xbdcc3d01	-0.09972573
203	0x3db9e9f4	0.09077826
204	0x3dfb1f54	0.12261835
205	0x3dde0f48	0.108427584
206	0x3dfbb12b	0.122896515
207	0x3ddb4e81	0.10708333
208	0x3dd57ce9	0.10424215
209	0x3dc248c4	0.09486535
210	0x3db75d31	0.08953322
211	0xbddcfd97	-0.10790556
212	0xbd85ebb7	-0.065391
213	0xbdf75aaf	-0.120778434
214	0xbde4c614	-0.11170593
215	0x3cb5818a	0.022156496
216	0x3def12ac	0.11673483
217	0x3dccdf9d	0.10003588
218	0x3dc5c65e	0.09656976
219	0xbe05ece4	-0.13078648
220	0xbdb8c773	-0.09022417
221	0xbdf36187	-0.11883836
222	0xbdd1bd08	-0.10241133
223	0xbd550bb4	-0.052013114
224	0x3e05e58d	0.13075848
225	0x3e0ba001	0.13635255
226	0x3dc7fe03	0.09765246
227	0xbe24cb46	-0.16093168
228	0xbdc69757	-0.096968345
229	0xbda48368	-0.08032876
230	0xbe0cafb7	-0.13738905
231	0xbe010ace	-0.12601778
232	0x3dbcf5a3	0.09226539
233	0x3d80b954	0.062853485
234	0x3d8d1dd7	0.06890457
235	0xbdaff7e7	-0.085922055
236	0xbd950da4	-0.07277992
237	0xbdbb37ab	-0.09141477
238	0xbdd4171b	-0.103559695
239	0xbdba7be1	-0.09105659
240	0x3e108785	0.14114197
241	0x3e2ec092	0.17065647
242	0x3dce1b2d	0.10063777
243	0xbe136a3e	-0.14395997
244	0xbe0d97c9	-0.13827433
245	0xbdb0a987	-0.08626085
246	0xbe018a23	-0.12650351
247	0xbdfdc337	-0.1239075
248	0x3defda7f	0.11711597
249	0x3dbdf48b	0.092751585
250	0x3dba2502	0.0908909
251	0xbe096aff	-0.13419722
252	0xbddab8da	-0.10679789
253	0xbe0990e0	-0.13434172
254	0xbe17fcfc	-0.148426
255	0xbdf2e43c	-0.118599385

act_fun.0.mask f4 [3, 32]
0	0x3f800000	1.0
1	0x3f800000	1.0
2	0x3f800000	1.0
3	0x3f800000	1.0
4	0x3f800000	1.0
5	0x3f800000	1.0
6	0x3f800000	1.0
7	0x3f800000	1.0
8	0x3f800000	1.0
9	0x3f800000	1.0
10	0x3f800000	1.0
11	0x3f800000	1.0
12	0x3f800000	1.0
13	0x3f800000	1.0
14	0x3f800000	1.0
15	0x3f800000	1.0
16	0x3f800000	1.0
17	0x3f800000	1.0
18	0x3f800000	1.0
19	0x3f800000	1.0
20	0x3f800000	1.0
21	0x3f800000	1.0
22	0x3f800000	1.0
23	0x3f800000	1.0
24	0x3f800000	1.0
25	0x3f800000	1.0
26	0x3f800000	1.0
27	0x3f800000	1.0
28	0x3f800000	1.0
29	0x3f800000	1.0
30	0x3f800000	1.0
31	0x3f800000	1.0
32	0x3f800000	1.0
33	0x3f800000	1.0
34	0x3f800000	1.0
35	0x3f800000	1.0
36	0x3f800000	1.0
37	0x3f800000	1.0
38	0x3f800000	1.0
39	0x3f800000	1.0
40	0x3f800000	1.0
41	0x3f800000	1.0
42	0x3f800000	1.0
43	0x3f800000	1.0
44	0x3f800000	1.0
45	0x3f800000	1.0
46	0x3f800000	1.0
47	0x3f800000	1.0
48	0x3f800000	1.0
49	0x3f800000	1.0
50	0x3f800000	1.0
51	0x3f800000	1.0
52	0x3f800000	1.0
53	0x3f800000	1.0
54	0x3f800000	1.0
55	0x3f800000	1.0
56	0x3f800000	1.0
57	0x3f800000	1.0
58	0x3f800000	1.0
59	0x3f800000	1.0
60	0x3f800000	1.0
61	0x3f800000	1.0
62	0x3f800000	1.0
63	0x3f800000	1.0
64	0x3f800000	1.0
65	0x3f800000	1.0
66	0x3f800000	1.0
67	0x3f800000	1.0
68	0x3f800000	1.0
69	0x3f800000	1.0
70	0x3f800000	1.0
71	0x3f800000	1.0
72	0x3f800000	1.0
73	0x3f800000	1.0
74	0x3f800000	1.0
75	0x3f800000	1.0
76	0x3f800000	1.0
77	0x3f800000	1.0
78	0x3f800000	1.0
79	0x3f800000	1.0
80	0x3f800000	1.0
81	0x3f800000	1.0
82	0x3f800000	1.0
83	0x3f800000	1.0
84	0x3f800000	1.0
85	0x3f800000	1.0
86	0x3f800000	1.0
87	0x3f800000	1.0
88	0x3f800000	1.0
89	0x3f800000	1.0
90	0x3f800000	1.0
91	0x3f800000	1.0
92	0x3f800000	1.0
93	0x3f800000	1.0
94	0x3f800000	1.0
95	0x3f800000	1.0

act_fun.0.scale_base f4 [3, 32]
0	0xbd51f135	-0.051255424
1	0x3ec0bf14	0.3764578
2	0xbe2b1bf4	-0.16709882
3	0xbec7a223	-0.38990888
4	0x3e6faf0e	0.23406622
5	0xbf1efde6	-0.6210617
6	0x3e3fcedd	0.18731256
7	0x3f0edb1c	0.55803084
8	0x3e5d3c4e	0.21605036
9	0x3daeef1f	0.085417025
10	0xbee82876	-0.4534337
11	0x3dde660d	0.108593084
12	0x3e1fa0ed	0.15588732
13	0x3e82abdd	0.25521746
14	0x3dd7aea8	0.1053136
15	0x3f1ac162	0.6045133
16	0xbf10514a	-0.5637404
17	0xbdae5c3b	-0.08513685
18	0xbececadb	-0.4038914
19	0xbf006c7c	-0.50165534
20	0xbe29f2d5	-0.1659654
21	0xbf1de3da	-0.616758
22	0x3f054e39	0.52072483
23	0xbd20a1ff	-0.03921699
24	0xbe4c24a7	-0.19935857
25	0x3ecced2d	0.400247
26	0xbf217a47	-0.63077205
27	0xbea6a489	-0.32547405
28	0xbe700ad6	-0.23441634
29	0xbf167aec	-0.58781314
30	0xbefae870	-0.4900546
31	0xbe54abbc	-0.20768636
32	0x3f0e8a6f	0.5567998
33	0x3f22b831	0.63562304
34	0x3ef9ed70	0.48813963
35	0xbeed0c3a	-0.4629839
36	0xbf0116af	-0.5042524
37	0x3ec37a8b	0.3817943
38	0x3ea5b178	0.3236196
39	0x3daefd84	0.08544448
40	0x3e4a5c7c	0.19761842
41	0xbf0adf4c	-0.54246974
42	0xbea08df0	-0.3135829
43	0x3f2c6f19	0.6735702
44	0xbc88f0f6	-0.016716462
45	0x3daae5a8	0.08344585
46	0xbf195a65	-0.59903556
47	0xbe5c3bbd	-0.21507163
48	0xbe0d4fc9	-0.13799967
49	0xbeecc254	-0.4624201
50	0xbe43b615	-0.19112428
51	0x3ea73b4c	0.32662427
52	0xbf2f6d7b	-0.6852643
53	0x3d66023f	0.056154486
54	0xbe84c54e	-0.25931782
55	0xbeca702c	-0.39538705
56	0x3eadea58	0.33967853
57	0x3f0f6da0	0.5602665
58	0xbe84a3f3	-0.25906333
59	0xbeb02d2d	-0.34409466
60	0xbf245e87	-0.6420674
61	0xbecbb71f	-0.39788148
62	0xbf20a2ff	-0.6274871
63	0xbe80111d	-0.25013056
64	0x3e32f381	0.17475702
65	0xbef63b35	-0.48092046
66	0x3f121627	0.5706505
67	0x3e802e4c	0.25035322
68	0xbf082446	-0.5318035
69	0xbe97506f	-0.29553553
70	0x3e7fabc6	0.2496787
71	0xbd650806	-0.055915855
72	0x3d1bef7d	0.03807019
73	0xbe7ba6ed	-0.24575396
74	0x3eb36454	0.35037482
75	0xbe5539e7	-0.20822869
76	0x3f177028	0.5915551
77	0x3de4a2ce	0.11163865
78	0x3d910da3	0.07082679
79	0x3ec46e94	0.38365614
80	0xbde8d835	-0.11369363
81	0xbe5790da	-0.2105135
82	0xbddbbc3e	-0.10729264
83	0x3f01f246	0.50760305
84	0xbebb6843	-0.36602983
85	0x3cb20e17	0.021735234
86	0xbee58b4c	-0.44832838
87	0x3ea961f6	0.3308255
88	0x3e922f70	0.28551817
89	0x3d7dfb33	0.06200714
90	0x3e153659	0.14571513
91	0x3cb04022	0.021514956
92	0x3e4ff008	0.20306408
93	0xbeacc383	-0.33742914
94	0xbd744bae	-0.059642486
95	0x3e18bb5c	0.14915222

act_fun.0.scale_sp f4 [3, 32]
0	0x3f2e4289	0.68070275
1	0x3f269cae	0.65082824
2	0x3f350e6b	0.70725125
3	0x3f359594	0.70931363
4	0x3f31597a	0.69277155
5	0x3f35c360	0.71001244
6	0x3f3557dd	0.70837194
7	0x3f26fa30	0.65225506
8	0x3f2c3098	0.6726165
9	0x3f1cc71b	0.6124131
10	0x3f2fcc98	0.6867156
11	0x3f357288	0.70877886
12	0x3f35bbb5	0.70989543
13	0x3f2e2479	0.680244
14	0x3f359aef	0.70939535
15	0x3f2ddc6c	0.6791446
16	0x3f33e47d	0.7027052
17	0x3f247bda	0.6425148
18	0x3f2a635a	0.6655785
19	0x3f34334c	0.7039077
20	0x3f35a5be	0.7095603
21	0x3f2f45c9	0.6846586
22	0x3f3546c2	0.7081109
23	0x3f2f1418	0.68390036
24	0x3f35a837	0.709598
25	0x3f2df973	0.67958754
26	0x3f280e88	0.6564717
27	0x3f276742	0.65391934
28	0x3f2ff8f3	0.6873924
29	0x3f1c29cf	0.61001295
30	0x3f362bab	0.7116038
31	0x3f2caa6b	0.6744754
32	0x3f33bf84	0.70214105
33	0x3f2313e6	0.6370224
34	0x3f252ac7	0.645184
35	0x3f34c983	0.7061998
36	0x3f2bdaa7	0.6713051
37	0x3f35c106	0.70997655
38	0x3f34d739	0.70640904
39	0x3f2617f3	0.64880294
40	0x3f33fb8e	0.70305717
41	0x3f1f2d2a	0.6217829
42	0x3f356bbd	0.7086752
43	0x3f2bd288	0.6711812
44	0x3f351381	0.70732886
45	0x3f313b39	0.6923099
46	0x3f3126bf	0.69199747
47	0x3f3450f3	0.7043602
48	0x3f362c32	0.71161187
49	0x3f2b025a	0.66800463
50	0x3f35cc92	0.71015275
51	0x3f2dcee1	0.678938
52	0x3f34cfb1	0.7062941
53	0x3f2bdd9e	0.67135036
54	0x3f35c3e8	0.71002054
55	0x3f31ebb0	0.69500256
56	0x3f30aefd	0.6901701
57	0x3f309571	0.6897803
58	0x3f302493	0.6880581
59	0x3f244809	0.64172417
60	0x3f2ec264	0.68265367
61	0x3f35ec4d	0.7106369
62	0x3f36098d	0.71108323
63	0x3f2b784c	0.66980433
64	0x3f2f5c6d	0.68500406
65	0x3f2f139e	0.6838931
66	0x3f26f4b0	0.65217113
67	0x3f2ca6d7	0.6744208
68	0x3f285671	0.657569
69	0x3f2fde03	0.6869814
70	0x3f2daec8	0.6784482
71	0x3f296506	0.66169775
72	0x3f2ab906	0.66688573
73	0x3f2b523f	0.6692237
74	0x3f30c570	0.69051266
75	0x3f303070	0.6882391
76	0x3f355826	0.7083763
77	0x3f30da33	0.69082946
78	0x3f314b05	0.69255096
79	0x3f319b78	0.6937785
80	0x3f30d6a4	0.69077516
81	0x3f36bf32	0.7138549
82	0x3f34d973	0.706443
83	0x3f340c4e	0.70331275
84	0x3f35b3f3	0.70977706
85	0x3f2cc8ce	0.67493904
86	0x3f2da019	0.67822415
87	0x3f28d800	0.6595459
88	0x3f1eb794	0.6199887
89	0x3f24ba46	0.6434673
90	0x3f30bfd7	0.69042724
91	0x3f2f44a8	0.68464136
92	0x3f35ae3a	0.70968974
93	0x3f21a73c	0.63145804
94	0x3f2e8af7	0.68180794
95	0x3f33dcdd	0.70258886

act_fun.1.grid f4 [32, 12]
0	0xc00ccccd	-2.2
1	0xbfe66666	-1.8
2	0xbfb33333	-1.4
3	0xbf800000	-1.0
4	0xbf19999a	-0.6
5	0xbe4ccccc	-0.19999999
6	0x3e4ccccc	0.19999999
7	0x3f19999a	0.6
8	0x3f800000	1.0
9	0x3fb33333	1.4
10	0x3fe66666	1.8
11	0x400ccccd	2.2
12	0xc00ccccd	-2.2
13	0xbfe66666	-1.8
14	0xbfb33333	-1.4
15	0xbf800000	-1.0
16	0xbf19999a	-0.6
17	0xbe4ccccc	-0.19999999
18	0x3e4ccccc	0.19999999
19	0x3f19999a	0.6
20	0x3f800000	1.0
21	0x3fb33333	1.4
22	0x3fe66666	1.8
23	0x400ccccd	2.2
24	0xc00ccccd	-2.2
25	0xbfe66666	-1.8
26	0xbfb33333	-1.4
27	0xbf800000	-1.0
28	0xbf19999a	-0.6
29	0xbe4ccccc	-0.19999999
30	0x3e4ccccc	0.19999999
31	0x3f19999a	0.6
32	0x3f800000	1.0
33	0x3fb33333	1.4
34	0x3fe66666	1.8
35	0x400ccccd	2.2
36	0xc00ccccd	-2.2
37	0xbfe66666	-1.8
38	0xbfb33333	-1.4
39	0xbf800000	-1.0
40	0xbf19999a	-0.6
41	0xbe4ccccc	-0.19999999
42	0x3e4ccccc	0.19999999
43	0x3f19999a	0.6
44	0x3f800000	1.0
45	0x3fb33333	1.4
46	0x3fe66666	1.8
47	0x400ccccd	2.2
48	0xc00ccccd	-2.2
49	0xbfe66666	-1.8
50	0xbfb33333	-1.4
51	0xbf800000	-1.0
52	0xbf19999a	-0.6
53	0xbe4ccccc	-0.19999999
54	0x3e4ccccc	0.19999999
55	0x3f19999a	0.6
56	0x3f800000	1.0
57	0x3fb33333	1.4
58	0x3fe66666	1.8
59	0x400ccccd	2.2
60	0xc00ccccd	-2.2
61	0xbfe66666	-1.8
62	0xbfb33333	-1.4
63	0xbf800000	-1.0
64	0xbf19999a	-0.6
65	0xbe4ccccc	-0.19999999
66	0x3e4ccccc	0.19999999
67	0x3f19999a	0.6
68	0x3f800000	1.0
69	0x3fb33333	1.4
70	0x3fe66666	1.8
71	0x400ccccd	2.2
72	0xc00ccccd	-2.2
73	0xbfe66666	-1.8
74	0xbfb33333	-1.4
75	0xbf800000	-1.0
76	0xbf19999a	-0.6
77	0xbe4ccccc	-0.19999999
78	0x3e4ccccc	0.19999999
79	0x3f19999a	0.6
80	0x3f800000	1.0
81	0x3fb33333	1.4
82	0x3fe66666	1.8
83	0x400ccccd	2.2
84	0xc00ccccd	-2.2
85	0xbfe66666	-1.8
86	0xbfb33333	-1.4
87	0xbf800000	-1.0
88	0xbf19999a	-0.6
89	0xbe4ccccc	-0.19999999
90	0x3e4ccccc	0.19999999
91	0x3f19999a	0.6
92	0x3f800000	1.0
93	0x3fb33333	1.4
94	0x3fe66666	1.8
95	0x400ccccd	2.2
96	0xc00ccccd	-2.2
97	0xbfe66666	-1.8
98	0xbfb33333	-1.4
99	0xbf800000	-1.0
100	0xbf19999a	-0.6
101	0xbe4ccccc	-0.19999999
102	0x3e4ccccc	0.19999999
103	0x3f19999a	0.6
104	0x3f800000	1.0
105	0x3fb33333	1.4
106	0x3fe66666	1.8
107	0x400ccccd	2.2
108	0xc00ccccd	-2.2
109	0xbfe66666	-1.8
110	0xbfb33333	-1.4
111	0xbf800000	-1.0
112	0xbf19999a	-0.6
113	0xbe4ccccc	-0.19999999
114	0x3e4ccccc	0.19999999
115	0x3f19999a	0.6
116	0x3f800000	1.0
117	0x3fb33333	1.4
118	0x3fe66666	1.8
119	0x400ccccd	2.2
120	0xc00ccccd	-2.2
121	0xbfe66666	-1.8
122	0xbfb33333	-1.4
123	0xbf800000	-1.0
124	0xbf19999a	-0.6
125	0xbe4ccccc	-0.19999999
126	0x3e4ccccc	0.19999999
127	0x3f19999a	0.6
128	0x3f800000	1.0
129	0x3fb33333	1.4
130	0x3fe66666	1.8
131	0x400ccccd	2.2
132	0xc00ccccd	-2.2
133	0xbfe66666	-1.8
134	0xbfb33333	-1.4
135	0xbf800000	-1.0
136	0xbf19999a	-0.6
137	0xbe4ccccc	-0.19999999
138	0x3e4ccccc	0.19999999
139	0x3f19999a	0.6
140	0x3f800000	1.0
141	0x3fb33333	1.4
142	0x3fe66666	1.8
143	0x400ccccd	2.2
144	0xc00ccccd	-2.2
145	0xbfe66666	-1.8
146	0xbfb33333	-1.4
147	0xbf800000	-1.0
148	0xbf19999a	-0.6
149	0xbe4ccccc	-0.19999999
150	0x3e4ccccc	0.19999999
151	0x3f19999a	0.6
152	0x3f800000	1.0
153	0x3fb33333	1.4
154	0x3fe66666	1.8
155	0x400ccccd	2.2
156	0xc00ccccd	-2.2
157	0xbfe66666	-1.8
158	0xbfb33333	-1.4
159	0xbf800000	-1.0
160	0xbf19999a	-0.6
161	0xbe4ccccc	-0.19999999
162	0x3e4ccccc	0.19999999
163	0x3f19999a	0.6
164	0x3f800000	1.0
165	0x3fb33333	1.4
166	0x3fe66666	1.8
167	0x400ccccd	2.2
168	0xc00ccccd	-2.2
169	0xbfe66666	-1.8
170	0xbfb33333	-1.4
171	0xbf800000	-1.0
172	0xbf19999a	-0.6
173	0xbe4ccccc	-0.19999999
174	0x3e4ccccc	0.19999999
175	0x3f19999a	0.6
176	0x3f800000	1.0
177	0x3fb33333	1.4
178	0x3fe66666	1.8
179	0x400ccccd	2.2
180	0xc00ccccd	-2.2
181	0xbfe66666	-1.8
182	0xbfb33333	-1.4
183	0xbf800000	-1.0
184	0xbf19999a	-0.6
185	0xbe4ccccc	-0.19999999
186	0x3e4ccccc	0.19999999
187	0x3f19999a	0.6
188	0x3f800000	1.0
189	0x3fb33333	1.4
190	0x3fe66666	1.8
191	0x400ccccd	2.2
192	0xc00ccccd	-2.2
193	0xbfe66666	-1.8
194	0xbfb33333	-1.4
195	0xbf800000	-1.0
196	0xbf19999a	-0.6
197	0xbe4ccccc	-0.19999999
198	0x3e4ccccc	0.19999999
199	0x3f19999a	0.6
200	0x3f800000	1.0
201	0x3fb33333	1.4
202	0x3fe66666	1.8
203	0x400ccccd	2.2
204	0xc00ccccd	-2.2
205	0xbfe66666	-1.8
206	0xbfb33333	-1.4
207	0xbf800000	-1.0
208	0xbf19999a	-0.6
209	0xbe4ccccc	-0.19999999
210	0x3e4ccccc	0.19999999
211	0x3f19999a	0.6
212	0x3f800000	1.0
213	0x3fb33333	1.4
214	0x3fe66666	1.8
215	0x400ccccd	2.2
216	0xc00ccccd	-2.2
217	0xbfe66666	-1.8
218	0xbfb33333	-1.4
219	0xbf800000	-1.0
220	0xbf19999a	-0.6
221	0xbe4ccccc	-0.19999999
222	0x3e4ccccc	0.19999999
223	0x3f19999a	0.6
224	0x3f800000	1.0
225	0x3fb33333	1.4
226	0x3fe66666	1.8
227	0x400ccccd	2.2
228	0xc00ccccd	-2.2
229	0xbfe66666	-1.8
230	0xbfb33333	-1.4
231	0xbf800000	-1.0
232	0xbf19999a	-0.6
233	0xbe4ccccc	-0.19999999
234	0x3e4ccccc	0.19999999
235	0x3f19999a	0.6
236	0x3f800000	1.0
237	0x3fb33333	1.4
238	0x3fe66666	1.8
239	0x400ccccd	2.2
240	0xc00ccccd	-2.2
241	0xbfe66666	-1.8
242	0xbfb33333	-1.4
243	0xbf800000	-1.0
244	0xbf19999a	-0.6
245	0xbe4ccccc	-0.19999999
246	0x3e4ccccc	0.19999999
247	0x3f19999a	0.6
248	0x3f800000	1.0
249	0x3fb33333	1.4
250	0x3fe66666	1.8
251	0x400ccccd	2.2
252	0xc00ccccd	-2.2
253	0xbfe66666	-1.8
254	0xbfb33333	-1.4
255	0xbf800000	-1.0

act_fun.1.coef f4 [32, 16, 8]
0	0x3c44e5bc	0.012017664
1	0x3dd49956	0.10380809
2	0x3de94611	0.11390317
3	0x3ded8c35	0.11599008
4	0x3dac9019	0.08425922
5	0xbde8a08b	-0.11358746
6	0xbd972b77	-0.07381337
7	0xbc004777	-0.007829539
8	0x3c30bed0	0.010787681
9	0x3d998952	0.07496895
10	0xbd895db2	-0.06707324
11	0xbc960c23	-0.018316334
12	0x3dc697b4	0.09696904
13	0x3e2785cd	0.16359635
14	0x3e2098d3	0.15683298
15	0x3de41dff	0.11138534
16	0xbc1b1364	-0.009465072
17	0x3bdd1e89	0.006748025
18	0xbcb4e23b	-0.022080531
19	0xbdb37e86	-0.08764367
20	0x3dd1f033	0.102508925
21	0x3e2c0d74	0.16802007
22	0x3def2bc1	0.11678267
23	0x3dce63b0	0.10077608
24	0x3c270498	0.010193966
25	0x3dd237fe	0.10264586
26	0x3de3e599	0.11127777
27	0x3dd46f45	0.103727855
28	0x3d36912d	0.044572044
29	0xbe19e82f	-0.15029977
30	0xbd95b56d	-0.07309995
31	0xbc9c5e77	-0.019088013
32	0xbbbbc850	-0.005730666
33	0xbd48d354	-0.049029663
34	0xbdb9eb70	-0.09078109
35	0xbe11a3c4	-0.14222628
36	0x3e039eae	0.128535
37	0x3de97691	0.11399568
38	0x3e243d12	0.16038921
39	0x3ddf845d	0.10913918
40	0xbbe8c6c0	-0.007103771
41	0xbc931867	-0.017955972
42	0xbd8082a6	-0.06274919
43	0xbde70a63	-0.11281278
44	0x3e2ef1d4	0.17084438
45	0x3da5efe3	0.081023954
46	0x3e2e42b8	0.17017639
47	0x3e0331ce	0.12811968
48	0xbbbc5f48	-0.005748663
49	0x3d08df37	0.033416
50	0x3dd404c1	0.10352469
51	0x3e3d6ea7	0.18499242
52	0xbaee454d	-0.0018178612
53	0xbd8ef9f7	-0.06981271
54	0xbe23df34	-0.16003114
55	0xbd82d23a	-0.06387754
56	0xbc1eaf34	-0.009685326
57	0x3d4ef97d	0.0505309
58	0x3e3b5ffc	0.18298334
59	0x3da30096	0.07959096
60	0x3d3648af	0.04450291
61	0xbe2ab8bb	-0.16672032
62	0xbd972cb3	-0.073815726
63	0x3c648bf8	0.013949387
64	0x3bbe4584	0.0058066268
65	0x3dbe02ff	0.09277915
66	0x3e1a4783	0.15066342
67	0x3e17ee31	0.14836957
68	0xbd537b3c	-0.051631197
69	0xbd9d2969	-0.07673914
70	0xbe2524dc	-0.16127342
71	0xbde821df	-0.113345854
72	0x3c17f680	0.009275079
73	0x3dabb3ad	0.0838388
74	0x3d9c9372	0.076453105
75	0x3e2bbc6e	0.16771099
76	0x3d2ece54	0.04267724
77	0xbde9deeb	-0.11419471
78	0xbde53a56	-0.11192767
79	0xbca4f38a	-0.02013566
80	0x39d0b7d0	0.00039809803
81	0x3d38bce7	0.045102026
82	0x3da761ae	0.08172928
83	0x3e3814df	0.17976712
84	0xbd031bd9	-0.03200898
85	0xbdb6584c	-0.0890356
86	0xbdeea3cd	-0.11652336
87	0xbcab57d5	-0.020915905
88	0x3c113c10	0.008864418
89	0x3d8d90db	0.069123946
90	0xbd801cb0	-0.06255472
91	0xbdc6c237	-0.09705012
92	0x3e139885	0.1441365
93	0x3e0975db	0.13423865
94	0x3e105394	0.14094383
95	0x3dd1aaed	0.1023768
96	0xba9de8b8	-0.0012047505
97	0x3d4fff2b	0.050780457
98	0x3dd24717	0.102674656
99	0x3dedcbb7	0.11611121
100	0x3d80e048	0.06292778
101	0xbe1f2665	-0.1554199
102	0x3c688037	0.014190725
103	0x3cad2313	0.021134889
104	0x3c8681c6	0.016419303
105	0x3dca436e	0.098761424
106	0xbd27a6bc	-0.040930495
107	0x3c607b50	0.013701275
108	0xbcb74b55	-0.022374788
109	0x3dcd0883	0.10011389
110	0x3cd3912d	0.025826061
111	0xbadc1729	-0.001679157
112	0xbc0db7a0	-0.008649737
113	0xbc40056a	-0.011720041
114	0xbd8b4b85	-0.068015136
115	0xbd8f28d9	-0.06990213
116	0x3dd1ebb3	0.10250034
117	0x3e1ffab9	0.15622987
118	0x3dc49d12	0.09600271
119	0x3dc49f2e	0.096006736
120	0x39423d9c	0.00018524233
121	0x3d3e37f2	0.046440072
122	0x3ddaf119	0.10690517
123	0x3e361fd7	0.17785583
124	0xbd112f38	-0.035445422
125	0xbe19136c	-0.14948815
126	0xbdc531a1	-0.096286066
127	0xbc9e1331	-0.01929626
128	0xbdd30249	-0.1030317
129	0xbd19cf1c	-0.03755103
130	0x3ddd65aa	0.108104065
131	0x3ddcfe74	0.107907206
132	0xbdb4a8ab	-0.08821233
133	0xbd8a3024	-0.06747463
134	0xbbb39a03	-0.005481006
135	0x3d4d3893	0.05010278
136	0x3dd2c61a	0.10291691
137	0x3dbdcdbb	0.092677556
138	0xbdaca501	-0.084299095
139	0xbbec7c98	-0.007217001
140	0x3d76f6c3	0.060293924
141	0x3e254fb0	0.1614368
142	0x3ddf551e	0.10904907
143	0x3de4b158	0.11166638
144	0x3de55c0f	0.111991994
145	0x3e01f635	0.12691577
146	0xbe0a0315	-0.13477738
147	0xbd4cc29c	-0.04999028
148	0x3dc9ae69	0.09847719
149	0x3e16b524	0.14717537
150	0x3de8cf5e	0.11367677
151	0x3ddb3bc7	0.10704761
152	0xbdc3a12d	-0.09552226
153	0x3d0620d8	0.032746166
154	0x3e2d732c	0.16938466
155	0x3d5d1f4b	0.05398492
156	0x3db597e5	0.08866862
157	0xbde82500	-0.11335182
158	0xbddf111b	-0.108919345
159	0xbda6ca8d	-0.08144102
160	0x3dfa781c	0.1222994
161	0x3e072ca4	0.13200623
162	0xbdf71be4	-0.120658666
163	0xbdb0be7b	-0.08630081
164	0x3e1b1e06	0.15148172
165	0x3e00f9eb	0.12595336
166	0x3dd58f3a	0.10427709
167	0x3de589be	0.11207913
168	0x3df3fc55	0.11913363
169	0x3e200778	0.15627849
170	0xbe1d7074	-0.15374929
171	0xbdb7ece6	-0.08980732
172	0x3dc2915a	0.0950038
173	0x3dd101bb	0.10205408
174	0x3e0d8705	0.13821037
175	0x3e052f03	0.13006215
176	0xbda9b1a5	-0.08285836
177	0xbbb2cd2c	-0.0054565873
178	0x3e087def	0.1332929
179	0x3e12b978	0.14328563
180	0x3da35db9	0.079768606
181	0xbde7fafc	-0.11327168
182	0xbd7ddf3b	-0.061980467
183	0xbbc12ec6	-0.0058954684
184	0xbc03f28c	-0.008053433
185	0x3cc191bf	0.023629067
186	0x3df7ce01	0.12099839
187	0x3de32935	0.11091844
188	0x3cfd593c	0.03092634
189	0xbdb076b5	-0.086163916
190	0xbd3ff9ed	-0.046869207
191	0xbd0d0d09	-0.03443626
192	0xbdbed11a	-0.09317227
193	0x3bad2fd4	0.0052852426
194	0x3e18acf0	0.1490972
195	0x3de9a92b	0.11409219
196	0xbd175656	-0.03694757
197	0xbdaf300f	-0.08554088
198	0xbc8e00a5	-0.017334292
199	0xbbc4529d	-0.0059912936
200	0xbd89ea29	-0.06734116
201	0x3db1d9fa	0.08684154
202	0x3e07aaad	0.13248701
203	0x3e1ef556	0.15523276
204	0x3c433398	0.011914156
205	0xbd89b0d7	-0.06723183
206	0xbdc47e23	-0.09594371
207	0xbd296097	-0.04135188
208	0xbd870379	-0.06592459
209	0xbd7c82b6	-0.061648093
210	0x3e48147e	0.19539067
211	0x3d5199e4	0.051172152
212	0xbcc3a9c1	-0.023884656
213	0xbe21bee5	-0.15795477
214	0xbc1f1572	-0.009709703
215	0x3cad0a32	0.021123026
216	0x3dff2135	0.124575056
217	0x3e240777	0.16018473
218	0xbe013acb	-0.12620084
219	0xbdb0cf60	-0.08633304
220	0x3ca63892	0.020290647
221	0x3e32df17	0.17467915
222	0x3dcfed60	0.101526976
223	0x3deaf649	0.114727564
224	0xbdc562a8	-0.09637958
225	0x3be9aeb8	0.007131424
226	0x3e2572e0	0.16157103
227	0x3d8b1d43	0.067926906
228	0xbc09d3e5	-0.008412336
229	0xbe117cd3	-0.14207773
230	0x3c5d2adf	0.013498991
231	0x3cddd6a4	0.027079888
232	0xbd1ce71a	-0.038306333
233	0xbd6031c6	-0.054734968
234	0x3d63da25	0.05562796
235	0x3cc947ef	0.024570433
236	0x3c6efc50	0.014586523
237	0x3df0b05c	0.11752388
238	0xbc5b8225	-0.013397728
239	0xbcbea819	-0.023273515
240	0x3dd591d0	0.10428202
241	0x3dbd66d8	0.092481315
242	0xbe0b7666	-0.13619384
243	0xbcfff32a	-0.03124388
244	0x3d9a782a	0.07542451
245	0x3e22327a	0.15839568
246	0x3e16a9c1	0.14713193
247	0x3dfcc259	0.123417564
248	0xbdf580a7	-0.11987429
249	0xbd871f71	-0.06597794
250	0x3e44fbda	0.19236699
251	0x3db65260	0.089024305
252	0xbe2d4ce7	-0.16923867
253	0xbd9e002f	-0.07714879
254	0xbd9929b5	-0.07478658
255	0xbd2f74ac	-0.042835876

act_fun.1.mask f4 [32, 16]
0	0x3f800000	1.0
1	0x3f800000	1.0
2	0x3f800000	1.0
3	0x3f800000	1.0
4	0x3f800000	1.0
5	0x3f800000	1.0
6	0x3f800000	1.0
7	0x3f800000	1.0
8	0x3f800000	1.0
9	0x3f800000	1.0
10	0x3f800000	1.0
11	0x3f800000	1.0
12	0x3f800000	1.0
13	0x3f800000	1.0
14	0x3f800000	1.0
15	0x3f800000	1.0
16	0x3f800000	1.0
17	0x3f800000	1.0
18	0x3f800000	1.0
19	0x3f800000	1.0
20	0x3f800000	1.0
21	0x3f800000	1.0
22	0x3f800000	1.0
23	0x3f800000	1.0
24	0x3f800000	1.0
25	0x3f800000	1.0
26	0x3f800000	1.0
27	0x3f800000	1.0
28	0x3f800000	1.0
29	0x3f800000	1.0
30	0x3f800000	1.0
31	0x3f800000	1.0
32	0x3f800000	1.0
33	0x3f800000	1.0
34	0x3f800000	1.0
35	0x3f800000	1.0
36	0x3f800000	1.0
37	0x3f800000	1.0
38	0x3f800000	1.0
39	0x3f800000	1.0
40	0x3f800000	1.0
41	0x3f800000	1.0
42	0x3f800000	1.0
43	0x3f800000	1.0
44	0x3f800000	1.0
45	0x3f800000	1.0
46	0x3f800000	1.0
47	0x3f800000	1.0
48	0x3f800000	1.0
49	0x3f800000	1.0
50	0x3f800000	1.0
51	0x3f800000	1.0
52	0x3f800000	1.0
53	0x3f800000	1.0
54	0x3f800000	1.0
55	0x3f800000	1.0
56	0x3f800000	1.0
57	0x3f800000	1.0
58	0x3f800000	1.0
59	0x3f800000	1.0
60	0x3f800000	1.0
61	0x3f800000	1.0
62	0x3f800000	1.0
63	0x3f800000	1.0
64	0x3f800000	1.0
65	0x3f800000	1.0
66	0x3f800000	1.0
67	0x3f800000	1.0
68	0x3f800000	1.0
69	0x3f800000	1.0
70	0x3f800000	1.0
71	0x3f800000	1.0
72	0x3f800000	1.0
73	0x3f800000	1.0
74	0x3f800000	1.0
75	0x3f800000	1.0
76	0x3f800000	1.0
77	0x3f800000	1.0
78	0x3f800000	1.0
79	0x3f800000	1.0
80	0x3f800000	1.0
81	0x3f800000	1.0
82	0x3f800000	1.0
83	0x3f800000	1.0
84	0x3f800000	1.0
85	0x3f800000	1.0
86	0x3f800000	1.0
87	0x3f800000	1.0
88	0x3f800000	1.0
89	0x3f800000	1.0
90	0x3f800000	1.0
91	0x3f800000	1.0
92	0x3f800000	1.0
93	0x3f800000	1.0
94	0x3f800000	1.0
95	0x3f800000	1.0
96	0x3f800000	1.0
97	0x3f800000	1.0
98	0x3f800000	1.0
99	0x3f800000	1.0
100	0x3f800000	1.0
101	0x3f800000	1.0
102	0x3f800000	1.0
103	0x3f800000	1.0
104	0x3f800000	1.0
105	0x3f800000	1.0
106	0x3f800000	1.0
107	0x3f800000	1.0
108	0x3f800000	1.0
109	0x3f800000	1.0
110	0x3f800000	1.0
111	0x3f800000	1.0
112	0x3f800000	1.0
113	0x3f800000	1.0
114	0x3f800000	1.0
115	0x3f800000	1.0
116	0x3f800000	1.0
117	0x3f800000	1.0
118	0x3f800000	1.0
119	0x3f800000	1.0
120	0x3f800000	1.0
121	0x3f800000	1.0
122	0x3f800000	1.0
123	0x3f800000	1.0
124	0x3f800000	1.0
125	0x3f800000	1.0
126	0x3f800000	1.0
127	0x3f800000	1.0
128	0x3f800000	1.0
129	0x3f800000	1.0
130	0x3f800000	1.0
131	0x3f800000	1.0
132	0x3f800000	1.0
133	0x3f800000	1.0
134	0x3f800000	1.0
135	0x3f800000	1.0
136	0x3f800000	1.0
137	0x3f800000	1.0
138	0x3f800000	1.0
139	0x3f800000	1.0
140	0x3f800000	1.0
141	0x3f800000	1.0
142	0x3f800000	1.0
143	0x3f800000	1.0
144	0x3f800000	1.0
145	0x3f800000	1.0
146	0x3f800000	1.0
147	0x3f800000	1.0
148	0x3f800000	1.0
149	0x3f800000	1.0
150	0x3f800000	1.0
151	0x3f800000	1.0
152	0x3f800000	1.0
153	0x3f800000	1.0
154	0x3f800000	1.0
155	0x3f800000	1.0
156	0x3f800000	1.0
157	0x3f800000	1.0
158	0x3f800000	1.0
159	0x3f800000	1.0
160	0x3f800000	1.0
161	0x3f800000	1.0
162	0x3f800000	1.0
163	0x3f800000	1.0
164	0x3f800000	1.0
165	0x3f800000	1.0
166	0x3f800000	1.0
167	0x3f800000	1.0
168	0x3f800000	1.0
169	0x3f800000	1.0
170	0x3f800000	1.0
171	0x3f800000	1.0
172	0x3f800000	1.0
173	0x3f800000	1.0
174	0x3f800000	1.0
175	0x3f800000	1.0
176	0x3f800000	1.0
177	0x3f800000	1.0
178	0x3f800000	1.0
179	0x3f800000	1.0
180	0x3f800000	1.0
181	0x3f800000	1.0
182	0x3f800000	1.0
183	0x3f800000	1.0
184	0x3f800000	1.0
185	0x3f800000	1.0
186	0x3f800000	1.0
187	0x3f800000	1.0
188	0x3f800000	1.0
189	0x3f800000	1.0
190	0x3f800000	1.0
191	0x3f800000	1.0
192	0x3f800000	1.0
193	0x3f800000	1.0
194	0x3f800000	1.0
195	0x3f800000	1.0
196	0x3f800000	1.0
197	0x3f800000	1.0
198	0x3f800000	1.0
199	0x3f800000	1.0
200	0x3f800000	1.0
201	0x3f800000	1.0
202	0x3f800000	1.0
203	0x3f800000	1.0
204	0x3f800000	1.0
205	0x3f800000	1.0
206	0x3f800000	1.0
207	0x3f800000	1.0
208	0x3f800000	1.0
209	0x3f800000	1.0
210	0x3f800000	1.0
211	0x3f800000	1.0
212	0x3f800000	1.0
213	0x3f800000	1.0
214	0x3f800000	1.0
215	0x3f800000	1.0
216	0x3f800000	1.0
217	0x3f800000	1.0
218	0x3f800000	1.0
219	0x3f800000	1.0
220	0x3f800000	1.0
221	0x3f800000	1.0
222	0x3f800000	1.0
223	0x3f800000	1.0
224	0x3f800000	1.0
225	0x3f800000	1.0
226	0x3f800000	1.0
227	0x3f800000	1.0
228	0x3f800000	1.0
229	0x3f800000	1.0
230	0x3f800000	1.0
231	0x3f800000	1.0
232	0x3f800000	1.0
233	0x3f800000	1.0
234	0x3f800000	1.0
235	0x3f800000	1.0
236	0x3f800000	1.0
237	0x3f800000	1.0
238	0x3f800000	1.0
239	0x3f800000	1.0
240	0x3f800000	1.0
241	0x3f800000	1.0
242	0x3f800000	1.0
243	0x3f800000	1.0
244	0x3f800000	1.0
245	0x3f800000	1.0
246	0x3f800000	1.0
247	0x3f800000	1.0
248	0x3f800000	1.0
249	0x3f800000	1.0
250	0x3f800000	1.0
251	0x3f800000	1.0
252	0x3f800000	1.0
253	0x3f800000	1.0
254	0x3f800000	1.0
255	0x3f800000	1.0

act_fun.1.scale_base f4 [32, 16]
0	0xbde5ef33	-0.11227264
1	0x3e13acb3	0.14421348
2	0x3ca9dfb2	0.020736549
3	0xbd6e3082	-0.05815173
4	0x3e1d1fb3	0.15344124
5	0x3e75d60d	0.24007435
6	0xbb20fa89	-0.0024563393
7	0xbe845da2	-0.25852686
8	0xbe7b2a2f	-0.2452781
9	0xbe391f8c	-0.1807844
10	0xbe76d55f	-0.24104832
11	0x3e353061	0.17694236
12	0xbe658ccc	-0.22416991
13	0xbd5fb908	-0.05461982
14	0x3e2e10a2	0.16998532
15	0xbc3b8c1c	-0.011446979
16	0xbe27deb5	-0.1639355
17	0xbd862943	-0.06550839
18	0x3e0a723f	0.13520144
19	0xbc254e55	-0.010089477
20	0x3e79d8fb	0.24399178
21	0x3e0ae983	0.1356564
22	0x3c9732fc	0.018456928
23	0xbe8a032d	-0.26955548
24	0x3d880260	0.06641078
25	0xbe60e3fc	-0.21961969
26	0xbe62d75b	-0.22152464
27	0x3e7a18a6	0.24423465
28	0xbe0ecd5f	-0.1394553
29	0x3e0be4e6	0.13661537
30	0xbc571af9	-0.013128989
31	0x3c93e2b4	0.018052436
32	0x3d99b5eb	0.07505401
33	0x3e2de0de	0.16980311
34	0x3e852b1c	0.26009452
35	0xbe6cb5fd	-0.23116298
36	0x3da67a9b	0.08128854
37	0x3e2fcd69	0.17168202
38	0xbbbcf54e	-0.0057665473
39	0xbe4c1434	-0.19929582
40	0x3b5af6b6	0.0033411211
41	0xbe2c681f	-0.16836594
42	0xbe4e4c22	-0.2014623
43	0x3e1eaaed	0.1549489
44	0xbe71aa33	-0.23600082
45	0xbdf18389	-0.117926665
46	0x3e33099b	0.17484133
47	0xbd34be96	-0.04412707
48	0x3e3de0e9	0.18542828
49	0xbe0c0a56	-0.13675818
50	0xbe7a106a	-0.24420324
51	0xbd06bf4e	-0.032897286
52	0x3d70859e	0.058721177
53	0xbe8c19cd	-0.27363434
54	0x3e2af3a5	0.16694506
55	0x3e8660f3	0.2624584
56	0x3e7d6ff3	0.24749736
57	0x3b2fcee4	0.0026826197
58	0x3d621200	0.055192947
59	0xbe84b09c	-0.25915992
60	0x3e623f13	0.22094373
61	0xbe6140b4	-0.21997339
62	0xbe8d96f1	-0.27654222
63	0x3ad21808	0.001602889
64	0x3e8086a4	0.25102723
65	0xbc07a24f	-0.0082784435
66	0x3ccbc2d1	0.02487317
67	0x3e716c68	0.2357651
68	0xbe3dff26	-0.18554363
69	0xbe6355ba	-0.22200671
70	0x3c0c1be5	0.008551572
71	0x3e30ef0f	0.17278694
72	0x3e42bbdb	0.19016974
73	0x3e155da5	0.14586504
74	0xbd4f1952	-0.050561257
75	0xbdd4cab1	-0.10390223
76	0x3c4c88c4	0.012483779
77	0xbd8aced1	-0.06777728
78	0xbe1a952d	-0.15095969
79	0x3e0650a1	0.13116695
80	0xbd8f0492	-0.069832936
81	0x3d18803f	0.03723168
82	0xbe3df806	-0.18551645
83	0x3e255c8d	0.16148587
84	0x3c006e43	0.007838788
85	0xbd354715	-0.044257242
86	0x3e6e695b	0.23282377
87	0x3e5c4f6d	0.21514674
88	0x3e747c02	0.2387543
89	0x3e17f284	0.14838606
90	0x3e5f64f4	0.21815854
91	0xbe4a5849	-0.1976024
92	0xbca7e049	-0.02049269
93	0x3beef223	0.0072920485
94	0xbd879637	-0.06620448
95	0x3db33b8d	0.08751593
96	0xbe820a29	-0.25398377
97	0x3e30de21	0.17272235
98	0x3e6b2074	0.22961599
99	0xbe001380	-0.12507439
100	0x3e1ff672	0.15621355
101	0x3e4a40c9	0.19751276
102	0xbe90546b	-0.28189406
103	0xbe0fc556	-0.14040121
104	0xbe325238	-0.17414176
105	0xbe4c5129	-0.19952835
106	0x38fbe4e4	0.00012011247
107	0x3e97b012	0.29626518
108	0xbd901417	-0.07035082
109	0x3e3fe20a	0.18738571
110	0xbc85b49d	-0.016321475
111	0xbda25e86	-0.07928185
112	0xbdcbfd74	-0.09960452
113	0xb9f9f094	-0.00047672226
114	0x3e10d788	0.14144719
115	0xbd1ec68e	-0.038763575
116	0x3dc7a253	0.09747758
117	0x3e435859	0.1907667
118	0xbc518162	-0.012787195
119	0x3d5cda25	0.053918976
120	0xbdb52f56	-0.08846919
121	0xbdbb04bc	-0.091317624
122	0xbdc856ae	-0.09782158
123	0x3e1172bb	0.14203922
124	0xbe44852c	-0.19191426
125	0x3d5bc857	0.053657856
126	0xbd28626f	-0.0411095
127	0xbe644a89	-0.22294058
128	0xbe891af1	-0.26778367
129	0x3e80f362	0.25185686
130	0x3c99e611	0.018786462
131	0xbe019716	-0.12655291
132	0x3e0e1a05	0.13877113
133	0x3e8fab4f	0.28060386
134	0xbd0f3e85	-0.034971733
135	0xbe7a71b9	-0.24457444
136	0x3d6d85ab	0.057988804
137	0xbe914950	-0.28376245
138	0xbdb6d037	-0.089264326
139	0x3e93451f	0.28763673
140	0x3d419931	0.047265235
141	0x3d290492	0.041264124
142	0x3b4aff43	0.0030974902
143	0xbd1d83bc	-0.03845571
144	0x3e781d47	0.24229918
145	0xbe52a3d7	-0.20570312
146	0xbe1374ed	-0.14400072
147	0xbbec08aa	-0.0072031813
148	0xbd318515	-0.043339808
149	0xbda3a42e	-0.07990299
150	0x3e482a06	0.1954728
151	0x3d50013f	0.05078244
152	0xbd7cecd3	-0.06174929
153	0x3d1168eb	0.03550045
154	0xbcd5517b	-0.02603983
155	0xbe2162cf	-0.15760349
156	0x3e2c559b	0.16829531
157	0xbe30d515	-0.17268784
158	0xbdf279ba	-0.11839624
159	0xbd5fe003	-0.054656994
160	0xbb2d7c9e	-0.0026471983
161	0xbe75c3c5	-0.24000461
162	0xbe35c7ed	-0.17752047
163	0x3cb7359c	0.02236443
164	0xbdacd9f0	-0.08440006
165	0xbc81be8d	-0.015837932
166	0x3e808306	0.25099963
167	0x3e369232	0.17829207
168	0x3dea7b54	0.11449304
169	0x3dade439	0.08490796
170	0x3e700904	0.23440939
171	0xbe633111	-0.22186686
172	0x3e77e3a3	0.2420793
173	0xbe4cca2b	-0.19998996
174	0xbe7ec87f	-0.2488117
175	0x3e2ca1d2	0.16858605
176	0xbe415c64	-0.188829
177	0x3e198d50	0.14995313
178	0x3e8bc17b	0.2729605
179	0xbcf0a975	-0.029377678
180	0x3e92f40b	0.28701815
181	0x3d460d9c	0.048352823
182	0xbe4b4e6c	-0.19854134
183	0xbe107504	-0.14107138
184	0xbe1861fc	-0.14881128
185	0xbe4529ec	-0.19254273
186	0xbdfda924	-0.12385777
187	0x3e8f6ed8	0.28014255
188	0xbe5526b4	-0.20815545
189	0x3e3d4bb5	0.18485911
190	0x3e4c43d2	0.19947746
191	0xbc91b48e	-0.01778629
192	0x3c7f249e	0.015572695
193	0x3d5738a8	0.052544266
194	0x3e41cf9e	0.18926856
195	0xbe38462e	-0.17995521
196	0x3c597b74	0.013274062
197	0x3e91721d	0.28407374
198	0x3d424ce2	0.047436602
199	0xbe57b596	-0.21065363
200	0x3d20aef0	0.039229333
201	0xbd4b1d7e	-0.049588673
202	0xbd0127dd	-0.031532157
203	0x3e9724fe	0.2952041
204	0xbcc7f0b7	-0.024406774
205	0xbb2c01af	-0.002624612
206	0x3e6a0b1f	0.22855805
207	0xbd8dbcbb	-0.06920763
208	0xbe0c7caf	-0.13719438
209	0x3d460c96	0.048351847
210	0x3e95e097	0.2927291
211	0xbccc56c7	-0.024943722
212	0x3db9d3ff	0.09073638
213	0x3df45c7b	0.11931702
214	0xbdcb50ee	-0.099275455
215	0xbe61e6af	-0.22060655
216	0xbd7e351e	-0.062062375
217	0xbe8032db	-0.250388
218	0xbdf08848	-0.117447436
219	0x3dbe3b50	0.09288657
220	0xbe2cc03d	-0.16870208
221	0x3e79b977	0.24387155
222	0x3e2d2de7	0.16912042
223	0xbcc424e9	-0.023943381
224	0x3a68bd25	0.00088782824
225	0xbdbee242	-0.09320499
226	0xbd68614f	-0.056733426
227	0x3e5ba16e	0.214483
228	0xbe312f82	-0.17303279
229	0xbe2597ee	-0.16171238
230	0xbca739d8	-0.020413324
231	0x3e6fe647	0.23427688
232	0x3e789b33	0.24277954
233	0x3e536913	0.20645551
234	0x3e5a5d1a	0.21324578
235	0xbc5436be	-0.012952505
236	0x3e937b6f	0.2880511
237	0x3c77ae7e	0.015117286
238	0xbd742ab1	-0.059611026
239	0x3e27f157	0.16400658
240	0xbe08291f	-0.13296936
241	0x3e1e5c25	0.15464838
242	0x3e243fa8	0.16039908
243	0xbe6fc4ec	-0.23414963
244	0x3d730b64	0.059337035
245	0x3bb2208a	0.005436008
246	0xbe56867b	-0.20949738
247	0x3ca70492	0.020387921
248	0x3d222679	0.03958747
249	0xbdf01bd2	-0.11724056
250	0xbd29d362	-0.041461356
251	0x3da08c25	0.078392304
252	0x3cd559bb	0.026043763
253	0x3d14e8cb	0.03635482
254	0x3c927835	0.017879585
255	0xbdc77f73	-0.09741106

act_fun.1.scale_sp f4 [32, 16]
0	0x3e9c067b	0.30473694
1	0x3e92465e	0.2856931
2	0x3e9c4e4d	0.3052849
3	0x3e96a26f	0.29420802
4	0x3e9ba933	0.30402526
5	0x3e95c138	0.29248977
6	0x3e9a7573	0.30167732
7	0x3e8d72f4	0.27626765
8	0x3e9be70c	0.30449712
9	0x3e9b8459	0.3037441
10	0x3e99ffb3	0.30077896
11	0x3e9d24fb	0.30692276
12	0x3e9a9523	0.30191907
13	0x3e5b26b3	0.21401481
14	0x3e8e84be	0.2783565
15	0x3e9b5790	0.30340242
16	0x3e852c9b	0.26010594
17	0x3e9ba641	0.3040028
18	0x3e9ccb28	0.30623746
19	0x3e86a8e6	0.26300734
20	0x3e9cb243	0.30604753
21	0x3e95aa4d	0.29231492
22	0x3e99e18c	0.3005489
23	0x3e85fa43	0.26167497
24	0x3e91efbd	0.28503218
25	0x3e9bcb81	0.304287
26	0x3e98e777	0.29864094
27	0x3e98191d	0.2970666
28	0x3e8e6afc	0.27815998
29	0x3e764e13	0.2405322
30	0x3e955412	0.29165703
31	0x3e92a4ef	0.2864146
32	0x3e95f646	0.29289454
33	0x3e98a708	0.29814935
34	0x3e9c31f4	0.3050686
35	0x3e9a76e1	0.30168822
36	0x3e8cdfe3	0.27514562
37	0x3e9bca28	0.3042767
38	0x3e93f267	0.28895876
39	0x3e9dc45a	0.30813867
40	0x3e9bbe63	0.3041869
41	0x3e8cd761	0.2750807
42	0x3e924b5a	0.28573114
43	0x3e98833f	0.29787633
44	0x3e992cf6	0.29917115
45	0x3e20bba9	0.15696587
46	0x3e99a874	0.30011332
47	0x3e9ce2eb	0.30641875
48	0x3e891a45	0.26777855
49	0x3e9a757d	0.3016776
50	0x3e9b8462	0.30374438
51	0x3e79f423	0.24409537
52	0x3e9b4858	0.3032863
53	0x3e9d3a76	0.30708665
54	0x3e9ac6dd	0.30229846
55	0x3e7cebca	0.24699321
56	0x3e99852b	0.29984412
57	0x3e857004	0.26062024
58	0x3e8d8cd2	0.276465
59	0x3e9ad51a	0.3024071
60	0x3e9b3ce8	0.30319905
61	0x3e089d20	0.13341188
62	0x3e94b546	0.2904455
63	0x3e9c5094	0.30530226
64	0x3e989159	0.2979839
65	0x3e9aa716	0.302056
66	0x3e8b05ec	0.27152956
67	0x3e70bd3e	0.2350969
68	0x3e9571c6	0.29188365
69	0x3e9cfb13	0.30660304
70	0x3e9b2950	0.30304956
71	0x3e82c9b7	0.2554452
72	0x3e9cfd8f	0.306622
73	0x3e9d4f60	0.3072462
74	0x3e7ce355	0.24696095
75	0x3e90ad21	0.28257087
76	0x3e8b6417	0.272248
77	0x3e735055	0.23761113
78	0x3e896d7e	0.26841348
79	0x3e946103	0.28980264
80	0x3e6f278b	0.23354928
81	0x3e9b089d	0.3028001
82	0x3e895dc3	0.26829347
83	0x3e8e088b	0.27740893
84	0x3e9a8370	0.30178404
85	0x3e8eb516	0.27872533
86	0x3e981788	0.29705453
87	0x3e9d2f8f	0.30700347
88	0x3e9a1bba	0.3009928
89	0x3e88bce9	0.26706627
90	0x3e976c3b	0.2957476
91	0x3e9a0b27	0.30086634
92	0x3e8665f5	0.26249662
93	0x3e61a400	0.22035217
94	0x3e9a425b	0.3012875
95	0x3e8c27ad	0.2737402
96	0x3e622930	0.22086024
97	0x3e55d62c	0.20882481
98	0x3e8446b3	0.2583519
99	0x3e9692f0	0.2940898
100	0x3e9c36c9	0.30510548
101	0x3e9aca95	0.30232683
102	0x3e9a8ff9	0.30187967
103	0x3e946735	0.2898499
104	0x3e8c445f	0.27395913
105	0x3e61e6b3	0.22060661
106	0x3e99c62a	0.30034
107	0x3e965b98	0.29366755
108	0x3e92d7a4	0.28680146
109	0x3e55a042	0.20861915
110	0x3e9a7ae8	0.30171895
111	0x3e9a1990	0.30097628
112	0x3e973ef1	0.29540208
113	0x3e995c56	0.2995326
114	0x3e973ce6	0.2953865
115	0x3e6c5df3	0.23082714
116	0x3e999212	0.29994255
117	0x3e7cd896	0.24691996
118	0x3e9ab59d	0.30216685
119	0x3e9c3555	0.3050944
120	0x3e8e7488	0.2782328
121	0x3e84e63c	0.25956905
122	0x3e871f84	0.26391232
123	0x3e7dabb8	0.24772537
124	0x3e88608f	0.26636168
125	0x3e597702	0.21236804
126	0x3e9acdeb	0.30235228
127	0x3e9ba701	0.3040085
128	0x3e9b89be	0.30378526
129	0x3e9d3436	0.30703896
130	0x3e91809e	0.2841844
131	0x3e76f49f	0.24116753
132	0x3e9bfd46	0.3046667
133	0x3e8fd718	0.2809379
134	0x3e9b6718	0.30352092
135	0x3e9dc9d7	0.30818054
136	0x3e8ae8b7	0.27130672
137	0x3e7826d8	0.24233568
138	0x3e9b36e9	0.3031533
139	0x3e9e4fd1	0.3092027
140	0x3e995486	0.299473
141	0x3e475516	0.19466051
142	0x3e776c52	0.24162415
143	0x3e873549	0.2640784
144	0x3e98291a	0.29718858
145	0x3e8b4a74	0.2720524
146	0x3e9d2594	0.30692732
147	0x3e9be483	0.30447778
148	0x3e8bd8e2	0.27313906
149	0x3e9d6e3d	0.30748168
150	0x3e9c6e15	0.30552736
151	0x3e9287eb	0.28619322
152	0x3e8786fe	0.26470178
153	0x3e5c84b8	0.21535003
154	0x3e834a3f	0.25642583
155	0x3e8ac68f	0.27104613
156	0x3e9af8b1	0.3026786
157	0x3e165c61	0.14683677
158	0x3e9a7ca7	0.30173227
159	0x3e9e2098	0.30884242
160	0x3e89a2c0	0.2688198
161	0x3e624cc1	0.22099592
162	0x3e5e71ae	0.21723053
163	0x3e90f24b	0.28309855
164	0x3e9c2449	0.30496433
165	0x3e9da23c	0.30787838
166	0x3e8ed7ba	0.2789896
167	0x3e9d47b7	0.30718777
168	0x3e82fee4	0.2558509
169	0x3e9c6cba	0.30551702
170	0x3e862434	0.26199496
171	0x3e9c7c68	0.30563664
172	0x3e92f316	0.28701085
173	0x3e883a08	0.26606774
174	0x3e9a11aa	0.30091602
175	0x3e8c9f9c	0.27465522
176	0x3e9c3631	0.30510095
177	0x3e9bce5e	0.30430883
178	0x3e9a68c0	0.30158043
179	0x3e9a130c	0.30092657
180	0x3e99798b	0.29975542
181	0x3e82eb27	0.25570032
182	0x3e9a866a	0.30180675
183	0x3e9da148	0.3078711
184	0x3e8cd9e9	0.27510002
185	0x3e8ee9bb	0.27912697
186	0x3e98cacf	0.2984223
187	0x3e886927	0.26642725
188	0x3e9765fd	0.29569998
189	0x3e80e8f7	0.25177738
190	0x3e958bb5	0.2920815
191	0x3e9912d3	0.29897174
192	0x3e91c820	0.28472996
193	0x3e973e33	0.29539642
194	0x3e899e22	0.26878458
195	0x3e9cc92f	0.3062224
196	0x3e9c8a5c	0.3057431
197	0x3e9e4911	0.3091512
198	0x3e952e35	0.29136816
199	0x3e901530	0.28141165
200	0x3e8c733c	0.27431667
201	0x3e931c7f	0.28732678
202	0x3e910808	0.2832644
203	0x3e98fee9	0.2988198
204	0x3e997ebb	0.299795
205	0x3e480ec8	0.19536889
206	0x3e9cdae3	0.30635747
207	0x3e87ee65	0.26549068
208	0x3e9b04c9	0.30277088
209	0x3e9e097d	0.30866614
210	0x3e964ae3	0.2935401
211	0x3e913da4	0.2836734
212	0x3e9e86bc	0.3096217
213	0x3e84da4d	0.259478
214	0x3e7eb18f	0.2487242
215	0x3e8d7a73	0.27632484
216	0x3e99d749	0.30047062
217	0x3e5e35cb	0.21700208
218	0x3e87fa48	0.26558137
219	0x3e8fdf46	0.28100032
220	0x3e988d41	0.29795268
221	0x3e96d94b	0.29462656
222	0x3e7a0ffd	0.24420162
223	0x3e980f8d	0.29699364
224	0x3e7c6675	0.2464846
225	0x3e67fd72	0.22655275
226	0x3e918787	0.28423712
227	0x3e9d03d1	0.30666974
228	0x3e9e0e38	0.30870223
229	0x3e9d5b50	0.30733728
230	0x3e9cb1d7	0.3060443
231	0x3e9f12e3	0.31069097
232	0x3e85ac73	0.2610813
233	0x3e951d25	0.29123798
234	0x3e9ba111	0.3039632
235	0x3e98e2a9	0.29860428
236	0x3e9b226f	0.30299708
237	0x3e94b54f	0.29044577
238	0x3e7d215f	0.24719761
239	0x3e9d0a87	0.30672094
240	0x3e92bdf5	0.2866055
241	0x3e9924d1	0.299109
242	0x3e9c2459	0.3049648
243	0x3e890608	0.26762414
244	0x3e7c5d82	0.24645045
245	0x3e9c6d45	0.30552116
246	0x3e9901ce	0.2988419
247	0x3e9b7702	0.30364233
248	0x3e9abb91	0.30221227
249	0x3e9942c4	0.2993375
250	0x3e63c453	0.2224286
251	0x3e99bdca	0.3002761
252	0x3e965041	0.29358104
253	0x3e8e52e6	0.2779762
254	0x3e9afa25	0.3026897
255	0x3e9aa2f2	0.30202442
