models_cerebelo/kan_model_purkinje_hh_dinamico.pt (torch, 54721 bytes, 29 tensors)

node_bias_0 f4 [32]
0.0 0.0 0.0 0.0 0.0 0.0 0.0 0.0
0.0 0.0 0.0 0.0 0.0 0.0 0.0 0.0
0.0 0.0 0.0 0.0 0.0 0.0 0.0 0.0
0.0 0.0 0.0 0.0 0.0 0.0 0.0 0.0
00000000: 0000 0000 0000 0000 0000 0000 0000 0000
00000010: 0000 0000 0000 0000 0000 0000 0000 0000
00000020: 0000 0000 0000 0000 0000 0000 0000 0000
00000030: 0000 0000 0000 0000 0000 0000 0000 0000
00000040: 0000 0000 0000 0000 0000 0000 0000 0000
00000050: 0000 0000 0000 0000 0000 0000 0000 0000
00000060: 0000 0000 0000 0000 0000 0000 0000 0000
00000070: 0000 0000 0000 0000 0000 0000 0000 0000

node_scale_0 f4 [32]
1.0 1.0 1.0 1.0 1.0 1.0 1.0 1.0
1.0 1.0 1.0 1.0 1.0 1.0 1.0 1.0
1.0 1.0 1.0 1.0 1.0 1.0 1.0 1.0
1.0 1.0 1.0 1.0 1.0 1.0 1.0 1.0
00000000: 0000 803f 0000 803f 0000 803f 0000 803f
00000010: 0000 803f 0000 803f 0000 803f 0000 803f
00000020: 0000 803f 0000 803f 0000 803f 0000 803f
00000030: 0000 803f 0000 803f 0000 803f 0000 803f
00000040: 0000 803f 0000 803f 0000 803f 0000 803f
00000050: 0000 803f 0000 803f 0000 803f 0000 803f
00000060: 0000 803f 0000 803f 0000 803f 0000 803f
00000070: 0000 803f 0000 803f 0000 803f 0000 803f

subnode_bias_0 f4 [32]
0.0 0.0 0.0 0.0 0.0 0.0 0.0 0.0
0.0 0.0 0.0 0.0 0.0 0.0 0.0 0.0
0.0 0.0 0.0 0.0 0.0 0.0 0.0 0.0
0.0 0.0 0.0 0.0 0.0 0.0 0.0 0.0
00000000: 0000 0000 0000 0000 0000 0000 0000 0000
00000010: 0000 0000 0000 0000 0000 0000 0000 0000
00000020: 0000 0000 0000 0000 0000 0000 0000 0000
00000030: 0000 0000 0000 0000 0000 0000 0000 0000
00000040: 0000 0000 0000 0000 0000 0000 0000 0000
00000050: 0000 0000 0000 0000 0000 0000 0000 0000
00000060: 0000 0000 0000 0000 0000 0000 0000 0000
00000070: 0000 0000 0000 0000 0000 0000 0000 0000

subnode_scale_0 f4 [32]
1.0 1.0 1.0 1.0 1.0 1.0 1.0 1.0
1.0 1.0 1.0 1.0 1.0 1.0 1.0 1.0
1.0 1.0 1.0 1.0 1.0 1.0 1.0 1.0
1.0 1.0 1.0 1.0 1.0 1.0 1.0 1.0
00000000: 0000 803f 0000 803f 0000 803f 0000 803f
00000010: 0000 803f 0000 803f 0000 803f 0000 803f
00000020: 0000 803f 0000 803f 0000 803f 0000 803f
00000030: 0000 803f 0000 803f 0000 803f 0000 803f
00000040: 0000 803f 0000 803f 0000 803f 0000 803f
00000050: 0000 803f 0000 803f 0000 803f 0000 803f
00000060: 0000 803f 0000 803f 0000 803f 0000 803f
00000070: 0000 803f 0000 803f 0000 803f 0000 803f

node_bias_1 f4 [16]
0.0 0.0 0.0 0.0 0.0 0.0 0.0 0.0
0.0 0.0 0.0 0.0 0.0 0.0 0.0 0.0
00000000: 0000 0000 0000 0000 0000 0000 0000 0000
00000010: 0000 0000 0000 0000 0000 0000 0000 0000
00000020: 0000 0000 0000 0000 0000 0000 0000 0000
00000030: 0000 0000 0000 0000 0000 0000 0000 0000

node_scale_1 f4 [16]
1.0 1.0 1.0 1.0 1.0 1.0 1.0 1.0
1.0 1.0 1.0 1.0 1.0 1.0 1.0 1.0
00000000: 0000 803f 0000 803f 0000 803f 0000 803f
00000010: 0000 803f 0000 803f 0000 803f 0000 803f
00000020: 0000 803f 0000 803f 0000 803f 0000 803f
00000030: 0000 803f 0000 803f 0000 803f 0000 803f

subnode_bias_1 f4 [16]
0.0 0.0 0.0 0.0 0.0 0.0 0.0 0.0
0.0 0.0 0.0 0.0 0.0 0.0 0.0 0.0
00000000: 0000 0000 0000 0000 0000 0000 0000 0000
00000010: 0000 0000 0000 0000 0000 0000 0000 0000
00000020: 0000 0000 0000 0000 0000 0000 0000 0000
00000030: 0000 0000 0000 0000 0000 0000 0000 0000

subnode_scale_1 f4 [16]
1.0 1.0 1.0 1.0 1.0 1.0 1.0 1.0
1.0 1.0 1.0 1.0 1.0 1.0 1.0 1.0
00000000: 0000 803f 0000 803f 0000 803f 0000 803f
00000010: 0000 803f 0000 803f 0000 803f 0000 803f
00000020: 0000 803f 0000 803f 0000 803f 0000 803f
00000030: 0000 803f 0000 803f 0000 803f 0000 803f

act_fun.0.grid f4 [3, 12]
-2.2 -1.8 -1.4 -1.0 -0.6 -0.19999999 0.19999999 0.6
1.0 1.4 1.8 2.2 -2.2 -1.8 -1.4 -1.0
-0.6 -0.19999999 0.19999999 0.6 1.0 1.4 1.8 2.2
-2.2 -1.8 -1.4 -1.0 -0.6 -0.19999999 0.19999999 0.6
1.0 1.4 1.8 2.2
00000000: cdcc 0cc0 6666 e6bf 3333 b3bf 0000 80bf
00000010: 9a99 19bf cccc 4cbe cccc 4c3e 9a99 193f
00000020: 0000 803f 3333 b33f 6666 e63f cdcc 0c40
00000030: cdcc 0cc0 6666 e6bf 3333 b3bf 0000 80bf
00000040: 9a99 19bf cccc 4cbe cccc 4c3e 9a99 193f
00000050: 0000 803f 3333 b33f 6666 e63f cdcc 0c40
00000060: cdcc 0cc0 6666 e6bf 3333 b3bf 0000 80bf
00000070: 9a99 19bf cccc 4cbe cccc 4c3e 9a99 193f
00000080: 0000 803f 3333 b33f 6666 e63f cdcc 0c40

act_fun.0.coef f4 [3, 32, 8]
-0.093751505 -0.06687715 -0.059360128 -0.07418359 -0.031777296 -0.06750365 0.014003812 0.028655354
-0.061291248 0.101462595 -0.025595305 0.08674956 0.012343429 0.030747248 -0.08719165 -0.08692937
-0.10223612 -0.101775736 -0.1018758 -0.07296901 -0.022184283 -0.016184606 0.07461243 0.11772618
0.15148999 0.17633465 0.07157265 0.13787004 0.1105086 0.11280781 0.13892591 0.13449712
0.12621501 0.11615406 0.09471686 0.15199046 0.064172655 0.16369845 0.059715945 0.027509974
-0.097299285 -0.08699439 -0.08807493 -0.11712125 -0.0007928198 0.096410304 0.076902024 0.12163181
-0.10978928 -0.11000896 -0.09541441 -0.08454309 -0.05624724 -0.11405172 -0.0729668 -0.100456364
0.12702987 0.14429525 0.0604551 0.14230809 0.07854163 0.10203482 0.104051955 0.11093061
-0.09139418 -0.008344014 -0.08075368 -0.05057427 0.024790714 -0.040636376 -0.07541511 -0.100241944
0.08563261 0.06221292 0.06781829 0.07844575 0.081784345 0.101596005 0.12763858 0.09602553
0.14937834 0.16261208 0.057126302 0.18443847 0.08179984 0.13658077 0.118769795 0.12001995
-0.08564213 -0.055160873 -0.113529325 -0.048272286 -0.08404176 -0.0880824 -0.023711877 -0.015583373
0.1475769 0.17098612 0.07813544 0.13732518 0.13812992 0.08198566 0.13436258 0.10465077
0.11997906 0.11747987 0.08086084 0.08320111 0.06768701 0.087836124 0.054378614 -0.021243235
0.12358328 0.13213716 0.17724396 0.0890145 0.1196667 0.1480133 0.07373871 -0.002043345
0.12805179 0.12070966 0.15401578 0.08630655 0.122912765 0.09479787 -0.1116203 -0.12768684
0.099442475 0.112516135 0.092677735 0.070523895 0.035182368 0.0713709 0.10755393 0.1243896
0.1371879 0.14649358 0.0783134 0.1488558 0.15300344 0.14011104 0.16335599 0.13477671
0.13071007 0.11420457 0.08936726 0.17332411 0.09078572 0.12557071 0.0877187 0.101436876
-0.12342304 -0.108479574 -0.1513692 -0.09719218 0.037410073 0.11632221 0.092048325 0.08794603
0.1212431 0.104068875 0.153422 0.08265034 0.1243483 0.11809326 0.11767492 0.12374222
-0.12527499 -0.11877388 -0.16339767 -0.15113424 -0.0591625 0.0658442 0.113031894 0.13193521
0.10025782 0.0875527 0.09024927 0.07230616 0.13038726 -0.069224395 -0.08425439 -0.11103979
0.14694427 0.1682993 0.08077029 0.18097895 0.14413027 0.09332347 0.16975117 0.09753376
-0.1093741 -0.12724411 -0.08783485 -0.07113824 -0.07165253 -0.022691939 0.112877116 0.13451664
0.013575724 0.08068254 0.08067932 0.08726832 0.096266575 0.009674139 -0.049474753 -0.118163735
-0.028521767 -0.13508707 -0.09867592 -0.021712935 0.07056213 0.10853012 0.103857785 0.12854415
0.12703696 0.10462861 0.10667894 0.10899285 0.14438148 0.10880735 0.11000826 0.12800963
0.1333558 0.13661563 0.10161807 0.09714046 0.15175024 0.16531822 0.10759043 0.12005449
0.048995715 0.030244984 0.04658794 0.11201137 0.13773517 0.13805357 0.11845532 0.10762656
0.13320076 0.15829463 0.10642713 0.116711855 0.11352232 0.1643768 0.12548612 0.12852956
0.12395606 0.08499511 0.08870382 0.1035052 0.118322045 0.09226105 0.06963311 0.09650382
00000000: ca00 c0bd e3f6 88bd 9b23 73bd 91ed 97bd
00000010: e928 02bd 5b3f 8abd 3f70 653c a2be ea3c
00000020: 880c 7bbd 9fcb cf3d 3fad d1bc c1a9 b13d
00000030: 183c 4a3c a7e1 fb3c 8991 b2bd 0708 b2bd
00000040: 2c61 d1bd cc6f d0bd 42a4 d0bd c770 95bd
00000050: d0bb b5bc 9495 84bc 67ce 983d 6c1a f13d
00000060: 3120 1b3e 1291 343e ae94 923d ce2d 0d3e
00000070: 5552 e23d c807 e73d 9842 0e3e 9db9 093e
00000080: 823e 013e 2ee2 ed3d eafa c13d 63a3 1b3e
00000090: f46c 833d 91a0 273e b598 743d 995c e13c
000000a0: d944 c7bd 1d2a b2bd a160 b4bd 44dd efbd
000000b0: 3cd5 4fba c472 c53d cf7e 9d3d 191a f93d
000000c0: 34d9 e0bd 614c e1bd a168 c3bd ed24 adbd
000000d0: 8263 66bd f393 e9bd 9e6f 95bd 11bc cdbd
000000e0: 1e14 023e 22c2 133e c49f 773d 36b9 113e
000000f0: 6fda a03d a2f7 d03d 3119 d53d 962f e33d
00000100: df2c bbbd 55b5 08bc 2f62 a5bd f726 4fbd
00000110: e515 cb3c 5472 26bd 3d73 9abd a64b cdbd
00000120: 2660 af3d fad2 7e3d 51e4 8a3d 2aa8 a03d
00000130: 8d7e a73d 9111 d03d b0b3 023e 08a9 c43d
00000140: a3f6 183e c883 263e 45fd 693d 70dd 3c3e
00000150: ad86 a73d d4db 0b3e 943d f33d 05cd f53d
00000160: 2465 afbd 5ef0 61bd 1082 e8bd 29b9 45bd
00000170: 161e acbd 8c64 b4bd 693f c2bc 6751 7fbc
00000180: 661e 173e fc16 2f3e 7905 a03d f99e 0c3e
00000190: ee71 0d3e 19e8 a73d 5896 093e 2553 d63d
000001a0: 95b7 f53d 4999 f03d 5e9a a53d 5865 aa3d
000001b0: 7d9f 8a3d 6de3 b33d 1cbc 5e3d 4b06 aebc
000001c0: 3b19 fd3d f74e 073e 717f 353e 3c4d b63d
000001d0: d113 f53d cc90 173e 5204 973d a4e9 05bb
000001e0: 0220 033e a036 f73d 50b6 1d3e 7dc1 b03d
000001f0: b0b9 fb3d 6325 c23d 2f99 e4bd 57c0 02be
00000200: 7fa8 cb3d dc6e e63d d3cd bd3d d56e 903d
00000210: 631b 103d e82a 923d 3c45 dc3d f9bf fe3d
00000220: fc7a 0c3e 6a02 163e c762 a03d a86d 183e
00000230: efac 1c3e 4579 0f3e cb46 273e e802 0a3e
00000240: dcd8 053e 16e4 e93d 2f06 b73d e07b 313e
00000250: dded b93d 9c95 003e dda5 b33d 23be cf3d
00000260: 38c5 fcbd 8a2a debd 8700 1bbe b20c c7bd
00000270: 4e3b 193d 573a ee3d d583 bc3d 0c1d b43d
00000280: 4d4e f83d 1022 d53d a81a 1d3e 9544 a93d
00000290: 52aa fe3d e1da f13d 8cff f03d 906c fd3d
000002a0: 1648 00be b83f f3bd b851 27be efc2 1abe
000002b0: 6154 72bd 53d9 863d 447d e73d 061a 073e
000002c0: f953 cd3d d44e b33d 9cd4 b83d 4115 943d
000002d0: 3d84 053e 85c5 8dbd 918d acbd d468 e3bd
000002e0: 8f78 163e a756 2c3e e56a a53d 8c52 393e
000002f0: e396 133e 6020 bf3d 40d3 2d3e c8bf c73d
00000300: 87ff dfbd 484c 02be c2e2 b3bd edb0 91bd
00000310: 90be 92bd 72e4 b9bc 1e2c e73d bbbe 093e
00000320: b76c 5e3c e33c a53d 333b a53d bcb9 b23d
00000330: 6927 c53d 4880 1e3c 0aa6 4abd d4ff f1bd
00000340: 7ba6 e9bc 4454 0abe 9a16 cabd 53df b1bc
00000350: e182 903d 0a45 de3d 64b3 d43d 14a1 033e
00000360: fa15 023e 8647 d63d 7d7a da3d a537 df3d
00000370: bdd8 133e 63d6 de3d 034c e13d f514 033e
00000380: 6c8e 083e f8e4 0b3e 221d d03d 94f1 c63d
00000390: 6a64 1b3e 2e49 293e 5f58 dc3d 21df f53d
000003a0: bbaf 483d 54c4 f73c ffd2 3e3d 3866 e53d
000003b0: 730a 0d3e ea5d 0d3e b498 f23d 506b dc3d
000003c0: c865 083e fd17 223e 78f6 d93d a006 ef3d
000003d0: 647e e83d 6452 283e 6f7f 003e 419d 033e
000003e0: addc fd3d eb11 ae3d 59aa b53d 89fa d33d
000003f0: d452 f23d 5df3 bc3d ce9b 8e3d cba3 c53d

act_fun.0.mask f4 [3, 32]
1.0 1.0 1.0 1.0 1.0 1.0 1.0 1.0
1.0 1.0 1.0 1.0 1.0 1.0 1.0 1.0
1.0 1.0 1.0 1.0 1.0 1.0 1.0 1.0
1.0 1.0 1.0 1.0 1.0 1.0 1.0 1.0
1.0 1.0 1.0 1.0 1.0 1.0 1.0 1.0
1.0 1.0 1.0 1.0 1.0 1.0 1.0 1.0
1.0 1.0 1.0 1.0 1.0 1.0 1.0 1.0
1.0 1.0 1.0 1.0 1.0 1.0 1.0 1.0
1.0 1.0 1.0 1.0 1.0 1.0 1.0 1.0
1.0 1.0 1.0 1.0 1.0 1.0 1.0 1.0
1.0 1.0 1.0 1.0 1.0 1.0 1.0 1.0
1.0 1.0 1.0 1.0 1.0 1.0 1.0 1.0
00000000: 0000 803f 0000 803f 0000 803f 0000 803f
00000010: 0000 803f 0000 803f 0000 803f 0000 803f
00000020: 0000 803f 0000 803f 0000 803f 0000 803f
00000030: 0000 803f 0000 803f 0000 803f 0000 803f
00000040: 0000 803f 0000 803f 0000 803f 0000 803f
00000050: 0000 803f 0000 803f 0000 803f 0000 803f
00000060: 0000 803f 0000 803f 0000 803f 0000 803f
00000070: 0000 803f 0000 803f 0000 803f 0000 803f
00000080: 0000 803f 0000 803f 0000 803f 0000 803f
00000090: 0000 803f 0000 803f 0000 803f 0000 803f
000000a0: 0000 803f 0000 803f 0000 803f 0000 803f
000000b0: 0000 803f 0000 803f 0000 803f 0000 803f
000000c0: 0000 803f 0000 803f 0000 803f 0000 803f
000000d0: 0000 803f 0000 803f 0000 803f 0000 803f
000000e0: 0000 803f 0000 803f 0000 803f 0000 803f
000000f0: 0000 803f 0000 803f 0000 803f 0000 803f
00000100: 0000 803f 0000 803f 0000 803f 0000 803f
00000110: 0000 803f 0000 803f 0000 803f 0000 803f
00000120: 0000 803f 0000 803f 0000 803f 0000 803f
00000130: 0000 803f 0000 803f 0000 803f 0000 803f
00000140: 0000 803f 0000 803f 0000 803f 0000 803f
00000150: 0000 803f 0000 803f 0000 803f 0000 803f
00000160: 0000 803f 0000 803f 0000 803f 0000 803f
00000170: 0000 803f 0000 803f 0000 803f 0000 803f

act_fun.0.scale_base f4 [3, 32]
-0.054710586 0.21941067 -0.16273533 -0.1430842 0.2949133 -0.38311395 -9.3308e-05 0.6227935
0.06474347 0.065807484 -0.23371057 -0.013479577 0.107773975 0.02893448 0.13677214 0.37144372
-0.31487393 0.021996655 -0.20379952 -0.33947855 0.074746236 -0.3777921 0.28267896 0.050874967
-0.18525851 0.20613286 -0.41487324 -0.093348406 0.012207548 -0.35838962 -0.23652221 0.0035917426
0.55814576 0.6497388 0.48977223 -0.4666716 -0.50221854 0.6080933 0.32679236 -0.094308145
0.20002821 -0.5474693 -0.31667665 0.6759674 -0.25359485 -0.1576511 -0.60217917 -0.44727424
-0.1394352 -0.4686054 -0.1938503 0.3437894 -0.68815696 0.29779562 -0.4694054 -0.40832606
0.34199956 0.563425 -0.26044276 -0.33850148 -0.64583635 -0.40163738 -0.63074505 -0.25350592
0.055338968 -0.4455544 0.42681345 0.25250056 -0.4474628 -0.1676868 0.094431795 -0.009525763
-0.0015637046 -0.16998945 0.35127765 -0.1985598 0.41684303 0.015743868 0.08708083 0.33295077
-0.075176485 -0.19691391 0.013733059 0.3402861 -0.29776827 0.13217726 -0.46882004 0.17573774
0.14421968 0.03913343 0.14685646 0.07975436 0.19002666 -0.32518518 0.041959252 0.13025631
00000000: 3518 60bd 31ad 603e 17a4 26be aa84 12be
00000010: e0fe 963e 8327 c4be 5aae c3b8 656f 1f3f
00000020: 3998 843d 13c6 863d d351 6fbe 72d9 5cbc
00000030: 9ab8 dc3d 0108 ed3c ff0d 0c3e df2d be3e
00000040: 2837 a1be 5432 b43c d2b0 50be 22d0 adbe
00000050: 8e14 993d f76d c1be 4cbb 903e 4562 503d
00000060: 68b4 3dbe 7e14 533e 446a d4be 732d bfbd
00000070: 2b02 483c d87e b7be e132 72be 7163 6b3b
00000080: a4e2 0e3f 4855 263f 6dc3 fa3e 94ef eebe
00000090: 6591 00bf 01ac 1b3f 5451 a73e a124 c1bd
000000a0: 32d4 4c3e f326 0cbf 7123 a2be 330c 2d3f
000000b0: 2fd7 81be 4a6f 21be 6a28 1abf 2101 e5be
000000c0: 1ac8 0ebe 0ced efbe b180 46be 2a05 b03e
000000d0: 0e2b 30bf ab78 983e e855 f0be 1d10 d1be
000000e0: 911a af3e 9f3c 103f c158 85be 1150 adbe
000000f0: 8855 25bf 6aa3 cdbe 8278 21bf 87cb 81be
00000100: 1dab 623d b51f e4be 4b87 da3e c147 813e
00000110: d819 e5be 17b6 2bbe 7565 c13d f211 1cbc
00000120: 38f5 ccba b711 2ebe aada b33e 4353 4bbe
00000130: 736c d53e 49f9 803c 6f57 b23d 8678 aa3e
00000140: 21f6 99bd cda3 49be a000 613c fb39 ae3e
00000150: 1575 98be 7a59 073e 2e09 f0be 98f4 333e
00000160: 53ae 133e 604a 203d 8a61 163e 4156 a33d
00000170: 5996 423e ac7e a6be 77dd 2b3d e961 053e

act_fun.0.scale_sp f4 [3, 32]
0.63993275 0.631767 0.6705566 0.7133533 0.68556964 0.6651319 0.6622931 0.6711719
0.6047381 0.6387201 0.71018124 0.63815194 0.7135341 0.68554366 0.7074514 0.68674195
0.6690565 0.71179646 0.69843477 0.6996092 0.6842305 0.71110785 0.687805 0.71360266
0.701145 0.6740944 0.69282264 0.6818784 0.71200514 0.7146259 0.7118211 0.6550072
0.7035601 0.65655684 0.6543915 0.70865434 0.6750543 0.6554653 0.7111093 0.66367555
0.7056699 0.6289942 0.7103994 0.6777439 0.6833328 0.6935773 0.69829243 0.68823916
0.7113083 0.67130876 0.710626 0.6905396 0.7101413 0.71159345 0.63441324 0.6947026
0.6856001 0.68931365 0.6861575 0.6218262 0.68756354 0.6805119 0.71122384 0.6734594
0.6017276 0.7104265 0.7017844 0.709645 0.71183294 0.66764665 0.6300832 0.68514425
0.64335984 0.64063466 0.66857916 0.6838011 0.7136639 0.653119 0.71395636 0.6734141
0.63157976 0.7109772 0.7101354 0.7116517 0.69890636 0.70545983 0.6500258 0.6718285
0.65643704 0.632089 0.6973901 0.6774666 0.7115623 0.687528 0.7035874 0.70229834
00000000: a2d2 233f 7bbb 213f 99a9 2b3f 529e 363f
00000010: 7e81 2f3f 1646 2a3f 0a8c 293f ecd1 2b3f
00000020: 1ed0 1a3f 2983 233f 70ce 353f ed5d 233f
00000030: 2caa 363f ca7f 2f3f 891b 353f 52ce 2f3f
00000040: 4947 2b3f 4b38 363f 9fcc 323f 9719 333f
00000050: bb29 2f3f 2a0b 363f fd13 303f aaae 363f
00000060: 3d7e 333f 7391 2c3f d35c 313f 958f 2e3f
00000070: f845 363f b9f1 363f e839 363f 8dae 273f
00000080: 841c 343f 1c14 283f 3486 273f 5f6a 353f
00000090: 5cd0 2c3f 93cc 273f 420b 363f a4e6 293f
000000a0: c8a6 343f c405 213f bcdc 353f a080 2d3f
000000b0: e6ee 2e3f 488e 313f 4bc3 323f 7130 303f
000000c0: 4d18 363f e4da 2b3f 96eb 353f 34c7 303f
000000d0: d2cb 353f fd2a 363f e868 223f 08d8 313f
000000e0: 7d83 2f3f dc76 303f 05a8 2f3f 0030 1f3f
000000f0: 2a04 303f 0736 2e3f c412 363f d667 2c3f
00000100: d20a 1a3f 83de 353f 24a8 333f 4bab 353f
00000110: af3a 363f e4ea 2a3f 224d 213f 9d65 2f3f
00000120: 3bb3 243f a200 243f 0128 2b3f 970d 2f3f
00000130: adb2 363f cf32 273f d8c5 363f de64 2c3f
00000140: 36af 213f 9a02 363f 6fcb 353f ce2e 363f
00000150: 87eb 323f 0499 343f 1768 263f f4fc 2b3f
00000160: 420c 283f 96d0 213f 2888 323f 736e 2d3f
00000170: f228 363f d601 303f 4e1e 343f d3c9 333f

act_fun.1.grid f4 [32, 12]
-2.2 -1.8 -1.4 -1.0 -0.6 -0.19999999 0.19999999 0.6
1.0 1.4 1.8 2.2 -2.2 -1.8 -1.4 -1.0
-0.6 -0.19999999 0.19999999 0.6 1.0 1.4 1.8 2.2
-2.2 -1.8 -1.4 -1.0 -0.6 -0.19999999 0.19999999 0.6
1.0 1.4 1.8 2.2 -2.2 -1.8 -1.4 -1.0
-0.6 -0.19999999 0.19999999 0.6 1.0 1.4 1.8 2.2
-2.2 -1.8 -1.4 -1.0 -0.6 -0.19999999 0.19999999 0.6
1.0 1.4 1.8 2.2 -2.2 -1.8 -1.4 -1.0
-0.6 -0.19999999 0.19999999 0.6 1.0 1.4 1.8 2.2
-2.2 -1.8 -1.4 -1.0 -0.6 -0.19999999 0.19999999 0.6
1.0 1.4 1.8 2.2 -2.2 -1.8 -1.4 -1.0
-0.6 -0.19999999 0.19999999 0.6 1.0 1.4 1.8 2.2
-2.2 -1.8 -1.4 -1.0 -0.6 -0.19999999 0.19999999 0.6
1.0 1.4 1.8 2.2 -2.2 -1.8 -1.4 -1.0
-0.6 -0.19999999 0.19999999 0.6 1.0 1.4 1.8 2.2
-2.2 -1.8 -1.4 -1.0 -0.6 -0.19999999 0.19999999 0.6
1.0 1.4 1.8 2.2 -2.2 -1.8 -1.4 -1.0
-0.6 -0.19999999 0.19999999 0.6 1.0 1.4 1.8 2.2
-2.2 -1.8 -1.4 -1.0 -0.6 -0.19999999 0.19999999 0.6
1.0 1.4 1.8 2.2 -2.2 -1.8 -1.4 -1.0
-0.6 -0.19999999 0.19999999 0.6 1.0 1.4 1.8 2.2
-2.2 -1.8 -1.4 -1.0 -0.6 -0.19999999 0.19999999 0.6
1.0 1.4 1.8 2.2 -2.2 -1.8 -1.4 -1.0
-0.6 -0.19999999 0.19999999 0.6 1.0 1.4 1.8 2.2
-2.2 -1.8 -1.4 -1.0 -0.6 -0.19999999 0.19999999 0.6
1.0 1.4 1.8 2.2 -2.2 -1.8 -1.4 -1.0
-0.6 -0.19999999 0.19999999 0.6 1.0 1.4 1.8 2.2
-2.2 -1.8 -1.4 -1.0 -0.6 -0.19999999 0.19999999 0.6
1.0 1.4 1.8 2.2 -2.2 -1.8 -1.4 -1.0
-0.6 -0.19999999 0.19999999 0.6 1.0 1.4 1.8 2.2
-2.2 -1.8 -1.4 -1.0 -0.6 -0.19999999 0.19999999 0.6
1.0 1.4 1.8 2.2 -2.2 -1.8 -1.4 -1.0
00000000: cdcc 0cc0 6666 e6bf 3333 b3bf 0000 80bf
00000010: 9a99 19bf cccc 4cbe cccc 4c3e 9a99 193f
00000020: 0000 803f 3333 b33f 6666 e63f cdcc 0c40
00000030: cdcc 0cc0 6666 e6bf 3333 b3bf 0000 80bf
00000040: 9a99 19bf cccc 4cbe cccc 4c3e 9a99 193f
00000050: 0000 803f 3333 b33f 6666 e63f cdcc 0c40
00000060: cdcc 0cc0 6666 e6bf 3333 b3bf 0000 80bf
00000070: 9a99 19bf cccc 4cbe cccc 4c3e 9a99 193f
00000080: 0000 803f 3333 b33f 6666 e63f cdcc 0c40
00000090: cdcc 0cc0 6666 e6bf 3333 b3bf 0000 80bf
000000a0: 9a99 19bf cccc 4cbe cccc 4c3e 9a99 193f
000000b0: 0000 803f 3333 b33f 6666 e63f cdcc 0c40
000000c0: cdcc 0cc0 6666 e6bf 3333 b3bf 0000 80bf
000000d0: 9a99 19bf cccc 4cbe cccc 4c3e 9a99 193f
000000e0: 0000 803f 3333 b33f 6666 e63f cdcc 0c40
000000f0: cdcc 0cc0 6666 e6bf 3333 b3bf 0000 80bf
00000100: 9a99 19bf cccc 4cbe cccc 4c3e 9a99 193f
00000110: 0000 803f 3333 b33f 6666 e63f cdcc 0c40
00000120: cdcc 0cc0 6666 e6bf 3333 b3bf 0000 80bf
00000130: 9a99 19bf cccc 4cbe cccc 4c3e 9a99 193f
00000140: 0000 803f 3333 b33f 6666 e63f cdcc 0c40
00000150: cdcc 0cc0 6666 e6bf 3333 b3bf 0000 80bf
00000160: 9a99 19bf cccc 4cbe cccc 4c3e 9a99 193f
00000170: 0000 803f 3333 b33f 6666 e63f cdcc 0c40
00000180: cdcc 0cc0 6666 e6bf 3333 b3bf 0000 80bf
00000190: 9a99 19bf cccc 4cbe cccc 4c3e 9a99 193f
000001a0: 0000 803f 3333 b33f 6666 e63f cdcc 0c40
000001b0: cdcc 0cc0 6666 e6bf 3333 b3bf 0000 80bf
000001c0: 9a99 19bf cccc 4cbe cccc 4c3e 9a99 193f
000001d0: 0000 803f 3333 b33f 6666 e63f cdcc 0c40
000001e0: cdcc 0cc0 6666 e6bf 3333 b3bf 0000 80bf
000001f0: 9a99 19bf cccc 4cbe cccc 4c3e 9a99 193f
00000200: 0000 803f 3333 b33f 6666 e63f cdcc 0c40
00000210: cdcc 0cc0 6666 e6bf 3333 b3bf 0000 80bf
00000220: 9a99 19bf cccc 4cbe cccc 4c3e 9a99 193f
00000230: 0000 803f 3333 b33f 6666 e63f cdcc 0c40
00000240: cdcc 0cc0 6666 e6bf 3333 b3bf 0000 80bf
00000250: 9a99 19bf cccc 4cbe cccc 4c3e 9a99 193f
00000260: 0000 803f 3333 b33f 6666 e63f cdcc 0c40
00000270: cdcc 0cc0 6666 e6bf 3333 b3bf 0000 80bf
00000280: 9a99 19bf cccc 4cbe cccc 4c3e 9a99 193f
00000290: 0000 803f 3333 b33f 6666 e63f cdcc 0c40
000002a0: cdcc 0cc0 6666 e6bf 3333 b3bf 0000 80bf
000002b0: 9a99 19bf cccc 4cbe cccc 4c3e 9a99 193f
000002c0: 0000 803f 3333 b33f 6666 e63f cdcc 0c40
000002d0: cdcc 0cc0 6666 e6bf 3333 b3bf 0000 80bf
000002e0: 9a99 19bf cccc 4cbe cccc 4c3e 9a99 193f
000002f0: 0000 803f 3333 b33f 6666 e63f cdcc 0c40
00000300: cdcc 0cc0 6666 e6bf 3333 b3bf 0000 80bf
00000310: 9a99 19bf cccc 4cbe cccc 4c3e 9a99 193f
00000320: 0000 803f 3333 b33f 6666 e63f cdcc 0c40
00000330: cdcc 0cc0 6666 e6bf 3333 b3bf 0000 80bf
00000340: 9a99 19bf cccc 4cbe cccc 4c3e 9a99 193f
00000350: 0000 803f 3333 b33f 6666 e63f cdcc 0c40
00000360: cdcc 0cc0 6666 e6bf 3333 b3bf 0000 80bf
00000370: 9a99 19bf cccc 4cbe cccc 4c3e 9a99 193f
00000380: 0000 803f 3333 b33f 6666 e63f cdcc 0c40
00000390: cdcc 0cc0 6666 e6bf 3333 b3bf 0000 80bf
000003a0: 9a99 19bf cccc 4cbe cccc 4c3e 9a99 193f
000003b0: 0000 803f 3333 b33f 6666 e63f cdcc 0c40
000003c0: cdcc 0cc0 6666 e6bf 3333 b3bf 0000 80bf
000003d0: 9a99 19bf cccc 4cbe cccc 4c3e 9a99 193f
000003e0: 0000 803f 3333 b33f 6666 e63f cdcc 0c40
000003f0: cdcc 0cc0 6666 e6bf 3333 b3bf 0000 80bf

act_fun.1.coef f4 [32, 16, 8]
0.012017664 0.13635704 0.10565144 0.11876556 0.035234906 -0.11472449 -0.11967391 -0.034232315
0.010787681 -0.009633958 -0.09003455 -0.07946222 0.08072277 0.15926152 0.14356582 0.04295881
-0.009465072 -0.09508541 -0.0733894 -0.12512334 0.054106005 0.16330315 0.10526563 0.029795716
0.010193966 0.12816237 0.09832503 0.10068363 0.03216512 -0.14916888 -0.07320884 -0.008745114
-0.005730666 -0.085402556 -0.08645425 -0.14713858 0.117010064 0.108634815 0.14752245 0.04573742
-0.007103771 -0.08963665 -0.07614292 -0.1177465 0.16549504 0.07702731 0.15774629 0.06009091
-0.005748663 0.07083026 0.09865286 0.18679687 -0.05116561 -0.07311537 -0.16637929 -0.05885584
-0.009685326 0.08076227 0.17158586 0.07485371 0.031894885 -0.16879351 -0.12418559 -0.034798816
0.0058066268 0.12446058 0.13999468 0.14536503 -0.048788577 -0.07677021 -0.15986504 -0.058888245
0.009275079 0.11527282 0.06690492 0.16643305 -0.03134774 -0.11462588 -0.12943086 -0.020279793
0.00039809803 0.086906515 0.0746391 0.1774366 -0.04235617 -0.09025119 -0.13512273 -0.04088751
0.008864418 0.002332879 -0.085995756 -0.111973785 0.13486351 0.13053325 0.1298554 0.03518857
-0.0012047505 0.08581548 0.093638256 0.114681676 0.052785236 -0.16201736 -0.072531894 -0.018015819
0.016419303 0.045658898 -0.051909164 -0.047556914 -0.009382364 0.1116175 0.10191045 -0.010919956
-0.008649737 -0.084226586 -0.102162376 -0.075657815 0.08963844 0.15044071 0.081863135 0.029383337
0.00018524233 -0.06547851 -0.114115275 -0.045526277 0.10480521 0.07457092 0.082674146 0.019377152
0.10721915 0.076066315 0.1005172 0.11378349 0.032993983 -0.06725878 -0.09581729 -0.102844656
-0.11104975 -0.122368746 -0.08858256 -0.07042738 0.081154644 0.16268787 0.10893235 0.094345935
-0.10618086 -0.083004154 -0.11754973 -0.0714326 0.012270662 0.14636882 0.118276626 0.096012525
0.12577061 0.14973813 0.16870138 0.06070085 0.09489492 -0.12265129 -0.12785526 -0.09535832
-0.103042945 -0.093797944 -0.12489185 -0.096998945 0.13079692 0.12757099 0.105927005 0.0990194
-0.095785305 -0.061872654 -0.158335 -0.10313004 0.08322489 0.10045102 0.1354741 0.110554114
0.11683253 0.12213945 0.12957032 0.14974612 0.020711105 -0.11835669 -0.13462396 -0.095827095
0.12588057 0.14579411 0.11573579 0.11313054 -0.0086269155 -0.09172273 -0.09124206 -0.09426202
0.1191041 0.14143318 0.1440776 0.1188401 0.00910173 -0.09046433 -0.09139763 -0.08997688
0.13145474 0.15092212 0.12846956 0.15785736 0.04546583 -0.07574446 -0.14635389 -0.109761715
0.10894136 0.084957145 0.18850465 0.054799013 0.046559863 -0.16170532 -0.11927946 -0.09526701
-0.09680204 -0.062469363 -0.116367124 -0.09988932 0.0833707 0.1751068 0.100156404 0.099412955
0.12162552 0.13451385 0.15297745 0.07119637 0.11492584 -0.14982465 -0.097785875 -0.0893061
0.027583804 -0.024219463 0.036792494 -0.07604653 0.0078087267 0.120668955 0.05578835 0.050307464
-0.10917739 -0.12209431 -0.13572925 -0.054227587 0.06054649 0.15883793 0.14595056 0.10589775
-0.102356136 -0.13278665 -0.027181637 -0.13631748 0.06985727 0.15103093 0.060293287 0.08401218
00000000: bce5 443c 2ea1 0b3e c85f d83d 5c3b f33d
00000010: 7a52 103d acf4 eabd 9817 f5bd 2f37 0cbd
00000020: d0be 303c c0d7 1dbc 0964 b8bd 17bd a2bd
00000030: fb51 a53d 7415 233e eb02 133e 94f5 2f3d
00000040: 6413 1bbc 24bc c2bd 2f4d 96bd 5520 00be
00000050: 429e 5d3d f138 273e 8295 d73d 2516 f43c
00000060: 9804 273c ff3c 033e a25e c93d 3833 ce3d
00000070: 93bf 033d babf 18be 84ee 95bd ab47 0fbc
00000080: 50c8 bbbb 89e7 aebd ed0e b1bd 7fab 16be
00000090: f9a2 ef3d ee7b de3d 2010 173e 2957 3b3d
000000a0: c0c6 e8bb 6c93 b7bd d2f0 9bbd 1425 f1bd
000000b0: 8877 293e 7fc0 9d3d 3e88 213e e321 763d
000000c0: 485f bcbb 750f 913d 830a ca3d ae47 3f3e
000000d0: 0893 51bd 83bd 95bd 555f 2abe d212 71bd
000000e0: 34af 1ebc b066 a53d 34b4 2f3e e74c 993d
000000f0: 36a4 023d 35d8 2cbe 0455 febd 3489 0ebd
00000100: 8445 be3b 30e5 fe3d c45a 0f3e 92da 143e
00000110: 88d6 47bd b339 9dbd a9b3 23be cd34 71bd
00000120: 80f6 173c 2814 ec3d 7205 893d 6d6d 2a3e
00000130: 7d66 00bd f9c0 eabd 8689 04be cf21 a6bc
00000140: d0b7 d039 0bfc b13d 62dc 983d f1b1 353e
00000150: aa7d 2dbd 9ed5 b8bd 9d5d 0abe a979 27bd
00000160: 103c 113c 37e3 183b 8b1e b0bd 8352 e5bd
00000170: a919 0a3e 82aa 053e d0f8 043e e421 103d
00000180: b8e8 9dba 07c0 af3d 6ac5 bf3d 3ade ea3d
00000190: 5535 583d e1e7 25be 9a8b 94bd e995 93bc
000001a0: c681 863c d304 3b3d b49e 54bd 0acb 42bd
000001b0: 7db8 19bc b797 e43d 6db6 d03d 9de9 32bc
000001c0: a0b7 0dbc fd7e acbd 823a d1bd 7cf2 9abd
000001d0: 5c94 b73d 210d 1a3e dca7 a73d 53b5 f03c
000001e0: 9c3d 4239 9919 86bd 45b5 e9bd c379 3abd
000001f0: 1da4 d63d a3b8 983d 1051 a93d d5bc 9e3c
00000200: b795 db3d a8c8 9b3d f6db cd3d 5207 e93d
00000210: b324 073d f9be 89bd db3b c4bd 38a0 d2bd
00000220: 0d6e e3bd 779c fabd c66a b5bd 3b3c 90bd
00000230: 6834 a63d a697 263e ed17 df3d 7138 c13d
00000240: 5a75 d9bd 15fe a9bd eabd f0bd 414b 92bd
00000250: e30a 493c b5e1 153e 043b f23d 37a2 c43d
00000260: 03ca 003e f454 193e 0ec0 2c3e 74a1 783d
00000270: 4558 c23d 9930 fbbd 7dec 02be 394b c3bd
00000280: 2e08 d3bd 2319 c0bd 4cc7 ffbd 62a7 c6bd
00000290: a1ef 053e f8a1 023e 42f0 d83d afca ca3d
000002a0: 162b c4bd 2e6e 7dbd 9222 22be d835 d3bd
000002b0: d071 aa3d 44b9 cd3d b9b9 0a3e 326a e23d
000002c0: e545 ef3d 3f24 fa3d 15ae 043e 0c57 193e
000002d0: 56aa a93c fe64 f2bd ddda 09be ff40 c4bd
000002e0: d6e6 003e 0d4b 153e e306 ed3d fcb0 e73d
000002f0: e857 0dbc 20d9 bbbd 1edd babd 720c c1bd
00000300: daec f33d dcd3 103e 1489 133e 7062 f33d
00000310: 6c1f 153c 5d45 b9bd ae2e bbbd cc45 b8bd
00000320: 129c 063e 548b 1a3e 868d 033e 5ca5 213e
00000330: 613a 3a3d e91f 9bbd cbdd 15be c0ca e0bd
00000340: a61c df3d 03fe ad3d 5d07 413e ee74 603d
00000350: 8eb5 3e3d 1496 25be ca48 f4bd 5a1b c3bd
00000360: 2640 c6bd e0df 7fbd e351 eebd c692 ccbd
00000370: 42be aa3d 324f 333e cd1e cd3d 0599 cb3d
00000380: cd16 f93d 00be 093e 1fa6 1c3e 67cf 913d
00000390: 3d5e eb3d a26b 19be f643 c8bd 1ee6 b6bd
000003a0: 6ef7 e13c e567 c6bc bab3 163d 48be 9bbd
000003b0: 59e0 ff3b 4921 f73d 5382 643d 330f 4e3d
000003c0: 6598 dfbd 950c fabd 9cfc 0abe bf1d 5ebd
000003d0: 99ff 773d 69a6 223e 1074 153e ebe0 d83d
000003e0: 18a0 d1bd 39f9 07be 06ac debc cf96 0bbe
000003f0: 5411 8f3d daa7 1a3e 18f6 763d 940e ac3d

act_fun.1.mask f4 [32, 16]
1.0 1.0 1.0 1.0 1.0 1.0 1.0 1.0
1.0 1.0 1.0 1.0 1.0 1.0 1.0 1.0
1.0 1.0 1.0 1.0 1.0 1.0 1.0 1.0
1.0 1.0 1.0 1.0 1.0 1.0 1.0 1.0
1.0 1.0 1.0 1.0 1.0 1.0 1.0 1.0
1.0 1.0 1.0 1.0 1.0 1.0 1.0 1.0
1.0 1.0 1.0 1.0 1.0 1.0 1.0 1.0
1.0 1.0 1.0 1.0 1.0 1.0 1.0 1.0
1.0 1.0 1.0 1.0 1.0 1.0 1.0 1.0
1.0 1.0 1.0 1.0 1.0 1.0 1.0 1.0
1.0 1.0 1.0 1.0 1.0 1.0 1.0 1.0
1.0 1.0 1.0 1.0 1.0 1.0 1.0 1.0
1.0 1.0 1.0 1.0 1.0 1.0 1.0 1.0
1.0 1.0 1.0 1.0 1.0 1.0 1.0 1.0
1.0 1.0 1.0 1.0 1.0 1.0 1.0 1.0
1.0 1.0 1.0 1.0 1.0 1.0 1.0 1.0
1.0 1.0 1.0 1.0 1.0 1.0 1.0 1.0
1.0 1.0 1.0 1.0 1.0 1.0 1.0 1.0
1.0 1.0 1.0 1.0 1.0 1.0 1.0 1.0
1.0 1.0 1.0 1.0 1.0 1.0 1.0 1.0
1.0 1.0 1.0 1.0 1.0 1.0 1.0 1.0
1.0 1.0 1.0 1.0 1.0 1.0 1.0 1.0
1.0 1.0 1.0 1.0 1.0 1.0 1.0 1.0
1.0 1.0 1.0 1.0 1.0 1.0 1.0 1.0
1.0 1.0 1.0 1.0 1.0 1.0 1.0 1.0
1.0 1.0 1.0 1.0 1.0 1.0 1.0 1.0
1.0 1.0 1.0 1.0 1.0 1.0 1.0 1.0
1.0 1.0 1.0 1.0 1.0 1.0 1.0 1.0
1.0 1.0 1.0 1.0 1.0 1.0 1.0 1.0
1.0 1.0 1.0 1.0 1.0 1.0 1.0 1.0
1.0 1.0 1.0 1.0 1.0 1.0 1.0 1.0
1.0 1.0 1.0 1.0 1.0 1.0 1.0 1.0
00000000: 0000 803f 0000 803f 0000 803f 0000 803f
00000010: 0000 803f 0000 803f 0000 803f 0000 803f
00000020: 0000 803f 0000 803f 0000 803f 0000 803f
00000030: 0000 803f 0000 803f 0000 803f 0000 803f
00000040: 0000 803f 0000 803f 0000 803f 0000 803f
00000050: 0000 803f 0000 803f 0000 803f 0000 803f
00000060: 0000 803f 0000 803f 0000 803f 0000 803f
00000070: 0000 803f 0000 803f 0000 803f 0000 803f
00000080: 0000 803f 0000 803f 0000 803f 0000 803f
00000090: 0000 803f 0000 803f 0000 803f 0000 803f
000000a0: 0000 803f 0000 803f 0000 803f 0000 803f
000000b0: 0000 803f 0000 803f 0000 803f 0000 803f
000000c0: 0000 803f 0000 803f 0000 803f 0000 803f
000000d0: 0000 803f 0000 803f 0000 803f 0000 803f
000000e0: 0000 803f 0000 803f 0000 803f 0000 803f
000000f0: 0000 803f 0000 803f 0000 803f 0000 803f
00000100: 0000 803f 0000 803f 0000 803f 0000 803f
00000110: 0000 803f 0000 803f 0000 803f 0000 803f
00000120: 0000 803f 0000 803f 0000 803f 0000 803f
00000130: 0000 803f 0000 803f 0000 803f 0000 803f
00000140: 0000 803f 0000 803f 0000 803f 0000 803f
00000150: 0000 803f 0000 803f 0000 803f 0000 803f
00000160: 0000 803f 0000 803f 0000 803f 0000 803f
00000170: 0000 803f 0000 803f 0000 803f 0000 803f
00000180: 0000 803f 0000 803f 0000 803f 0000 803f
00000190: 0000 803f 0000 803f 0000 803f 0000 803f
000001a0: 0000 803f 0000 803f 0000 803f 0000 803f
000001b0: 0000 803f 0000 803f 0000 803f 0000 803f
000001c0: 0000 803f 0000 803f 0000 803f 0000 803f
000001d0: 0000 803f 0000 803f 0000 803f 0000 803f
000001e0: 0000 803f 0000 803f 0000 803f 0000 803f
000001f0: 0000 803f 0000 803f 0000 803f 0000 803f
00000200: 0000 803f 0000 803f 0000 803f 0000 803f
00000210: 0000 803f 0000 803f 0000 803f 0000 803f
00000220: 0000 803f 0000 803f 0000 803f 0000 803f
00000230: 0000 803f 0000 803f 0000 803f 0000 803f
00000240: 0000 803f 0000 803f 0000 803f 0000 803f
00000250: 0000 803f 0000 803f 0000 803f 0000 803f
00000260: 0000 803f 0000 803f 0000 803f 0000 803f
00000270: 0000 803f 0000 803f 0000 803f 0000 803f
00000280: 0000 803f 0000 803f 0000 803f 0000 803f
00000290: 0000 803f 0000 803f 0000 803f 0000 803f
000002a0: 0000 803f 0000 803f 0000 803f 0000 803f
000002b0: 0000 803f 0000 803f 0000 803f 0000 803f
000002c0: 0000 803f 0000 803f 0000 803f 0000 803f
000002d0: 0000 803f 0000 803f 0000 803f 0000 803f
000002e0: 0000 803f 0000 803f 0000 803f 0000 803f
000002f0: 0000 803f 0000 803f 0000 803f 0000 803f
00000300: 0000 803f 0000 803f 0000 803f 0000 803f
00000310: 0000 803f 0000 803f 0000 803f 0000 803f
00000320: 0000 803f 0000 803f 0000 803f 0000 803f
00000330: 0000 803f 0000 803f 0000 803f 0000 803f
00000340: 0000 803f 0000 803f 0000 803f 0000 803f
00000350: 0000 803f 0000 803f 0000 803f 0000 803f
00000360: 0000 803f 0000 803f 0000 803f 0000 803f
00000370: 0000 803f 0000 803f 0000 803f 0000 803f
00000380: 0000 803f 0000 803f 0000 803f 0000 803f
00000390: 0000 803f 0000 803f 0000 803f 0000 803f
000003a0: 0000 803f 0000 803f 0000 803f 0000 803f
000003b0: 0000 803f 0000 803f 0000 803f 0000 803f
000003c0: 0000 803f 0000 803f 0000 803f 0000 803f
000003d0: 0000 803f 0000 803f 0000 803f 0000 803f
000003e0: 0000 803f 0000 803f 0000 803f 0000 803f
000003f0: 0000 803f 0000 803f 0000 803f 0000 803f

act_fun.1.scale_base f4 [32, 16]
-0.111331925 0.13901462 0.013576943 -0.053813033 0.14671971 0.2343959 -0.00266802 -0.25614843
-0.24171612 -0.17789268 -0.2406864 0.17250897 -0.22700813 -0.049483463 0.16284561 0.21043392
-0.1625647 -0.06486627 0.13356817 -0.017591808 0.24653025 0.1323969 0.013741018 -0.27152255
0.062499568 -0.22628716 -0.22977094 0.24290161 -0.1471053 0.185138 -0.013847994 0.23736332
0.05928897 0.16786201 0.25636655 -0.22530214 0.07626325 0.17047775 -0.013678995 -0.20469135
0.0011501502 -0.16801108 -0.20765017 0.15268902 -0.2515321 -0.07220072 0.17118135 0.16585815
0.1825442 -0.13532074 -0.24064638 -0.027554542 0.05919058 -0.26917827 0.168696 0.26238328
0.24798994 0.0055577136 0.059169322 -0.25722608 0.22445902 -0.24236228 -0.27360195 -0.21924843
0.25284722 0.002538454 0.007032184 0.24208488 -0.1934122 -0.21277574 0.009161912 0.17345643
0.18291229 0.15070678 -0.02000465 -0.0983411 0.018449346 -0.118461706 -0.13644364 -0.093878426
-0.26462117 0.26425663 0.037242208 -0.052854523 0.2312115 0.18699992 0.0094345175 -0.013768743
0.018948313 -0.07563728 -0.0005724026 0.038946707 -0.20707318 0.16543023 0.15687151 0.09588707
-0.26434144 0.17295596 0.22923268 -0.13075234 0.15500654 0.1962762 -0.2910983 -0.14610435
-0.17995669 -0.20746244 -0.008338897 0.29461992 -0.08536704 0.19777608 -0.01789672 0.13752867
0.096980125 -0.11178542 -0.025452433 0.11559269 0.084548 0.18547788 0.16857874 0.29023275
0.10113329 0.11549416 0.06991524 0.0047697006 -0.05827933 -0.048123796 -0.050315235 -0.08363295
-0.2708061 0.25164354 0.016375788 -0.13232763 0.1382124 0.27856845 -0.040671982 -0.24875055
0.053909995 -0.28894782 -0.097321115 0.28551874 0.034416616 0.04529158 0.0010233426 0.18646078
0.24393037 -0.20435393 -0.13696988 -0.0039042954 -0.041526347 -0.07591765 0.20029512 0.051773917
-0.060934182 0.036596194 -0.025602318 -0.15637663 0.17316978 -0.22621128 -0.11600982 -0.2753121
-0.0056413957 -0.23763366 -0.17364453 0.029988723 -0.083699524 -0.010528822 0.2513216 0.17920177
0.11473806 0.088780954 0.2397883 -0.21844357 0.24557911 -0.24387974 -0.24509662 -0.054073166
-0.18388401 0.1452158 0.2654904 -0.02821247 0.28311023 0.04094537 -0.19698896 -0.13658588
-0.1453221 -0.19094892 -0.1236289 0.275644 -0.20764956 0.18179294 0.19268622 0.205354
0.16863742 -0.17372102 -0.043458723 0.040256634 -0.21017502 0.046358254 0.27007845 -0.0013852421
0.2638776 0.15924254 0.17195061 0.06891419 0.11781441 -0.05975096 0.0017678519 -0.13732395
0.080503605 -0.19583984 0.051266883 0.21238548 -0.15577033 -0.12948358 0.14222673 0.023106322
0.17765087 -0.008657146 0.118594706 -0.1599236 0.049643714 0.05948224 -0.07571209 -0.020582391
-0.0052041407 -0.08296351 -0.06385368 0.20269918 -0.16153191 -0.14899142 -0.027468514 0.22348821
0.23057203 0.19757023 0.20551372 -0.008018979 0.2796036 -0.022711242 -0.045318462 -0.044537615
0.012719343 -0.06726082 -0.06017521 -0.02517371 -0.15956207 -0.22405587 0.0064131725 0.24089777
0.25375023 0.09197894 0.1734439 -0.15312393 0.15599626 -0.08720641 -0.20141742 -0.16968301
00000000: fe01 e4bd d959 0e3e d471 5e3c 0e6b 5cbd
00000010: b13d 163e 7b05 703e f3d9 2ebb e325 83be
00000020: 6e84 77be 8029 36be 7f76 76be 31a6 303e
00000030: d274 68be 2caf 4abd 00c1 263e fd7b 573e
00000040: 5c77 26be 9bd8 84bd 18c6 083e b21c 90bc
00000050: 6d72 7c3e 0e93 073e 0222 613c 0105 8bbe
00000060: 8cff 7f3d d2b7 67be 1349 6bbe 33bb 783e
00000070: c6a2 16be d194 3d3e b2e2 62bc 5f0f 733e
00000080: fed8 723d 05e4 2b3e 7a42 833e 9bb5 66be
00000090: e82f 9c3d b891 2e3e dd1d 60bc 9c9a 51be
000000a0: a3c0 963a 190b 2cbe 3fa2 54be 835a 1c3e
000000b0: d1c8 80be f9dd 93bd 2a4a 2f3e b8d6 293e
000000c0: deec 3a3e 8591 0abe 016c 76be 10ba e1bc
000000d0: d271 723d bcd1 89be a5be 2c3e 1a57 863e
000000e0: 13f1 7d3e 7b1d b63b 885b 723d 23b3 83be
000000f0: 96d8 653e d12d 78be 8e15 8cbe a982 60be
00000100: 3175 813e 315c 263b 3c6e e63b 19e5 773e
00000110: d90d 46be e2e1 59be d81b 163c 909e 313e
00000120: 5c4d 3b3e e152 1a3e cbe0 a3bc 0f67 c9bd
00000130: 1523 973c 0d9c f2bd e2b7 0bbe 5543 c0bd
00000140: 6d7c 87be a54c 873e 498b 183d fc7d 58bd
00000150: b5c2 6c3e e87c 3f3e 3c93 1a3c 4b96 61bc
00000160: 7e39 9b3c b8e7 9abd 4a0d 16ba 9586 1f3d
00000170: fe0a 54be 8b66 293e eda2 203e 7160 c43d
00000180: c357 87be 5e1b 313e f9bb 6a3e f1e3 05be
00000190: 09ba 1e3e a1fc 483e d60a 95be 619c 15be
000001a0: 9146 38be 0971 54be de9f 08bc 6cd8 963e
000001b0: ead4 aebd d085 4a3e 249c 92bc 51d4 0c3e
000001c0: 849d c63d c1ef e4bd 9f81 d0bc dcbb ec3d
000001d0: 8027 ad3d eaed 3d3e e89f 2c3e 6399 943e
000001e0: f81e cf3d 3488 ec3d b92f 8f3d 264b 9c3b
000001f0: 4fb6 6ebd 751d 45bd 5917 4ebd c147 abbd
00000200: 19a7 8abe 6cd7 803e 8426 863c e580 07be
00000210: 8d87 0d3e 86a0 8e3e aa97 26bd 77b8 7ebe
00000220: bad0 5c3d f8f0 93be 4b50 c7bd 832f 923e
00000230: 70f8 0c3d aa83 393d ae21 863a 93ef 3e3e
00000240: e2c8 793e 2842 51be d541 0cbe 35df 7fbb
00000250: 8817 2abd b67a 9bbd 2a1a 4d3e e310 543d
00000260: 1f96 79bd e4e5 153d f4bb d1bc 3221 20be
00000270: 6b53 313e eea3 67be 8e96 edbd b5f5 8cbe
00000280: 75db b8bb 3d56 73be dfcf 31be e9aa f53c
00000290: a86a abbd 1581 2cbc 3aad 803e ab80 373e
000002a0: cafb ea3d cad2 b53d 108b 753e acaf 5fbe
000002b0: 1779 7b3e 9cbb 79be 9cfa 7abe d37b 5dbd
000002c0: 174c 3cbe 73b3 143e 5cee 873e d61d e7bc
000002d0: d3f3 903e 55b6 273d 79b7 49be 2bdd 0bbe
000002e0: 51cf 14be 1d88 43be 2631 fdbd 3621 8d3e
000002f0: 16a2 54be ee27 3a3e 894f 453e 5248 523e
00000300: 4aaf 2c3e ece3 31be c601 32bd 24e4 243d
00000310: 1f38 57be 27e2 3d3d b947 8a3e 0391 b5ba
00000320: f71a 873e 7a10 233e d213 303e e222 8d3d
00000330: ae48 f13d 6cbd 74bd 44b7 e73a a69e 0cbe
00000340: 13df a43d 3d8a 48be 39fd 513d 947b 593e
00000350: 4282 1fbe 5897 04be e2a3 113e 7849 bd3c
00000360: 1cea 353e b4d6 0dbc c8e1 f23d 03c3 23be
00000370: 3557 4b3d a6a3 733d f10e 9bbd 679c a8bc
00000380: 7f87 aabb c6e8 a9bd b8c5 82bd 6090 4f3e
00000390: 9f68 25be 3591 18be a605 e1bc 18da 643e
000003a0: 131b 6c3e da4f 4a3e 3072 523e 0962 03bc
000003b0: 3428 8f3e ed0c babc da9f 39bd 136d 36bd
000003c0: cb64 503c 0ac0 89bd 487a 76bd 1939 cebc
000003d0: 3d64 23be e76e 65be 9725 d23b e8ad 763e
000003e0: 8deb 813e 745f bc3d 479b 313e 85cc 1cbe
000003f0: 7cbd 1f3e 4699 b2bd 5e40 4ebe 62c1 2dbe

act_fun.1.scale_sp f4 [32, 16]
0.29215413 0.2821246 0.29846108 0.28546286 0.30212203 0.30100447 0.30175033 0.27149588
0.30226496 0.30109793 0.3017576 0.30574274 0.28758654 0.22976543 0.27481377 0.20651104
0.25500453 0.30410016 0.29749557 0.27556685 0.3028807 0.27021196 0.30429998 0.2779924
0.30138257 0.30581716 0.30411625 0.3020033 0.28672767 0.24071069 0.30037376 0.28241408
0.30149657 0.30467457 0.29740736 0.2987706 0.3057393 0.28580153 0.3077049 0.30567238
0.29227036 0.26244414 0.2995818 0.26008472 0.301047 0.23145114 0.30307722 0.30692586
0.26619527 0.30269128 0.29914063 0.25269702 0.30268338 0.3054983 0.3075936 0.24710786
0.30322567 0.27041155 0.27499714 0.30373162 0.28475976 0.19553258 0.29773936 0.30664673
0.29694593 0.26101828 0.2680344 0.3065991 0.30264482 0.30487564 0.30585387 0.2329498
0.26094443 0.24506739 0.26543862 0.27792597 0.3019289 0.29355192 0.28750464 0.28217146
0.3017434 0.30208847 0.29592198 0.30758002 0.24727663 0.26593405 0.26237512 0.30731657
0.26547647 0.30767706 0.30312932 0.25044417 0.3057357 0.29065531 0.27389246 0.25038886
0.2212944 0.1987533 0.2544783 0.30962184 0.30578107 0.30328605 0.30854997 0.29775092
0.26759782 0.21768235 0.30647212 0.3010056 0.30797246 0.23950918 0.30339575 0.22673443
0.27843055 0.20960279 0.267586 0.24851401 0.2519634 0.2981534 0.30796048 0.3141149
0.25287983 0.2672849 0.22208282 0.1673824 0.18964872 0.2008761 0.28388447 0.30860937
0.30627993 0.3081648 0.27592063 0.23927805 0.3055567 0.28545848 0.3071616 0.30993918
0.27153975 0.24615237 0.30819666 0.3112103 0.30644554 0.23071897 0.22606412 0.28699192
0.2980305 0.2879788 0.29657042 0.30137736 0.2500414 0.29987994 0.30743295 0.29876047
0.26755765 0.24902177 0.2644559 0.2931796 0.3016831 0.19514282 0.3051731 0.298231
0.27818245 0.24146979 0.23648456 0.2733674 0.30414876 0.26283267 0.28259334 0.28796804
0.27408743 0.3045957 0.26883912 0.30739793 0.2729189 0.26839027 0.30291757 0.29878327
0.30184302 0.3025503 0.2939093 0.30073604 0.2993832 0.26879 0.30276242 0.2965992
0.29816654 0.30735782 0.2983646 0.26548755 0.28358442 0.26390463 0.28133285 0.2712919
0.23827778 0.30295688 0.2991348 0.28952748 0.232697 0.30769458 0.309512 0.30641824
0.24259818 0.30892673 0.20902139 0.27843216 0.29700297 0.2038769 0.2963303 0.30771956
0.18445753 0.25435194 0.22902012 0.30167586 0.27810016 0.29792032 0.3123082 0.31147382
0.3052132 0.3087587 0.30381095 0.3085007 0.27913865 0.2989694 0.31075045 0.26049593
0.28906286 0.23375 0.30175033 0.30141732 0.30367297 0.27557087 0.30516568 0.28847936
0.26645014 0.28370878 0.30170295 0.30360803 0.3008478 0.2701566 0.2514365 0.22270885
0.2652208 0.27044263 0.29560426 0.3053475 0.30861253 0.27111188 0.24491468 0.25770602
0.3078324 0.29117107 0.30289844 0.30294546 0.28025544 0.30104843 0.24689156 0.29608822
00000000: 3a95 953e a372 903e e4cf 983e 3028 923e
00000010: bdaf 9a3e 421d 9a3e 057f 9a3e 8201 8b3e
00000020: 79c2 9a3e 8229 9a3e f97f 9a3e 508a 9c3e
00000030: 8b3e 933e a147 6b3e 64b4 8c3e a177 533e
00000040: f48f 823e 04b3 9b3e 5751 983e 1917 8d3e
00000050: 2e13 9b3e 3959 8a3e 35cd 9b3e 0555 8e3e
00000060: d14e 9a3e 1194 9c3e 20b5 9b3e 2da0 9a3e
00000070: f8cd 923e dd7c 763e 97ca 993e 9498 903e
00000080: c25d 9a3e 4efe 9b3e c745 983e 76f8 983e
00000090: dd89 9c3e 9454 923e 7f8b 9d3e 1781 9c3e
000000a0: 76a4 953e 145f 863e c962 993e d329 853e
000000b0: d522 9a3e 8701 6d3e f02c 9b3e 6325 9d3e
000000c0: bf4a 883e 5afa 9a3e f628 993e 8161 813e
000000d0: 51f9 9a3e 466a 9c3e e97c 9d3e d809 7d3e
000000e0: 6540 9b3e 6273 8a3e 6dcc 8c3e b682 9b3e
000000f0: 08cc 913e b139 483e 4b71 983e cd00 9d3e
00000100: 4c09 983e 30a4 853e ce3b 893e 8ffa 9c3e
00000110: 43f4 9a3e a918 9c3e e198 9c3e 648a 6e3e
00000120: 829a 853e f2f2 7a3e 92e7 873e 504c 8e3e
00000130: 6d96 9a3e 704c 963e cf33 933e c778 903e
00000140: 1c7e 9a3e 57ab 9a3e 1683 973e 217b 9d3e
00000150: 1636 7d3e 8228 883e 0856 863e 9958 9d3e
00000160: 88ec 873e d987 9d3e c433 9b3e 383a 803e
00000170: 6489 9c3e c6d0 943e a23b 8c3e f832 803e
00000180: 009b 623e fc85 4b3e fb4a 823e c186 9e3e
00000190: 568f 9c3e 4f48 9b3e 43fa 9d3e cf72 983e
000001a0: 9502 893e 1fe8 5e3e eae9 9c3e 681d 9a3e
000001b0: 91ae 9d3e e541 753e b056 9b3e 122d 683e
000001c0: 738e 8e3e 1da2 563e 0801 893e 757a 7e3e
000001d0: 5901 813e 90a7 983e ffac 9d3e abd3 a03e
000001e0: 7779 813e 91d9 883e ae69 633e 4b66 2b3e
000001f0: 4633 423e 77b2 4d3e 4e59 913e 0c02 9e3e
00000200: b9d0 9c3e c7c7 9d3e 7845 8d3e 4e05 753e
00000210: ee71 9c3e 9d27 923e 4944 9d3e 59b0 9e3e
00000220: 4207 8b3e 5e0f 7c3e f4cb 9d3e f556 9f3e
00000230: 6ee6 9c3e 9841 6c3e 5a7d 673e 9bf0 923e
00000240: 7497 983e f571 933e 14d8 973e 224e 9a3e
00000250: 6d05 803e dd89 993e da67 9d3e 22f7 983e
00000260: 51fd 883e 90ff 7e3e c466 873e a31b 963e
00000270: 3576 9a3e 85d3 473e a63f 9c3e bcb1 983e
00000280: ee6d 8e3e db43 773e 0229 723e d0f6 8b3e
00000290: 63b9 9b3e 0192 863e 13b0 903e 8c70 933e
000002a0: 3055 8c3e f8f3 9b3e 48a5 893e 4363 9d3e
000002b0: 07bc 8b3e 736a 893e 0318 9b3e 1ffa 983e
000002c0: 2b8b 9a3e dfe7 9a3e 487b 963e 13fa 993e
000002d0: c148 993e d89e 893e ad03 9b3e dadb 973e
000002e0: 49a9 983e 015e 9d3e 3fc3 983e fced 873e
000002f0: fa31 913e 821e 873e dc0a 903e c6e6 8a3e
00000300: 17ff 733e 2a1d 9b3e 3228 993e f23c 943e
00000310: 1f48 6e3e 258a 9d3e 5b78 9e3e dae2 9c3e
00000320: a86b 783e a52b 9e3e b409 563e a98e 8e3e
00000330: c610 983e 1bc5 503e 9bb8 973e 6b8d 9d3e
00000340: 6fe2 3c3e 6b3a 823e 4084 6a3e 4275 9a3e
00000350: 2563 8e3e 0389 983e dce6 9f3e 7f79 9f3e
00000360: e844 9c3e 9f15 9e3e 1c8d 9b3e cef3 9d3e
00000370: 43eb 8e3e 8412 993e af1a 9f3e b95f 853e
00000380: 0c00 943e 295c 6f3e 057f 9a3e 5f53 9a3e
00000390: 067b 9b3e a017 8d3e ad3e 9c3e 91b3 933e
000003a0: 276c 883e 4742 913e cf78 9a3e 8372 9b3e
000003b0: b908 9a3e f751 8a3e 49bc 803e ca0d 643e
000003c0: 05cb 873e 7577 8a3e 7159 973e 8256 9c3e
000003d0: 7602 9e3e 2dcf 8a3e eaca 7a3e 0bf2 833e
000003e0: 359c 9d3e 6014 953e 8115 9b3e ab1b 9b3e
000003f0: a47d 8f3e 0523 9a3e 24d1 7c3e e098 973e

act_fun.2.grid f4 [16, 12]
-2.2 -1.8 -1.4 -1.0 -0.6 -0.19999999 0.19999999 0.6
1.0 1.4 1.8 2.2 -2.2 -1.8 -1.4 -1.0
-0.6 -0.19999999 0.19999999 0.6 1.0 1.4 1.8 2.2
-2.2 -1.8 -1.4 -1.0 -0.6 -0.19999999 0.19999999 0.6
1.0 1.4 1.8 2.2 -2.2 -1.8 -1.4 -1.0
-0.6 -0.19999999 0.19999999 0.6 1.0 1.4 1.8 2.2
-2.2 -1.8 -1.4 -1.0 -0.6 -0.19999999 0.19999999 0.6
1.0 1.4 1.8 2.2 -2.2 -1.8 -1.4 -1.0
-0.6 -0.19999999 0.19999999 0.6 1.0 1.4 1.8 2.2
-2.2 -1.8 -1.4 -1.0 -0.6 -0.19999999 0.19999999 0.6
1.0 1.4 1.8 2.2 -2.2 -1.8 -1.4 -1.0
-0.6 -0.19999999 0.19999999 0.6 1.0 1.4 1.8 2.2
-2.2 -1.8 -1.4 -1.0 -0.6 -0.19999999 0.19999999 0.6
1.0 1.4 1.8 2.2 -2.2 -1.8 -1.4 -1.0
-0.6 -0.19999999 0.19999999 0.6 1.0 1.4 1.8 2.2
-2.2 -1.8 -1.4 -1.0 -0.6 -0.19999999 0.19999999 0.6
1.0 1.4 1.8 2.2 -2.2 -1.8 -1.4 -1.0
-0.6 -0.19999999 0.19999999 0.6 1.0 1.4 1.8 2.2
-2.2 -1.8 -1.4 -1.0 -0.6 -0.19999999 0.19999999 0.6
1.0 1.4 1.8 2.2 -2.2 -1.8 -1.4 -1.0
-0.6 -0.19999999 0.19999999 0.6 1.0 1.4 1.8 2.2
-2.2 -1.8 -1.4 -1.0 -0.6 -0.19999999 0.19999999 0.6
1.0 1.4 1.8 2.2 -2.2 -1.8 -1.4 -1.0
-0.6 -0.19999999 0.19999999 0.6 1.0 1.4 1.8 2.2
00000000: cdcc 0cc0 6666 e6bf 3333 b3bf 0000 80bf
00000010: 9a99 19bf cccc 4cbe cccc 4c3e 9a99 193f
00000020: 0000 803f 3333 b33f 6666 e63f cdcc 0c40
00000030: cdcc 0cc0 6666 e6bf 3333 b3bf 0000 80bf
00000040: 9a99 19bf cccc 4cbe cccc 4c3e 9a99 193f
00000050: 0000 803f 3333 b33f 6666 e63f cdcc 0c40
00000060: cdcc 0cc0 6666 e6bf 3333 b3bf 0000 80bf
00000070: 9a99 19bf cccc 4cbe cccc 4c3e 9a99 193f
00000080: 0000 803f 3333 b33f 6666 e63f cdcc 0c40
00000090: cdcc 0cc0 6666 e6bf 3333 b3bf 0000 80bf
000000a0: 9a99 19bf cccc 4cbe cccc 4c3e 9a99 193f
000000b0: 0000 803f 3333 b33f 6666 e63f cdcc 0c40
000000c0: cdcc 0cc0 6666 e6bf 3333 b3bf 0000 80bf
000000d0: 9a99 19bf cccc 4cbe cccc 4c3e 9a99 193f
000000e0: 0000 803f 3333 b33f 6666 e63f cdcc 0c40
000000f0: cdcc 0cc0 6666 e6bf 3333 b3bf 0000 80bf
00000100: 9a99 19bf cccc 4cbe cccc 4c3e 9a99 193f
00000110: 0000 803f 3333 b33f 6666 e63f cdcc 0c40
00000120: cdcc 0cc0 6666 e6bf 3333 b3bf 0000 80bf
00000130: 9a99 19bf cccc 4cbe cccc 4c3e 9a99 193f
00000140: 0000 803f 3333 b33f 6666 e63f cdcc 0c40
00000150: cdcc 0cc0 6666 e6bf 3333 b3bf 0000 80bf
00000160: 9a99 19bf cccc 4cbe cccc 4c3e 9a99 193f
00000170: 0000 803f 3333 b33f 6666 e63f cdcc 0c40
00000180: cdcc 0cc0 6666 e6bf 3333 b3bf 0000 80bf
00000190: 9a99 19bf cccc 4cbe cccc 4c3e 9a99 193f
000001a0: 0000 803f 3333 b33f 6666 e63f cdcc 0c40
000001b0: cdcc 0cc0 6666 e6bf 3333 b3bf 0000 80bf
000001c0: 9a99 19bf cccc 4cbe cccc 4c3e 9a99 193f
000001d0: 0000 803f 3333 b33f 6666 e63f cdcc 0c40
000001e0: cdcc 0cc0 6666 e6bf 3333 b3bf 0000 80bf
000001f0: 9a99 19bf cccc 4cbe cccc 4c3e 9a99 193f
00000200: 0000 803f 3333 b33f 6666 e63f cdcc 0c40
00000210: cdcc 0cc0 6666 e6bf 3333 b3bf 0000 80bf
00000220: 9a99 19bf cccc 4cbe cccc 4c3e 9a99 193f
00000230: 0000 803f 3333 b33f 6666 e63f cdcc 0c40
00000240: cdcc 0cc0 6666 e6bf 3333 b3bf 0000 80bf
00000250: 9a99 19bf cccc 4cbe cccc 4c3e 9a99 193f
00000260: 0000 803f 3333 b33f 6666 e63f cdcc 0c40
00000270: cdcc 0cc0 6666 e6bf 3333 b3bf 0000 80bf
00000280: 9a99 19bf cccc 4cbe cccc 4c3e 9a99 193f
00000290: 0000 803f 3333 b33f 6666 e63f cdcc 0c40
000002a0: cdcc 0cc0 6666 e6bf 3333 b3bf 0000 80bf
000002b0: 9a99 19bf cccc 4cbe cccc 4c3e 9a99 193f
000002c0: 0000 803f 3333 b33f 6666 e63f cdcc 0c40
000002d0: cdcc 0cc0 6666 e6bf 3333 b3bf 0000 80bf
000002e0: 9a99 19bf cccc 4cbe cccc 4c3e 9a99 193f
000002f0: 0000 803f 3333 b33f 6666 e63f cdcc 0c40

act_fun.2.coef f4 [16, 1, 8]
0.010755976 0.1284518 0.09610361 0.14839523 -0.15250027 -0.089258336 -0.13744855 -0.077964984
-0.04680575 -0.053064894 -0.1881064 -0.087758586 0.1010689 0.12139446 0.081156574 0.048704755
-0.056660272 -0.08774037 -0.14954773 -0.12240037 0.005129197 0.17982733 0.08128674 0.046846017
0.018580332 0.15857884 0.05181488 0.15652804 -0.13344926 -0.072432205 -0.1082909 -0.06765302
-0.064391434 -0.14154539 -0.07750786 -0.12942767 0.08663548 0.066079326 0.1433257 0.07048782
-0.054721087 -0.10645449 -0.14953247 -0.10661405 -0.027952041 0.14976428 0.1670341 0.06795031
-0.007534479 0.061575744 0.12397501 0.12345228 -0.10821267 -0.13335122 -0.09785811 -0.061366327
0.04736548 0.15631728 0.1720334 0.05643808 -0.093316756 -0.14023478 -0.12846547 -0.06692322
-0.0025304414 0.071159564 0.1512063 0.12202335 -0.13572037 -0.11045975 -0.11096276 -0.13660586
0.015248604 0.16171192 0.06454915 0.15558471 -0.10795577 -0.08662006 -0.084636666 -0.066499375
0.037079334 0.07184722 0.1429525 0.07786961 -0.15565392 -0.092614666 -0.1712922 -0.07498608
-0.063759685 -0.09869948 -0.13355607 -0.13361847 0.0601334 0.05440397 0.13708839 0.06830745
-0.003827699 0.07592362 0.15697578 0.14169173 -0.13913316 -0.12331624 -0.15885589 -0.073957734
-0.0709205 -0.0863778 -0.1337237 -0.12338767 0.15525495 0.1422996 0.09496267 0.0074699908
-0.05043106 -0.10152946 -0.13552184 -0.118289664 0.06009848 0.08939556 0.098106496 0.057753343
-0.04256151 -0.07510696 -0.08340049 -0.115851596 -0.02330985 0.08708913 0.122074686 0.06839638
00000000: d539 303c de88 033e f8d1 c43d ebf4 173e
00000010: 0829 1cbe 13cd b6bd 50bf 0cbe 1bac 9fbd
00000020: 63b7 3fbd 935a 59bd f79e 40be c6ba b3bd
00000030: 36fd ce3d a99d f83d 6b35 a63d a37e 473d
00000040: 9a14 68bd 39b1 b3bd 0a23 19be 0cad fabd
00000050: d312 a83b a824 383e aa79 a63d 9ce1 3f3d
00000060: c835 983c 7e62 223e d73b 543d e348 203e
00000070: eca6 08be 5657 94bd 9fc7 ddbd ab8d 8abd
00000080: a8df 83bd 46f1 10be 71bc 9ebd b088 04be
00000090: f16d b13d 9954 873d f9c3 123e eb5b 903d
000000a0: 3823 60bd d004 dabd 0a1f 19be 7858 dabd
000000b0: aefb e4bc cf5b 193e fd0a 2b3e 8829 8b3d
000000c0: cae3 f6bb d936 7c3d 9ce6 fd3d 8dd4 fc3d
000000d0: 9b9e ddbd 398d 08be d569 c8bd 425b 7bbd
000000e0: 4e02 423d a311 203e 8629 303e 9e2b 673d
000000f0: db1c bfbd b599 0fbe 748c 03be 0b0f 89bd
00000100: c3d5 25bb 1bbc 913d d3d5 1a3e 61e7 f93d
00000110: 48fa 0abe b938 e2bd 7240 e3bd 68e2 0bbe
00000120: 48d5 793c cf97 253e 5832 843d 9951 1f3e
00000130: ea17 ddbd dc65 b1bd fd55 adbd d330 88bd
00000140: 80e0 173d a324 933d 2462 123e 1a7a 9f3d
00000150: be63 1fbe c2ac bdbd 3967 2fbe 4d92 99bd
00000160: 7094 82bd f422 cabd ecc2 08be 48d3 08be
00000170: 714e 763d b2d6 5e3d e660 0c3e c7e4 8b3d
00000180: 22da 7abb d87d 9b3d 42be 203e a317 113e
00000190: ec78 0ebe 3a8d fcbd 1eab 22be 2777 97bd
000001a0: c43e 91bd d8e6 b0bd deee 08be adb2 fcbd
000001b0: 27fb 1e3e fdb6 113e ca7b c23d d3c6 f43b
000001c0: cd90 4ebd adee cfbd 3dc6 0abe da41 f2bd
000001d0: d329 763d 0515 b73d 0fec c83d c58e 6c3d
000001e0: fa54 2ebd aed1 99bd e0cd aabd 9a43 edbd
000001f0: 4cf4 bebc c95b b23d 4b02 fa3d 6713 8c3d
