models_cerebelo/kan_model_climbing_fiber.pt (torch, 54487 bytes, 29 tensors)

node_bias_0 f4 [32]
000000 00 00 00 00 00 00 00 00 00 00 00 00 00 00 00 00
       0.0 0.0 0.0 0.0
000010 00 00 00 00 00 00 00 00 00 00 00 00 00 00 00 00
       0.0 0.0 0.0 0.0
000020 00 00 00 00 00 00 00 00 00 00 00 00 00 00 00 00
       0.0 0.0 0.0 0.0
000030 00 00 00 00 00 00 00 00 00 00 00 00 00 00 00 00
       0.0 0.0 0.0 0.0
000040 00 00 00 00 00 00 00 00 00 00 00 00 00 00 00 00
       0.0 0.0 0.0 0.0
000050 00 00 00 00 00 00 00 00 00 00 00 00 00 00 00 00
       0.0 0.0 0.0 0.0
000060 00 00 00 00 00 00 00 00 00 00 00 00 00 00 00 00
       0.0 0.0 0.0 0.0
000070 00 00 00 00 00 00 00 00 00 00 00 00 00 00 00 00
       0.0 0.0 0.0 0.0

node_scale_0 f4 [32]
000000 00 00 80 3f 00 00 80 3f 00 00 80 3f 00 00 80 3f
       1.0 1.0 1.0 1.0
000010 00 00 80 3f 00 00 80 3f 00 00 80 3f 00 00 80 3f
       1.0 1.0 1.0 1.0
000020 00 00 80 3f 00 00 80 3f 00 00 80 3f 00 00 80 3f
       1.0 1.0 1.0 1.0
000030 00 00 80 3f 00 00 80 3f 00 00 80 3f 00 00 80 3f
       1.0 1.0 1.0 1.0
000040 00 00 80 3f 00 00 80 3f 00 00 80 3f 00 00 80 3f
       1.0 1.0 1.0 1.0
000050 00 00 80 3f 00 00 80 3f 00 00 80 3f 00 00 80 3f
       1.0 1.0 1.0 1.0
000060 00 00 80 3f 00 00 80 3f 00 00 80 3f 00 00 80 3f
       1.0 1.0 1.0 1.0
000070 00 00 80 3f 00 00 80 3f 00 00 80 3f 00 00 80 3f
       1.0 1.0 1.0 1.0

subnode_bias_0 f4 [32]
000000 00 00 00 00 00 00 00 00 00 00 00 00 00 00 00 00
       0.0 0.0 0.0 0.0
000010 00 00 00 00 00 00 00 00 00 00 00 00 00 00 00 00
       0.0 0.0 0.0 0.0
000020 00 00 00 00 00 00 00 00 00 00 00 00 00 00 00 00
       0.0 0.0 0.0 0.0
000030 00 00 00 00 00 00 00 00 00 00 00 00 00 00 00 00
       0.0 0.0 0.0 0.0
000040 00 00 00 00 00 00 00 00 00 00 00 00 00 00 00 00
       0.0 0.0 0.0 0.0
000050 00 00 00 00 00 00 00 00 00 00 00 00 00 00 00 00
       0.0 0.0 0.0 0.0
000060 00 00 00 00 00 00 00 00 00 00 00 00 00 00 00 00
       0.0 0.0 0.0 0.0
000070 00 00 00 00 00 00 00 00 00 00 00 00 00 00 00 00
       0.0 0.0 0.0 0.0

subnode_scale_0 f4 [32]
000000 00 00 80 3f 00 00 80 3f 00 00 80 3f 00 00 80 3f
       1.0 1.0 1.0 1.0
000010 00 00 80 3f 00 00 80 3f 00 00 80 3f 00 00 80 3f
       1.0 1.0 1.0 1.0
000020 00 00 80 3f 00 00 80 3f 00 00 80 3f 00 00 80 3f
       1.0 1.0 1.0 1.0
000030 00 00 80 3f 00 00 80 3f 00 00 80 3f 00 00 80 3f
       1.0 1.0 1.0 1.0
000040 00 00 80 3f 00 00 80 3f 00 00 80 3f 00 00 80 3f
       1.0 1.0 1.0 1.0
000050 00 00 80 3f 00 00 80 3f 00 00 80 3f 00 00 80 3f
       1.0 1.0 1.0 1.0
000060 00 00 80 3f 00 00 80 3f 00 00 80 3f 00 00 80 3f
       1.0 1.0 1.0 1.0
000070 00 00 80 3f 00 00 80 3f 00 00 80 3f 00 00 80 3f
       1.0 1.0 1.0 1.0

node_bias_1 f4 [16]
000000 00 00 00 00 00 00 00 00 00 00 00 00 00 00 00 00
       0.0 0.0 0.0 0.0
000010 00 00 00 00 00 00 00 00 00 00 00 00 00 00 00 00
       0.0 0.0 0.0 0.0
000020 00 00 00 00 00 00 00 00 00 00 00 00 00 00 00 00
       0.0 0.0 0.0 0.0
000030 00 00 00 00 00 00 00 00 00 00 00 00 00 00 00 00
       0.0 0.0 0.0 0.0

node_scale_1 f4 [16]
000000 00 00 80 3f 00 00 80 3f 00 00 80 3f 00 00 80 3f
       1.0 1.0 1.0 1.0
000010 00 00 80 3f 00 00 80 3f 00 00 80 3f 00 00 80 3f
       1.0 1.0 1.0 1.0
000020 00 00 80 3f 00 00 80 3f 00 00 80 3f 00 00 80 3f
       1.0 1.0 1.0 1.0
000030 00 00 80 3f 00 00 80 3f 00 00 80 3f 00 00 80 3f
       1.0 1.0 1.0 1.0

subnode_bias_1 f4 [16]
000000 00 00 00 00 00 00 00 00 00 00 00 00 00 00 00 00
       0.0 0.0 0.0 0.0
000010 00 00 00 00 00 00 00 00 00 00 00 00 00 00 00 00
       0.0 0.0 0.0 0.0
000020 00 00 00 00 00 00 00 00 00 00 00 00 00 00 00 00
       0.0 0.0 0.0 0.0
000030 00 00 00 00 00 00 00 00 00 00 00 00 00 00 00 00
       0.0 0.0 0.0 0.0

subnode_scale_1 f4 [16]
000000 00 00 80 3f 00 00 80 3f 00 00 80 3f 00 00 80 3f
       1.0 1.0 1.0 1.0
000010 00 00 80 3f 00 00 80 3f 00 00 80 3f 00 00 80 3f
       1.0 1.0 1.0 1.0
000020 00 00 80 3f 00 00 80 3f 00 00 80 3f 00 00 80 3f
       1.0 1.0 1.0 1.0
000030 00 00 80 3f 00 00 80 3f 00 00 80 3f 00 00 80 3f
       1.0 1.0 1.0 1.0

act_fun.0.grid f4 [3, 12]
000000 cd cc 0c c0 66 66 e6 bf 33 33 b3 bf 00 00 80 bf
       -2.2 -1.8 -1.4 -1.0
000010 9a 99 19 bf cc cc 4c be cc cc 4c 3e 9a 99 19 3f
       -0.6 -0.19999999 0.19999999 0.6
000020 00 00 80 3f 33 33 b3 3f 66 66 e6 3f cd cc 0c 40
       1.0 1.4 1.8 2.2
000030 cd cc 0c c0 66 66 e6 bf 33 33 b3 bf 00 00 80 bf
       -2.2 -1.8 -1.4 -1.0
000040 9a 99 19 bf cc cc 4c be cc cc 4c 3e 9a 99 19 3f
       -0.6 -0.19999999 0.19999999 0.6
000050 00 00 80 3f 33 33 b3 3f 66 66 e6 3f cd cc 0c 40
       1.0 1.4 1.8 2.2
000060 cd cc 0c c0 66 66 e6 bf 33 33 b3 bf 00 00 80 bf
       -2.2 -1.8 -1.4 -1.0
000070 9a 99 19 bf cc cc 4c be cc cc 4c 3e 9a 99 19 3f
       -0.6 -0.19999999 0.19999999 0.6
000080 00 00 80 3f 33 33 b3 3f 66 66 e6 3f cd cc 0c 40
       1.0 1.4 1.8 2.2

act_fun.0.coef f4 [3, 32, 8]
000000 12 78 f5 bd cd 19 c7 bd 85 1d c8 3c f2 fc 0a 3e
       -0.11985792 -0.09721718 0.024428139 0.13573053
000010 27 ec 1f 3e 95 2f 59 3d fb ad 56 3d 5c 40 03 3d
       0.15617429 0.053023893 0.052412014 0.0320438
000020 82 d2 82 bd 46 39 0b bd 9e ad 5c 3d 42 f2 10 3e
       -0.063878074 -0.033990167 0.05387651 0.14154914
000030 40 9f 29 3d 24 8a b9 3d 44 1d 29 bd a8 27 10 bd
       0.04141164 0.09059551 -0.041287675 -0.03519407
000040 6e 6f 01 be b0 d8 04 be 07 52 51 3d a1 b9 fe 3d
       -0.12640163 -0.12973285 0.051103618 0.1243775
000050 61 dd fc 3d e4 b3 27 3d d3 e8 3e 3c fd f1 8c 3c
       0.12346912 0.04094304 0.011652189 0.017205233
000060 fb 9c 12 3e f4 59 32 3e df db 4f bd 7a f7 ea bd
       0.14317696 0.17417127 -0.050746795 -0.11472984
000070 6b 09 0d be cd ab f8 bd 32 1f 32 bd 52 86 7e bc
       -0.13773124 -0.121421434 -0.04348678 -0.015534954
000080 1c 1b 08 3e 65 43 01 3e f3 b8 99 bd 1a a2 dc bd
       0.13291591 0.12623365 -0.075059794 -0.10773106
000090 82 11 39 be d3 2b c4 bc 13 d9 87 bd 7d 7a 2c bd
       -0.18073085 -0.023946678 -0.066332005 -0.042109
0000a0 5f 99 01 3e e4 bf 05 3e e5 ef 1c 3d 25 da ef bd
       0.12656163 0.13061482 0.03831472 -0.1171153
0000b0 9a fd 25 be df 32 99 bd d4 8b a8 bd 18 62 8d bd
       -0.16210023 -0.07480406 -0.08229795 -0.069034755
0000c0 4e 30 04 be ca 61 11 be d0 8a 1f 3c 48 b5 05 3e
       -0.12909052 -0.1419746 0.009737685 0.13057435
0000d0 1d a7 0a 3e 12 81 45 3d 98 29 64 3d e4 a9 0d 3d
       0.13540311 0.048218794 0.05570373 0.03458585
0000e0 45 61 92 bd ae d4 41 bd 58 c6 bf 3c 36 2d f1 3d
       -0.07147459 -0.047321968 0.023410007 0.117762014
0000f0 9d cb 40 3d db b5 53 3d 42 bc b7 3c da 4c 6b 3c
       0.04706918 0.051687103 0.022428636 0.014361585
000100 93 51 e6 bd 6c 3f a9 bd c1 0f 0d 3c 32 91 b3 3d
       -0.11246028 -0.0826405 0.008609713 0.08767928
000110 cb dc b3 3d 3f 70 cf 3d 29 33 7c 3d 09 69 01 3d
       0.08782347 0.10128831 0.061572228 0.03159431
000120 1e 58 a0 3d ef 50 63 3d 10 5e 8f bd 4b d8 c7 bd
       0.07829307 0.055497106 -0.07000363 -0.097580515
000130 4a a2 ac bd da e7 1c bc e5 1e 63 3d de 9d 14 3d
       -0.08429392 -0.009576762 0.055449385 0.036283366
000140 cb 3d 15 3e fc e5 32 3e e3 27 86 bd de 82 80 bd
       0.14574353 0.17470545 -0.065505765 -0.06274961
000150 d2 0a 23 be c8 b7 b3 bd 78 b4 81 bd 13 4e ae bc
       -0.15922096 -0.08775288 -0.0633325 -0.021277463
000160 17 4e ed bd 99 64 d7 bd ea 1c c9 bc 5e d9 1d 3e
       -0.1158716 -0.10517234 -0.02454992 0.1541495
000170 12 34 d3 3d be 20 52 3d ea 63 46 3d 1b 4a e9 3c
       0.10312666 0.051300757 0.04843513 0.028477719
000180 c4 03 e6 bd 35 dd a9 bd ec 06 37 bd 1d 78 09 3e
       -0.11231187 -0.08294145 -0.044684336 0.13424726
000190 ed 51 06 3e c8 78 17 3d 2e aa 5f 3d c9 46 1d 3d
       0.1311719 0.03698042 0.054605655 0.038397584
0001a0 f2 88 d6 bd 8a dd c3 bd 2d 1b 50 ba 22 a8 b7 3d
       -0.10475339 -0.095637396 -0.000793862 0.08967616
0001b0 df 51 c4 3d ba e3 92 3d 4e e6 04 3d 6b 85 e0 3c
       0.09585928 0.07172342 0.0324462 0.027407369
0001c0 3f 2d 03 3e 5f 01 0d 3e 81 d5 96 3d a9 03 29 be
       0.12810229 0.13770054 0.073649414 -0.16505302
0001d0 69 c1 06 be f1 80 72 bd 45 bb 24 bd 6b 25 f3 bc
       -0.13159718 -0.059205 -0.040217657 -0.029680928
0001e0 dd c1 02 be 45 a2 08 be 3c cc 69 3c 24 03 96 3d
       -0.12769265 -0.13343151 0.014269885 0.07324818
0001f0 7a 45 a6 3d d8 ad 90 3d 93 2d 9d 3d d6 14 84 3d
       0.0811872 0.07064408 0.07674708 0.06449287
000200 e8 74 08 3e e4 66 1e 3e 3a 34 b7 3b 08 69 01 be
       0.13325846 0.15468937 0.0055909427 -0.12637722
000210 1b 3e 14 be 0f 9b db bd e7 8c 3a bd 0a bf 81 bd
       -0.14476816 -0.107229345 -0.04554453 -0.06335266
000220 8b e1 fa 3d be 29 05 3e 4b de 55 bd f5 1d bd bd
       0.1225005 0.13004205 -0.05221395 -0.092342295
000230 15 d6 95 bd 6e 85 09 bd 69 bc c1 3c 77 ba dc bb
       -0.073162235 -0.033574514 0.023649411 -0.0067360955
000240 d9 30 fe 3d 70 63 e1 3d a8 08 f1 bc 1c 33 9e bd
       0.12411661 0.11005294 -0.029423073 -0.07724592
000250 78 fc 17 be 42 1e 82 bd eb 59 71 bd 48 b8 4a bd
       -0.14842403 -0.063534275 -0.058923643 -0.04949215
000260 42 c4 dd bd 16 cc c2 bd 70 88 3d 3d 1e 44 0d 3e
       -0.10828449 -0.095115826 0.046272695 0.13795516
000270 6c d5 e3 3d 76 d0 a5 3d 5d c1 08 3d 4c 94 fb bd
       0.11124691 0.080964014 0.03338753 -0.12284145
000280 81 14 f0 3d 42 fd cd 3d a7 c7 33 3d e8 d5 30 be
       0.11722661 0.10058071 0.043891575 -0.17269099
000290 de 6c d6 bd e7 5d 7a bd 49 75 0b bd 56 53 09 bd
       -0.104699835 -0.06112471 -0.0340474 -0.03352674
0002a0 15 66 f5 3d 88 80 f1 3d bf 73 50 bd 04 63 12 be
       0.11982361 0.117920935 -0.050891634 -0.14295584
0002b0 ef 5a c2 bd 75 98 10 be 06 f7 45 bd 0b 79 f7 bc
       -0.094900005 -0.14120658 -0.048331283 -0.030209085
0002c0 92 56 f7 bd 38 f8 05 be d3 e1 bc bc ea 73 dd 3d
       -0.12077059 -0.13082969 -0.0230569 0.108131245
0002d0 c7 fd 3a 3e ee 26 30 3c f2 10 8a 3d f8 28 3c 3d
       0.18260871 0.010751469 0.06741513 0.04593751
0002e0 5b 3c 4a 3d 8d b1 ab 3d 53 7f db bd e0 3e 38 3b
       0.049373966 0.083834745 -0.107176445 0.0028113648
0002f0 7e 61 04 3d f9 58 6a 3d 0e 2b fa 3d b8 c4 4c 39
       0.03231954 0.057213757 0.12215243 0.0001952824
000300 4a 16 06 be 45 fd 1c be 15 83 8d 3d b2 2f 0e 3e
       -0.1309444 -0.1533099 0.069097675 0.13885382
000310 f4 d4 a5 3d d0 34 4d 3d 67 53 83 3d 2e 05 d3 3c
       0.08097258 0.050099194 0.06412392 0.025759306
000320 77 9d ca bd 30 76 e1 bd 4b ac 36 3d 59 22 9d 3d
       -0.09893315 -0.110088706 0.044597905 0.07672567
000330 95 03 db 3d 79 42 97 3d 50 de 57 3d 27 6f 0d 3d
       0.106940426 0.073857255 0.052702248 0.03452983
000340 b2 23 d6 3d cb ce bf 3d 9f 4f 81 bd e1 26 d3 bd
       0.10456027 0.093656145 -0.06314015 -0.1031015
000350 c4 27 83 bd b7 af ee bd c4 56 01 be 26 4a 07 bc
       -0.06404069 -0.11654609 -0.12630755 -0.008257424
000360 35 cf ee 3d cd f3 ca 3d 74 2b a4 bc 99 f6 07 be
       0.11660615 0.099097826 -0.020040251 -0.13277663
000370 74 f7 b0 bd e9 0d da bd 69 d3 9b bd 66 27 9f bd
       -0.08640948 -0.106471844 -0.07608683 -0.077711865
000380 c3 14 05 3e bd 14 09 3e cb 7d 44 bc f6 d9 1d be
       0.12996201 0.13386817 -0.011992882 -0.15415177
000390 f5 c8 c3 bd e9 01 8c bd 0d 69 94 bd 69 a9 cc bc
       -0.09559814 -0.06836302 -0.07246599 -0.024983125
0003a0 d1 f1 c5 3d ad 4f 87 3d 01 4e 65 bd 18 26 a5 bd
       0.096652634 0.06606994 -0.055982593 -0.080639064
0003b0 0b 7f 4d bd 7a 10 ea bc d9 84 c8 bd 78 2a a5 bd
       -0.050169986 -0.02857231 -0.09790964 -0.08064741
0003c0 4b cb 0f 3e a4 76 2c 3e ec ad cd bc 76 45 0d be
       0.14042394 0.16842133 -0.025107346 -0.13796028
0003d0 41 bb 08 be 50 a9 40 bd c9 43 73 bd ab d9 92 bd
       -0.13352682 -0.04703647 -0.059390817 -0.07170423
0003e0 5f ae ee 3d f2 e9 b9 3d be dc 12 bd 67 df 04 be
       0.116543524 0.09077825 -0.035855047 -0.12975846
0003f0 c5 4d d2 bd f0 8b d9 bd 68 10 89 bd 5b 86 ed bc
       -0.102687396 -0.10622394 -0.06692582 -0.02899473

act_fun.0.mask f4 [3, 32]
000000 00 00 80 3f 00 00 80 3f 00 00 80 3f 00 00 80 3f
       1.0 1.0 1.0 1.0
000010 00 00 80 3f 00 00 80 3f 00 00 80 3f 00 00 80 3f
       1.0 1.0 1.0 1.0
000020 00 00 80 3f 00 00 80 3f 00 00 80 3f 00 00 80 3f
       1.0 1.0 1.0 1.0
000030 00 00 80 3f 00 00 80 3f 00 00 80 3f 00 00 80 3f
       1.0 1.0 1.0 1.0
000040 00 00 80 3f 00 00 80 3f 00 00 80 3f 00 00 80 3f
       1.0 1.0 1.0 1.0
000050 00 00 80 3f 00 00 80 3f 00 00 80 3f 00 00 80 3f
       1.0 1.0 1.0 1.0
000060 00 00 80 3f 00 00 80 3f 00 00 80 3f 00 00 80 3f
       1.0 1.0 1.0 1.0
000070 00 00 80 3f 00 00 80 3f 00 00 80 3f 00 00 80 3f
       1.0 1.0 1.0 1.0
000080 00 00 80 3f 00 00 80 3f 00 00 80 3f 00 00 80 3f
       1.0 1.0 1.0 1.0
000090 00 00 80 3f 00 00 80 3f 00 00 80 3f 00 00 80 3f
       1.0 1.0 1.0 1.0
0000a0 00 00 80 3f 00 00 80 3f 00 00 80 3f 00 00 80 3f
       1.0 1.0 1.0 1.0
0000b0 00 00 80 3f 00 00 80 3f 00 00 80 3f 00 00 80 3f
       1.0 1.0 1.0 1.0
0000c0 00 00 80 3f 00 00 80 3f 00 00 80 3f 00 00 80 3f
       1.0 1.0 1.0 1.0
0000d0 00 00 80 3f 00 00 80 3f 00 00 80 3f 00 00 80 3f
       1.0 1.0 1.0 1.0
0000e0 00 00 80 3f 00 00 80 3f 00 00 80 3f 00 00 80 3f
       1.0 1.0 1.0 1.0
0000f0 00 00 80 3f 00 00 80 3f 00 00 80 3f 00 00 80 3f
       1.0 1.0 1.0 1.0
000100 00 00 80 3f 00 00 80 3f 00 00 80 3f 00 00 80 3f
       1.0 1.0 1.0 1.0
000110 00 00 80 3f 00 00 80 3f 00 00 80 3f 00 00 80 3f
       1.0 1.0 1.0 1.0
000120 00 00 80 3f 00 00 80 3f 00 00 80 3f 00 00 80 3f
       1.0 1.0 1.0 1.0
000130 00 00 80 3f 00 00 80 3f 00 00 80 3f 00 00 80 3f
       1.0 1.0 1.0 1.0
000140 00 00 80 3f 00 00 80 3f 00 00 80 3f 00 00 80 3f
       1.0 1.0 1.0 1.0
000150 00 00 80 3f 00 00 80 3f 00 00 80 3f 00 00 80 3f
       1.0 1.0 1.0 1.0
000160 00 00 80 3f 00 00 80 3f 00 00 80 3f 00 00 80 3f
       1.0 1.0 1.0 1.0
000170 00 00 80 3f 00 00 80 3f 00 00 80 3f 00 00 80 3f
       1.0 1.0 1.0 1.0

act_fun.0.scale_base f4 [3, 32]
000000 30 27 b9 bd e6 fb ad 3e a6 93 82 be d5 98 c5 be
       -0.090406775 0.33981246 -0.25503272 -0.38593164
000010 79 aa 83 3e ae 0d 1f bf 08 6d 3b 3e 3d c2 10 3f
       0.25715998 -0.6213025 0.18303311 0.56546384
000020 a5 10 22 3e 53 d0 1c 3e 28 15 e7 be a7 63 88 3d
       0.15826662 0.15313844 -0.45133328 0.06659632
000030 59 8e 8d 3d 72 0b 7f 3e c7 7c dc 3d 71 77 1c 3f
       0.06911916 0.2490671 0.10765987 0.61119753
000040 1d bd 0f bf f6 f6 aa bd 00 89 cd be ad c8 c4 be
       -0.5614794 -0.08347885 -0.40143585 -0.38434353
000050 c3 23 28 be 6b f4 1c bf e9 83 e9 3e 99 62 62 3d
       -0.16419892 -0.6131045 0.45608452 0.05526981
000060 ca bc 8d be 0b 5f cb 3e c2 c2 22 bf 83 e0 a8 be
       -0.27683097 0.3972095 -0.63578427 -0.3298379
000070 39 2e 6a be 00 d5 16 bf fb e0 f9 be ad 54 4e be
       -0.22869195 -0.5891876 -0.4880446 -0.20149489
000080 14 5e 0e 3f 31 97 22 3f 03 96 f9 3e eb d7 ed be
       0.556123 0.6351195 0.48747262 -0.46453795
000090 1a f1 00 bf 0f a3 c3 3e 4c 23 a5 3e 22 ec b8 3d
       -0.5036789 0.3821034 0.32253492 0.09029414
0000a0 3d b0 49 3e 35 cd 0a bf f5 25 a1 be c7 68 2c 3f
       0.19696136 -0.5421937 -0.3147427 0.6734738
0000b0 07 cc a9 bc de 70 a3 3d d3 78 1a bf e8 9a 57 be
       -0.02072717 0.07980512 -0.60340613 -0.21055186
0000c0 9e 13 0d be 64 90 ee be 4b 74 43 be ea af b0 3e
       -0.13777015 -0.46594536 -0.19087331 0.34509212
0000d0 1a 91 2f bf f9 ee 6a 3d f9 4e 86 be a7 eb 95 be
       -0.6858078 0.05735681 -0.26232126 -0.2928135
0000e0 b7 d2 ad 3e b9 01 0e 3f 44 60 86 be 15 f8 b2 be
       0.33949825 0.5547138 -0.2624532 -0.34954897
0000f0 c9 d0 24 bf 56 db cb be b3 84 21 bf 6f 2b 80 be
       -0.6438108 -0.39815778 -0.6309311 -0.25033137
000100 0e 0e 0f 3e cc 44 f5 be d9 c3 06 3f 89 a7 ab 3e
       0.13970205 -0.4790405 0.5264259 0.33526257
000110 f5 f7 10 bf d1 69 c5 be 4a 7d 58 3e bf 18 3e bd
       -0.5662835 -0.38557294 0.21141544 -0.04641032
000120 83 90 15 bd 8f c3 69 be d2 89 ce 3e c1 cf 89 be
       -0.03651477 -0.22828506 0.40339524 -0.26916316
000130 63 f0 01 3f ec 36 91 3d 85 e3 a9 3d 14 70 e8 3e
       0.50757426 0.07090554 0.08295349 0.4539801
000140 8e 83 0f be 5b e4 86 be de 57 09 be 40 58 f7 3e
       -0.14015028 -0.26346096 -0.13412425 0.48309517
000150 db 00 d0 be 7d 3c c0 3d d5 85 f0 be c6 36 a3 3e
       -0.40625653 0.09386537 -0.46977106 0.31877726
000160 53 16 76 3e b7 5c 4b 3d 6f bb 21 3e a8 23 6a bd
       0.24031954 0.049648967 0.15794156 -0.05716291
000170 04 47 94 3e 3b 2e b7 be 3b d1 fe bd 2a 60 66 3e
       0.2896043 -0.3577746 -0.12442251 0.22497621

act_fun.0.scale_sp f4 [3, 32]
000000 21 e6 30 3f 2d 2b 1f 3f 63 45 33 3f b1 b3 34 3f
       0.6910115 0.62175256 0.7002775 0.7058669
000010 1d 59 36 3f 74 15 35 3f ec bf 34 3f e2 b1 1c 3f
       0.71229726 0.7073586 0.7060535 0.6120893
000020 6a e8 27 3f 4c 57 1e 3f a5 26 35 3f 57 1e 31 3f
       0.6558901 0.61851954 0.7076209 0.6918692
000030 ce 60 2b 3f d2 72 2b 3f 25 bc 35 3f 5a 82 35 3f
       0.6694459 0.66972077 0.7099021 0.70902026
000040 ee 10 34 3f fa f1 2e 3f 83 4d 2e 3f d6 1a 30 3f
       0.7033833 0.68337977 0.68087023 0.6879095
000050 07 64 30 3f 77 21 32 3f 4a f9 34 3f a5 19 2a 3f
       0.6890263 0.69582313 0.70692885 0.6644538
000060 a3 1a 35 3f 49 6c 2c 3f cb c9 27 3f a8 6f 29 3f
       0.7074377 0.6735273 0.65542287 0.66186
000070 9e 70 35 3f e2 b8 1b 3f 5e 58 35 3f ed 87 2d 3f
       0.70874965 0.60828984 0.7083796 0.6778553
000080 37 66 2e 3f b0 dd 22 3f 50 b5 27 3f e3 eb 34 3f
       0.6812472 0.6361952 0.65511036 0.70672435
000090 64 81 36 3f 98 75 35 3f 67 54 2b 3f 31 3a 27 3f
       0.71291184 0.7088256 0.6692566 0.6532317
0000a0 f1 06 34 3f ef f2 23 3f 4b 77 35 3f 04 b2 23 3f
       0.7032309 0.6404256 0.7088515 0.63943505
0000b0 79 ff 2b 3f 1c 0c 31 3f 07 9b 2d 3f ca 07 36 3f
       0.67186695 0.691591 0.6781468 0.71105635
0000c0 5a df 35 3f 91 7b 27 3f 19 3c 35 3f 55 7e 31 3f
       0.7104393 0.6542292 0.70794827 0.6933339
0000d0 b9 ce 35 3f 7a 6a 2f 3f 07 6f 31 3f bf 05 1e 3f
       0.7101856 0.68521845 0.6931004 0.6172752
0000e0 09 ce 31 3f 6d c5 2e 3f 1c 2e 31 3f 5b 23 22 3f
       0.6945501 0.6827 0.6921098 0.633352
0000f0 ca c0 27 3f f9 55 35 3f 5e 33 36 3f c7 f3 24 3f
       0.6552855 0.7083431 0.7117213 0.64434475
000100 2f db 2a 3f 8e 85 28 3f ed ad 27 3f f1 a1 2b 3f
       0.667407 0.6582879 0.65499765 0.6704398
000110 d2 03 21 3f 24 29 2f 3f d9 32 2a 3f 81 36 11 3f
       0.62896454 0.6842215 0.6648384 0.5672379
000120 54 9c 29 3f fd 34 2a 3f 89 21 2f 3f 8f 31 2e 3f
       0.6625416 0.66487104 0.68410546 0.6804437
000130 bb bd 1d 3f 95 40 1d 3f 5c 5e 2e 3f 20 e9 30 3f
       0.6161763 0.6142667 0.6811273 0.6910572
000140 bb 4b 2d 3f 9e eb 35 3f 5c 2c 33 3f e7 dc 26 3f
       0.6769368 0.7106265 0.6998956 0.6518082
000150 11 d4 35 3f aa 8e 23 3f 5c f0 2b 3f 75 07 22 3f
       0.7102671 0.63889563 0.67163634 0.6329263
000160 72 dd 0d 3f e5 ff 16 3f 13 2a 1e 3f 34 25 2e 3f
       0.55416024 0.58984214 0.6178295 0.6802552
000170 60 c3 34 3f bb e3 24 3f 6a d7 2b 3f 30 2d 33 3f
       0.7061062 0.6440999 0.6712557 0.69990826

act_fun.1.grid f4 [32, 12]
000000 cd cc 0c c0 66 66 e6 bf 33 33 b3 bf 00 00 80 bf
       -2.2 -1.8 -1.4 -1.0
000010 9a 99 19 bf cc cc 4c be cc cc 4c 3e 9a 99 19 3f
       -0.6 -0.19999999 0.19999999 0.6
000020 00 00 80 3f 33 33 b3 3f 66 66 e6 3f cd cc 0c 40
       1.0 1.4 1.8 2.2
000030 cd cc 0c c0 66 66 e6 bf 33 33 b3 bf 00 00 80 bf
       -2.2 -1.8 -1.4 -1.0
000040 9a 99 19 bf cc cc 4c be cc cc 4c 3e 9a 99 19 3f
       -0.6 -0.19999999 0.19999999 0.6
000050 00 00 80 3f 33 33 b3 3f 66 66 e6 3f cd cc 0c 40
       1.0 1.4 1.8 2.2
000060 cd cc 0c c0 66 66 e6 bf 33 33 b3 bf 00 00 80 bf
       -2.2 -1.8 -1.4 -1.0
000070 9a 99 19 bf cc cc 4c be cc cc 4c 3e 9a 99 19 3f
       -0.6 -0.19999999 0.19999999 0.6
000080 00 00 80 3f 33 33 b3 3f 66 66 e6 3f cd cc 0c 40
       1.0 1.4 1.8 2.2
000090 cd cc 0c c0 66 66 e6 bf 33 33 b3 bf 00 00 80 bf
       -2.2 -1.8 -1.4 -1.0
0000a0 9a 99 19 bf cc cc 4c be cc cc 4c 3e 9a 99 19 3f
       -0.6 -0.19999999 0.19999999 0.6
0000b0 00 00 80 3f 33 33 b3 3f 66 66 e6 3f cd cc 0c 40
       1.0 1.4 1.8 2.2
0000c0 cd cc 0c c0 66 66 e6 bf 33 33 b3 bf 00 00 80 bf
       -2.2 -1.8 -1.4 -1.0
0000d0 9a 99 19 bf cc cc 4c be cc cc 4c 3e 9a 99 19 3f
       -0.6 -0.19999999 0.19999999 0.6
0000e0 00 00 80 3f 33 33 b3 3f 66 66 e6 3f cd cc 0c 40
       1.0 1.4 1.8 2.2
0000f0 cd cc 0c c0 66 66 e6 bf 33 33 b3 bf 00 00 80 bf
       -2.2 -1.8 -1.4 -1.0
000100 9a 99 19 bf cc cc 4c be cc cc 4c 3e 9a 99 19 3f
       -0.6 -0.19999999 0.19999999 0.6
000110 00 00 80 3f 33 33 b3 3f 66 66 e6 3f cd cc 0c 40
       1.0 1.4 1.8 2.2
000120 cd cc 0c c0 66 66 e6 bf 33 33 b3 bf 00 00 80 bf
       -2.2 -1.8 -1.4 -1.0
000130 9a 99 19 bf cc cc 4c be cc cc 4c 3e 9a 99 19 3f
       -0.6 -0.19999999 0.19999999 0.6
000140 00 00 80 3f 33 33 b3 3f 66 66 e6 3f cd cc 0c 40
       1.0 1.4 1.8 2.2
000150 cd cc 0c c0 66 66 e6 bf 33 33 b3 bf 00 00 80 bf
       -2.2 -1.8 -1.4 -1.0
000160 9a 99 19 bf cc cc 4c be cc cc 4c 3e 9a 99 19 3f
       -0.6 -0.19999999 0.19999999 0.6
000170 00 00 80 3f 33 33 b3 3f 66 66 e6 3f cd cc 0c 40
       1.0 1.4 1.8 2.2
000180 cd cc 0c c0 66 66 e6 bf 33 33 b3 bf 00 00 80 bf
       -2.2 -1.8 -1.4 -1.0
000190 9a 99 19 bf cc cc 4c be cc cc 4c 3e 9a 99 19 3f
       -0.6 -0.19999999 0.19999999 0.6
0001a0 00 00 80 3f 33 33 b3 3f 66 66 e6 3f cd cc 0c 40
       1.0 1.4 1.8 2.2
0001b0 cd cc 0c c0 66 66 e6 bf 33 33 b3 bf 00 00 80 bf
       -2.2 -1.8 -1.4 -1.0
0001c0 9a 99 19 bf cc cc 4c be cc cc 4c 3e 9a 99 19 3f
       -0.6 -0.19999999 0.19999999 0.6
0001d0 00 00 80 3f 33 33 b3 3f 66 66 e6 3f cd cc 0c 40
       1.0 1.4 1.8 2.2
0001e0 cd cc 0c c0 66 66 e6 bf 33 33 b3 bf 00 00 80 bf
       -2.2 -1.8 -1.4 -1.0
0001f0 9a 99 19 bf cc cc 4c be cc cc 4c 3e 9a 99 19 3f
       -0.6 -0.19999999 0.19999999 0.6
000200 00 00 80 3f 33 33 b3 3f 66 66 e6 3f cd cc 0c 40
       1.0 1.4 1.8 2.2
000210 cd cc 0c c0 66 66 e6 bf 33 33 b3 bf 00 00 80 bf
       -2.2 -1.8 -1.4 -1.0
000220 9a 99 19 bf cc cc 4c be cc cc 4c 3e 9a 99 19 3f
       -0.6 -0.19999999 0.19999999 0.6
000230 00 00 80 3f 33 33 b3 3f 66 66 e6 3f cd cc 0c 40
       1.0 1.4 1.8 2.2
000240 cd cc 0c c0 66 66 e6 bf 33 33 b3 bf 00 00 80 bf
       -2.2 -1.8 -1.4 -1.0
000250 9a 99 19 bf cc cc 4c be cc cc 4c 3e 9a 99 19 3f
       -0.6 -0.19999999 0.19999999 0.6
000260 00 00 80 3f 33 33 b3 3f 66 66 e6 3f cd cc 0c 40
       1.0 1.4 1.8 2.2
000270 cd cc 0c c0 66 66 e6 bf 33 33 b3 bf 00 00 80 bf
       -2.2 -1.8 -1.4 -1.0
000280 9a 99 19 bf cc cc 4c be cc cc 4c 3e 9a 99 19 3f
       -0.6 -0.19999999 0.19999999 0.6
000290 00 00 80 3f 33 33 b3 3f 66 66 e6 3f cd cc 0c 40
       1.0 1.4 1.8 2.2
0002a0 cd cc 0c c0 66 66 e6 bf 33 33 b3 bf 00 00 80 bf
       -2.2 -1.8 -1.4 -1.0
0002b0 9a 99 19 bf cc cc 4c be cc cc 4c 3e 9a 99 19 3f
       -0.6 -0.19999999 0.19999999 0.6
0002c0 00 00 80 3f 33 33 b3 3f 66 66 e6 3f cd cc 0c 40
       1.0 1.4 1.8 2.2
0002d0 cd cc 0c c0 66 66 e6 bf 33 33 b3 bf 00 00 80 bf
       -2.2 -1.8 -1.4 -1.0
0002e0 9a 99 19 bf cc cc 4c be cc cc 4c 3e 9a 99 19 3f
       -0.6 -0.19999999 0.19999999 0.6
0002f0 00 00 80 3f 33 33 b3 3f 66 66 e6 3f cd cc 0c 40
       1.0 1.4 1.8 2.2
000300 cd cc 0c c0 66 66 e6 bf 33 33 b3 bf 00 00 80 bf
       -2.2 -1.8 -1.4 -1.0
000310 9a 99 19 bf cc cc 4c be cc cc 4c 3e 9a 99 19 3f
       -0.6 -0.19999999 0.19999999 0.6
000320 00 00 80 3f 33 33 b3 3f 66 66 e6 3f cd cc 0c 40
       1.0 1.4 1.8 2.2
000330 cd cc 0c c0 66 66 e6 bf 33 33 b3 bf 00 00 80 bf
       -2.2 -1.8 -1.4 -1.0
000340 9a 99 19 bf cc cc 4c be cc cc 4c 3e 9a 99 19 3f
       -0.6 -0.19999999 0.19999999 0.6
000350 00 00 80 3f 33 33 b3 3f 66 66 e6 3f cd cc 0c 40
       1.0 1.4 1.8 2.2
000360 cd cc 0c c0 66 66 e6 bf 33 33 b3 bf 00 00 80 bf
       -2.2 -1.8 -1.4 -1.0
000370 9a 99 19 bf cc cc 4c be cc cc 4c 3e 9a 99 19 3f
       -0.6 -0.19999999 0.19999999 0.6
000380 00 00 80 3f 33 33 b3 3f 66 66 e6 3f cd cc 0c 40
       1.0 1.4 1.8 2.2
000390 cd cc 0c c0 66 66 e6 bf 33 33 b3 bf 00 00 80 bf
       -2.2 -1.8 -1.4 -1.0
0003a0 9a 99 19 bf cc cc 4c be cc cc 4c 3e 9a 99 19 3f
       -0.6 -0.19999999 0.19999999 0.6
0003b0 00 00 80 3f 33 33 b3 3f 66 66 e6 3f cd cc 0c 40
       1.0 1.4 1.8 2.2
0003c0 cd cc 0c c0 66 66 e6 bf 33 33 b3 bf 00 00 80 bf
       -2.2 -1.8 -1.4 -1.0
0003d0 9a 99 19 bf cc cc 4c be cc cc 4c 3e 9a 99 19 3f
       -0.6 -0.19999999 0.19999999 0.6
0003e0 00 00 80 3f 33 33 b3 3f 66 66 e6 3f cd cc 0c 40
       1.0 1.4 1.8 2.2
0003f0 cd cc 0c c0 66 66 e6 bf 33 33 b3 bf 00 00 80 bf
       -2.2 -1.8 -1.4 -1.0

act_fun.1.coef f4 [32, 16, 8]
000000 bc e5 44 3c 52 f3 c4 3d 8f 15 eb 3d 25 4a f1 3d
       0.012017664 0.09616722 0.11478721 0.1178172
000010 af bf ce bd c0 af e7 bd 49 96 bd bd 2e 47 b5 bc
       -0.100951545 -0.113128185 -0.0925718 -0.022128668
000020 d0 be 30 3c 5a 3d 98 3d dd 1e 85 bd d2 63 a3 bd
       0.010787681 0.07433577 -0.06500027 -0.079780236
000030 02 ef 87 3c ec 2e 20 3e 75 8a 1a 3e 21 cb a1 3d
       0.01659346 0.156429 0.1509188 0.07900072
000040 64 13 1b bc a9 ed 9f 3b 89 71 d1 bc ad 1a eb bd
       -0.009465072 0.004880626 -0.025566833 -0.114796974
000050 76 7b a4 3d b8 49 26 3e 59 d9 d1 3d a4 c0 6e 3d
       0.08031361 0.16239059 0.10246534 0.058289185
000060 98 04 27 3c 2d 3f c8 3d e0 59 e5 3d be 1f d7 3d
       0.010193966 0.09777675 0.11198783 0.10504101
000070 50 62 0e 3d 2f b1 1a be 82 c8 9a bd 78 28 00 bd
       0.034761727 -0.15106653 -0.07557775 -0.031288594
000080 50 c8 bb bb 5c 0c 41 bd c5 22 c4 bd 19 84 15 be
       -0.005730666 -0.047130927 -0.09576944 -0.14601173
000090 8b fc 35 3d a8 a7 df 3d 87 3d 1f 3e 91 70 aa 3d
       0.044430297 0.1092065 0.15550815 0.083222516
0000a0 c0 c6 e8 bb c4 37 43 bc f7 b6 a2 bd 73 82 f7 bd
       -0.007103771 -0.011915151 -0.07945054 -0.12085428
0000b0 69 74 e7 3d eb 4c 99 3d 3f b0 28 3e 8d 59 c8 3d
       0.113015 0.07485374 0.16473483 0.097827055
0000c0 48 5f bc bb 4c d4 e7 3c 62 8f d4 3d 55 1f 3e 3e
       -0.005748663 0.028299473 0.103789106 0.1856664
0000d0 90 2b 90 bd 6c 7d 92 bd 5f e5 11 be 40 3b 4a bd
       -0.07039559 -0.071528286 -0.14247654 -0.04937291
0000e0 34 af 1e bc 34 3f 38 3d 78 2c 3b 3e c5 6f a4 3d
       -0.009685326 0.04498215 0.18278682 0.08029131
0000f0 54 85 61 3d 6c 9f 2b be 5c dc c5 bd cc 1a e8 3c
       0.055058792 -0.16760033 -0.09661171 0.02833309
000100 84 45 be 3b 78 24 b4 3d 30 e3 1a 3e 41 3d 19 3e
       0.0058066268 0.08796018 0.15125728 0.14964773
000110 31 5a 7e bd 11 b3 9e bd 29 e4 25 be dc 00 c0 bd
       -0.062097732 -0.07748998 -0.16200317 -0.09375164
000120 80 f6 17 3c 8b 7d a1 3d ed 85 9d 3d fa ac 2d 3e
       0.009275079 0.078852735 0.0769156 0.16960517
000130 2b 8d ad 3c 59 0a e9 bd 38 54 0b be 0a 11 06 bd
       0.021185478 -0.11378927 -0.13606346 -0.032731093
000140 d0 b7 d0 39 0d 1f 22 3d 73 50 a9 3d 5b 4a 39 3e
       0.00039809803 0.039580394 0.082672976 0.1809477
000150 ab b8 11 be f4 81 bc bd 37 eb ab bd 0c bf dd 3a
       -0.14230601 -0.09204474 -0.08394473 0.0016917898
000160 10 3c 11 3c 9e 53 72 3d 19 ff 88 bd 7e 5a db bd
       0.008864418 0.059161775 -0.06689281 -0.107106194
000170 d3 0b 78 3d 21 f7 01 3e d1 e3 0a 3e b3 f9 8e 3d
       0.06055815 0.12691928 0.13563468 0.0698122
000180 b8 e8 9d ba e7 48 30 3d 2e 16 d5 3d 45 29 ef 3d
       -0.0012047505 0.043038275 0.10404621 0.116777934
000190 b5 9b 7f bd b2 ed 24 be a9 54 b4 3b 0e 69 53 3d
       -0.062404353 -0.16106299 0.0055032563 0.05161386
0001a0 c6 81 86 3c 36 cb b9 3d e4 82 7b bd a6 3b bd bc
       0.016419303 0.090719625 -0.061404124 -0.023099732
0001b0 71 64 49 3d 02 21 98 3d 41 61 a5 bd ef 78 6c bd
       0.049168054 0.07428171 -0.0807519 -0.05773252
0001c0 a0 b7 0d bc f2 b4 4e bc f1 07 af bd 98 e0 9c bd
       -0.008649737 -0.012616383 -0.085464366 -0.07660025
0001d0 28 6a d8 3b 36 1b 18 3e 4d a9 b9 3d 6d fa 86 3d
       0.0066044517 0.1485413 0.09065495 0.06590734
0001e0 9c 3d 42 39 9b dd 22 3d 24 c3 d7 3d bf 09 32 3e
       0.00018524233 0.03976212 0.10535267 0.1738653
0001f0 ba c3 02 be 50 63 1a be 28 75 a4 bd ea 64 a7 3c
       -0.12769976 -0.15076947 -0.08030158 0.020433862
000200 99 47 8b bd 9f 2d 9e bd 53 98 f1 3d 84 bb e2 3d
       -0.068007655 -0.07723545 0.11796632 0.11070922
000210 b0 6f b5 bd fb c9 8e bd b0 29 03 3b 88 fb 4e bc
       -0.08859193 -0.069721185 0.0020013861 -0.012633212
000220 b4 2b dc 3d 81 0b 83 3c ab 4c 12 be 70 71 8f bd
       0.10750523 0.015996696 -0.14287059 -0.07004058
000230 85 2a 83 3c c0 b8 c8 3d c3 a4 25 3d 9b 32 ec 3d
       0.016011486 0.09800863 0.040440332 0.1153309
000240 35 e3 ef 3d 12 8e 85 3d e2 8f a8 bd e7 0e 81 bd
       0.11713258 0.065212384 -0.082305685 -0.063016705
000250 19 fb c2 3d 25 c8 fc 3d 84 9a 74 3d d8 12 dc 3d
       0.09520549 0.12342862 0.05971767 0.10745782
000260 8a b2 9f bd c5 6b 46 3d 19 d2 34 3e d5 9e 61 3d
       -0.077977255 0.04844262 0.17658271 0.055083115
000270 d9 65 05 3e 00 e4 e0 bd 58 0e 5b bd 53 d2 d6 bd
       0.13027133 -0.109809875 -0.053480476 -0.10489335
000280 e7 23 fb 3d 27 d1 76 3d 70 ad f6 bd 6f 2e b2 bd
       0.12262707 0.060258057 -0.12044799 -0.08700263
000290 69 6b 1a 3e 12 01 34 3d 68 8d 0e 3d 68 13 ec 3d
       0.15080036 0.043946333 0.034802824 0.11527139
0002a0 42 30 fe 3d e6 45 b6 3d d8 49 92 bd f5 3c bc bd
       0.12411548 0.08900051 -0.07142991 -0.09191314
0002b0 33 e8 bc 3d 4d 51 dc 3c 59 64 91 3d 81 c9 09 3e
       0.09223976 0.026894236 0.07099218 0.13455774
0002c0 a6 1c 91 bd 3f 45 e1 bb 04 d1 0e 3e 91 51 14 3e
       -0.070855424 -0.00687471 0.1394692 0.1448424
0002d0 a1 55 c8 3d 1d 05 ec bd 2c 1f be bd 56 80 35 bc
       0.097819574 -0.11524413 -0.09283289 -0.011077961
0002e0 26 99 58 ba e7 4b b9 3c dd 6c c0 3d d4 1f e5 3d
       -0.0008262567 0.0226192 0.09395764 0.11187711
0002f0 ea d2 88 3d 54 24 51 bd 03 b3 08 bc ec 25 e6 bd
       0.06680854 -0.051060036 -0.008343461 -0.11237702
000300 45 5a cd bd 39 47 82 bc 00 a7 19 3e 4f b4 ed 3d
       -0.10026983 -0.015903102 0.15005112 0.11606657
000310 b0 31 82 3d 99 37 af bd 8c 9b 7a bb dc 80 46 bd
       0.063571334 -0.08555526 -0.0038239686 -0.048462734
000320 17 d9 d1 bd 85 d8 9d 3d 8f d4 0d 3e 9b 70 21 3e
       -0.10246485 0.077073134 0.13850616 0.15765612
000330 0d c6 27 3d ec e2 83 bd 67 9f 01 be 27 41 ea bd
       0.04096036 -0.06439766 -0.12658463 -0.11438208
000340 f7 5d 59 bd 05 40 93 bd 53 ca 18 3e a8 f4 57 3d
       -0.053068127 -0.07189945 0.1492093 0.052723557
000350 55 c7 44 bd ed 75 27 be 3e 71 cd bd d0 9f 25 3a
       -0.04804166 -0.16353579 -0.10031365 0.00063180644
000360 4c c5 02 3e 42 5c 88 3d 5f 80 2b be 5b bb ee bd
       0.12770575 0.06658222 -0.16748188 -0.11656829
000370 8a eb fb 3c fb 57 bc 3d 38 aa f4 3c df b8 e6 3d
       0.030751962 0.091964684 0.029866323 0.1126573
000380 79 b9 3b bc 20 be 37 bc 32 c8 08 3e b4 8c 8e 3d
       -0.011457794 -0.011214763 0.13357618 0.06960431
000390 19 a3 7b bd a6 7a 1c be 99 41 ac bd 0a dc 24 3c
       -0.06143484 -0.15281162 -0.08410949 0.010062227
0003a0 36 a8 01 be cc a1 10 be 30 82 1c bd 9c 12 91 bc
       -0.12661824 -0.1412422 -0.038210094 -0.017709069
0003b0 50 86 aa 3d 57 8d ed 3d 7b ec 8c 3c 1d b7 1a bd
       0.08326399 0.11599224 0.017202606 -0.037772287
0003c0 b3 e9 dd 3d 57 b4 8d 3c 5e e0 0e be 8c ed 40 bd
       0.1083559 0.017297907 -0.13952777 -0.047101542
0003d0 b9 04 8c 3d 4f 28 a3 3d 30 81 a4 3d fd 4f 03 3e
       0.06836838 0.07966673 0.08032453 0.12823482
0003e0 ee 17 08 bd f7 c4 61 bd 6b b1 2c 3e ff 74 b1 3d
       -0.033225946 -0.05511948 0.16864555 0.08664893
0003f0 39 b4 31 be 84 0b a6 bd 10 19 12 be b8 a9 23 bd
       -0.17353906 -0.08107665 -0.14267373 -0.03995678

act_fun.1.mask f4 [32, 16]
000000 00 00 80 3f 00 00 80 3f 00 00 80 3f 00 00 80 3f
       1.0 1.0 1.0 1.0
000010 00 00 80 3f 00 00 80 3f 00 00 80 3f 00 00 80 3f
       1.0 1.0 1.0 1.0
000020 00 00 80 3f 00 00 80 3f 00 00 80 3f 00 00 80 3f
       1.0 1.0 1.0 1.0
000030 00 00 80 3f 00 00 80 3f 00 00 80 3f 00 00 80 3f
       1.0 1.0 1.0 1.0
000040 00 00 80 3f 00 00 80 3f 00 00 80 3f 00 00 80 3f
       1.0 1.0 1.0 1.0
000050 00 00 80 3f 00 00 80 3f 00 00 80 3f 00 00 80 3f
       1.0 1.0 1.0 1.0
000060 00 00 80 3f 00 00 80 3f 00 00 80 3f 00 00 80 3f
       1.0 1.0 1.0 1.0
000070 00 00 80 3f 00 00 80 3f 00 00 80 3f 00 00 80 3f
       1.0 1.0 1.0 1.0
000080 00 00 80 3f 00 00 80 3f 00 00 80 3f 00 00 80 3f
       1.0 1.0 1.0 1.0
000090 00 00 80 3f 00 00 80 3f 00 00 80 3f 00 00 80 3f
       1.0 1.0 1.0 1.0
0000a0 00 00 80 3f 00 00 80 3f 00 00 80 3f 00 00 80 3f
       1.0 1.0 1.0 1.0
0000b0 00 00 80 3f 00 00 80 3f 00 00 80 3f 00 00 80 3f
       1.0 1.0 1.0 1.0
0000c0 00 00 80 3f 00 00 80 3f 00 00 80 3f 00 00 80 3f
       1.0 1.0 1.0 1.0
0000d0 00 00 80 3f 00 00 80 3f 00 00 80 3f 00 00 80 3f
       1.0 1.0 1.0 1.0
0000e0 00 00 80 3f 00 00 80 3f 00 00 80 3f 00 00 80 3f
       1.0 1.0 1.0 1.0
0000f0 00 00 80 3f 00 00 80 3f 00 00 80 3f 00 00 80 3f
       1.0 1.0 1.0 1.0
000100 00 00 80 3f 00 00 80 3f 00 00 80 3f 00 00 80 3f
       1.0 1.0 1.0 1.0
000110 00 00 80 3f 00 00 80 3f 00 00 80 3f 00 00 80 3f
       1.0 1.0 1.0 1.0
000120 00 00 80 3f 00 00 80 3f 00 00 80 3f 00 00 80 3f
       1.0 1.0 1.0 1.0
000130 00 00 80 3f 00 00 80 3f 00 00 80 3f 00 00 80 3f
       1.0 1.0 1.0 1.0
000140 00 00 80 3f 00 00 80 3f 00 00 80 3f 00 00 80 3f
       1.0 1.0 1.0 1.0
000150 00 00 80 3f 00 00 80 3f 00 00 80 3f 00 00 80 3f
       1.0 1.0 1.0 1.0
000160 00 00 80 3f 00 00 80 3f 00 00 80 3f 00 00 80 3f
       1.0 1.0 1.0 1.0
000170 00 00 80 3f 00 00 80 3f 00 00 80 3f 00 00 80 3f
       1.0 1.0 1.0 1.0
000180 00 00 80 3f 00 00 80 3f 00 00 80 3f 00 00 80 3f
       1.0 1.0 1.0 1.0
000190 00 00 80 3f 00 00 80 3f 00 00 80 3f 00 00 80 3f
       1.0 1.0 1.0 1.0
0001a0 00 00 80 3f 00 00 80 3f 00 00 80 3f 00 00 80 3f
       1.0 1.0 1.0 1.0
0001b0 00 00 80 3f 00 00 80 3f 00 00 80 3f 00 00 80 3f
       1.0 1.0 1.0 1.0
0001c0 00 00 80 3f 00 00 80 3f 00 00 80 3f 00 00 80 3f
       1.0 1.0 1.0 1.0
0001d0 00 00 80 3f 00 00 80 3f 00 00 80 3f 00 00 80 3f
       1.0 1.0 1.0 1.0
0001e0 00 00 80 3f 00 00 80 3f 00 00 80 3f 00 00 80 3f
       1.0 1.0 1.0 1.0
0001f0 00 00 80 3f 00 00 80 3f 00 00 80 3f 00 00 80 3f
       1.0 1.0 1.0 1.0
000200 00 00 80 3f 00 00 80 3f 00 00 80 3f 00 00 80 3f
       1.0 1.0 1.0 1.0
000210 00 00 80 3f 00 00 80 3f 00 00 80 3f 00 00 80 3f
       1.0 1.0 1.0 1.0
000220 00 00 80 3f 00 00 80 3f 00 00 80 3f 00 00 80 3f
       1.0 1.0 1.0 1.0
000230 00 00 80 3f 00 00 80 3f 00 00 80 3f 00 00 80 3f
       1.0 1.0 1.0 1.0
000240 00 00 80 3f 00 00 80 3f 00 00 80 3f 00 00 80 3f
       1.0 1.0 1.0 1.0
000250 00 00 80 3f 00 00 80 3f 00 00 80 3f 00 00 80 3f
       1.0 1.0 1.0 1.0
000260 00 00 80 3f 00 00 80 3f 00 00 80 3f 00 00 80 3f
       1.0 1.0 1.0 1.0
000270 00 00 80 3f 00 00 80 3f 00 00 80 3f 00 00 80 3f
       1.0 1.0 1.0 1.0
000280 00 00 80 3f 00 00 80 3f 00 00 80 3f 00 00 80 3f
       1.0 1.0 1.0 1.0
000290 00 00 80 3f 00 00 80 3f 00 00 80 3f 00 00 80 3f
       1.0 1.0 1.0 1.0
0002a0 00 00 80 3f 00 00 80 3f 00 00 80 3f 00 00 80 3f
       1.0 1.0 1.0 1.0
0002b0 00 00 80 3f 00 00 80 3f 00 00 80 3f 00 00 80 3f
       1.0 1.0 1.0 1.0
0002c0 00 00 80 3f 00 00 80 3f 00 00 80 3f 00 00 80 3f
       1.0 1.0 1.0 1.0
0002d0 00 00 80 3f 00 00 80 3f 00 00 80 3f 00 00 80 3f
       1.0 1.0 1.0 1.0
0002e0 00 00 80 3f 00 00 80 3f 00 00 80 3f 00 00 80 3f
       1.0 1.0 1.0 1.0
0002f0 00 00 80 3f 00 00 80 3f 00 00 80 3f 00 00 80 3f
       1.0 1.0 1.0 1.0
000300 00 00 80 3f 00 00 80 3f 00 00 80 3f 00 00 80 3f
       1.0 1.0 1.0 1.0
000310 00 00 80 3f 00 00 80 3f 00 00 80 3f 00 00 80 3f
       1.0 1.0 1.0 1.0
000320 00 00 80 3f 00 00 80 3f 00 00 80 3f 00 00 80 3f
       1.0 1.0 1.0 1.0
000330 00 00 80 3f 00 00 80 3f 00 00 80 3f 00 00 80 3f
       1.0 1.0 1.0 1.0
000340 00 00 80 3f 00 00 80 3f 00 00 80 3f 00 00 80 3f
       1.0 1.0 1.0 1.0
000350 00 00 80 3f 00 00 80 3f 00 00 80 3f 00 00 80 3f
       1.0 1.0 1.0 1.0
000360 00 00 80 3f 00 00 80 3f 00 00 80 3f 00 00 80 3f
       1.0 1.0 1.0 1.0
000370 00 00 80 3f 00 00 80 3f 00 00 80 3f 00 00 80 3f
       1.0 1.0 1.0 1.0
000380 00 00 80 3f 00 00 80 3f 00 00 80 3f 00 00 80 3f
       1.0 1.0 1.0 1.0
000390 00 00 80 3f 00 00 80 3f 00 00 80 3f 00 00 80 3f
       1.0 1.0 1.0 1.0
0003a0 00 00 80 3f 00 00 80 3f 00 00 80 3f 00 00 80 3f
       1.0 1.0 1.0 1.0
0003b0 00 00 80 3f 00 00 80 3f 00 00 80 3f 00 00 80 3f
       1.0 1.0 1.0 1.0
0003c0 00 00 80 3f 00 00 80 3f 00 00 80 3f 00 00 80 3f
       1.0 1.0 1.0 1.0
0003d0 00 00 80 3f 00 00 80 3f 00 00 80 3f 00 00 80 3f
       1.0 1.0 1.0 1.0
0003e0 00 00 80 3f 00 00 80 3f 00 00 80 3f 00 00 80 3f
       1.0 1.0 1.0 1.0
0003f0 00 00 80 3f 00 00 80 3f 00 00 80 3f 00 00 80 3f
       1.0 1.0 1.0 1.0

act_fun.1.scale_base f4 [32, 16]
000000 a0 f1 e6 bd 73 88 0a 3e 7a a6 5c 3c 0d de 74 bd
       -0.11276555 0.13528614 0.0134674255 -0.059782077
000010 59 a2 17 3e 94 b6 6e 3e 65 96 84 bb 01 3f 85 be
       0.14808024 0.23311836 -0.0040462487 -0.2602463
000020 b5 32 7c be 5c c3 39 be 5d 3d 7a be 49 cf 2b 3e
       -0.24628718 -0.1814093 -0.2443747 0.16778292
000030 33 3b 6b be 75 b3 b1 bd e7 1a 25 3e d1 03 37 bc
       -0.22971801 -0.08676807 0.16123544 -0.0111703435
000040 b6 fd 2c be 7d 01 a5 bd a4 a5 02 3e 7b f2 47 bc
       -0.16893658 -0.080569245 0.127585 -0.012203808
000050 7c 5a 69 3e 6b a4 f7 3d 8f f2 74 3c 1e af 89 be
       0.22788423 0.12091907 0.014950409 -0.26891416
000060 79 a6 81 3d 8c 40 63 be 30 38 6c be 81 55 64 3e
       0.0633058 -0.22192591 -0.23068309 0.22298242
000070 d6 9d 1b be 34 cd 3c 3e a3 14 f2 bc 55 32 65 3c
       -0.15196928 0.18437654 -0.029550856 0.013989051
000080 06 54 8b 3d 3a 01 26 3e bc 90 80 3e 4e 8f 6c be
       0.068031356 0.16211405 0.25110424 -0.23101541
000090 17 d0 96 3d ca 4b 28 3e 26 ac fe bb df 2a 51 be
       0.07363909 0.16435161 -0.0077719865 -0.2042651
0000a0 55 57 5f 3b a9 6a 2b be 59 81 53 be 36 1d 11 3e
       0.0034079154 -0.16739906 -0.20654811 0.141713
0000b0 e9 60 7c be 5c 70 48 be 06 85 29 3e 2b 94 46 bd
       -0.24646343 -0.19574112 0.1655465 -0.048481148
0000c0 c7 3c 40 3e c4 82 de bd 09 17 71 be d3 21 f8 bc
       0.18773185 -0.10864785 -0.23543943 -0.030289566
0000d0 ec af 89 3d a2 89 85 be d0 b2 2d 3e 2b 0c 87 3e
       0.067230076 -0.26081568 0.16962743 0.2637647
0000e0 67 31 80 3e cb 36 92 3b e6 9c 76 3d 81 df 77 be
       0.2503769 0.0044620982 0.060208224 -0.24206354
0000f0 de 31 69 3e cc 65 80 be 03 23 85 be 8f 8f 33 3b
       0.22772929 -0.25077665 -0.26003274 0.00273988
000100 1f fd 7f 3e 0d cf c8 3b 77 68 c6 3c 04 0c 82 3e
       0.24998902 0.006128198 0.024219735 0.25399792
000110 66 36 4b be 06 dd 59 be 51 21 df 3b 83 cd 35 3e
       -0.1984497 -0.2127572 0.0068093915 0.17754178
000120 56 a3 3e 3e 63 b6 1e 3e 1f 6a 05 bd 7e 92 bf bd
       0.18616995 0.15499263 -0.032571908 -0.09354113
000130 af 9e 9b 3c bc cc 85 bd 89 e1 0b be 08 5d 00 3e
       0.018996565 -0.065331906 -0.13660254 0.12535489
000140 3f 09 69 bd dd cd 01 3e f1 36 d0 bd df 32 24 3e
       -0.056893583 0.12676187 -0.10166729 0.16035031
000150 69 1d d1 3d 15 3b 34 3d ad 25 6e 3e 49 da 5a 3e
       0.10210688 0.044001658 0.2325656 0.21372332
000160 66 55 74 3e 7c 40 16 3e 66 95 60 3e cd 05 c6 bd
       0.23860702 0.14673036 0.21931991 -0.09669075
000170 1e dd 1d 3c ab ea 7f 3d 1d 65 c9 3c 4d 48 d6 3d
       0.009635238 0.062479656 0.024584347 0.10463009
000180 55 3b 83 be 5e 10 ab 3d b8 99 3b 3e 2c ea 00 be
       -0.25631204 0.08352731 0.18320358 -0.1258933
000190 95 e8 fd 3d b9 12 0a 3e c2 42 91 be b1 9e 10 be
       0.12397877 0.13483705 -0.28371245 -0.14123036
0001a0 f8 10 33 be 89 85 4c be c5 ad 53 bb f9 48 56 3e
       -0.17486942 -0.19972815 -0.003229962 0.20926274
0001b0 f6 51 a4 bd 11 fd df 3d f2 3b c7 bd 53 29 a7 bd
       -0.08023445 0.109369405 -0.097282305 -0.08162179
0001c0 38 5b 04 be 96 bf b9 bd 84 a3 5f 3d be c4 25 bd
       -0.12925422 -0.09069745 0.0545993 -0.04047083
0001d0 b0 99 9c 3b 16 80 cc 3d 07 83 84 bc 92 c1 63 3d
       0.004779063 0.09985368 -0.01617576 0.055604525
0001e0 d2 77 b9 bd e3 30 bf bd ed 9f d5 bd 7a 74 3a 3d
       -0.09056057 -0.09335496 -0.10430894 0.045521237
0001f0 6e 87 5f be 86 f5 64 3d 08 b5 07 be 6c 94 70 be
       -0.21829006 0.055898212 -0.13252652 -0.23494118
000200 3a 58 8b be 7b d4 33 3e 46 4b e1 b9 1c ba 03 be
       -0.2721575 0.17561524 -0.00042971427 -0.12863964
000210 b2 54 ed 3d 6c 89 64 3e 4f 8b 1b bd 0a 9e 7b be
       0.1158842 0.22318047 -0.037974652 -0.24572006
000220 a2 bf 63 3d 2b 2c 92 be ef dc c0 bd 1d 8a 58 3e
       0.055602677 -0.28549322 -0.0941714 0.21146436
000230 30 d2 16 3d cf 5f 3b 3d 65 a5 88 bd 6f fa 2e bd
       0.036821544 0.045745667 -0.066721715 -0.0427193
000240 6c 83 78 3e 3e fd 4b be e4 cc 0e be 07 47 9e bb
       0.24268883 -0.19920823 -0.13945347 -0.0048302445
000250 59 68 1c bd b9 c8 98 bd a9 b6 49 3e 48 46 59 3d
       -0.03818545 -0.0746016 0.19698586 0.05304554
000260 70 0f 7b bd 31 d4 16 3d bb 36 b2 bc ed a6 1a be
       -0.06129402 0.036823455 -0.021754613 -0.1510274
000270 b3 d2 32 3e f1 c1 15 be 0a 7e e4 bd c0 5a 6b bd
       0.17463188 -0.14624764 -0.111568525 -0.057459593
000280 34 d5 5f 3a c9 3b 59 be ae c1 2c be 0d 7b d2 3c
       0.00085385446 -0.21214212 -0.16870758 0.02569344
000290 22 da 96 bd 67 a0 c2 3b e8 65 82 3e 8e 86 38 3e
       -0.07365824 0.0059395316 0.25468373 0.18020079
0002a0 a0 76 f3 3d e9 03 b3 3d 80 49 76 3e ad bd 50 be
       0.1188786 0.0874098 0.24051476 -0.20384856
0002b0 ad 11 7f 3e 76 9e 85 be 30 6d 66 be 58 fd 2e 3e
       0.24909087 -0.2609746 -0.22502589 0.1708883
0002c0 fd e6 45 be c0 63 11 3e 85 dc 88 3e 73 53 0b bd
       -0.19326396 0.14198208 0.26730743 -0.03401513
0002d0 84 28 91 3e 57 06 2f 3d 2d 22 50 be fb 73 13 be
       0.28351223 0.042730656 -0.20325537 -0.14399712
0002e0 84 b5 1d be 49 1b 49 be ae e7 05 be 28 2d 8b 3e
       -0.15401274 -0.19639315 -0.1307666 0.2718289
0002f0 b4 96 5d be 7c 9b 3d 3e c9 41 45 3e f3 bc a6 bc
       -0.2163952 0.18516344 0.19263376 -0.02035377
000300 ec 37 25 bd 8f c2 1f bd 0b d5 d9 3d a0 7f 3c be
       -0.040336534 -0.039003905 0.10636338 -0.1840806
000310 09 05 9b bd 02 c0 47 3e 00 05 29 3d 26 26 71 be
       -0.0756932 0.19506839 0.041264534 -0.23549709
000320 3d 75 12 3d 85 a9 87 bd 23 f2 7a bd 30 32 44 3e
       0.03575634 -0.0662413 -0.061266076 0.1915977
000330 6f f6 e0 bd f8 7e a7 bd 68 a1 0b 3e 35 c5 17 be
       -0.109845035 -0.08178514 0.1363579 -0.14821322
000340 1a 21 22 be 9d 3d 2e bd fa 3c 57 3e be 90 d2 bc
       -0.1583294 -0.042539228 0.21019354 -0.025703784
000350 11 65 42 bb 0e 31 e5 3c 2d d6 d0 bd 41 b3 62 be
       -0.002966229 0.027977493 -0.10197101 -0.22138692
000360 d4 06 82 bd 7d 94 80 be e8 13 fa bd b4 cc 53 bb
       -0.063489586 -0.25113288 -0.12210828 -0.0032318057
000370 bd 00 3d be 6d 4f 42 3e 9c 98 9c 3d 78 e0 01 bd
       -0.18457313 0.18975611 0.076462954 -0.03170821
000380 b5 88 ba 3b 25 06 9b bd 18 ae 1c bd d5 4f 52 3e
       0.0056925663 -0.07569531 -0.038251966 0.20538266
000390 9a 09 35 be 9c b9 13 be a9 0f d8 bc b7 fe 5e 3e
       -0.17679444 -0.14426273 -0.026374655 0.21776854
0003a0 fe 27 6a 3e bf e0 48 3e fb 48 4c 3e d7 b3 a5 ba
       0.22866818 0.19616984 0.19949715 -0.0012642097
0003b0 4d df 8e 3e 83 9c 08 bd 54 7c 3a bd 51 75 22 3e
       0.2790474 -0.033352386 -0.045528725 0.15865065
0003c0 f6 51 47 be 5d 89 83 3d 97 16 9b 3d e1 53 73 be
       -0.1946486 0.06422684 0.07572668 -0.23762466
0003d0 18 11 0d bd fa a6 ac bd 48 84 5b be b0 3f 9a 3c
       -0.03444013 -0.08430286 -0.2143718 0.018829197
0003e0 08 e9 11 3d f6 73 fc bd 48 96 48 bd c8 d6 c5 bc
       0.035622627 -0.12326805 -0.048971444 -0.024150267
0003f0 98 43 82 bd 6c 9a 25 bd e3 dc 96 bd 0e 47 37 be
       -0.06360549 -0.04043047 -0.073663495 -0.17898199

act_fun.1.scale_sp f4 [32, 16]
000000 f2 04 9b 3e 29 51 89 3e a8 b1 98 3e 05 4b 92 3e
       0.3027721 0.26819733 0.2982304 0.2857286
000010 a6 f9 99 3e b1 b1 96 3e 16 35 9a 3e 91 ad 86 3e
       0.3007328 0.29432443 0.30118626 0.26304296
000020 a8 eb 9b 3e a2 7b 9b 3e 57 52 9b 3e 9f 63 99 3e
       0.3045323 0.30367762 0.30336258 0.29958817
000030 ee 7c 93 3e e5 dd 25 3e 22 d6 87 3e 39 48 9b 3e
       0.2880625 0.16197927 0.26530558 0.3032854
000040 54 41 87 3e a8 09 95 3e 58 23 95 3e ec 6a 7b 3e
       0.2641703 0.2910893 0.29128528 0.24552506
000050 5f 2f 9b 3e 93 0e 88 3e 56 d2 9a 3e 3f 95 82 3e
       0.3030958 0.2657362 0.302386 0.2550449
000060 9e 12 8f 3e 63 18 9d 3e 16 f9 91 3e 43 24 93 3e
       0.2794389 0.30682668 0.2851035 0.28738603
000070 3d 48 8b 3e 9c e2 7b 3e ff 7d 88 3e 0b 9b 82 3e
       0.2720355 0.24598163 0.26658627 0.25508913
000080 62 b8 8d 3e 7f 8d 98 3e 39 fc 96 3e 65 24 9a 3e
       0.27679735 0.29795453 0.29489306 0.30105892
000090 a6 1f 90 3e 6a 9f 9a 3e ad 76 91 3e 2e 01 9e 3e
       0.28149146 0.30199748 0.28410855 0.30860275
0000a0 4b 2c 95 3e 14 22 89 3e 98 6b 91 3e 1a ba 95 3e
       0.29135355 0.26783812 0.284024 0.29243547
0000b0 31 7a 97 3e 11 75 41 3e d1 34 96 3e 67 cf 99 3e
       0.29585412 0.18892314 0.2933717 0.30041048
0000c0 91 a4 88 3e a5 f5 96 3e 6b e3 97 3e c5 6f 63 3e
       0.26688054 0.29484287 0.29665694 0.22210605
0000d0 3e 80 99 3e de 7e 9a 3e 23 74 9b 3e 3d cc 76 3e
       0.29980654 0.30174917 0.30362043 0.24101348
0000e0 9d 4a 9a 3e 6a b9 7e 3e ac 88 8d 3e c1 db 97 3e
       0.3013505 0.24875417 0.27643335 0.29659846
0000f0 22 51 9c 3e f3 f2 43 3e 09 49 9a 3e 77 cd 9c 3e
       0.3053065 0.19135647 0.30133846 0.30625507
000100 de dc 95 3e 08 56 93 3e 21 df 82 3e 51 f8 6e 3e
       0.2927007 0.28776574 0.2556086 0.23336913
000110 e6 2b 96 3e 5d 29 9b 3e e8 8b 9a 3e 31 8e 70 3e
       0.29330367 0.30304995 0.30184865 0.23491742
000120 da 65 9a 3e 24 ef 96 3e 12 01 6f 3e dd 5e 87 3e
       0.30155832 0.29479325 0.23340252 0.26439562
000130 67 5b 8b 3e a2 1b 8c 3e be 73 82 3e 5a 0e 92 3e
       0.27218172 0.27364832 0.2547893 0.28526574
000140 6b d3 74 3e f1 76 4c 3e cb 25 22 3e 6a 7a 92 3e
       0.23908775 0.19967248 0.1583473 0.2860902
000150 59 d8 51 3e 58 43 43 3e 14 68 9a 3e 74 47 9c 3e
       0.20492686 0.19068658 0.3015753 0.30523264
000160 5c e3 99 3e da e2 85 3e 63 3c 8b 3e ef 9f 51 3e
       0.30056274 0.26149637 0.2719451 0.20471166
000170 14 c0 89 3e b8 25 00 3e a7 01 59 3e 23 02 89 3e
       0.26904356 0.12514389 0.21192037 0.26759443
000180 51 2f 67 3e 5f 50 09 3e f2 a7 79 3e 4e a3 9b 3e
       0.22576644 0.13409565 0.24380472 0.3039803
000190 d1 4d 99 3e 41 81 95 3e 53 b8 9a 3e c7 b3 97 3e
       0.29942182 0.29200175 0.30218753 0.29629347
0001a0 da 46 87 3e 41 c2 61 3e 15 8a 9a 3e 4a 81 86 3e
       0.26421243 0.22046758 0.30183473 0.26270515
0001b0 67 7b 9a 3e bd 42 4f 3e 27 bf 92 3e 8e de 99 3e
       0.30172274 0.20240302 0.28661463 0.30052608
0001c0 87 6a 97 3e ff b1 5e 3e 94 5e 96 3e 62 ff 5d 3e
       0.2957346 0.21747588 0.29369032 0.21679452
0001d0 e4 59 93 3e 73 e2 75 3e 13 7e 9a 3e 77 8f 9c 3e
       0.2877952 0.24012165 0.30174312 0.30578205
0001e0 3b 28 91 3e 63 9a 85 3e 6c 3b 84 3e 62 24 68 3e
       0.28351006 0.2609435 0.25826585 0.22670129
0001f0 b9 38 8b 3e 1c 2f 64 3e 89 35 8a 3e d3 36 9c 3e
       0.27191713 0.22283596 0.2699397 0.30510578
000200 c7 b2 9d 3e 5e 63 85 3e 77 c9 8e 3e a1 5a 75 3e
       0.3080046 0.26052374 0.2788808 0.23960353
000210 d3 64 98 3e 50 3b 8a 3e 0d 3f 9c 3e d6 6e 9e 3e
       0.29764423 0.26998377 0.30516854 0.30943936
000220 db cc 8b 3e 86 4b 79 3e 25 b0 9c 3e 42 0f 91 3e
       0.2730473 0.24345216 0.30603138 0.28331953
000230 ad c1 9b 3e 3f 11 4a 3e 0b 34 37 3e 3f d6 85 3e
       0.304212 0.19733141 0.17890947 0.2614002
000240 37 c3 97 3e cc f9 87 3e e1 9e 99 3e 59 32 9c 3e
       0.29641125 0.26557767 0.30004027 0.30507162
000250 99 68 83 3e 99 fd 97 3e 6d d5 9c 3e 62 c5 93 3e
       0.2566574 0.29685667 0.3063158 0.2886153
000260 3d 56 85 3e 0f df 56 3e ca aa 84 3e 1e d9 94 3e
       0.26042357 0.20983528 0.25911552 0.29071897
000270 36 04 9b 3e 50 36 70 3e 41 90 98 3e b2 47 9d 3e
       0.3027665 0.23458219 0.29797557 0.30718762
000280 e3 cc 8c 3e 26 c8 4f 3e 9b 74 4a 3e 04 ab 92 3e
       0.27500066 0.20291194 0.19771044 0.286461
000290 48 94 9a 3e 4a de 96 3e 69 f2 8a 3e b8 9a 9d 3e
       0.30191255 0.29466468 0.2713807 0.30782104
0002a0 4f dc 85 3e bc 21 98 3e f7 3b 86 3e 94 51 99 3e
       0.26144645 0.29713237 0.26217625 0.29945052
0002b0 82 c4 8b 3e a2 52 87 3e 16 5b 96 3e 1c 3c 86 3e
       0.2729836 0.2643023 0.29366368 0.26217735
0002c0 a4 25 9d 3e d3 55 98 3e c3 ec 97 3e 85 b4 9b 3e
       0.3069278 0.2975298 0.29672822 0.30411163
0002d0 bf a5 98 3e 92 de 75 3e af 07 9c 3e a4 45 9e 3e
       0.29813954 0.24010685 0.30474612 0.30912507
0002e0 7a 55 89 3e 47 85 8a 3e 62 69 9b 3e bb 53 7f 3e
       0.26823026 0.27054808 0.30353838 0.24934284
0002f0 84 eb 9d 3e 5b 3f 8a 3e 8e bc 95 3e 73 74 99 3e
       0.30843747 0.2700146 0.29245418 0.29971656
000300 65 e7 90 3e 7b 8a 6a 3e b4 2b 39 3e f8 96 9c 3e
       0.2830154 0.22904389 0.18083078 0.3058393
000310 ed c2 96 3e c1 38 72 3e 3d 7d 8f 3e ad a6 8d 3e
       0.29445592 0.23654462 0.28025237 0.27666226
000320 b6 72 8f 3e 3a ad 90 3e 09 35 97 3e 16 d6 5b 3e
       0.28017205 0.2825716 0.2953265 0.21468386
000330 c1 a8 95 3e e2 8f 56 3e a0 16 74 3e 96 ab 83 3e
       0.29230312 0.20953324 0.23836756 0.25716847
000340 e4 5c 9a 3e d6 87 6c 3e 1e 1a 8c 3e 9b 1f 91 3e
       0.30148995 0.23098692 0.27363676 0.28344426
000350 29 c2 9a 3e 0b e9 39 3e bf cb 77 3e 66 4e 8c 3e
       0.30226257 0.18155305 0.24198817 0.27403563
000360 ed eb 9a 3e f9 99 5b 3e b7 e5 87 3e c7 db 73 3e
       0.30258122 0.21445455 0.26542446 0.23814307
000370 91 67 9b 3e 14 27 54 3e 05 1f 67 3e 3b c7 9b 3e
       0.30352452 0.20718032 0.22570427 0.30425438
000380 ef 3c 7c 3e 31 ab 4d 3e 1d 59 8c 3e 6c d2 98 3e
       0.2463262 0.20084836 0.27411738 0.2984804
000390 a9 60 99 3e 55 86 9d 3e b3 69 9d 3e 8f 94 9f 3e
       0.29956558 0.3076655 0.30744705 0.3116803
0003a0 0c 05 84 3e 49 27 9e 3e da f2 9c 3e 14 da 9a 3e
       0.257851 0.30889347 0.3065403 0.30244505
0003b0 d2 ec 9c 3e 47 7d 99 3e ef 94 6a 3e 84 87 9d 3e
       0.3064943 0.29978392 0.22908376 0.30767453
0003c0 e6 f7 90 3e 89 ac 59 3e 23 04 65 3e fc d6 84 3e
       0.28314131 0.21257223 0.2236486 0.2594527
0003d0 38 cf 80 3e ff 57 5c 3e 8b f2 97 3e 7d 8e 9a 3e
       0.25158095 0.21517943 0.29677233 0.30186835
0003e0 42 1a 9b 3e 3e a0 99 3e d8 04 5e 3e ba b4 52 3e
       0.3029347 0.30005068 0.21681535 0.20576754
0003f0 0f 74 96 3e 61 50 68 3e b3 4c 57 3e f5 1a 90 3e
       0.2938542 0.22686912 0.21025352 0.28145567
