models_cerebelo/kan_model_stellate_lif.pt (torch, 54409 bytes, 29 tensors)

node_bias_0 f4 [32]
0.0 0.0 0.0 0.0 0.0 0.0 0.0 0.0
0.0 0.0 0.0 0.0 0.0 0.0 0.0 0.0
0.0 0.0 0.0 0.0 0.0 0.0 0.0 0.0
0.0 0.0 0.0 0.0 0.0 0.0 0.0 0.0
00000000: 0000 0000 0000 0000 0000 0000 0000 0000
00000010: 0000 0000 0000 0000 0000 0000 0000 0000
00000020: 0000 0000 0000 0000 0000 0000 0000 0000
00000030: 0000 0000 0000 0000 0000 0000 0000 0000
00000040: 0000 0000 0000 0000 0000 0000 0000 0000
00000050: 0000 0000 0000 0000 0000 0000 0000 0000
00000060: 0000 0000 0000 0000 0000 0000 0000 0000
00000070: 0000 0000 0000 0000 0000 0000 0000 0000

node_scale_0 f4 [32]
1.0 1.0 1.0 1.0 1.0 1.0 1.0 1.0
1.0 1.0 1.0 1.0 1.0 1.0 1.0 1.0
1.0 1.0 1.0 1.0 1.0 1.0 1.0 1.0
1.0 1.0 1.0 1.0 1.0 1.0 1.0 1.0
00000000: 0000 803f 0000 803f 0000 803f 0000 803f
00000010: 0000 803f 0000 803f 0000 803f 0000 803f
00000020: 0000 803f 0000 803f 0000 803f 0000 803f
00000030: 0000 803f 0000 803f 0000 803f 0000 803f
00000040: 0000 803f 0000 803f 0000 803f 0000 803f
00000050: 0000 803f 0000 803f 0000 803f 0000 803f
00000060: 0000 803f 0000 803f 0000 803f 0000 803f
00000070: 0000 803f 0000 803f 0000 803f 0000 803f

subnode_bias_0 f4 [32]
0.0 0.0 0.0 0.0 0.0 0.0 0.0 0.0
0.0 0.0 0.0 0.0 0.0 0.0 0.0 0.0
0.0 0.0 0.0 0.0 0.0 0.0 0.0 0.0
0.0 0.0 0.0 0.0 0.0 0.0 0.0 0.0
00000000: 0000 0000 0000 0000 0000 0000 0000 0000
00000010: 0000 0000 0000 0000 0000 0000 0000 0000
00000020: 0000 0000 0000 0000 0000 0000 0000 0000
00000030: 0000 0000 0000 0000 0000 0000 0000 0000
00000040: 0000 0000 0000 0000 0000 0000 0000 0000
00000050: 0000 0000 0000 0000 0000 0000 0000 0000
00000060: 0000 0000 0000 0000 0000 0000 0000 0000
00000070: 0000 0000 0000 0000 0000 0000 0000 0000

subnode_scale_0 f4 [32]
1.0 1.0 1.0 1.0 1.0 1.0 1.0 1.0
1.0 1.0 1.0 1.0 1.0 1.0 1.0 1.0
1.0 1.0 1.0 1.0 1.0 1.0 1.0 1.0
1.0 1.0 1.0 1.0 1.0 1.0 1.0 1.0
00000000: 0000 803f 0000 803f 0000 803f 0000 803f
00000010: 0000 803f 0000 803f 0000 803f 0000 803f
00000020: 0000 803f 0000 803f 0000 803f 0000 803f
00000030: 0000 803f 0000 803f 0000 803f 0000 803f
00000040: 0000 803f 0000 803f 0000 803f 0000 803f
00000050: 0000 803f 0000 803f 0000 803f 0000 803f
00000060: 0000 803f 0000 803f 0000 803f 0000 803f
00000070: 0000 803f 0000 803f 0000 803f 0000 803f

node_bias_1 f4 [16]
0.0 0.0 0.0 0.0 0.0 0.0 0.0 0.0
0.0 0.0 0.0 0.0 0.0 0.0 0.0 0.0
00000000: 0000 0000 0000 0000 0000 0000 0000 0000
00000010: 0000 0000 0000 0000 0000 0000 0000 0000
00000020: 0000 0000 0000 0000 0000 0000 0000 0000
00000030: 0000 0000 0000 0000 0000 0000 0000 0000

node_scale_1 f4 [16]
1.0 1.0 1.0 1.0 1.0 1.0 1.0 1.0
1.0 1.0 1.0 1.0 1.0 1.0 1.0 1.0
00000000: 0000 803f 0000 803f 0000 803f 0000 803f
00000010: 0000 803f 0000 803f 0000 803f 0000 803f
00000020: 0000 803f 0000 803f 0000 803f 0000 803f
00000030: 0000 803f 0000 803f 0000 803f 0000 803f

subnode_bias_1 f4 [16]
0.0 0.0 0.0 0.0 0.0 0.0 0.0 0.0
0.0 0.0 0.0 0.0 0.0 0.0 0.0 0.0
00000000: 0000 0000 0000 0000 0000 0000 0000 0000
00000010: 0000 0000 0000 0000 0000 0000 0000 0000
00000020: 0000 0000 0000 0000 0000 0000 0000 0000
00000030: 0000 0000 0000 0000 0000 0000 0000 0000

subnode_scale_1 f4 [16]
1.0 1.0 1.0 1.0 1.0 1.0 1.0 1.0
1.0 1.0 1.0 1.0 1.0 1.0 1.0 1.0
00000000: 0000 803f 0000 803f 0000 803f 0000 803f
00000010: 0000 803f 0000 803f 0000 803f 0000 803f
00000020: 0000 803f 0000 803f 0000 803f 0000 803f
00000030: 0000 803f 0000 803f 0000 803f 0000 803f

act_fun.0.grid f4 [3, 12]
-2.2 -1.8 -1.4 -1.0 -0.6 -0.19999999 0.19999999 0.6
1.0 1.4 1.8 2.2 -2.2 -1.8 -1.4 -1.0
-0.6 -0.19999999 0.19999999 0.6 1.0 1.4 1.8 2.2
-2.2 -1.8 -1.4 -1.0 -0.6 -0.19999999 0.19999999 0.6
1.0 1.4 1.8 2.2
00000000: cdcc 0cc0 6666 e6bf 3333 b3bf 0000 80bf
00000010: 9a99 19bf cccc 4cbe cccc 4c3e 9a99 193f
00000020: 0000 803f 3333 b33f 6666 e63f cdcc 0c40
00000030: cdcc 0cc0 6666 e6bf 3333 b3bf 0000 80bf
00000040: 9a99 19bf cccc 4cbe cccc 4c3e 9a99 193f
00000050: 0000 803f 3333 b33f 6666 e63f cdcc 0c40
00000060: cdcc 0cc0 6666 e6bf 3333 b3bf 0000 80bf
00000070: 9a99 19bf cccc 4cbe cccc 4c3e 9a99 193f
00000080: 0000 803f 3333 b33f 6666 e63f cdcc 0c40

act_fun.0.coef f4 [3, 32, 8]
-0.1201276 -0.099 -0.08820817 0.13992068 0.16119541 0.1033283 0.14069842 0.12334878
-0.07871185 -0.05064872 -0.13252151 0.14531401 0.046985425 0.13468915 0.043808304 0.05197362
-0.12577401 -0.13088974 -0.12452395 0.12903531 0.1297623 0.0868862 0.10254539 0.11668527
0.14345148 0.17646359 0.06338116 -0.12022172 -0.13810368 -0.13181901 -0.10433129 -0.10958903
-0.100181125 -0.10592481 -0.13497679 0.1017621 0.04886191 0.1544947 0.06424516 0.0815698
0.129289 0.13416147 0.13272782 -0.123731695 -0.17261481 -0.11078826 -0.14625356 -0.12216263
-0.12982292 -0.14429931 -0.122961916 0.13550846 0.14295512 0.09733633 0.14168195 0.12356494
-0.07287591 -0.0508749 -0.12993222 0.12453259 0.05324605 0.06327815 0.04439905 0.02352279
-0.11252318 -0.08443479 -0.11743397 0.092240445 0.09341863 0.1483143 0.15003653 0.122908175
0.06699505 0.04582288 0.03795962 -0.10965538 -0.09043774 -0.06642848 -0.02998399 -0.046150047
0.14512637 0.17587757 0.05459359 -0.067055 -0.15979572 -0.097116105 -0.10619984 -0.11144732
-0.11614947 -0.1076541 -0.15537713 0.15881188 0.10616928 0.091690294 0.13554342 0.12116462
-0.10634101 -0.07655627 -0.15123612 0.14341533 0.14177805 0.08497214 0.14727542 0.13607419
-0.106080025 -0.09870096 -0.13229921 0.09592515 0.10375626 0.114897 0.105907865 0.108417645
0.12598626 0.1369387 0.17816752 -0.1681694 -0.13308883 -0.10071556 -0.12185295 -0.11663425
-0.12284125 -0.12803239 -0.090115294 0.07902161 0.11374102 0.0859015 0.10860738 0.1052179
0.13065152 0.15342139 0.12813392 -0.13132024 -0.1500536 -0.12923205 -0.09567449 -0.10561994
0.12152464 0.13043506 0.06019704 -0.08754181 -0.07787568 -0.08777144 -0.06296078 -0.086594544
0.1255585 0.11297569 0.08321288 -0.083269455 -0.15619373 -0.100954115 -0.12430159 -0.11168132
0.13735715 0.14666067 0.10260504 -0.10677557 -0.12419255 -0.11830558 -0.13807224 -0.12075662
0.11782546 0.10225591 0.14824188 -0.17739627 -0.12698276 -0.1288979 -0.124356344 -0.11426944
0.12162736 0.12133948 0.079147555 -0.14867602 -0.10063579 -0.15756144 -0.1115145 -0.08998811
-0.1271208 -0.13784741 -0.1313832 0.111172386 0.18852895 0.05893381 0.13783158 0.1262101
0.14225064 0.16584954 0.07495209 -0.080080055 -0.10823968 -0.1563763 -0.07660274 -0.09935246
-0.10755561 -0.12968875 -0.026183255 0.13891669 0.07674485 0.08392748 0.13620086 0.10354355
-0.10282358 -0.11517689 -0.1020757 0.09204199 0.124281354 0.11027612 0.12313336 0.10860995
0.10466 0.09590756 0.09932793 -0.11114676 -0.066015646 -0.12044653 -0.09968603 0.048613563
0.11576208 0.09948266 0.0969859 -0.13411224 -0.09024876 -0.11693221 -0.10329458 -0.048339054
0.12992363 0.13567007 0.09696419 -0.16120721 -0.09683269 -0.0801805 -0.136231 -0.12517327
0.09963157 0.07073054 0.07876953 -0.0850982 -0.07419109 -0.09234203 -0.1042848 -0.094273075
0.14040829 0.17029959 0.10153691 -0.14304772 -0.1370121 -0.08457782 -0.12520742 -0.12205275
0.116061874 0.09210622 0.09221819 -0.13358401 -0.10531554 -0.1325695 -0.14663932 -0.11646479
00000000: 7605 f6bd 83c0 cabd 7ca6 b4bd 5e47 0f3e
00000010: 6910 253e ca9d d33d 3f13 103e 499e fc3d
00000020: ae33 a1bd 0875 4fbd b8b3 07be 32cd 143e
00000030: ca73 403d f4eb 093e 5670 333d 4ae2 543d
00000040: e7ca 00be f607 06be 6a06 ffbd d521 043e
00000050: 69e0 043e 64f1 b13d 5103 d23d b0f8 ee3d
00000060: f2e4 123e dfb2 343e fbcd 813d ce36 f6bd
00000070: 0d6b 0dbe 90fb 06be a5ab d5bd 3770 e0bd
00000080: c32b cdbd 1bef d8bd 5b37 0abe a668 d03d
00000090: 6d23 483d dc33 1e3e f792 833d 110e a73d
000000a0: 5664 043e a061 093e cde9 073e 0b67 fdbd
000000b0: f0c1 30be f5e4 e2bd 7ec3 15be 6730 fabd
000000c0: 4df0 04be 33c3 13be 75d3 fbbd bbc2 0a3e
000000d0: d462 123e 4558 c73d 1315 113e 9e0f fd3d
000000e0: f73f 95bd 3362 50bd f40c 05be f10a ff3d
000000f0: 8818 5a3d fa97 813d c7db 353d deb2 c03c
00000100: 8e72 e6bd 26ec acbd 3981 f0bd 8fe8 bc3d
00000110: 4452 bf3d b4df 173e 2da3 193e 48b7 fb3d
00000120: b334 893d c6b0 3b3d 8c7b 1b3d 0093 e0bd
00000130: 6c37 b9bd a80b 88bd fca0 f5bc d507 3dbd
00000140: 029c 143e 4019 343e 879d 5f3d 2254 89bd
00000150: 7da1 23be cfe4 c6bd 4d7f d9bd 7e3e e4bd
00000160: c6df edbd c179 dcbd 2f1b 1fbe 959f 223e
00000170: 486f d93d 1fc8 bb3d e5cb 0a3e 2825 f83d
00000180: 51c9 d9bd 89c9 9cbd a4dd 1abe 78db 123e
00000190: 442e 113e e005 ae3d 5ecf 163e 0857 0b3e
000001a0: 7c40 d9bd bb23 cabd 7279 07be 6874 c43d
000001b0: 297e d43d 1e4f eb3d 39e6 d83d 120a de3d
000001c0: 8b02 013e a939 0c3e 8c71 363e 9934 2cbe
000001d0: 7048 08be f643 cebd 0a8e f9bd f0dd eebd
000001e0: 3194 fbbd ec1a 03be 5e8e b8bd 15d6 a13d
000001f0: 0df1 e83d 20ed af3d 8c6d de3d 7b7c d73d
00000200: 83c9 053e 7f1a 1d3e 8a35 033e d078 06be
00000210: a7a7 19be 6855 04be fdf0 c3bd 444f d8bd
00000220: e9e1 f83d c590 053e 2c91 763d 1f49 b3bd
00000230: 497d 9fbd 83c1 b3bd 95f1 80bd 7b58 b1bd
00000240: 6892 003e cc5f e73d 846b aa3d 2d89 aabd
00000250: 40f1 1fbe 08c1 cebd d591 febd 2db9 e4bd
00000260: 5aa7 0c3e 372e 163e 9722 d23d 26ad dabd
00000270: aa58 febd 324a f2bd cf62 0dbe 3f4f f7bd
00000280: 7a4e f13d 8c6b d13d b8cc 173e 5ea7 35be
00000290: c507 02be d0fd 03be 8aae febd 1906 eabd
000002a0: c417 f93d d580 f83d 1d18 a23d 873e 18be
000002b0: 231a cebd c957 21be b761 e4bd b04b b8bd
000002c0: f42b 02be df27 0dbe 5189 06be 59ae e33d
000002d0: bc0d 413e 9464 713d b923 0d3e 383d 013e
000002e0: 27aa 113e 76d4 293e 7b80 993d 0301 a4bd
000002f0: c4ac ddbd 1c21 20be e6e1 9cbd 4d79 cbbd
00000300: 1e46 dcbd 21cd 04be 447e d6bc 2d40 0e3e
00000310: 672c 9d3d 2ce2 ab3d 3d78 0b3e a40e d43d
00000320: 2b95 d2bd dce1 ebbd 110d d1bd 8380 bc3d
00000330: 3987 fe3d 72d8 e13d 582d fc3d e56e de3d
00000340: fb57 d63d 2f6b c43d 716c cb3d eaa0 e3bd
00000350: 3633 87bd acac f6bd 3028 ccbd 041f 473d
00000360: ab14 ed3d 91bd cb3d 8ba0 c63d b854 09be
00000370: 58d4 b8bd 287a efbd 1c8c d3bd 2cff 45bd
00000380: b30a 053e 18ed 0a3e 2995 c63d 8113 25be
00000390: 3850 c6bd ad35 a4bd 2480 0bbe 6c2d 00be
000003a0: a30b cc3d 2cdb 903d eb51 a13d f747 aebd
000003b0: 80f1 97bd d11d bdbd 4593 d5bd 3e12 c1bd
000003c0: 31c7 0f3e 0463 2e3e 95f2 cf3d 1a7b 12be
000003d0: e64c 0cbe 2337 adbd 6036 00be cbf6 f9bd
000003e0: d9b1 ed3d 30a2 bc3d e4dc bc3d 3fca 08be
000003f0: adaf d7bd 4dc0 07be 9e28 16be 1885 eebd

act_fun.0.mask f4 [3, 32]
1.0 1.0 1.0 1.0 1.0 1.0 1.0 1.0
1.0 1.0 1.0 1.0 1.0 1.0 1.0 1.0
1.0 1.0 1.0 1.0 1.0 1.0 1.0 1.0
1.0 1.0 1.0 1.0 1.0 1.0 1.0 1.0
1.0 1.0 1.0 1.0 1.0 1.0 1.0 1.0
1.0 1.0 1.0 1.0 1.0 1.0 1.0 1.0
1.0 1.0 1.0 1.0 1.0 1.0 1.0 1.0
1.0 1.0 1.0 1.0 1.0 1.0 1.0 1.0
1.0 1.0 1.0 1.0 1.0 1.0 1.0 1.0
1.0 1.0 1.0 1.0 1.0 1.0 1.0 1.0
1.0 1.0 1.0 1.0 1.0 1.0 1.0 1.0
1.0 1.0 1.0 1.0 1.0 1.0 1.0 1.0
00000000: 0000 803f 0000 803f 0000 803f 0000 803f
00000010: 0000 803f 0000 803f 0000 803f 0000 803f
00000020: 0000 803f 0000 803f 0000 803f 0000 803f
00000030: 0000 803f 0000 803f 0000 803f 0000 803f
00000040: 0000 803f 0000 803f 0000 803f 0000 803f
00000050: 0000 803f 0000 803f 0000 803f 0000 803f
00000060: 0000 803f 0000 803f 0000 803f 0000 803f
00000070: 0000 803f 0000 803f 0000 803f 0000 803f
00000080: 0000 803f 0000 803f 0000 803f 0000 803f
00000090: 0000 803f 0000 803f 0000 803f 0000 803f
000000a0: 0000 803f 0000 803f 0000 803f 0000 803f
000000b0: 0000 803f 0000 803f 0000 803f 0000 803f
000000c0: 0000 803f 0000 803f 0000 803f 0000 803f
000000d0: 0000 803f 0000 803f 0000 803f 0000 803f
000000e0: 0000 803f 0000 803f 0000 803f 0000 803f
000000f0: 0000 803f 0000 803f 0000 803f 0000 803f
00000100: 0000 803f 0000 803f 0000 803f 0000 803f
00000110: 0000 803f 0000 803f 0000 803f 0000 803f
00000120: 0000 803f 0000 803f 0000 803f 0000 803f
00000130: 0000 803f 0000 803f 0000 803f 0000 803f
00000140: 0000 803f 0000 803f 0000 803f 0000 803f
00000150: 0000 803f 0000 803f 0000 803f 0000 803f
00000160: 0000 803f 0000 803f 0000 803f 0000 803f
00000170: 0000 803f 0000 803f 0000 803f 0000 803f

act_fun.0.scale_base f4 [3, 32]
-0.05113886 0.3769442 -0.16673572 -0.38994268 0.45297983 -0.62167716 0.18743001 0.5569911
0.21495584 0.10074035 -0.45324263 0.10805464 0.15825732 0.25503093 0.106155515 0.60355055
-0.56394947 -0.083137386 -0.4040471 -0.57978874 -0.16605778 -0.6151406 0.52042717 -0.051578138
-0.2191444 0.4029135 -0.63020253 -0.32570237 -0.2340136 -0.59355414 -0.48954642 -0.20686074
0.5570507 0.63514906 0.4908001 -0.46260846 -0.2828236 0.3817832 0.32336116 0.083592154
0.19641797 -0.53566164 -0.3122226 0.6733886 -0.012769883 0.08307116 -0.5986305 -0.2147154
-0.1373172 -0.4596319 -0.19043487 0.10957182 -0.6855426 0.05801575 -0.26308388 -0.40303275
0.33169144 0.5621584 -0.2569365 -0.34330076 -0.64320356 -0.40369254 -0.62481976 -0.2484987
0.24104145 -0.4652611 0.62381554 0.23851414 -0.44266957 -0.40616548 0.31110603 -0.043304138
0.04803652 -0.38852826 0.3371202 -0.19589576 0.6043455 0.16369939 -0.00831096 0.4740149
-0.22484992 -0.3081755 -0.21601065 0.36669374 -0.40234616 -0.00329765 -0.47906643 0.17205968
0.3298733 0.14729685 0.11581334 -0.055830218 0.18917236 -0.43538645 -0.11967612 0.13289753
00000000: fb76 51bd d5fe c03e c5bc 2abe 91a6 c7be
00000010: f9ec e73e 3c26 1fbf a7ed 3f3e f896 0e3f
00000020: 621d 5c3e f550 ce3d 6b0f e8be c04b dd3d
00000030: 350e 223e 6a93 823e 1068 d93d 4a82 1a3f
00000040: fe5e 10bf ef43 aabd 43df cebe 096d 14bf
00000050: 0d0b 2abe db79 1dbf b73a 053f 9943 53bd
00000060: 6467 60be ae4a ce3e f454 21bf 76c2 a6be
00000070: 43a1 6fbe 2af3 17bf d4a5 fabe 4dd3 53be
00000080: e09a 0e3f 2199 223f 274a fb3e 04db ecbe
00000090: 41ce 90be 1679 c33e 988f a53e 5d32 ab3d
000000a0: cb21 493e 1f21 09bf a4db 9fbe 3263 2c3f
000000b0: c538 51bc 3621 aa3d d93f 19bf 5bde 5bbe
000000c0: e19c 0cbe df54 ebbe 5c01 43be 3167 e03d
000000d0: b87f 2fbf eca1 6d3d eeb2 86be 4f5a cebe
000000e0: 76d3 a93e 9de9 0f3f 2e8d 83be 1ec5 afbe
000000f0: fda8 24bf cab0 cebe 30f4 1fbf 7176 7ebe
00000100: 92d3 763e b436 eebe 60b2 1f3f 0d3d 743e
00000110: 96a5 e2be ecf4 cfbe 4a49 9f3e ae5f 31bd
00000120: f1c1 443d 2ded c6be 059b ac3e e698 48be
00000130: 63b6 1a3f d0a0 273e b12a 08bc 15b2 f23e
00000140: 0f3f 66be 2ec9 9dbe e531 5dbe 48bf bb3e
00000150: 5100 cebe 631d 58bb 3248 f5be 6a30 303e
00000160: 27e5 a83e fcd4 163e 8b2f ed3d 3aae 64bd
00000170: 66b6 413e f9ea debe c118 f5bd 4a16 083e

act_fun.0.scale_sp f4 [3, 32]
0.6800106 0.65517503 0.71022624 0.7064308 0.69152635 0.7108783 0.7087827 0.65520775
0.6735748 0.6204071 0.6851523 0.7089211 0.69033504 0.6797811 0.70943546 0.6724862
0.7020068 0.64089996 0.6658191 0.70048726 0.70981735 0.6787171 0.7084448 0.68276864
0.70077735 0.6816346 0.6569683 0.65498596 0.68633336 0.6180262 0.7116779 0.6725133
0.70158094 0.63480455 0.65163 0.7057649 0.6715569 0.7101539 0.70830196 0.64852875
0.7019131 0.6134457 0.7073619 0.6702486 0.7133947 0.6916335 0.6914419 0.69929075
0.7110246 0.6679209 0.70945686 0.68793744 0.7048535 0.6706399 0.707304 0.690467
0.6894076 0.6913116 0.68747854 0.63919663 0.6812553 0.6937922 0.7099806 0.6693495
0.6928681 0.70020866 0.7102801 0.6721355 0.6544427 0.70778656 0.70572674 0.6720437
0.70761496 0.6629347 0.6920189 0.68266207 0.71584564 0.71374524 0.7019776 0.68842834
0.696367 0.70929587 0.69657654 0.70590484 0.70369405 0.6964686 0.706643 0.7054016
0.6441263 0.65573233 0.71139616 0.6736488 0.7010612 0.67603683 0.7007697 0.69556653
00000000: 2d15 2e3f 8db9 273f 63d1 353f a6d8 343f
00000010: df07 313f 1ffc 353f c872 353f b2bb 273f
00000020: 666f 2c3f 00d3 1e3f 2466 2f3f da7b 353f
00000030: ccb9 303f 2206 2e3f 909d 353f 0e28 2c3f
00000040: b8b6 333f 0512 243f 1f73 2a3f 2253 333f
00000050: 97b6 353f 67c0 2d3f a35c 353f edc9 2e3f
00000060: 2566 333f 9b7f 2e3f 132f 283f 29ad 273f
00000070: 8bb3 2f3f f736 1e3f 8630 363f d529 2c3f
00000080: cf9a 333f 8d82 223f 39d1 263f 02ad 343f
00000090: 27eb 2b3f a5cc 353f 4753 353f fb05 263f
000000a0: 94b0 333f c70a 1d3f ab15 353f 6a95 2b3f
000000b0: 09a1 363f e50e 313f 5602 313f b804 333f
000000c0: b505 363f ddfc 2a3f f79e 353f ab1c 303f
000000d0: 4771 343f 0eaf 2b3f e011 353f 72c2 303f
000000e0: 047d 303f ccf9 303f 98fe 2f3f 64a2 233f
000000f0: bf66 2e3f 5e9c 313f 4ac1 353f 7d5a 2b3f
00000100: ce5f 313f e040 333f ebd4 353f 1211 2c3f
00000110: 8f89 273f 8031 353f 82aa 343f 0e0b 2c3f
00000120: 4126 353f 17b6 293f 2728 313f f1c2 2e3f
00000130: a941 373f 02b8 363f ceb4 333f d73c 303f
00000140: 1c45 323f 6a94 353f d752 323f 2eb6 343f
00000150: 4b25 343f c44b 323f 8ee6 343f 3395 343f
00000160: 76e5 243f 13de 273f 0f1e 363f 3f74 2c3f
00000170: bf78 333f c010 2d3f a565 333f a610 323f

act_fun.1.grid f4 [32, 12]
-2.2 -1.8 -1.4 -1.0 -0.6 -0.19999999 0.19999999 0.6
1.0 1.4 1.8 2.2 -2.2 -1.8 -1.4 -1.0
-0.6 -0.19999999 0.19999999 0.6 1.0 1.4 1.8 2.2
-2.2 -1.8 -1.4 -1.0 -0.6 -0.19999999 0.19999999 0.6
1.0 1.4 1.8 2.2 -2.2 -1.8 -1.4 -1.0
-0.6 -0.19999999 0.19999999 0.6 1.0 1.4 1.8 2.2
-2.2 -1.8 -1.4 -1.0 -0.6 -0.19999999 0.19999999 0.6
1.0 1.4 1.8 2.2 -2.2 -1.8 -1.4 -1.0
-0.6 -0.19999999 0.19999999 0.6 1.0 1.4 1.8 2.2
-2.2 -1.8 -1.4 -1.0 -0.6 -0.19999999 0.19999999 0.6
1.0 1.4 1.8 2.2 -2.2 -1.8 -1.4 -1.0
-0.6 -0.19999999 0.19999999 0.6 1.0 1.4 1.8 2.2
-2.2 -1.8 -1.4 -1.0 -0.6 -0.19999999 0.19999999 0.6
1.0 1.4 1.8 2.2 -2.2 -1.8 -1.4 -1.0
-0.6 -0.19999999 0.19999999 0.6 1.0 1.4 1.8 2.2
-2.2 -1.8 -1.4 -1.0 -0.6 -0.19999999 0.19999999 0.6
1.0 1.4 1.8 2.2 -2.2 -1.8 -1.4 -1.0
-0.6 -0.19999999 0.19999999 0.6 1.0 1.4 1.8 2.2
-2.2 -1.8 -1.4 -1.0 -0.6 -0.19999999 0.19999999 0.6
1.0 1.4 1.8 2.2 -2.2 -1.8 -1.4 -1.0
-0.6 -0.19999999 0.19999999 0.6 1.0 1.4 1.8 2.2
-2.2 -1.8 -1.4 -1.0 -0.6 -0.19999999 0.19999999 0.6
1.0 1.4 1.8 2.2 -2.2 -1.8 -1.4 -1.0
-0.6 -0.19999999 0.19999999 0.6 1.0 1.4 1.8 2.2
-2.2 -1.8 -1.4 -1.0 -0.6 -0.19999999 0.19999999 0.6
1.0 1.4 1.8 2.2 -2.2 -1.8 -1.4 -1.0
-0.6 -0.19999999 0.19999999 0.6 1.0 1.4 1.8 2.2
-2.2 -1.8 -1.4 -1.0 -0.6 -0.19999999 0.19999999 0.6
1.0 1.4 1.8 2.2 -2.2 -1.8 -1.4 -1.0
-0.6 -0.19999999 0.19999999 0.6 1.0 1.4 1.8 2.2
-2.2 -1.8 -1.4 -1.0 -0.6 -0.19999999 0.19999999 0.6
1.0 1.4 1.8 2.2 -2.2 -1.8 -1.4 -1.0
00000000: cdcc 0cc0 6666 e6bf 3333 b3bf 0000 80bf
00000010: 9a99 19bf cccc 4cbe cccc 4c3e 9a99 193f
00000020: 0000 803f 3333 b33f 6666 e63f cdcc 0c40
00000030: cdcc 0cc0 6666 e6bf 3333 b3bf 0000 80bf
00000040: 9a99 19bf cccc 4cbe cccc 4c3e 9a99 193f
00000050: 0000 803f 3333 b33f 6666 e63f cdcc 0c40
00000060: cdcc 0cc0 6666 e6bf 3333 b3bf 0000 80bf
00000070: 9a99 19bf cccc 4cbe cccc 4c3e 9a99 193f
00000080: 0000 803f 3333 b33f 6666 e63f cdcc 0c40
00000090: cdcc 0cc0 6666 e6bf 3333 b3bf 0000 80bf
000000a0: 9a99 19bf cccc 4cbe cccc 4c3e 9a99 193f
000000b0: 0000 803f 3333 b33f 6666 e63f cdcc 0c40
000000c0: cdcc 0cc0 6666 e6bf 3333 b3bf 0000 80bf
000000d0: 9a99 19bf cccc 4cbe cccc 4c3e 9a99 193f
000000e0: 0000 803f 3333 b33f 6666 e63f cdcc 0c40
000000f0: cdcc 0cc0 6666 e6bf 3333 b3bf 0000 80bf
00000100: 9a99 19bf cccc 4cbe cccc 4c3e 9a99 193f
00000110: 0000 803f 3333 b33f 6666 e63f cdcc 0c40
00000120: cdcc 0cc0 6666 e6bf 3333 b3bf 0000 80bf
00000130: 9a99 19bf cccc 4cbe cccc 4c3e 9a99 193f
00000140: 0000 803f 3333 b33f 6666 e63f cdcc 0c40
00000150: cdcc 0cc0 6666 e6bf 3333 b3bf 0000 80bf
00000160: 9a99 19bf cccc 4cbe cccc 4c3e 9a99 193f
00000170: 0000 803f 3333 b33f 6666 e63f cdcc 0c40
00000180: cdcc 0cc0 6666 e6bf 3333 b3bf 0000 80bf
00000190: 9a99 19bf cccc 4cbe cccc 4c3e 9a99 193f
000001a0: 0000 803f 3333 b33f 6666 e63f cdcc 0c40
000001b0: cdcc 0cc0 6666 e6bf 3333 b3bf 0000 80bf
000001c0: 9a99 19bf cccc 4cbe cccc 4c3e 9a99 193f
000001d0: 0000 803f 3333 b33f 6666 e63f cdcc 0c40
000001e0: cdcc 0cc0 6666 e6bf 3333 b3bf 0000 80bf
000001f0: 9a99 19bf cccc 4cbe cccc 4c3e 9a99 193f
00000200: 0000 803f 3333 b33f 6666 e63f cdcc 0c40
00000210: cdcc 0cc0 6666 e6bf 3333 b3bf 0000 80bf
00000220: 9a99 19bf cccc 4cbe cccc 4c3e 9a99 193f
00000230: 0000 803f 3333 b33f 6666 e63f cdcc 0c40
00000240: cdcc 0cc0 6666 e6bf 3333 b3bf 0000 80bf
00000250: 9a99 19bf cccc 4cbe cccc 4c3e 9a99 193f
00000260: 0000 803f 3333 b33f 6666 e63f cdcc 0c40
00000270: cdcc 0cc0 6666 e6bf 3333 b3bf 0000 80bf
00000280: 9a99 19bf cccc 4cbe cccc 4c3e 9a99 193f
00000290: 0000 803f 3333 b33f 6666 e63f cdcc 0c40
000002a0: cdcc 0cc0 6666 e6bf 3333 b3bf 0000 80bf
000002b0: 9a99 19bf cccc 4cbe cccc 4c3e 9a99 193f
000002c0: 0000 803f 3333 b33f 6666 e63f cdcc 0c40
000002d0: cdcc 0cc0 6666 e6bf 3333 b3bf 0000 80bf
000002e0: 9a99 19bf cccc 4cbe cccc 4c3e 9a99 193f
000002f0: 0000 803f 3333 b33f 6666 e63f cdcc 0c40
00000300: cdcc 0cc0 6666 e6bf 3333 b3bf 0000 80bf
00000310: 9a99 19bf cccc 4cbe cccc 4c3e 9a99 193f
00000320: 0000 803f 3333 b33f 6666 e63f cdcc 0c40
00000330: cdcc 0cc0 6666 e6bf 3333 b3bf 0000 80bf
00000340: 9a99 19bf cccc 4cbe cccc 4c3e 9a99 193f
00000350: 0000 803f 3333 b33f 6666 e63f cdcc 0c40
00000360: cdcc 0cc0 6666 e6bf 3333 b3bf 0000 80bf
00000370: 9a99 19bf cccc 4cbe cccc 4c3e 9a99 193f
00000380: 0000 803f 3333 b33f 6666 e63f cdcc 0c40
00000390: cdcc 0cc0 6666 e6bf 3333 b3bf 0000 80bf
000003a0: 9a99 19bf cccc 4cbe cccc 4c3e 9a99 193f
000003b0: 0000 803f 3333 b33f 6666 e63f cdcc 0c40
000003c0: cdcc 0cc0 6666 e6bf 3333 b3bf 0000 80bf
000003d0: 9a99 19bf cccc 4cbe cccc 4c3e 9a99 193f
000003e0: 0000 803f 3333 b33f 6666 e63f cdcc 0c40
000003f0: cdcc 0cc0 6666 e6bf 3333 b3bf 0000 80bf

act_fun.1.coef f4 [32, 16, 8]
0.012017664 0.045988224 0.112274274 0.11765275 0.09722859 -0.118536174 -0.0989543 -0.031971622
0.010787681 0.030281557 -0.0659212 -0.0800229 0.100053415 0.16603225 0.15916047 0.1146012
-0.009465072 -0.03116365 -0.02692262 -0.097763516 0.10146316 0.17054285 0.11934045 0.10235587
0.010193966 0.044155054 0.11224604 0.10714359 0.08205205 -0.15464786 -0.07975651 -0.019632045
-0.005730666 -0.013949696 -0.096708454 -0.14875871 0.118200555 0.11638024 0.16240732 0.11017337
-0.007103771 -0.015522476 -0.08355517 -0.120026566 0.17028317 0.083676614 0.17321117 0.13106492
-0.005748663 -0.025909867 0.10345976 0.18711026 0.07056446 -0.07481881 -0.1722127 -0.11477573
-0.009685326 -0.009911483 0.18425955 0.08272352 0.05603893 -0.1721507 -0.123390906 -0.0034864203
0.0058066268 0.033681575 0.15044057 0.15034987 -0.016754733 -0.08076724 -0.16827743 -0.120820574
0.009275079 0.02417227 0.07610149 0.169537 0.061512195 -0.11849883 -0.13475758 -0.037597366
0.00039809803 -0.0110125085 0.071895935 0.18180142 -0.0212838 -0.093874164 -0.1391833 -0.0728803
0.008864418 0.023414142 -0.07634018 -0.10512705 0.08999977 0.13620545 0.14288914 0.105537824
-0.0012047505 -0.005812055 0.10302504 0.1190033 0.07828742 -0.16266626 -0.051361762 -0.0025633245
0.016419303 0.04932185 -0.07290508 -0.06974278 -0.030508198 0.11255729 0.08137526 0.031505715
-0.008649737 -0.035841685 -0.10755279 -0.07729568 0.10437839 0.15852723 0.09820494 0.09852413
0.00018524233 -0.0061820494 0.10464379 0.17272337 -0.021271316 -0.15560003 -0.12025138 -0.04022287
-0.11420396 -0.02139715 0.09555129 0.09895364 -0.055385455 -0.058938608 -0.004370276 0.05366112
0.10739596 0.05312883 -0.043389823 0.0046685934 0.089035064 0.15904489 0.108926244 0.11228953
0.11970052 0.12698117 -0.07060422 0.017995276 0.08406834 0.14355867 0.11388566 0.1075261
-0.08556149 0.15433766 0.16440417 0.05255519 0.056949273 -0.10854948 -0.10625278 -0.0759575
0.1245959 0.07682246 -0.11268152 -0.07413206 0.13419606 0.12419105 0.10499707 0.11358097
0.124276735 0.16319008 -0.13519861 -0.04494603 0.08878615 0.100121066 0.13774708 0.13035585
-0.1010313 0.05462213 0.12643266 0.14017162 -0.017963488 -0.10405764 -0.036365684 0.007406622
-0.0558306 0.06693859 0.11711435 0.11013253 -0.049165405 -0.07608062 -0.0073402612 -0.010615655
-0.09999038 0.047572304 0.14368267 0.111449905 -0.02684972 -0.07912571 -0.005375639 -0.00017391465
-0.099964805 0.15603226 0.1277047 0.15231949 -0.04548977 -0.058561362 -0.0741697 -0.023939356
-0.11874727 -0.04350192 0.18679133 0.046017833 0.024256516 -0.15418978 0.0005579958 0.03402086
0.12336804 0.16071548 -0.053580895 -0.027583906 0.07540506 0.17312169 0.10276591 0.11555401
-0.09549993 0.015886543 0.1514886 0.06228356 0.06554244 -0.06783258 0.021048618 0.038336787
-0.030807978 -0.032101057 0.048991486 0.020720618 0.013574603 0.110431984 0.009192448 -0.017307293
0.10801956 0.09503256 -0.08312265 0.028733073 0.0625138 0.156589 0.14639659 0.122896045
-0.12957959 -0.05029874 0.18420577 0.0821833 -0.08332173 -0.053630237 -0.074674144 -0.033673413
00000000: bce5 443c 265e 3c3d 0ef0 e53d edf3 f03d
00000010: c81f c73d 18c3 f2bd 8da8 cabd adf4 02bd
00000020: d0be 303c 0711 f83c b201 87bd 0ce3 a3bd
00000030: cee8 cc3d 5c04 2a3e f6fa 223e 09b4 ea3d
00000040: 6413 1bbc e94a ffbc d48c dcbc 3d38 c8bd
00000050: ebcb cf3d c9a2 2e3e c468 f43d f49f d13d
00000060: 9804 273c eedb 343d 40e1 e53d 196e db3d
00000070: e80a a83d 025c 1ebe 6257 a3bd 62d3 a0bc
00000080: 50c8 bbbb 448d 64bc 150f c6bd 3454 18be
00000090: 2213 f23d c358 ee3d 1b4e 263e 93a2 e13d
000000a0: c0c6 e8bb fc51 7ebc f91e abbd 7dd0 f5bd
000000b0: b65e 2e3e a55e ab3d 455e 313e e235 063e
000000c0: 485f bcbb ee40 d4bc b6e2 d33d d599 3f3e
000000d0: 1984 903d 9b3a 99bd 8758 30be 8a0f ebbd
000000e0: 34af 1ebc c663 22bc 89ae 3c3e f36a a93d
000000f0: 1489 653d 4648 30be 5fb4 fcbd 6d7c 64bb
00000100: 8445 be3b b1f5 093d 180d 1a3e 51f5 193e
00000110: 3941 89bc 4b69 a5bd eb50 2cbe c770 f7bd
00000120: 80f6 173c ed04 c63c 19db 9b3d 1b9b 2d3e
00000130: 36f4 7b3d 84af f2bd e4fd 09be b2ff 19bd
00000140: d0b7 d039 cf6d 34bc 2d3e 933d 272a 3a3e
00000150: 5d5b aebc 1941 c0bd 1186 0ebe 4442 95bd
00000160: 103c 113c 04cf bf3c 3e58 9cbd da4c d7bd
00000170: cd51 b83d 7179 0b3e 8851 123e 3724 d83d
00000180: b8e8 9dba 0d73 bebb cbfe d23d 01b8 f33d
00000190: 2855 a03d fc91 26be b660 52bd 73fd 27bb
000001a0: c681 863c b505 4a3d 424f 95bd 4dd5 8ebd
000001b0: 54ec f9bc 7084 e63d 13a8 a63d 230c 013d
000001c0: a0b7 0dbc bbce 12bd a344 dcbd 334d 9ebd
000001d0: 56c4 d53d f654 223e ac1f c93d 05c7 c93d
000001e0: 9c3d 4239 ca92 cabb 7c4f d63d 65de 303e
000001f0: 2f41 aebc 9d55 1fbe 5b46 f6bd bcc0 24bd
00000200: c4e3 e9bd 1349 afbc 65b0 c33d 35a8 ca3d
00000210: dcdb 62bd 9c69 71bd 8834 8fbb c3cb 5b3d
00000220: 6af2 db3d 9e9d 593d 87b9 31bd 00fb 983b
00000230: 0458 b63d aadc 223e b914 df3d 0ef8 e53d
00000240: 8c25 f53d 5a07 023e f298 90bd d46a 933c
00000250: 062c ac3d 0b01 133e e33c e93d a536 dc3d
00000260: dd3a afbd b10a 1e3e 9159 283e 1c44 573d
00000270: a443 693d 314f debd 0f9b d9bd 9b8f 9bbd
00000280: 232c ff3d 1855 9d3d 92c5 e6bd 8dd2 97bd
00000290: b16a 093e e157 fe3d b408 d73d 249d e83d
000002a0: cd84 fe3d 4d1b 273e 8171 0abe 5419 38bd
000002b0: 83d5 b53d 460c cd3d 920d 0d3e 017c 053e
000002c0: 80e9 cebd 74bb 5f3d 9077 013e 2689 0f3e
000002d0: 2a28 93bc 2c1c d5bd 2ff4 14bd 40b3 f23b
000002e0: a1ae 64bd 1917 893d a6d9 ef3d 2a8d e13d
000002f0: aa61 49bd 28d0 9bbd 9386 f0bb 49ed 2dbc
00000300: c2c7 ccbd 2ddb 423d 8d21 133e d93f e43d
00000310: f2f3 dbbc a90c a2bd 2126 b0bb dc5c 36b9
00000320: 59ba ccbd ecc6 1f3e 05c5 023e a4f9 1b3e
00000330: 7b53 3abd 0ade 6fbd 49e6 97bd 781c c4bc
00000340: c531 f3bd 122f 32bd 3a46 3f3e 327d 3c3d
00000350: 9ab5 c63c ede3 1dbe 7746 123a 7559 0b3d
00000360: 62a8 fc3d 9992 243e a477 5bbd a5f7 e1bc
00000370: f86d 9a3d d046 313e ef76 d23d 95a7 ec3d
00000380: 7895 c3bd 7f24 823c d41f 1b3e 0c1d 7f3d
00000390: 1d3b 863d cfeb 8abd 276e ac3c 0907 1d3d
000003a0: 0361 fcbc 667c 03bd 4cab 483d 49be a93c
000003b0: 0368 5e3c 2a2a e23d ec9b 163c 06c8 8dbc
000003c0: 5c39 dd3d 6ea0 c23d 353c aabd 9f61 eb3c
000003d0: 3c07 803d de58 203e fde8 153e ecb0 fb3d
000003e0: 83b0 04be 0d06 4ebd 70a0 3c3e b84f a83d
000003f0: 95a4 aabd 61ab 5bbd c2ee 98bd 22ed 09bd

act_fun.1.mask f4 [32, 16]
1.0 1.0 1.0 1.0 1.0 1.0 1.0 1.0
1.0 1.0 1.0 1.0 1.0 1.0 1.0 1.0
1.0 1.0 1.0 1.0 1.0 1.0 1.0 1.0
1.0 1.0 1.0 1.0 1.0 1.0 1.0 1.0
1.0 1.0 1.0 1.0 1.0 1.0 1.0 1.0
1.0 1.0 1.0 1.0 1.0 1.0 1.0 1.0
1.0 1.0 1.0 1.0 1.0 1.0 1.0 1.0
1.0 1.0 1.0 1.0 1.0 1.0 1.0 1.0
1.0 1.0 1.0 1.0 1.0 1.0 1.0 1.0
1.0 1.0 1.0 1.0 1.0 1.0 1.0 1.0
1.0 1.0 1.0 1.0 1.0 1.0 1.0 1.0
1.0 1.0 1.0 1.0 1.0 1.0 1.0 1.0
1.0 1.0 1.0 1.0 1.0 1.0 1.0 1.0
1.0 1.0 1.0 1.0 1.0 1.0 1.0 1.0
1.0 1.0 1.0 1.0 1.0 1.0 1.0 1.0
1.0 1.0 1.0 1.0 1.0 1.0 1.0 1.0
1.0 1.0 1.0 1.0 1.0 1.0 1.0 1.0
1.0 1.0 1.0 1.0 1.0 1.0 1.0 1.0
1.0 1.0 1.0 1.0 1.0 1.0 1.0 1.0
1.0 1.0 1.0 1.0 1.0 1.0 1.0 1.0
1.0 1.0 1.0 1.0 1.0 1.0 1.0 1.0
1.0 1.0 1.0 1.0 1.0 1.0 1.0 1.0
1.0 1.0 1.0 1.0 1.0 1.0 1.0 1.0
1.0 1.0 1.0 1.0 1.0 1.0 1.0 1.0
1.0 1.0 1.0 1.0 1.0 1.0 1.0 1.0
1.0 1.0 1.0 1.0 1.0 1.0 1.0 1.0
1.0 1.0 1.0 1.0 1.0 1.0 1.0 1.0
1.0 1.0 1.0 1.0 1.0 1.0 1.0 1.0
1.0 1.0 1.0 1.0 1.0 1.0 1.0 1.0
1.0 1.0 1.0 1.0 1.0 1.0 1.0 1.0
1.0 1.0 1.0 1.0 1.0 1.0 1.0 1.0
1.0 1.0 1.0 1.0 1.0 1.0 1.0 1.0
00000000: 0000 803f 0000 803f 0000 803f 0000 803f
00000010: 0000 803f 0000 803f 0000 803f 0000 803f
00000020: 0000 803f 0000 803f 0000 803f 0000 803f
00000030: 0000 803f 0000 803f 0000 803f 0000 803f
00000040: 0000 803f 0000 803f 0000 803f 0000 803f
00000050: 0000 803f 0000 803f 0000 803f 0000 803f
00000060: 0000 803f 0000 803f 0000 803f 0000 803f
00000070: 0000 803f 0000 803f 0000 803f 0000 803f
00000080: 0000 803f 0000 803f 0000 803f 0000 803f
00000090: 0000 803f 0000 803f 0000 803f 0000 803f
000000a0: 0000 803f 0000 803f 0000 803f 0000 803f
000000b0: 0000 803f 0000 803f 0000 803f 0000 803f
000000c0: 0000 803f 0000 803f 0000 803f 0000 803f
000000d0: 0000 803f 0000 803f 0000 803f 0000 803f
000000e0: 0000 803f 0000 803f 0000 803f 0000 803f
000000f0: 0000 803f 0000 803f 0000 803f 0000 803f
00000100: 0000 803f 0000 803f 0000 803f 0000 803f
00000110: 0000 803f 0000 803f 0000 803f 0000 803f
00000120: 0000 803f 0000 803f 0000 803f 0000 803f
00000130: 0000 803f 0000 803f 0000 803f 0000 803f
00000140: 0000 803f 0000 803f 0000 803f 0000 803f
00000150: 0000 803f 0000 803f 0000 803f 0000 803f
00000160: 0000 803f 0000 803f 0000 803f 0000 803f
00000170: 0000 803f 0000 803f 0000 803f 0000 803f
00000180: 0000 803f 0000 803f 0000 803f 0000 803f
00000190: 0000 803f 0000 803f 0000 803f 0000 803f
000001a0: 0000 803f 0000 803f 0000 803f 0000 803f
000001b0: 0000 803f 0000 803f 0000 803f 0000 803f
000001c0: 0000 803f 0000 803f 0000 803f 0000 803f
000001d0: 0000 803f 0000 803f 0000 803f 0000 803f
000001e0: 0000 803f 0000 803f 0000 803f 0000 803f
000001f0: 0000 803f 0000 803f 0000 803f 0000 803f
00000200: 0000 803f 0000 803f 0000 803f 0000 803f
00000210: 0000 803f 0000 803f 0000 803f 0000 803f
00000220: 0000 803f 0000 803f 0000 803f 0000 803f
00000230: 0000 803f 0000 803f 0000 803f 0000 803f
00000240: 0000 803f 0000 803f 0000 803f 0000 803f
00000250: 0000 803f 0000 803f 0000 803f 0000 803f
00000260: 0000 803f 0000 803f 0000 803f 0000 803f
00000270: 0000 803f 0000 803f 0000 803f 0000 803f
00000280: 0000 803f 0000 803f 0000 803f 0000 803f
00000290: 0000 803f 0000 803f 0000 803f 0000 803f
000002a0: 0000 803f 0000 803f 0000 803f 0000 803f
000002b0: 0000 803f 0000 803f 0000 803f 0000 803f
000002c0: 0000 803f 0000 803f 0000 803f 0000 803f
000002d0: 0000 803f 0000 803f 0000 803f 0000 803f
000002e0: 0000 803f 0000 803f 0000 803f 0000 803f
000002f0: 0000 803f 0000 803f 0000 803f 0000 803f
00000300: 0000 803f 0000 803f 0000 803f 0000 803f
00000310: 0000 803f 0000 803f 0000 803f 0000 803f
00000320: 0000 803f 0000 803f 0000 803f 0000 803f
00000330: 0000 803f 0000 803f 0000 803f 0000 803f
00000340: 0000 803f 0000 803f 0000 803f 0000 803f
00000350: 0000 803f 0000 803f 0000 803f 0000 803f
00000360: 0000 803f 0000 803f 0000 803f 0000 803f
00000370: 0000 803f 0000 803f 0000 803f 0000 803f
00000380: 0000 803f 0000 803f 0000 803f 0000 803f
00000390: 0000 803f 0000 803f 0000 803f 0000 803f
000003a0: 0000 803f 0000 803f 0000 803f 0000 803f
000003b0: 0000 803f 0000 803f 0000 803f 0000 803f
000003c0: 0000 803f 0000 803f 0000 803f 0000 803f
000003d0: 0000 803f 0000 803f 0000 803f 0000 803f
000003e0: 0000 803f 0000 803f 0000 803f 0000 803f
000003f0: 0000 803f 0000 803f 0000 803f 0000 803f

act_fun.1.scale_base f4 [32, 16]
-0.115961105 0.14716393 0.023271982 -0.06047037 0.1567772 0.2429926 -0.0054725027 -0.26126307
-0.24741119 -0.18332532 -0.2450351 0.18018317 -0.22936773 -0.04555345 0.17277497 -0.014797677
-0.15240228 -0.06865472 0.13218072 -0.006200968 0.24162893 0.13265917 0.023390764 -0.26632008
0.0698067 -0.21581468 -0.21279772 0.24107501 -0.1280772 0.102945745 -0.016481621 0.023972282
0.052229594 0.1788739 0.2667783 -0.24714819 0.08887373 0.17889614 -0.017953156 -0.21082537
-0.0060932944 -0.18232414 -0.20780173 0.16201247 -0.25641093 -0.08158063 0.18326125 -0.06280767
0.17842405 -0.13253398 -0.24013275 -0.036526922 0.06243188 -0.2700361 0.16274357 0.26026455
0.24382763 -0.00044702197 0.0500046 -0.25496155 0.21426049 -0.16431147 -0.27232584 -0.00083625386
0.15918899 0.2300496 0.2161435 0.02838127 0.019083094 0.023495873 -0.21068512 -0.059410736
-0.033811014 -0.07379423 -0.17325504 0.13314012 -0.10870314 -0.059997868 0.088403344 -0.010238699
-0.031837933 0.032885287 -0.18962896 0.16328607 0.0028524173 -0.048393827 0.23647115 0.21756245
0.24118748 0.15238215 0.22437422 -0.20257822 0.010315828 -0.00030273665 -0.0705305 0.1080368
-0.26173165 0.17489265 0.23183033 -0.12647331 0.15886514 0.19982308 -0.28462043 -0.14314353
-0.17586876 -0.20213717 -0.0036189787 0.29885423 -0.077057414 0.19513215 -0.014349259 -0.08439487
-0.098054044 -0.0012575929 0.14089523 -0.036418315 0.09752198 0.1900076 -0.010208474 0.054967776
-0.086778164 -0.0899671 -0.09333945 0.14189172 -0.1973747 0.055576418 -0.042284038 -0.16584398
-0.2668051 0.2510992 0.0183865 -0.12413668 0.13832483 0.28032917 -0.03281751 -0.24333206
0.05998004 -0.28202984 -0.0873974 0.2878503 0.04825437 0.044283874 0.0021635413 -0.03814537
0.24899514 -0.21015167 -0.14866023 -0.017787863 -0.051251143 -0.0845596 0.19542904 0.0458657
-0.06237655 0.03169249 -0.019983394 -0.16621801 0.17549896 -0.22878563 -0.12228989 -0.05038551
-0.013825369 -0.23325117 -0.17081064 0.016977543 -0.07775131 -0.009348332 0.24351598 0.17391428
0.10815347 0.0800342 0.22496648 -0.21475084 0.23021425 -0.1697217 -0.24181186 0.16412328
-0.18333218 0.14727311 0.27038902 -0.025558915 0.2849372 0.046240658 -0.19420351 -0.13824233
-0.14493419 -0.18907236 -0.118550286 0.27843785 -0.20151825 0.17987026 0.19673955 -0.014365355
-0.016161688 0.06261749 0.19728495 -0.19616283 0.009899843 0.29094857 0.031584345 -0.23762701
0.0284705 -0.083585836 -0.06763021 0.3028914 -0.120688036 0.021565348 0.2374129 -0.15782504
-0.15834205 0.049706608 0.2941879 -0.024706198 0.09254269 0.12049395 -0.10003996 -0.22120197
-0.062454943 -0.25128654 -0.1194329 0.094735965 -0.17617755 0.24967633 0.17017275 -0.028691856
-0.002691461 -0.090273164 -0.064357884 0.21195748 -0.17063232 -0.15994215 -0.022643205 0.23364304
0.24012917 0.20445602 0.21207988 -0.011059835 0.28573808 0.0149897095 -0.056593515 0.17013545
-0.15267807 0.15776984 0.16303715 -0.23451932 0.06313182 0.008368782 -0.21147779 0.017570756
0.03774153 -0.120630585 -0.04597081 0.08205048 0.0049336636 0.048238195 0.020623513 -0.10047951
00000000: 047d edbd 24b2 163e e2a4 be3c c7af 77bd
00000010: 348a 203e 0dd3 783e ae52 b3bb 46c4 85be
00000020: 5c59 7dbe a2b9 3bbe 7bea 7abe f081 383e
00000030: 60df 6abe 4196 3abd eceb 303e f571 72bc
00000040: 580f 1cbe d99a 8cbd 625a 073e 7d31 cbbb
00000050: 936d 773e ced7 073e fd9d bf3c 1b5b 88be
00000060: d1f6 8e3d 86fe 5cbe a5e7 59be 5edc 763e
00000070: ab26 03be 38d5 d23d 7704 87bc 8561 c43c
00000080: b3ee 553d b82a 373e 2a97 883e 6a14 7dbe
00000090: 6e03 b63d 8d30 373e 7f12 93bc 9be2 57be
000000a0: 42aa c7bb 2eb3 3abe fac9 54be 99e6 253e
000000b0: 4b48 83be bf13 a7bd d6a8 3b3e 4fa1 80bd
000000c0: cbb4 363e fdb6 07be 5ce5 75be 419d 15bd
000000d0: 92b8 7f3d 2c42 8abe 40a6 263e 6541 853e
000000e0: f3ad 793e 465e eab9 a0d1 4c3d 528a 82be
000000f0: 1a67 5b3e 4441 28be 4b6e 8bbe 0c38 5bba
00000100: 7002 233e 1f92 6b3e b954 5d3e d67f e83c
00000110: 2654 9c3c 6b7a c03c d7bd 57be ac58 73bd
00000120: 6b7d 0abd 6e21 97bd c569 31be e255 083e
00000130: c09f debd 53c0 75bd d00c b53d 37c0 27bc
00000140: 7e68 02bd b9b2 063d 182e 42be 7734 273e
00000150: 9fef 3a3b 9b38 46bd 7e25 723e b1c8 5e3e
00000160: daf9 763e 110a 1c3e 5bc2 653e aa70 4fbe
00000170: b803 293c a0b8 9eb9 4b72 90bd 6642 dd3d
00000180: b101 86be 0f17 333e ee64 6d3e 3882 01be
00000190: 8bad 223e 6c9e 4c3e c5b9 91be 3894 12be
000001a0: f116 34be 0cfd 4ebe 632c 6dbb 6c03 993e
000001b0: 47d0 9dbd b9d0 473e 2819 6bbc 38d7 acbd
000001c0: 8fd0 c8bd d1d5 a4ba d746 103e 5f2b 15bd
000001d0: 9bb9 c73d 5a91 423e 7141 27bc e425 613d
000001e0: c0b8 b1bd ac40 b8bd c128 bfbd 104c 113e
000001f0: 981c 4abe 19a4 633d 0732 2dbd 01d3 29be
00000200: ae9a 88be 1390 803e 499f 963c 5f3b febd
00000210: 06a5 0d3e 4e87 8f3e a76b 06bd 0a2c 79be
00000220: a1ad 753d 3766 90be 68fd b2bd 1d61 933e
00000230: 60a6 453d 0263 353d 33ca 0d3b 523e 1cbd
00000240: 95f8 7e3e 0032 57be 633a 18be dab7 91bc
00000250: b8ec 51bd 952d adbd 8d1e 483e acdd 3b3d
00000260: 8e7e 7fbd fccf 013d 37b4 a3bc 0e35 2abe
00000270: 00b6 333e c846 6abe 1f73 fabd 0961 4ebd
00000280: cd83 62bc 65d9 6ebe fce8 2ebe 7d14 8b3c
00000290: 143c 9fbd bf29 19bc 415c 793e 9616 323e
000002a0: 917f dd3d f8e8 a33d 9d5d 663e a5e7 5bbe
000002b0: 49bd 6b3e 86cb 2dbe 879d 77be ef0f 283e
000002c0: 6ebb 3bbe c3ce 163e 6e70 8a3e ee60 d1bc
000002d0: 4ae3 913e d866 3d3d 49dd 46be 668f 0dbe
000002e0: a169 14be 2f9c 41be 7eca f2bd 688f 8e3e
000002f0: cd5a 4ebe e92f 383e 1876 493e aa5c 6bbc
00000300: 8465 84bc 993d 803d 1105 4a3e e9de 48be
00000310: f332 223c 36f7 943e 965e 013d 7f54 73be
00000320: f73a e93c 0d2f abbd b581 8abd 9514 9b3e
00000330: 4a2b f7bd d0a9 b03c 5e1c 733e e39c 21be
00000340: 6b24 22be 2899 4b3d cc9f 963e a764 cabc
00000350: 0687 bd3d 88c5 f63d c0e1 ccbd c582 62be
00000360: c1d0 7fbd a1a8 80be 3c99 f4bd ee04 c23d
00000370: e367 34be 27ab 7f3e c441 2e3e 2f0b ebbc
00000380: 3963 30bb 23e1 b8bd 11ce 83bd 620b 593e
00000390: 3dba 2ebe e0c7 23be 3e7e b9bc 1f40 6f3e
000003a0: 6ce4 753e eb5c 513e 782b 593e 4f34 35bc
000003b0: 434c 923e 6697 753c 9ace 67bd fd37 2e3e
000003c0: a457 1cbe 6b8e 213e 36f3 263e d525 70be
000003d0: 414b 813d 371d 093c a28d 58be 8cf0 8f3c
000003e0: dd96 1a3d 2b0d f7bd e34b 3cbd 150a a83d
000003f0: 92aa a13b 6a95 453d a4f2 a83c 34c8 cdbd

act_fun.1.scale_sp f4 [32, 16]
0.30563414 0.29175127 0.30714014 0.30592844 0.30685598 0.28914455 0.3053178 0.28204975
0.30644375 0.3059264 0.30358377 0.3052698 0.30548978 0.2294743 0.28175396 0.3032801
0.26166302 0.30106992 0.30208585 0.27706102 0.2992532 0.3018305 0.29728848 0.27233115
0.29635748 0.30028114 0.29502773 0.29623854 0.28060144 0.17076625 0.3005151 0.30564305
0.29190066 0.3024395 0.30334213 0.27856484 0.2826733 0.30425113 0.2714628 0.2940947
0.3093622 0.29475954 0.2968542 0.3001734 0.29841113 0.25496224 0.27902722 0.29374936
0.261302 0.2983675 0.300365 0.24750683 0.29956794 0.30502462 0.30094954 0.24745594
0.29751328 0.26271343 0.27158856 0.29892123 0.2964794 0.13924918 0.28757796 0.2998512
0.27903727 0.29847562 0.3033696 0.28643337 0.29956612 0.30992964 0.30395907 0.30805758
0.30130967 0.30382916 0.30384472 0.29807594 0.23281321 0.28551942 0.26097444 0.29968283
0.248015 0.2985844 0.27431104 0.26353517 0.2946931 0.27011728 0.2808102 0.3031436
0.30252528 0.2713377 0.29849055 0.30545604 0.25301546 0.27049038 0.3027369 0.2710897
0.21636595 0.2067098 0.25685632 0.30015483 0.3071094 0.30383795 0.30372265 0.2928549
0.27310544 0.21752924 0.3036203 0.2997765 0.288921 0.23676287 0.30343437 0.30431834
0.2926842 0.2983387 0.29416654 0.2272848 0.29871154 0.24504225 0.30105144 0.30569753
0.2790543 0.26425248 0.26447624 0.24730933 0.26515266 0.21758832 0.30140153 0.30306086
0.30279186 0.30678612 0.28364864 0.2401984 0.30375504 0.27752313 0.30272123 0.3081597
0.27071887 0.24079514 0.3035297 0.30767667 0.29921836 0.21208414 0.24031085 0.26970908
0.30219293 0.26942092 0.30582342 0.30337927 0.3096104 0.30967662 0.3065456 0.27064002
0.2807853 0.23080052 0.2485662 0.2809945 0.30795917 0.1822798 0.2953293 0.28103778
0.27000353 0.22997996 0.23269865 0.2684728 0.2984497 0.29836053 0.276661 0.29608744
0.26094607 0.2990504 0.25721142 0.30342138 0.26840293 0.19998997 0.2975219 0.2750355
0.30165702 0.30148134 0.29776442 0.29742 0.29717085 0.26421857 0.29923823 0.3041459
0.28655332 0.30697504 0.29423136 0.25896743 0.28284043 0.23281443 0.28702953 0.30531853
0.25384372 0.30142254 0.29574898 0.2992724 0.2534387 0.30990237 0.30582348 0.27954978
0.2366632 0.3077146 0.24371345 0.2905619 0.30465245 0.29297218 0.3021073 0.2773397
0.3053245 0.3099904 0.290006 0.28319275 0.31118292 0.262325 0.24978392 0.27762288
0.30466193 0.22426715 0.27232093 0.28119388 0.30138454 0.3049004 0.24310021 0.2911711
0.24947207 0.22816455 0.2842229 0.3054291 0.30748332 0.2957933 0.30506957 0.31001982
0.2596754 0.2846762 0.30284414 0.2990729 0.30114356 0.27529195 0.24958013 0.2996979
0.2966318 0.30189303 0.30686837 0.2763328 0.25077343 0.29097146 0.30387056 0.30674684
0.30031154 0.30027726 0.23542474 0.3015736 0.2978945 0.30354097 0.28475192 0.30156258
00000000: 147c 9c3e 6c60 953e 7941 9d3e a7a2 9c3e
00000010: 3a1c 9d3e c10a 943e 9d52 9c3e d368 903e
00000020: 32e6 9c3e 63a2 9c3e 556f 9b3e 534c 9c3e
00000030: 2869 9c3e 50fb 6a3e 0e42 903e 8747 9b3e
00000040: b2f8 853e d625 9a3e ffaa 9a3e f1da 8d3e
00000050: b737 993e 8789 9a3e 3236 983e fd6e 8b3e
00000060: 2bbc 973e 73be 993e e00d 973e 94ac 973e
00000070: feaa 8f3e 59dd 2e3e 1ddd 993e 3f7d 9c3e
00000080: 0174 953e 5ad9 9a3e a94f 9b3e 0da0 8e3e
00000090: 8eba 903e cec6 9b3e 2cfd 8a3e 9593 963e
000000a0: b964 9e3e b9ea 963e 46fd 973e 54b0 993e
000000b0: 58c9 983e 698a 823e a8dc 8e3e 5166 963e
000000c0: 60c9 853e a0c3 983e 71c9 993e 6e72 7d3e
000000d0: f860 993e 302c 9c3e 0f16 9a3e 1765 7d3e
000000e0: a953 983e 6082 863e a80d 8b3e 340c 993e
000000f0: 26cc 973e 5697 0e3e 6b3d 933e 1986 993e
00000100: f9dd 8e3e ccd1 983e 4353 9b3e 65a7 923e
00000110: bb60 993e 19af 9e3e 86a0 9b3e b9b9 9d3e
00000120: 4345 9a3e 7f8f 9b3e 8991 9b3e 699d 983e
00000130: 9666 6e3e 9a2f 923e 719e 853e 0770 993e
00000140: a5f7 7d3e 0ee0 983e 7f72 8c3e 15ee 863e
00000150: 04e2 963e d04c 8a3e 5bc6 8f3e a335 9b3e
00000160: 98e4 9a3e c6ec 8a3e c1d3 983e bc64 9c3e
00000170: 3e8b 813e b77d 8a3e 5500 9b3e 45cc 8a3e
00000180: 098f 5d3e bcab 533e ac82 833e e5ad 993e
00000190: 713d 9d3e a690 9b3e 8981 9b3e 14f1 953e
000001a0: 7ad4 8b3e fcbf 5e3e 1f74 9b3e 4e7c 993e
000001b0: 74ed 933e f771 723e c05b 9b3e 9dcf 9b3e
000001c0: b4da 953e dabf 983e ff9c 963e 59bd 683e
000001d0: b8f0 983e 5bec 7a3e 6a23 9a3e 6384 9c3e
000001e0: 35e0 8e3e 1a4c 873e 6e69 873e a83e 7d3e
000001f0: 17c2 873e 79cf 5e3e 4d51 9a3e cb2a 9b3e
00000200: 8907 9b3e 1213 9d3e 653a 913e 92f6 753e
00000210: c885 9b3e 8317 8e3e 47fe 9a3e 1cc7 9d3e
00000220: aa9b 8a3e 0093 763e 3f68 9b3e cc87 9d3e
00000230: 2633 993e 962c 593e 0c14 763e 4f17 8a3e
00000240: 08b9 9a3e 8af1 893e e394 9c3e 8754 9b3e
00000250: 4185 9e3e ef8d 9e3e 8bf3 9c3e 5491 8a3e
00000260: 17c3 8f3e f956 6c3e 2388 7e3e 83de 8f3e
00000270: d3ac 9d3e 8ea7 3a3e 6735 973e 2fe4 8f3e
00000280: e73d 8a3e de7f 6b3e 8e48 6e3e 4475 893e
00000290: 66ce 983e b6c2 983e 83a6 8d3e c698 973e
000002a0: b99a 853e 221d 993e 37b1 833e 0c5a 9b3e
000002b0: 1c6c 893e 2cca 4c3e ca54 983e 74d1 8c3e
000002c0: ca72 9a3e c35b 9a3e 9474 983e 6f47 983e
000002d0: c726 983e a847 873e c135 993e 03b9 9b3e
000002e0: 1eb7 923e d52b 9d3e 7ea5 963e 6197 843e
000002f0: 76d0 903e e866 6e3e 89f5 923e b652 9c3e
00000300: cef7 813e 0e54 9a3e 696c 973e 3b3a 993e
00000310: b8c2 813e 86ab 9e3e e594 9c3e 2621 8f3e
00000320: d757 723e c58c 9d3e 0590 793e 88c4 943e
00000330: 68fb 9b3e 7300 963e cfad 9a3e 78ff 8d3e
00000340: 7e53 9c3e 10b7 9e3e ab7b 943e a4fe 903e
00000350: 5e53 9f3e 764f 863e 5bc7 7f3e 9624 8e3e
00000360: a6fc 9b3e 4aa6 653e a66d 8b3e a5f8 8f3e
00000370: 134f 9a3e e81b 9c3e 43ef 783e 6114 953e
00000380: 9b75 7f3e f8a3 693e aa85 913e 3461 9c3e
00000390: 746e 9d3e 3872 973e 1432 9c3e ebba 9e3e
000003a0: 2df4 843e 14c1 913e 630e 9b3e 1520 993e
000003b0: 7d2f 9a3e 11f3 8c3e ef91 7f3e 0172 993e
000003c0: 20e0 973e b991 9a3e da1d 9d3e 7e7b 8d3e
000003d0: 6065 803e 36fa 943e ec94 9b3e ec0d 9d3e
000003e0: 6fc2 993e f1bd 993e 2f13 713e db67 9a3e
000003f0: a185 983e b969 9b3e 01cb 913e 6966 9a3e

act_fun.2.grid f4 [16, 12]
-2.2 -1.8 -1.4 -1.0 -0.6 -0.19999999 0.19999999 0.6
1.0 1.4 1.8 2.2 -2.2 -1.8 -1.4 -1.0
-0.6 -0.19999999 0.19999999 0.6 1.0 1.4 1.8 2.2
-2.2 -1.8 -1.4 -1.0 -0.6 -0.19999999 0.19999999 0.6
1.0 1.4 1.8 2.2 -2.2 -1.8 -1.4 -1.0
-0.6 -0.19999999 0.19999999 0.6 1.0 1.4 1.8 2.2
-2.2 -1.8 -1.4 -1.0 -0.6 -0.19999999 0.19999999 0.6
1.0 1.4 1.8 2.2 -2.2 -1.8 -1.4 -1.0
-0.6 -0.19999999 0.19999999 0.6 1.0 1.4 1.8 2.2
-2.2 -1.8 -1.4 -1.0 -0.6 -0.19999999 0.19999999 0.6
1.0 1.4 1.8 2.2 -2.2 -1.8 -1.4 -1.0
-0.6 -0.19999999 0.19999999 0.6 1.0 1.4 1.8 2.2
-2.2 -1.8 -1.4 -1.0 -0.6 -0.19999999 0.19999999 0.6
1.0 1.4 1.8 2.2 -2.2 -1.8 -1.4 -1.0
-0.6 -0.19999999 0.19999999 0.6 1.0 1.4 1.8 2.2
-2.2 -1.8 -1.4 -1.0 -0.6 -0.19999999 0.19999999 0.6
1.0 1.4 1.8 2.2 -2.2 -1.8 -1.4 -1.0
-0.6 -0.19999999 0.19999999 0.6 1.0 1.4 1.8 2.2
-2.2 -1.8 -1.4 -1.0 -0.6 -0.19999999 0.19999999 0.6
1.0 1.4 1.8 2.2 -2.2 -1.8 -1.4 -1.0
-0.6 -0.19999999 0.19999999 0.6 1.0 1.4 1.8 2.2
-2.2 -1.8 -1.4 -1.0 -0.6 -0.19999999 0.19999999 0.6
1.0 1.4 1.8 2.2 -2.2 -1.8 -1.4 -1.0
-0.6 -0.19999999 0.19999999 0.6 1.0 1.4 1.8 2.2
00000000: cdcc 0cc0 6666 e6bf 3333 b3bf 0000 80bf
00000010: 9a99 19bf cccc 4cbe cccc 4c3e 9a99 193f
00000020: 0000 803f 3333 b33f 6666 e63f cdcc 0c40
00000030: cdcc 0cc0 6666 e6bf 3333 b3bf 0000 80bf
00000040: 9a99 19bf cccc 4cbe cccc 4c3e 9a99 193f
00000050: 0000 803f 3333 b33f 6666 e63f cdcc 0c40
00000060: cdcc 0cc0 6666 e6bf 3333 b3bf 0000 80bf
00000070: 9a99 19bf cccc 4cbe cccc 4c3e 9a99 193f
00000080: 0000 803f 3333 b33f 6666 e63f cdcc 0c40
00000090: cdcc 0cc0 6666 e6bf 3333 b3bf 0000 80bf
000000a0: 9a99 19bf cccc 4cbe cccc 4c3e 9a99 193f
000000b0: 0000 803f 3333 b33f 6666 e63f cdcc 0c40
000000c0: cdcc 0cc0 6666 e6bf 3333 b3bf 0000 80bf
000000d0: 9a99 19bf cccc 4cbe cccc 4c3e 9a99 193f
000000e0: 0000 803f 3333 b33f 6666 e63f cdcc 0c40
000000f0: cdcc 0cc0 6666 e6bf 3333 b3bf 0000 80bf
00000100: 9a99 19bf cccc 4cbe cccc 4c3e 9a99 193f
00000110: 0000 803f 3333 b33f 6666 e63f cdcc 0c40
00000120: cdcc 0cc0 6666 e6bf 3333 b3bf 0000 80bf
00000130: 9a99 19bf cccc 4cbe cccc 4c3e 9a99 193f
00000140: 0000 803f 3333 b33f 6666 e63f cdcc 0c40
00000150: cdcc 0cc0 6666 e6bf 3333 b3bf 0000 80bf
00000160: 9a99 19bf cccc 4cbe cccc 4c3e 9a99 193f
00000170: 0000 803f 3333 b33f 6666 e63f cdcc 0c40
00000180: cdcc 0cc0 6666 e6bf 3333 b3bf 0000 80bf
00000190: 9a99 19bf cccc 4cbe cccc 4c3e 9a99 193f
000001a0: 0000 803f 3333 b33f 6666 e63f cdcc 0c40
000001b0: cdcc 0cc0 6666 e6bf 3333 b3bf 0000 80bf
000001c0: 9a99 19bf cccc 4cbe cccc 4c3e 9a99 193f
000001d0: 0000 803f 3333 b33f 6666 e63f cdcc 0c40
000001e0: cdcc 0cc0 6666 e6bf 3333 b3bf 0000 80bf
000001f0: 9a99 19bf cccc 4cbe cccc 4c3e 9a99 193f
00000200: 0000 803f 3333 b33f 6666 e63f cdcc 0c40
00000210: cdcc 0cc0 6666 e6bf 3333 b3bf 0000 80bf
00000220: 9a99 19bf cccc 4cbe cccc 4c3e 9a99 193f
00000230: 0000 803f 3333 b33f 6666 e63f cdcc 0c40
00000240: cdcc 0cc0 6666 e6bf 3333 b3bf 0000 80bf
00000250: 9a99 19bf cccc 4cbe cccc 4c3e 9a99 193f
00000260: 0000 803f 3333 b33f 6666 e63f cdcc 0c40
00000270: cdcc 0cc0 6666 e6bf 3333 b3bf 0000 80bf
00000280: 9a99 19bf cccc 4cbe cccc 4c3e 9a99 193f
00000290: 0000 803f 3333 b33f 6666 e63f cdcc 0c40
000002a0: cdcc 0cc0 6666 e6bf 3333 b3bf 0000 80bf
000002b0: 9a99 19bf cccc 4cbe cccc 4c3e 9a99 193f
000002c0: 0000 803f 3333 b33f 6666 e63f cdcc 0c40
000002d0: cdcc 0cc0 6666 e6bf 3333 b3bf 0000 80bf
000002e0: 9a99 19bf cccc 4cbe cccc 4c3e 9a99 193f
000002f0: 0000 803f 3333 b33f 6666 e63f cdcc 0c40

act_fun.2.coef f4 [16, 1, 8]
0.09460262 0.16256136 0.088818476 0.13502039 -0.14044824 -0.08591869 -0.14610334 -0.08022705
-0.051975448 -0.061160173 -0.18608844 -0.083288744 0.10414319 0.11807984 0.08935743 0.075132996
-0.0599417 -0.0964208 -0.14693986 -0.11504691 0.014993235 0.16580187 0.092772946 0.09474355
0.10990426 0.18927659 0.044530362 0.12554206 -0.096255876 -0.043862842 -0.0727481 -0.063873634
-0.06142753 -0.083077855 -0.04608733 -0.1141747 0.048601255 0.069853745 0.12223627 0.08016051
-0.060388044 -0.11546008 -0.13629214 -0.09569421 -0.043486387 0.16180257 0.15729992 0.08425093
0.090185925 0.10146869 0.1399904 0.11096981 -0.027052704 -0.13409904 -0.07604117 -0.06723788
0.07997749 0.14788306 0.16057263 0.044309158 -0.07097499 -0.12196941 -0.08391207 -0.061239008
0.07445163 0.08977709 0.1455088 0.11309525 -0.10135666 -0.10215686 -0.05521735 -0.05792929
0.100267194 0.1710699 0.063991785 0.14837971 -0.073885955 -0.086530805 -0.08113819 -0.066309564
0.09295359 0.085514195 0.13405935 0.074654244 -0.1483189 -0.09207349 -0.13333741 -0.07888362
-0.066254765 -0.10606782 -0.13255273 -0.13271531 0.05439474 0.06779221 0.14624006 0.092298515
0.07837278 0.08137289 0.15571912 0.13732609 -0.1325512 -0.12447691 -0.13216254 -0.07774276
-0.0082902815 -0.0047918237 -0.12766702 -0.12006658 0.14905615 0.13998719 0.115275055 0.06114816
-0.048172306 -0.044490967 -0.10594288 -0.1024589 0.03554057 0.09320643 0.079998 0.06778325
0.08298198 0.13435307 0.15709083 0.10391466 -0.13212048 -0.12456863 -0.076087005 -0.05623791
00000000: 05bf c13d 7c76 263e 76e6 b53d c942 0a3e
00000010: aad1 0fbe 23f6 afbd 1d9c 15be 144e a4bd
00000020: 35e4 54bd 1783 7abd f88d 3ebe 4a93 aabd
00000030: 0649 d53d d8d3 f13d 0701 b73d 54df 993d
00000040: 6e85 75bd 4578 c5bd 6777 16be b79d ebbd
00000050: 2fa6 753c f7c7 293e beff bd3d e808 c23d
00000060: 7c15 e13d b9d1 413e 7865 363d 198e 003e
00000070: cd21 c5bd 86a9 33bd f5fc 94bd 2ed0 82bd
00000080: 6f9b 7bbd b924 aabd 11c6 3cbd 6dd4 e9bd
00000090: 1c12 473d 7b0f 8f3d 0257 fa3d 322b a43d
000000a0: 7459 77bd 5676 ecbd 2b90 0bbe 53fb c3bd
000000b0: c81e 32bd 93af 253e 3b13 213e c08b ac3d
000000c0: 66b3 b83d d1ce cf3d a559 0f3e 2444 e33d
000000d0: a29d ddbc 4251 09be 79bb 9bbd 03b4 89bd
000000e0: 3dcb a33d a86e 173e 276d 243e 857d 353d
000000f0: 565b 91bd 19cb f9bd 17da abbd c1d5 7abd
00000100: 197a 983d 0ddd b73d 4200 153e 7c9e e73d
00000110: 1594 cfbd 9e37 d1bd 972b 62bd 4347 6dbd
00000120: e358 cd3d f32c 2f3e 200e 833d daf0 173e
00000130: 8551 97bd 1037 b1bd c82b a6bd 4fcd 87bd
00000140: 745e be3d 1122 af3d db46 093e 53e4 983d
00000150: e9e0 17be 0791 bcbd 9a89 08be bc8d a1bd
00000160: 94b0 87bd 163a d9bd e7bb 07be 86e6 07be
00000170: 05cd 5e3d a4d6 8a3d f4bf 153e 0107 bd3d
00000180: e881 a03d d4a6 a63d d574 1f3e 369f 0c3e
00000190: 80bb 07be c0ed febd 9e55 07be 9937 9fbd
000001a0: f6d3 07bc bb04 9dbb 25bb 02be 78e5 f5bd
000001b0: 2da2 183e cd58 0f3e 5415 ec3d 7e76 7a3d
000001c0: 5350 45bd 293c 36bd 95f8 d8bd f9d5 d1bd
000001d0: fd92 113d 03e3 be3d fed5 a33d f2d1 8a3d
000001e0: 75f2 a93d da93 093e 6bdc 203e 36d1 d43d
000001f0: 974a 07be d61d ffbd 81d3 9bbd b959 66bd
