models_cerebelo/kan_model_golgi_lif.pt (torch, 54228 bytes, 29 tensors)

node_bias_0 f4 [32]
000000 00 00 00 00 00 00 00 00 00 00 00 00 00 00 00 00
       0.0 0.0 0.0 0.0
000010 00 00 00 00 00 00 00 00 00 00 00 00 00 00 00 00
       0.0 0.0 0.0 0.0
000020 00 00 00 00 00 00 00 00 00 00 00 00 00 00 00 00
       0.0 0.0 0.0 0.0
000030 00 00 00 00 00 00 00 00 00 00 00 00 00 00 00 00
       0.0 0.0 0.0 0.0
000040 00 00 00 00 00 00 00 00 00 00 00 00 00 00 00 00
       0.0 0.0 0.0 0.0
000050 00 00 00 00 00 00 00 00 00 00 00 00 00 00 00 00
       0.0 0.0 0.0 0.0
000060 00 00 00 00 00 00 00 00 00 00 00 00 00 00 00 00
       0.0 0.0 0.0 0.0
000070 00 00 00 00 00 00 00 00 00 00 00 00 00 00 00 00
       0.0 0.0 0.0 0.0

node_scale_0 f4 [32]
000000 00 00 80 3f 00 00 80 3f 00 00 80 3f 00 00 80 3f
       1.0 1.0 1.0 1.0
000010 00 00 80 3f 00 00 80 3f 00 00 80 3f 00 00 80 3f
       1.0 1.0 1.0 1.0
000020 00 00 80 3f 00 00 80 3f 00 00 80 3f 00 00 80 3f
       1.0 1.0 1.0 1.0
000030 00 00 80 3f 00 00 80 3f 00 00 80 3f 00 00 80 3f
       1.0 1.0 1.0 1.0
000040 00 00 80 3f 00 00 80 3f 00 00 80 3f 00 00 80 3f
       1.0 1.0 1.0 1.0
000050 00 00 80 3f 00 00 80 3f 00 00 80 3f 00 00 80 3f
       1.0 1.0 1.0 1.0
000060 00 00 80 3f 00 00 80 3f 00 00 80 3f 00 00 80 3f
       1.0 1.0 1.0 1.0
000070 00 00 80 3f 00 00 80 3f 00 00 80 3f 00 00 80 3f
       1.0 1.0 1.0 1.0

subnode_bias_0 f4 [32]
000000 00 00 00 00 00 00 00 00 00 00 00 00 00 00 00 00
       0.0 0.0 0.0 0.0
000010 00 00 00 00 00 00 00 00 00 00 00 00 00 00 00 00
       0.0 0.0 0.0 0.0
000020 00 00 00 00 00 00 00 00 00 00 00 00 00 00 00 00
       0.0 0.0 0.0 0.0
000030 00 00 00 00 00 00 00 00 00 00 00 00 00 00 00 00
       0.0 0.0 0.0 0.0
000040 00 00 00 00 00 00 00 00 00 00 00 00 00 00 00 00
       0.0 0.0 0.0 0.0
000050 00 00 00 00 00 00 00 00 00 00 00 00 00 00 00 00
       0.0 0.0 0.0 0.0
000060 00 00 00 00 00 00 00 00 00 00 00 00 00 00 00 00
       0.0 0.0 0.0 0.0
000070 00 00 00 00 00 00 00 00 00 00 00 00 00 00 00 00
       0.0 0.0 0.0 0.0

subnode_scale_0 f4 [32]
000000 00 00 80 3f 00 00 80 3f 00 00 80 3f 00 00 80 3f
       1.0 1.0 1.0 1.0
000010 00 00 80 3f 00 00 80 3f 00 00 80 3f 00 00 80 3f
       1.0 1.0 1.0 1.0
000020 00 00 80 3f 00 00 80 3f 00 00 80 3f 00 00 80 3f
       1.0 1.0 1.0 1.0
000030 00 00 80 3f 00 00 80 3f 00 00 80 3f 00 00 80 3f
       1.0 1.0 1.0 1.0
000040 00 00 80 3f 00 00 80 3f 00 00 80 3f 00 00 80 3f
       1.0 1.0 1.0 1.0
000050 00 00 80 3f 00 00 80 3f 00 00 80 3f 00 00 80 3f
       1.0 1.0 1.0 1.0
000060 00 00 80 3f 00 00 80 3f 00 00 80 3f 00 00 80 3f
       1.0 1.0 1.0 1.0
000070 00 00 80 3f 00 00 80 3f 00 00 80 3f 00 00 80 3f
       1.0 1.0 1.0 1.0

node_bias_1 f4 [16]
000000 00 00 00 00 00 00 00 00 00 00 00 00 00 00 00 00
       0.0 0.0 0.0 0.0
000010 00 00 00 00 00 00 00 00 00 00 00 00 00 00 00 00
       0.0 0.0 0.0 0.0
000020 00 00 00 00 00 00 00 00 00 00 00 00 00 00 00 00
       0.0 0.0 0.0 0.0
000030 00 00 00 00 00 00 00 00 00 00 00 00 00 00 00 00
       0.0 0.0 0.0 0.0

node_scale_1 f4 [16]
000000 00 00 80 3f 00 00 80 3f 00 00 80 3f 00 00 80 3f
       1.0 1.0 1.0 1.0
000010 00 00 80 3f 00 00 80 3f 00 00 80 3f 00 00 80 3f
       1.0 1.0 1.0 1.0
000020 00 00 80 3f 00 00 80 3f 00 00 80 3f 00 00 80 3f
       1.0 1.0 1.0 1.0
000030 00 00 80 3f 00 00 80 3f 00 00 80 3f 00 00 80 3f
       1.0 1.0 1.0 1.0

subnode_bias_1 f4 [16]
000000 00 00 00 00 00 00 00 00 00 00 00 00 00 00 00 00
       0.0 0.0 0.0 0.0
000010 00 00 00 00 00 00 00 00 00 00 00 00 00 00 00 00
       0.0 0.0 0.0 0.0
000020 00 00 00 00 00 00 00 00 00 00 00 00 00 00 00 00
       0.0 0.0 0.0 0.0
000030 00 00 00 00 00 00 00 00 00 00 00 00 00 00 00 00
       0.0 0.0 0.0 0.0

subnode_scale_1 f4 [16]
000000 00 00 80 3f 00 00 80 3f 00 00 80 3f 00 00 80 3f
       1.0 1.0 1.0 1.0
000010 00 00 80 3f 00 00 80 3f 00 00 80 3f 00 00 80 3f
       1.0 1.0 1.0 1.0
000020 00 00 80 3f 00 00 80 3f 00 00 80 3f 00 00 80 3f
       1.0 1.0 1.0 1.0
000030 00 00 80 3f 00 00 80 3f 00 00 80 3f 00 00 80 3f
       1.0 1.0 1.0 1.0

act_fun.0.grid f4 [3, 12]
000000 cd cc 0c c0 66 66 e6 bf 33 33 b3 bf 00 00 80 bf
       -2.2 -1.8 -1.4 -1.0
000010 9a 99 19 bf cc cc 4c be cc cc 4c 3e 9a 99 19 3f
       -0.6 -0.19999999 0.19999999 0.6
000020 00 00 80 3f 33 33 b3 3f 66 66 e6 3f cd cc 0c 40
       1.0 1.4 1.8 2.2
000030 cd cc 0c c0 66 66 e6 bf 33 33 b3 bf 00 00 80 bf
       -2.2 -1.8 -1.4 -1.0
000040 9a 99 19 bf cc cc 4c be cc cc 4c 3e 9a 99 19 3f
       -0.6 -0.19999999 0.19999999 0.6
000050 00 00 80 3f 33 33 b3 3f 66 66 e6 3f cd cc 0c 40
       1.0 1.4 1.8 2.2
000060 cd cc 0c c0 66 66 e6 bf 33 33 b3 bf 00 00 80 bf
       -2.2 -1.8 -1.4 -1.0
000070 9a 99 19 bf cc cc 4c be cc cc 4c 3e 9a 99 19 3f
       -0.6 -0.19999999 0.19999999 0.6
000080 00 00 80 3f 33 33 b3 3f 66 66 e6 3f cd cc 0c 40
       1.0 1.4 1.8 2.2

act_fun.0.coef f4 [3, 32, 8]
000000 7e ae f5 bd bb bb c9 bd 89 04 b1 bd d0 30 0e 3e
       -0.11996172 -0.0985026 -0.08643443 0.13885808
000010 f8 ff 24 3e 2b 48 d4 3d a7 28 10 3e 18 dd fc 3d
       0.1611327 0.103653274 0.14078008 0.12346858
000020 15 e9 94 bd e6 0f 35 bd 40 be f6 bd b1 b3 17 3e
       -0.07271019 -0.044204615 -0.12048006 0.1481464
000030 43 eb 4a 3d 87 1a 0d 3e 14 e4 3c 3d ae 06 5e 3d
       0.04954077 0.1377965 0.04611595 0.05420559
000040 7f 16 01 be 66 56 06 be cc b6 04 be 73 c2 01 3e
       -0.12606238 -0.13118896 -0.12960356 0.12671833
000050 21 84 03 3e 93 0f b0 3d 09 ba ce 3d 0a 3b ec 3d
       0.12843372 0.085967205 0.10094077 0.11534698
000060 39 96 13 3e 2c 0a 35 3e 8b 4e 80 3d cb 54 f5 bd
       0.14412774 0.17679662 0.06264981 -0.119790636
000070 d1 e2 0d be eb 5a 07 be 75 a7 d5 bd f3 16 e0 bd
       -0.13856055 -0.13218276 -0.104323305 -0.10941877
000080 87 80 08 3e b6 9a 02 3e 6f eb be 3d ed c1 e1 bd
       0.1333028 0.1275433 0.09322249 -0.110233165
000090 a8 3d 40 be 96 e4 9c bd 7a 05 22 be 7f a1 08 be
       -0.1877352 -0.07660787 -0.15822402 -0.13342856
0000a0 89 a2 03 3e 34 59 08 3e 15 1d 06 3e 2e 80 fc bd
       0.12854971 0.13315278 0.13097031 -0.12329136
0000b0 65 35 31 be 51 d2 e4 bd e4 67 15 be 7a 26 f8 bd
       -0.17305525 -0.11172927 -0.14590412 -0.12116714
0000c0 dd d5 04 be 7a 40 13 be bd 29 f7 bd e5 1b 0a 3e
       -0.12972207 -0.14380065 -0.12068508 0.13487203
0000d0 2f bf 12 3e 2f 2b c9 3d 96 9f 11 3e be b9 fd 3d
       0.14330743 0.0982269 0.14221033 0.12388943
0000e0 17 cd 94 bd 4d 54 4d bd 9e 43 f8 bd b0 72 00 3e
       -0.0726568 -0.050129224 -0.12122272 0.1254375
0000f0 e0 86 5d 3d f9 5f 83 3d 17 ec 4a 3d 49 ec e3 3c
       0.054083705 0.0641479 0.04954156 0.02782263
000100 c9 fd e8 bd 1c ae ae bd 72 46 ee bd 8e c6 bc 3d
       -0.11376531 -0.085293025 -0.1163453 0.09217559
000110 96 fc c0 3d a8 1a 19 3e 74 9c 18 3e 18 83 fa 3d
       0.09423177 0.14951575 0.14903432 0.122320354
000120 0e 41 a0 3d dd 2c 69 3d 17 32 5c 3d ea e9 db bd
       0.07824908 0.05692755 0.053758707 -0.10737975
000130 b2 69 bb bd 03 ac 8c bd 7f c4 1d bd 95 fc 7c bd
       -0.09151019 -0.06868746 -0.03851747 -0.06176432
000140 fb 17 16 3e 59 2d 35 3e f9 c2 5d 3d cb b9 89 bd
       0.14657585 0.1769308 0.05414102 -0.0672489
000150 72 7c 24 be 97 e7 c8 bd a8 b5 da bd 35 a4 e5 bd
       -0.16063097 -0.09809797 -0.106791794 -0.11212961
000160 58 5c ee bd 18 5f dc bd ac 49 1e be c8 d2 22 3e
       -0.11638707 -0.10760325 -0.15457791 0.15900719
000170 00 b1 da 3d 2b 39 bd 3d ad fd 0b 3e 3d 45 fa 3d
       0.10678291 0.092394195 0.13670988 0.122202374
000180 4d 3a ea bd 85 1d b1 bd 0d d0 33 be 8e 33 0f 3e
       -0.11436901 -0.086482085 -0.17559834 0.1398451
000190 1d 79 0e 3e e1 91 a8 3d 30 15 13 3e 20 d9 07 3e
       0.13913389 0.08230949 0.14363551 0.1326642
0001a0 5e 58 da bd de 9d ca bd a5 d3 05 be a6 cb c5 3d
       -0.10661386 -0.09893392 -0.13069017 0.096579835
0001b0 f8 0c d6 3d 42 66 ed 3d d7 ae db 3d d8 03 e0 3d
       0.10451692 0.1159177 0.107267074 0.10938233
0001c0 f6 7a 01 3e 2d 74 0c 3e 33 0f 36 3e 54 e1 2b be
       0.12644562 0.13716193 0.17779236 -0.16785175
0001d0 f6 bd 08 be 9f 9f d0 bd c8 63 fc bd 51 4c f2 bd
       -0.13353714 -0.10186695 -0.12323719 -0.118309624
0001e0 05 a5 02 be 33 98 07 be 13 c9 c4 bd 94 2a 88 3d
       -0.12758262 -0.13241653 -0.09608664 0.06648746
0001f0 0b a6 e4 3d ae 85 b2 3d 62 7f d3 3d 74 e8 cc 3d
       0.11164483 0.087169036 0.10327031 0.100052744
000200 18 3a 07 3e 0f 35 1e 3e 84 ae 02 3e 95 7f 07 be
       0.13205755 0.15449928 0.12761885 -0.13232262
000210 a9 22 1b be 3d 03 06 be 50 b6 c5 bd 23 7a d9 bd
       -0.1514994 -0.13087173 -0.09653914 -0.10618999
000220 44 86 f9 3d 61 5b 05 3e dd c5 6f 3d b0 73 b1 bd
       0.12183812 0.1302314 0.058538307 -0.08664644
000230 88 c0 a2 bd 9c 1f ba bd d6 db 83 bd 98 68 b6 bd
       -0.07946879 -0.0908806 -0.06438415 -0.089066684
000240 9a 6b 00 3e f9 40 e6 3d ef 51 a6 3d 10 f1 a9 bd
       0.12541047 0.11242861 0.08121096 -0.08297932
000250 43 58 20 be d9 ba d1 bd 28 76 00 be af ed e6 bd
       -0.15658669 -0.102407165 -0.12545073 -0.11275803
000260 0b 47 d7 bd 08 41 c1 bd 03 a4 04 bd e5 90 0b 3e
       -0.10511597 -0.09436232 -0.032382976 0.13629492
000270 83 c4 e3 3d 4d f8 d6 3d b3 75 af bd 13 f4 c5 bd
       0.11121466 0.10496578 -0.08567371 -0.09665694
000280 0a 00 f0 3d 72 8e cf 3d 4f 44 16 3e e1 ea 36 be
       0.117187575 0.10134591 0.14674495 -0.17863037
000290 b9 4d 02 be 0f ba 04 be ca 42 fe bd 9d 76 e8 bd
       -0.12724961 -0.129616 -0.12415083 -0.11350749
0002a0 a9 ac f8 3d 10 2e f7 3d 0d bb 99 3d c9 42 18 be
       0.12142307 0.120693326 0.0750638 -0.14869227
0002b0 f0 66 ce bd 3e 51 22 be 46 08 f0 bd 45 1f c8 bd
       -0.100782275 -0.15851304 -0.11720328 -0.09771589
0002c0 d5 91 fe bd 12 1a 09 be c8 52 d7 bd ae d0 ec 3d
       -0.12430159 -0.13388851 -0.10513836 0.1156324
0002d0 59 9f 44 3e 5a e7 80 3d ac 60 11 3e 1c 45 04 3e
       0.19201411 0.06294127 0.14197034 0.12916988
0002e0 c3 40 11 3e 02 f3 28 3e 3a 3c 91 3d fa b2 56 bd
       0.14184861 0.1649895 0.070915654 -0.05241678
0002f0 92 82 db bd 82 ec 15 be 0a 4b 41 bd ad ea 88 bd
       -0.10718264 -0.14641002 -0.047190703 -0.06685386
000300 5e 07 04 be c6 c5 1c be de ea ae bd b4 ee 10 3e
       -0.12893435 -0.1530982 -0.08540891 0.14153558
000310 ef 7c ae 3d e1 bf c2 3d 43 cf 1c 3e c3 be fd 3d
       0.08519923 0.09509254 0.15313439 0.123899005
000320 a7 8f d0 bd 9b 78 e9 bd 00 3d cc bd f4 e9 b9 3d
       -0.101836495 -0.11399957 -0.09972572 0.09077826
000330 54 1f fb 3d 49 0f de 3d 2b b1 fb 3d 81 4e db 3d
       0.12261835 0.10842759 0.122896515 0.10708333
000340 e9 7c d5 3d c4 48 c2 3d 2f 5d b7 3d 97 fd dc bd
       0.10424215 0.09486535 0.0895332 -0.10790556
000350 b8 eb 85 bd af 5a f7 bd 14 c6 e4 bd 81 81 b5 3c
       -0.065391004 -0.120778434 -0.11170593 0.022156479
000360 ab 12 ef 3d 9d df cc 3d 5e c6 c5 3d e4 ec 05 be
       0.116734825 0.10003588 0.09656976 -0.13078648
000370 73 c7 b8 bd 87 61 f3 bd 08 bd d1 bd b6 0b 55 bd
       -0.09022417 -0.11883836 -0.10241133 -0.05201312
000380 8d e5 05 3e 01 a0 0b 3e 03 fe c7 3d 46 cb 24 be
       0.13075848 0.13635255 0.09765246 -0.16093168
000390 58 97 c6 bd 68 83 a4 bd b6 af 0c be cc 0a 01 be
       -0.09696835 -0.08032876 -0.13738903 -0.12601775
0003a0 a4 f5 bc 3d 54 b9 80 3d d8 1d 8d 3d e6 f7 af bd
       0.0922654 0.062853485 0.06890458 -0.08592205
0003b0 a3 0d 95 bd aa 37 bb bd 1b 17 d4 bd df 7b ba bd
       -0.072779916 -0.091414765 -0.103559695 -0.09105658
0003c0 85 87 10 3e 92 c0 2e 3e 2d 1b ce 3d 3e 6a 13 be
       0.14114197 0.17065647 0.10063777 -0.14395997
0003d0 ca 97 0d be 87 a9 b0 bd 23 8a 01 be 37 c3 fd bd
       -0.13827434 -0.08626085 -0.12650351 -0.1239075
0003e0 7d da ef 3d 8b f4 bd 3d 02 25 ba 3d ff 6a 09 be
       0.11711595 0.092751585 0.0908909 -0.13419722
0003f0 da b8 da bd e0 90 09 be fd fc 17 be 3c e4 f2 bd
       -0.10679789 -0.13434172 -0.14842601 -0.118599385

act_fun.0.mask f4 [3, 32]
000000 00 00 80 3f 00 00 80 3f 00 00 80 3f 00 00 80 3f
       1.0 1.0 1.0 1.0
000010 00 00 80 3f 00 00 80 3f 00 00 80 3f 00 00 80 3f
       1.0 1.0 1.0 1.0
000020 00 00 80 3f 00 00 80 3f 00 00 80 3f 00 00 80 3f
       1.0 1.0 1.0 1.0
000030 00 00 80 3f 00 00 80 3f 00 00 80 3f 00 00 80 3f
       1.0 1.0 1.0 1.0
000040 00 00 80 3f 00 00 80 3f 00 00 80 3f 00 00 80 3f
       1.0 1.0 1.0 1.0
000050 00 00 80 3f 00 00 80 3f 00 00 80 3f 00 00 80 3f
       1.0 1.0 1.0 1.0
000060 00 00 80 3f 00 00 80 3f 00 00 80 3f 00 00 80 3f
       1.0 1.0 1.0 1.0
000070 00 00 80 3f 00 00 80 3f 00 00 80 3f 00 00 80 3f
       1.0 1.0 1.0 1.0
000080 00 00 80 3f 00 00 80 3f 00 00 80 3f 00 00 80 3f
       1.0 1.0 1.0 1.0
000090 00 00 80 3f 00 00 80 3f 00 00 80 3f 00 00 80 3f
       1.0 1.0 1.0 1.0
0000a0 00 00 80 3f 00 00 80 3f 00 00 80 3f 00 00 80 3f
       1.0 1.0 1.0 1.0
0000b0 00 00 80 3f 00 00 80 3f 00 00 80 3f 00 00 80 3f
       1.0 1.0 1.0 1.0
0000c0 00 00 80 3f 00 00 80 3f 00 00 80 3f 00 00 80 3f
       1.0 1.0 1.0 1.0
0000d0 00 00 80 3f 00 00 80 3f 00 00 80 3f 00 00 80 3f
       1.0 1.0 1.0 1.0
0000e0 00 00 80 3f 00 00 80 3f 00 00 80 3f 00 00 80 3f
       1.0 1.0 1.0 1.0
0000f0 00 00 80 3f 00 00 80 3f 00 00 80 3f 00 00 80 3f
       1.0 1.0 1.0 1.0
000100 00 00 80 3f 00 00 80 3f 00 00 80 3f 00 00 80 3f
       1.0 1.0 1.0 1.0
000110 00 00 80 3f 00 00 80 3f 00 00 80 3f 00 00 80 3f
       1.0 1.0 1.0 1.0
000120 00 00 80 3f 00 00 80 3f 00 00 80 3f 00 00 80 3f
       1.0 1.0 1.0 1.0
000130 00 00 80 3f 00 00 80 3f 00 00 80 3f 00 00 80 3f
       1.0 1.0 1.0 1.0
000140 00 00 80 3f 00 00 80 3f 00 00 80 3f 00 00 80 3f
       1.0 1.0 1.0 1.0
000150 00 00 80 3f 00 00 80 3f 00 00 80 3f 00 00 80 3f
       1.0 1.0 1.0 1.0
000160 00 00 80 3f 00 00 80 3f 00 00 80 3f 00 00 80 3f
       1.0 1.0 1.0 1.0
000170 00 00 80 3f 00 00 80 3f 00 00 80 3f 00 00 80 3f
       1.0 1.0 1.0 1.0

act_fun.0.scale_base f4 [3, 32]
000000 35 f1 51 bd 14 bf c0 3e f4 1b 2b be 23 a2 c7 be
       -0.051255424 0.3764578 -0.16709882 -0.38990888
000010 0e af 6f 3e e6 fd 1e bf dd ce 3f 3e 1c db 0e 3f
       0.23406622 -0.6210617 0.18731256 0.55803084
000020 50 3c 5d 3e 1f ef ae 3d 76 28 e8 be 0d 66 de 3d
       0.21605039 0.085417025 -0.4534337 0.108593084
000030 ed a0 1f 3e dd ab 82 3e ac ae d7 3d 62 c1 1a 3f
       0.15588732 0.25521746 0.10531363 0.6045133
000040 4a 51 10 bf 3b 5c ae bd db ca ce be 7b 6c 00 bf
       -0.5637404 -0.08513685 -0.4038914 -0.5016553
000050 d6 f2 29 be da e3 1d bf 39 4e 05 3f ff a1 20 bd
       -0.16596541 -0.616758 0.52072483 -0.03921699
000060 a7 24 4c be 2c ed cc 3e 47 7a 21 bf 89 a4 a6 be
       -0.19935857 0.40024698 -0.63077205 -0.32547405
000070 d4 0a 70 be ec 7a 16 bf 70 e8 fa be bc ab 54 be
       -0.2344163 -0.58781314 -0.4900546 -0.20768636
000080 6f 8a 0e 3f 31 b8 22 3f 70 ed f9 3e 3a 0c ed be
       0.5567998 0.63562304 0.48813963 -0.4629839
000090 af 16 01 bf 8b 7a c3 3e 78 b1 a5 3e 85 fd ae 3d
       -0.5042524 0.3817943 0.3236196 0.08544449
0000a0 7d 5c 4a 3e 4c df 0a bf f0 8d a0 be 19 6f 2c 3f
       0.19761844 -0.54246974 -0.3135829 0.6735702
0000b0 f6 f0 88 bc a8 e5 aa 3d 65 5a 19 bf bd 3b 5c be
       -0.016716462 0.08344585 -0.59903556 -0.21507163
0000c0 ca 4f 0d be 54 c2 ec be 15 b6 43 be 4c 3b a7 3e
       -0.13799968 -0.4624201 -0.19112428 0.32662427
0000d0 7b 6d 2f bf 3f 02 66 3d 4e c5 84 be 2d 70 ca be
       -0.6852643 0.056154486 -0.25931782 -0.39538708
0000e0 58 ea ad 3e a0 6d 0f 3f f3 a3 84 be 2d 2d b0 be
       0.33967853 0.5602665 -0.25906333 -0.34409466
0000f0 87 5e 24 bf 1f b7 cb be ff a2 20 bf 1c 11 80 be
       -0.6420674 -0.39788148 -0.6274871 -0.25013053
000100 80 f3 32 3e 33 3b f6 be 27 16 12 3f 4c 2e 80 3e
       0.174757 -0.4809204 0.5706505 0.25035322
000110 46 24 08 bf 6f 50 97 be c6 ab 7f 3e 06 08 65 bd
       -0.5318035 -0.29553553 0.2496787 -0.055915855
000120 7c ef 1b 3d ee a6 7b be 54 64 b3 3e e8 39 55 be
       0.038070187 -0.24575397 0.35037482 -0.2082287
000130 28 70 17 3f ce a2 e4 3d a4 0d 91 3d 94 6e c4 3e
       0.5915551 0.11163865 0.0708268 0.38365614
000140 35 d8 e8 bd da 90 57 be 3e bc db bd 46 f2 01 3f
       -0.11369363 -0.2105135 -0.10729264 0.50760305
000150 42 68 bb be 18 0e b2 3c 4e 8b e5 be f6 61 a9 3e
       -0.3660298 0.021735236 -0.44832844 0.3308255
000160 71 2f 92 3e 31 fb 7d 3d 59 36 15 3e 24 40 b0 3c
       0.2855182 0.062007133 0.14571513 0.02151496
000170 08 f0 4f 3e 85 c3 ac be ae 4b 74 bd 5c bb 18 3e
       0.20306408 -0.3374292 -0.059642486 0.14915222

act_fun.0.scale_sp f4 [3, 32]
000000 89 42 2e 3f ae 9c 26 3f 6b 0e 35 3f 94 95 35 3f
       0.68070275 0.65082824 0.70725125 0.70931363
000010 7a 59 31 3f 60 c3 35 3f dd 57 35 3f 30 fa 26 3f
       0.69277155 0.71001244 0.70837194 0.65225506
000020 98 30 2c 3f 1b c7 1c 3f 98 cc 2f 3f 88 72 35 3f
       0.6726165 0.6124131 0.6867156 0.70877886
000030 b5 bb 35 3f 79 24 2e 3f ef 9a 35 3f 6c dc 2d 3f
       0.70989543 0.680244 0.70939535 0.6791446
000040 7d e4 33 3f da 7b 24 3f 5a 63 2a 3f 4c 33 34 3f
       0.7027052 0.6425148 0.6655785 0.7039077
000050 be a5 35 3f c9 45 2f 3f c2 46 35 3f 18 14 2f 3f
       0.7095603 0.6846586 0.7081109 0.68390036
000060 37 a8 35 3f 73 f9 2d 3f 88 0e 28 3f 42 67 27 3f
       0.709598 0.67958754 0.6564717 0.65391934
000070 f3 f8 2f 3f cf 29 1c 3f ab 2b 36 3f 6b aa 2c 3f
       0.6873924 0.61001295 0.7116038 0.6744754
000080 84 bf 33 3f e6 13 23 3f c7 2a 25 3f 83 c9 34 3f
       0.70214105 0.6370224 0.645184 0.7061998
000090 a6 da 2b 3f 06 c1 35 3f 39 d7 34 3f f3 17 26 3f
       0.67130506 0.70997655 0.70640904 0.64880294
0000a0 8e fb 33 3f 2a 2d 1f 3f bd 6b 35 3f 88 d2 2b 3f
       0.70305717 0.6217829 0.7086752 0.6711812
0000b0 81 13 35 3f 39 3b 31 3f bf 26 31 3f f2 50 34 3f
       0.70732886 0.6923099 0.69199747 0.7043601
0000c0 32 2c 36 3f 5a 02 2b 3f 92 cc 35 3f e1 ce 2d 3f
       0.71161187 0.66800463 0.71015275 0.678938
0000d0 b1 cf 34 3f 9e dd 2b 3f e8 c3 35 3f b0 eb 31 3f
       0.7062941 0.67135036 0.71002054 0.69500256
0000e0 fd ae 30 3f 71 95 30 3f 93 24 30 3f 09 48 24 3f
       0.6901701 0.6897803 0.6880581 0.64172417
0000f0 64 c2 2e 3f 4d ec 35 3f 8d 09 36 3f 4c 78 2b 3f
       0.68265367 0.7106369 0.71108323 0.66980433
000100 6d 5c 2f 3f 9e 13 2f 3f b0 f4 26 3f d7 a6 2c 3f
       0.68500406 0.6838931 0.65217113 0.6744208
000110 70 56 28 3f 03 de 2f 3f c8 ae 2d 3f 06 65 29 3f
       0.65756893 0.6869814 0.6784482 0.66169775
000120 07 b9 2a 3f 3f 52 2b 3f 71 c5 30 3f 70 30 30 3f
       0.6668858 0.6692237 0.6905127 0.6882391
000130 27 58 35 3f 34 da 30 3f 05 4b 31 3f 79 9b 31 3f
       0.70837635 0.6908295 0.69255096 0.6937786
000140 a4 d6 30 3f 32 bf 36 3f 73 d9 34 3f 4e 0c 34 3f
       0.69077516 0.7138549 0.706443 0.70331275
000150 f3 b3 35 3f ce c8 2c 3f 1a a0 2d 3f 00 d8 28 3f
       0.70977706 0.67493904 0.6782242 0.6595459
000160 94 b7 1e 3f 46 ba 24 3f d7 bf 30 3f a8 44 2f 3f
       0.6199887 0.6434673 0.69042724 0.68464136
000170 3a ae 35 3f 3c a7 21 3f f7 8a 2e 3f dd dc 33 3f
       0.70968974 0.63145804 0.68180794 0.70258886

act_fun.1.grid f4 [32, 12]
000000 cd cc 0c c0 66 66 e6 bf 33 33 b3 bf 00 00 80 bf
       -2.2 -1.8 -1.4 -1.0
000010 9a 99 19 bf cc cc 4c be cc cc 4c 3e 9a 99 19 3f
       -0.6 -0.19999999 0.19999999 0.6
000020 00 00 80 3f 33 33 b3 3f 66 66 e6 3f cd cc 0c 40
       1.0 1.4 1.8 2.2
000030 cd cc 0c c0 66 66 e6 bf 33 33 b3 bf 00 00 80 bf
       -2.2 -1.8 -1.4 -1.0
000040 9a 99 19 bf cc cc 4c be cc cc 4c 3e 9a 99 19 3f
       -0.6 -0.19999999 0.19999999 0.6
000050 00 00 80 3f 33 33 b3 3f 66 66 e6 3f cd cc 0c 40
       1.0 1.4 1.8 2.2
000060 cd cc 0c c0 66 66 e6 bf 33 33 b3 bf 00 00 80 bf
       -2.2 -1.8 -1.4 -1.0
000070 9a 99 19 bf cc cc 4c be cc cc 4c 3e 9a 99 19 3f
       -0.6 -0.19999999 0.19999999 0.6
000080 00 00 80 3f 33 33 b3 3f 66 66 e6 3f cd cc 0c 40
       1.0 1.4 1.8 2.2
000090 cd cc 0c c0 66 66 e6 bf 33 33 b3 bf 00 00 80 bf
       -2.2 -1.8 -1.4 -1.0
0000a0 9a 99 19 bf cc cc 4c be cc cc 4c 3e 9a 99 19 3f
       -0.6 -0.19999999 0.19999999 0.6
0000b0 00 00 80 3f 33 33 b3 3f 66 66 e6 3f cd cc 0c 40
       1.0 1.4 1.8 2.2
0000c0 cd cc 0c c0 66 66 e6 bf 33 33 b3 bf 00 00 80 bf
       -2.2 -1.8 -1.4 -1.0
0000d0 9a 99 19 bf cc cc 4c be cc cc 4c 3e 9a 99 19 3f
       -0.6 -0.19999999 0.19999999 0.6
0000e0 00 00 80 3f 33 33 b3 3f 66 66 e6 3f cd cc 0c 40
       1.0 1.4 1.8 2.2
0000f0 cd cc 0c c0 66 66 e6 bf 33 33 b3 bf 00 00 80 bf
       -2.2 -1.8 -1.4 -1.0
000100 9a 99 19 bf cc cc 4c be cc cc 4c 3e 9a 99 19 3f
       -0.6 -0.19999999 0.19999999 0.6
000110 00 00 80 3f 33 33 b3 3f 66 66 e6 3f cd cc 0c 40
       1.0 1.4 1.8 2.2
000120 cd cc 0c c0 66 66 e6 bf 33 33 b3 bf 00 00 80 bf
       -2.2 -1.8 -1.4 -1.0
000130 9a 99 19 bf cc cc 4c be cc cc 4c 3e 9a 99 19 3f
       -0.6 -0.19999999 0.19999999 0.6
000140 00 00 80 3f 33 33 b3 3f 66 66 e6 3f cd cc 0c 40
       1.0 1.4 1.8 2.2
000150 cd cc 0c c0 66 66 e6 bf 33 33 b3 bf 00 00 80 bf
       -2.2 -1.8 -1.4 -1.0
000160 9a 99 19 bf cc cc 4c be cc cc 4c 3e 9a 99 19 3f
       -0.6 -0.19999999 0.19999999 0.6
000170 00 00 80 3f 33 33 b3 3f 66 66 e6 3f cd cc 0c 40
       1.0 1.4 1.8 2.2
000180 cd cc 0c c0 66 66 e6 bf 33 33 b3 bf 00 00 80 bf
       -2.2 -1.8 -1.4 -1.0
000190 9a 99 19 bf cc cc 4c be cc cc 4c 3e 9a 99 19 3f
       -0.6 -0.19999999 0.19999999 0.6
0001a0 00 00 80 3f 33 33 b3 3f 66 66 e6 3f cd cc 0c 40
       1.0 1.4 1.8 2.2
0001b0 cd cc 0c c0 66 66 e6 bf 33 33 b3 bf 00 00 80 bf
       -2.2 -1.8 -1.4 -1.0
0001c0 9a 99 19 bf cc cc 4c be cc cc 4c 3e 9a 99 19 3f
       -0.6 -0.19999999 0.19999999 0.6
0001d0 00 00 80 3f 33 33 b3 3f 66 66 e6 3f cd cc 0c 40
       1.0 1.4 1.8 2.2
0001e0 cd cc 0c c0 66 66 e6 bf 33 33 b3 bf 00 00 80 bf
       -2.2 -1.8 -1.4 -1.0
0001f0 9a 99 19 bf cc cc 4c be cc cc 4c 3e 9a 99 19 3f
       -0.6 -0.19999999 0.19999999 0.6
000200 00 00 80 3f 33 33 b3 3f 66 66 e6 3f cd cc 0c 40
       1.0 1.4 1.8 2.2
000210 cd cc 0c c0 66 66 e6 bf 33 33 b3 bf 00 00 80 bf
       -2.2 -1.8 -1.4 -1.0
000220 9a 99 19 bf cc cc 4c be cc cc 4c 3e 9a 99 19 3f
       -0.6 -0.19999999 0.19999999 0.6
000230 00 00 80 3f 33 33 b3 3f 66 66 e6 3f cd cc 0c 40
       1.0 1.4 1.8 2.2
000240 cd cc 0c c0 66 66 e6 bf 33 33 b3 bf 00 00 80 bf
       -2.2 -1.8 -1.4 -1.0
000250 9a 99 19 bf cc cc 4c be cc cc 4c 3e 9a 99 19 3f
       -0.6 -0.19999999 0.19999999 0.6
000260 00 00 80 3f 33 33 b3 3f 66 66 e6 3f cd cc 0c 40
       1.0 1.4 1.8 2.2
000270 cd cc 0c c0 66 66 e6 bf 33 33 b3 bf 00 00 80 bf
       -2.2 -1.8 -1.4 -1.0
000280 9a 99 19 bf cc cc 4c be cc cc 4c 3e 9a 99 19 3f
       -0.6 -0.19999999 0.19999999 0.6
000290 00 00 80 3f 33 33 b3 3f 66 66 e6 3f cd cc 0c 40
       1.0 1.4 1.8 2.2
0002a0 cd cc 0c c0 66 66 e6 bf 33 33 b3 bf 00 00 80 bf
       -2.2 -1.8 -1.4 -1.0
0002b0 9a 99 19 bf cc cc 4c be cc cc 4c 3e 9a 99 19 3f
       -0.6 -0.19999999 0.19999999 0.6
0002c0 00 00 80 3f 33 33 b3 3f 66 66 e6 3f cd cc 0c 40
       1.0 1.4 1.8 2.2
0002d0 cd cc 0c c0 66 66 e6 bf 33 33 b3 bf 00 00 80 bf
       -2.2 -1.8 -1.4 -1.0
0002e0 9a 99 19 bf cc cc 4c be cc cc 4c 3e 9a 99 19 3f
       -0.6 -0.19999999 0.19999999 0.6
0002f0 00 00 80 3f 33 33 b3 3f 66 66 e6 3f cd cc 0c 40
       1.0 1.4 1.8 2.2
000300 cd cc 0c c0 66 66 e6 bf 33 33 b3 bf 00 00 80 bf
       -2.2 -1.8 -1.4 -1.0
000310 9a 99 19 bf cc cc 4c be cc cc 4c 3e 9a 99 19 3f
       -0.6 -0.19999999 0.19999999 0.6
000320 00 00 80 3f 33 33 b3 3f 66 66 e6 3f cd cc 0c 40
       1.0 1.4 1.8 2.2
000330 cd cc 0c c0 66 66 e6 bf 33 33 b3 bf 00 00 80 bf
       -2.2 -1.8 -1.4 -1.0
000340 9a 99 19 bf cc cc 4c be cc cc 4c 3e 9a 99 19 3f
       -0.6 -0.19999999 0.19999999 0.6
000350 00 00 80 3f 33 33 b3 3f 66 66 e6 3f cd cc 0c 40
       1.0 1.4 1.8 2.2
000360 cd cc 0c c0 66 66 e6 bf 33 33 b3 bf 00 00 80 bf
       -2.2 -1.8 -1.4 -1.0
000370 9a 99 19 bf cc cc 4c be cc cc 4c 3e 9a 99 19 3f
       -0.6 -0.19999999 0.19999999 0.6
000380 00 00 80 3f 33 33 b3 3f 66 66 e6 3f cd cc 0c 40
       1.0 1.4 1.8 2.2
000390 cd cc 0c c0 66 66 e6 bf 33 33 b3 bf 00 00 80 bf
       -2.2 -1.8 -1.4 -1.0
0003a0 9a 99 19 bf cc cc 4c be cc cc 4c 3e 9a 99 19 3f
       -0.6 -0.19999999 0.19999999 0.6
0003b0 00 00 80 3f 33 33 b3 3f 66 66 e6 3f cd cc 0c 40
       1.0 1.4 1.8 2.2
0003c0 cd cc 0c c0 66 66 e6 bf 33 33 b3 bf 00 00 80 bf
       -2.2 -1.8 -1.4 -1.0
0003d0 9a 99 19 bf cc cc 4c be cc cc 4c 3e 9a 99 19 3f
       -0.6 -0.19999999 0.19999999 0.6
0003e0 00 00 80 3f 33 33 b3 3f 66 66 e6 3f cd cc 0c 40
       1.0 1.4 1.8 2.2
0003f0 cd cc 0c c0 66 66 e6 bf 33 33 b3 bf 00 00 80 bf
       -2.2 -1.8 -1.4 -1.0

act_fun.1.coef f4 [32, 16, 8]
000000 bc e5 44 3c 56 99 d4 3d 11 46 e9 3d 35 8c ed 3d
       0.012017664 0.10380809 0.11390317 0.11599008
000010 0d 90 ac 3d 8c a0 e8 bd 79 2b 97 bd 83 47 00 bc
       0.08425913 -0.11358747 -0.073813386 -0.00782955
000020 d0 be 30 3c 51 89 99 3d b4 5d 89 bd 25 0c 96 bc
       0.010787681 0.07496894 -0.067073256 -0.018316338
000030 b4 97 c6 3d cd 85 27 3e d2 98 20 3e 00 1e e4 3d
       0.09696904 0.16359635 0.15683296 0.111385345
000040 64 13 1b bc 89 1e dd 3b 3b e2 b4 bc 83 7e b3 bd
       -0.009465072 0.006748025 -0.022080531 -0.087643646
000050 32 f0 d1 3d 73 0d 2c 3e c1 2b ef 3d b2 63 ce 3d
       0.10250892 0.16802005 0.11678267 0.10077609
000060 98 04 27 3c fe 37 d2 3d 98 e5 e3 3d 44 6f d4 3d
       0.010193966 0.10264586 0.11127776 0.10372785
000070 2e 91 36 3d 2f e8 19 be 6d b5 95 bd 79 5e 9c bc
       0.044572048 -0.15029977 -0.07309995 -0.019088017
000080 50 c8 bb bb 4f d3 48 bd 70 eb b9 bd c4 a3 11 be
       -0.005730666 -0.049029645 -0.09078109 -0.14222628
000090 ae 9e 03 3e 91 76 e9 3d 11 3d 24 3e 5c 84 df 3d
       0.128535 0.11399568 0.1603892 0.109139174
0000a0 c0 c6 e8 bb 60 18 93 bc a4 82 80 bd 63 0a e7 bd
       -0.007103771 -0.017955959 -0.06274918 -0.11281278
0000b0 d5 f1 2e 3e e3 ef a5 3d b8 42 2e 3e cd 31 03 3e
       0.17084439 0.081023954 0.17017639 0.12811966
0000c0 48 5f bc bb 36 df 08 3d c1 04 d4 3d a7 6e 3d 3e
       -0.005748663 0.033415996 0.10352469 0.18499242
0000d0 4d 45 ee ba f8 f9 8e bd 35 df 23 be 39 d2 82 bd
       -0.0018178612 -0.069812715 -0.16003115 -0.06387753
0000e0 34 af 1e bc 7d f9 4e 3d fc 5f 3b 3e 96 00 a3 3d
       -0.009685326 0.0505309 0.18298334 0.07959096
0000f0 af 48 36 3d bb b8 2a be b3 2c 97 bd f4 8b 64 3c
       0.04450291 -0.16672032 -0.073815726 0.013949383
000100 84 45 be 3b ff 02 be 3d 82 47 1a 3e 31 ee 17 3e
       0.0058066268 0.09277915 0.1506634 0.14836957
000110 3c 7b 53 bd 6a 29 9d bd dd 24 25 be df 21 e8 bd
       -0.051631197 -0.07673915 -0.16127343 -0.113345854
000120 80 f6 17 3c ad b3 ab 3d 73 93 9c 3d 6e bc 2b 3e
       0.009275079 0.0838388 0.07645311 0.16771099
000130 54 ce 2e 3d e8 de e9 bd 54 3a e5 bd 8c f3 a4 bc
       0.04267724 -0.11419469 -0.11192766 -0.020135663
000140 d0 b7 d0 39 e6 bc 38 3d ae 61 a7 3d de 14 38 3e
       0.00039809803 0.045102023 0.08172928 0.1797671
000150 dc 1b 03 bd 4c 58 b6 bd d2 a3 ee bd d5 57 ab bc
       -0.03200899 -0.0890356 -0.1165234 -0.020915905
000160 10 3c 11 3c db 90 8d 3d b1 1c 80 bd 35 c2 c6 bd
       0.008864418 0.069123946 -0.062554725 -0.09705011
000170 86 98 13 3e db 75 09 3e 94 53 10 3e ed aa d1 3d
       0.14413652 0.13423865 0.14094383 0.1023768
000180 b8 e8 9d ba 2a ff 4f 3d 16 47 d2 3d b7 cb ed 3d
       -0.0012047505 0.050780453 0.10267465 0.11611121
000190 49 e0 80 3d 66 26 1f be 2f 80 68 3c 10 23 ad 3c
       0.06292779 -0.15541992 0.014190718 0.021134883
0001a0 c6 81 86 3c 6e 43 ca 3d be a6 27 bd 54 7b 60 3c
       0.016419303 0.098761424 -0.040930502 0.013701279
0001b0 55 4b b7 bc 84 08 cd 3d 37 91 d3 3c 89 16 dc ba
       -0.022374788 0.1001139 0.02582608 -0.0016791384
0001c0 a0 b7 0d bc 5a 05 40 bc 84 4b 8b bd d9 28 8f bd
       -0.008649737 -0.011720026 -0.06801513 -0.06990213
0001d0 b3 eb d1 3d b8 fa 1f 3e 12 9d c4 3d 2d 9f c4 3d
       0.10250034 0.15622985 0.09600271 0.09600673
0001e0 9c 3d 42 39 f1 37 3e 3d 19 f1 da 3d d7 1f 36 3e
       0.00018524233 0.04644007 0.10690517 0.17785583
0001f0 38 2f 11 bd 6c 13 19 be a1 31 c5 bd 38 13 9e bc
       -0.035445422 -0.14948815 -0.096286066 -0.019296274
000200 48 02 d3 bd 1d cf 19 bd aa 65 dd 3d 75 fe dc 3d
       -0.103031695 -0.037551034 0.108104065 0.10790721
000210 ae a8 b4 bd 23 30 8a bd 14 9a b3 bb 88 38 4d 3d
       -0.088212356 -0.067474626 -0.005481014 0.05010274
000220 1a c6 d2 3d bb cd bd 3d ff a4 ac bd b8 7c ec bb
       0.10291691 0.092677556 -0.08429908 -0.007217016
000230 bf f6 76 3d b1 4f 25 3e 1e 55 df 3d 58 b1 e4 3d
       0.06029391 0.16143681 0.10904907 0.11166638
000240 0f 5c e5 3d 35 f6 01 3e 12 03 0a be a0 c2 4c bd
       0.111991994 0.12691577 -0.13477734 -0.049990296
000250 6a ae c9 3d 24 b5 16 3e 5e cf e8 3d c8 3b db 3d
       0.0984772 0.14717537 0.11367677 0.10704762
000260 2d a1 c3 bd d8 20 06 3d 2b 73 2d 3e 49 1f 5d 3d
       -0.09552226 0.032746166 0.16938464 0.053984914
000270 e3 97 b5 3d ff 24 e8 bd 1a 11 df bd 8d ca a6 bd
       0.08866861 -0.113351814 -0.10891934 -0.08144102
000280 1b 78 fa 3d a4 2c 07 3e e6 1b f7 bd 7c be b0 bd
       0.122299396 0.13200623 -0.12065868 -0.08630082
000290 06 1e 1b 3e ea f9 00 3e 39 8f d5 3d be 89 e5 3d
       0.15148172 0.12595335 0.10427708 0.11207913
0002a0 55 fc f3 3d 78 07 20 3e 73 70 1d be e7 ec b7 bd
       0.11913363 0.15627849 -0.15374927 -0.089807324
0002b0 58 91 c2 3d bb 01 d1 3d 05 87 0d 3e 03 2f 05 3e
       0.09500378 0.10205408 0.13821037 0.13006215
0002c0 a5 b1 a9 bd 2b cd b2 bb f0 7d 08 3e 79 b9 12 3e
       -0.08285836 -0.005456587 0.13329291 0.14328565
0002d0 b8 5d a3 3d fa fa e7 bd 39 df 7d bd c2 2e c1 bb
       0.0797686 -0.11327167 -0.06198046 -0.0058954665
0002e0 8b f2 03 bc c1 91 c1 3c 01 ce f7 3d 36 29 e3 3d
       -0.008053432 0.023629071 0.12099839 0.11091845
0002f0 40 59 fd 3c b5 76 b0 bd ee f9 3f bd 0b 0d 0d bd
       0.030926347 -0.086163916 -0.04686921 -0.034436267
000300 1b d1 be bd ed 2f ad 3b ef ac 18 3e 2b a9 e9 3d
       -0.093172275 0.005285254 0.14909719 0.11409219
000310 56 56 17 bd 10 30 af bd a9 00 8e bc 86 52 c4 bb
       -0.03694757 -0.08554089 -0.0173343 -0.005991283
000320 2b ea 89 bd fa d9 b1 3d ac aa 07 3e 56 f5 1e 3e
       -0.06734117 0.08684154 0.132487 0.15523276
000330 74 33 43 3c d7 b0 89 bd 22 7e c4 bd 97 60 29 bd
       0.011914123 -0.06723183 -0.095943704 -0.04135188
000340 77 03 87 bd b8 82 7c bd 7e 14 48 3e e1 99 51 3d
       -0.06592458 -0.0616481 0.19539067 0.05117214
000350 cc a9 c3 bc e5 be 21 be 73 15 1f bc 35 0a ad 3c
       -0.023884676 -0.15795477 -0.009709704 0.021123031
000360 33 21 ff 3d 79 07 24 3e ca 3a 01 be 6d cf b0 bd
       0.12457504 0.16018476 -0.12620082 -0.08633313
000370 93 38 a6 3c 17 df 32 3e 5f ed cf 3d 4a f6 ea 3d
       0.020290649 0.17467915 0.10152697 0.11472757
000380 a6 62 c5 bd b8 ae e9 3b e1 72 25 3e 43 1d 8b 3d
       -0.09637956 0.007131424 0.16157104 0.067926906
000390 e4 d3 09 bc d3 7c 11 be dd 2a 5d 3c a0 d6 dd 3c
       -0.008412335 -0.14207773 0.013498989 0.02707988
0003a0 16 e7 1c bd be 31 60 bd 26 da 63 3d e0 47 c9 3c
       -0.03830632 -0.054734938 0.055627964 0.024570405
0003b0 56 fc 6e 3c 5d b0 f0 3d 2f 82 5b bc 1c a8 be bc
       0.014586529 0.117523886 -0.013397737 -0.02327352
0003c0 d0 91 d5 3d d8 66 bd 3d 66 76 0b be 30 f3 ff bc
       0.10428202 0.092481315 -0.13619384 -0.03124389
0003d0 2a 78 9a 3d 7a 32 22 3e c1 a9 16 3e 59 c2 fc 3d
       0.07542451 0.15839568 0.14713193 0.123417564
0003e0 a7 80 f5 bd 71 1f 87 bd da fb 44 3e 5f 52 b6 3d
       -0.11987429 -0.06597794 0.19236699 0.0890243
0003f0 e7 4c 2d be 2e 00 9e bd b7 29 99 bd ad 74 2f bd
       -0.16923867 -0.07714878 -0.074786596 -0.04283588

act_fun.1.mask f4 [32, 16]
000000 00 00 80 3f 00 00 80 3f 00 00 80 3f 00 00 80 3f
       1.0 1.0 1.0 1.0
000010 00 00 80 3f 00 00 80 3f 00 00 80 3f 00 00 80 3f
       1.0 1.0 1.0 1.0
000020 00 00 80 3f 00 00 80 3f 00 00 80 3f 00 00 80 3f
       1.0 1.0 1.0 1.0
000030 00 00 80 3f 00 00 80 3f 00 00 80 3f 00 00 80 3f
       1.0 1.0 1.0 1.0
000040 00 00 80 3f 00 00 80 3f 00 00 80 3f 00 00 80 3f
       1.0 1.0 1.0 1.0
000050 00 00 80 3f 00 00 80 3f 00 00 80 3f 00 00 80 3f
       1.0 1.0 1.0 1.0
000060 00 00 80 3f 00 00 80 3f 00 00 80 3f 00 00 80 3f
       1.0 1.0 1.0 1.0
000070 00 00 80 3f 00 00 80 3f 00 00 80 3f 00 00 80 3f
       1.0 1.0 1.0 1.0
000080 00 00 80 3f 00 00 80 3f 00 00 80 3f 00 00 80 3f
       1.0 1.0 1.0 1.0
000090 00 00 80 3f 00 00 80 3f 00 00 80 3f 00 00 80 3f
       1.0 1.0 1.0 1.0
0000a0 00 00 80 3f 00 00 80 3f 00 00 80 3f 00 00 80 3f
       1.0 1.0 1.0 1.0
0000b0 00 00 80 3f 00 00 80 3f 00 00 80 3f 00 00 80 3f
       1.0 1.0 1.0 1.0
0000c0 00 00 80 3f 00 00 80 3f 00 00 80 3f 00 00 80 3f
       1.0 1.0 1.0 1.0
0000d0 00 00 80 3f 00 00 80 3f 00 00 80 3f 00 00 80 3f
       1.0 1.0 1.0 1.0
0000e0 00 00 80 3f 00 00 80 3f 00 00 80 3f 00 00 80 3f
       1.0 1.0 1.0 1.0
0000f0 00 00 80 3f 00 00 80 3f 00 00 80 3f 00 00 80 3f
       1.0 1.0 1.0 1.0
000100 00 00 80 3f 00 00 80 3f 00 00 80 3f 00 00 80 3f
       1.0 1.0 1.0 1.0
000110 00 00 80 3f 00 00 80 3f 00 00 80 3f 00 00 80 3f
       1.0 1.0 1.0 1.0
000120 00 00 80 3f 00 00 80 3f 00 00 80 3f 00 00 80 3f
       1.0 1.0 1.0 1.0
000130 00 00 80 3f 00 00 80 3f 00 00 80 3f 00 00 80 3f
       1.0 1.0 1.0 1.0
000140 00 00 80 3f 00 00 80 3f 00 00 80 3f 00 00 80 3f
       1.0 1.0 1.0 1.0
000150 00 00 80 3f 00 00 80 3f 00 00 80 3f 00 00 80 3f
       1.0 1.0 1.0 1.0
000160 00 00 80 3f 00 00 80 3f 00 00 80 3f 00 00 80 3f
       1.0 1.0 1.0 1.0
000170 00 00 80 3f 00 00 80 3f 00 00 80 3f 00 00 80 3f
       1.0 1.0 1.0 1.0
000180 00 00 80 3f 00 00 80 3f 00 00 80 3f 00 00 80 3f
       1.0 1.0 1.0 1.0
000190 00 00 80 3f 00 00 80 3f 00 00 80 3f 00 00 80 3f
       1.0 1.0 1.0 1.0
0001a0 00 00 80 3f 00 00 80 3f 00 00 80 3f 00 00 80 3f
       1.0 1.0 1.0 1.0
0001b0 00 00 80 3f 00 00 80 3f 00 00 80 3f 00 00 80 3f
       1.0 1.0 1.0 1.0
0001c0 00 00 80 3f 00 00 80 3f 00 00 80 3f 00 00 80 3f
       1.0 1.0 1.0 1.0
0001d0 00 00 80 3f 00 00 80 3f 00 00 80 3f 00 00 80 3f
       1.0 1.0 1.0 1.0
0001e0 00 00 80 3f 00 00 80 3f 00 00 80 3f 00 00 80 3f
       1.0 1.0 1.0 1.0
0001f0 00 00 80 3f 00 00 80 3f 00 00 80 3f 00 00 80 3f
       1.0 1.0 1.0 1.0
000200 00 00 80 3f 00 00 80 3f 00 00 80 3f 00 00 80 3f
       1.0 1.0 1.0 1.0
000210 00 00 80 3f 00 00 80 3f 00 00 80 3f 00 00 80 3f
       1.0 1.0 1.0 1.0
000220 00 00 80 3f 00 00 80 3f 00 00 80 3f 00 00 80 3f
       1.0 1.0 1.0 1.0
000230 00 00 80 3f 00 00 80 3f 00 00 80 3f 00 00 80 3f
       1.0 1.0 1.0 1.0
000240 00 00 80 3f 00 00 80 3f 00 00 80 3f 00 00 80 3f
       1.0 1.0 1.0 1.0
000250 00 00 80 3f 00 00 80 3f 00 00 80 3f 00 00 80 3f
       1.0 1.0 1.0 1.0
000260 00 00 80 3f 00 00 80 3f 00 00 80 3f 00 00 80 3f
       1.0 1.0 1.0 1.0
000270 00 00 80 3f 00 00 80 3f 00 00 80 3f 00 00 80 3f
       1.0 1.0 1.0 1.0
000280 00 00 80 3f 00 00 80 3f 00 00 80 3f 00 00 80 3f
       1.0 1.0 1.0 1.0
000290 00 00 80 3f 00 00 80 3f 00 00 80 3f 00 00 80 3f
       1.0 1.0 1.0 1.0
0002a0 00 00 80 3f 00 00 80 3f 00 00 80 3f 00 00 80 3f
       1.0 1.0 1.0 1.0
0002b0 00 00 80 3f 00 00 80 3f 00 00 80 3f 00 00 80 3f
       1.0 1.0 1.0 1.0
0002c0 00 00 80 3f 00 00 80 3f 00 00 80 3f 00 00 80 3f
       1.0 1.0 1.0 1.0
0002d0 00 00 80 3f 00 00 80 3f 00 00 80 3f 00 00 80 3f
       1.0 1.0 1.0 1.0
0002e0 00 00 80 3f 00 00 80 3f 00 00 80 3f 00 00 80 3f
       1.0 1.0 1.0 1.0
0002f0 00 00 80 3f 00 00 80 3f 00 00 80 3f 00 00 80 3f
       1.0 1.0 1.0 1.0
000300 00 00 80 3f 00 00 80 3f 00 00 80 3f 00 00 80 3f
       1.0 1.0 1.0 1.0
000310 00 00 80 3f 00 00 80 3f 00 00 80 3f 00 00 80 3f
       1.0 1.0 1.0 1.0
000320 00 00 80 3f 00 00 80 3f 00 00 80 3f 00 00 80 3f
       1.0 1.0 1.0 1.0
000330 00 00 80 3f 00 00 80 3f 00 00 80 3f 00 00 80 3f
       1.0 1.0 1.0 1.0
000340 00 00 80 3f 00 00 80 3f 00 00 80 3f 00 00 80 3f
       1.0 1.0 1.0 1.0
000350 00 00 80 3f 00 00 80 3f 00 00 80 3f 00 00 80 3f
       1.0 1.0 1.0 1.0
000360 00 00 80 3f 00 00 80 3f 00 00 80 3f 00 00 80 3f
       1.0 1.0 1.0 1.0
000370 00 00 80 3f 00 00 80 3f 00 00 80 3f 00 00 80 3f
       1.0 1.0 1.0 1.0
000380 00 00 80 3f 00 00 80 3f 00 00 80 3f 00 00 80 3f
       1.0 1.0 1.0 1.0
000390 00 00 80 3f 00 00 80 3f 00 00 80 3f 00 00 80 3f
       1.0 1.0 1.0 1.0
0003a0 00 00 80 3f 00 00 80 3f 00 00 80 3f 00 00 80 3f
       1.0 1.0 1.0 1.0
0003b0 00 00 80 3f 00 00 80 3f 00 00 80 3f 00 00 80 3f
       1.0 1.0 1.0 1.0
0003c0 00 00 80 3f 00 00 80 3f 00 00 80 3f 00 00 80 3f
       1.0 1.0 1.0 1.0
0003d0 00 00 80 3f 00 00 80 3f 00 00 80 3f 00 00 80 3f
       1.0 1.0 1.0 1.0
0003e0 00 00 80 3f 00 00 80 3f 00 00 80 3f 00 00 80 3f
       1.0 1.0 1.0 1.0
0003f0 00 00 80 3f 00 00 80 3f 00 00 80 3f 00 00 80 3f
       1.0 1.0 1.0 1.0

act_fun.1.scale_base f4 [32, 16]
000000 30 ef e5 bd b3 ac 13 3e b0 df a9 3c 7f 30 6e bd
       -0.11227262 0.14421348 0.020736545 -0.05815172
000010 b3 1f 1d 3e 0d d6 75 3e 84 fa 20 bb a2 5d 84 be
       0.15344124 0.24007435 -0.0024563381 -0.25852686
000020 2f 2a 7b be 8c 1f 39 be 5f d5 76 be 61 30 35 3e
       -0.2452781 -0.1807844 -0.24104832 0.17694236
000030 cc 8c 65 be 08 b9 5f bd a2 10 2e 3e 18 8c 3b bc
       -0.22416991 -0.05461982 0.16998532 -0.011446975
000040 b3 de 27 be 42 29 86 bd 3f 72 0a 3e 52 4e 25 bc
       -0.16393547 -0.06550838 0.13520144 -0.010089474
000050 fb d8 79 3e 83 e9 0a 3e 00 33 97 3c 2d 03 8a be
       0.24399178 0.1356564 0.018456936 -0.26955548
000060 5f 02 88 3d fc e3 60 be 5b d7 62 be a6 18 7a 3e
       0.06641077 -0.21961969 -0.22152464 0.24423465
000070 5f cd 0e be e7 e4 0b 3e 09 1b 57 bc b6 e2 93 3c
       -0.1394553 0.13661538 -0.013129004 0.01805244
000080 ec b5 99 3d df e0 2d 3e 1c 2b 85 3e fd b5 6c be
       0.07505402 0.16980313 0.26009452 -0.23116298
000090 9b 7a a6 3d 69 cd 2f 3e 4b f5 bc bb 34 14 4c be
       0.08128854 0.17168202 -0.005766546 -0.19929582
0000a0 b6 f6 5a 3b 1f 68 2c be 22 4c 4e be ed aa 1e 3e
       0.0033411211 -0.16836594 -0.2014623 0.1549489
0000b0 33 aa 71 be 89 83 f1 bd 9b 09 33 3e 96 be 34 bd
       -0.23600082 -0.117926665 0.17484133 -0.04412707
0000c0 e9 e0 3d 3e 56 0a 0c be 6a 10 7a be 4e bf 06 bd
       0.18542828 -0.13675818 -0.24420324 -0.032897286
0000d0 9e 85 70 3d cd 19 8c be a5 f3 2a 3e f3 60 86 3e
       0.058721177 -0.27363434 0.16694506 0.2624584
0000e0 f2 6f 7d 3e e7 ce 2f 3b 00 12 62 3d 9c b0 84 be
       0.24749735 0.0026826204 0.055192947 -0.25915992
0000f0 13 3f 62 3e b6 40 61 be f1 96 8d be 96 17 d2 3a
       0.22094373 -0.21997342 -0.27654222 0.0016028758
000100 a4 86 80 3e 4f a2 07 bc d1 c2 cb 3c 68 6c 71 3e
       0.25102723 -0.0082784435 0.02487317 0.2357651
000110 25 ff 3d be bb 55 63 be e5 1b 0c 3c 10 ef 30 3e
       -0.18554361 -0.22200672 0.008551572 0.17278695
000120 db bb 42 3e a5 5d 15 3e 50 19 4f bd b2 ca d4 bd
       0.19016974 0.14586504 -0.05056125 -0.103902236
000130 c6 88 4c 3c d2 ce 8a bd 2d 95 1a be a2 50 06 3e
       0.012483781 -0.06777729 -0.15095969 0.13116696
000140 95 04 8f bd 3f 80 18 3d 06 f8 3d be 8d 5c 25 3e
       -0.06983296 0.03723168 -0.18551645 0.16148587
000150 46 6e 00 3c 13 47 35 bd 5b 69 6e 3e 6d 4f 5c 3e
       0.007838791 -0.044257235 0.23282377 0.21514674
000160 02 7c 74 3e 84 f2 17 3e f4 64 5f 3e 49 58 4a be
       0.2387543 0.14838606 0.21815854 -0.1976024
000170 4c e0 a7 bc 31 f2 ee 3b 36 96 87 bd 89 3b b3 3d
       -0.020492695 0.007292055 -0.06620447 0.0875159
000180 29 0a 82 be 20 de 30 3e 73 20 6b 3e 7f 13 00 be
       -0.25398377 0.17272234 0.22961597 -0.12507437
000190 72 f6 1f 3e c8 40 4a 3e 6b 54 90 be 57 c5 0f be
       0.15621355 0.19751275 -0.28189406 -0.14040123
0001a0 38 52 32 be 29 51 4c be 7d e4 fb 38 12 b0 97 3e
       -0.17414176 -0.19952835 0.00012011172 0.29626518
0001b0 17 14 90 bd 0a e2 3f 3e 9d b4 85 bc 87 5e a2 bd
       -0.07035082 0.18738571 -0.016321475 -0.07928186
0001c0 72 fd cb bd 50 f0 f9 b9 88 d7 10 3e 8e c6 1e bd
       -0.0996045 -0.00047672028 0.14144719 -0.038763575
0001d0 53 a2 c7 3d 59 58 43 3e 62 81 51 bc 23 da 5c 3d
       0.09747758 0.1907667 -0.012787195 0.05391897
0001e0 56 2f b5 bd bd 04 bb bd ae 56 c8 bd bb 72 11 3e
       -0.08846919 -0.09131763 -0.09782158 0.14203922
0001f0 2c 85 44 be 55 c8 5b 3d 6f 62 28 bd 89 4a 64 be
       -0.19191426 0.05365785 -0.0411095 -0.22294058
000200 f1 1a 89 be 62 f3 80 3e 10 e6 99 3c 16 97 01 be
       -0.26778367 0.25185686 0.01878646 -0.12655291
000210 05 1a 0e 3e 4f ab 8f 3e 86 3e 0f bd b9 71 7a be
       0.13877113 0.28060386 -0.034971736 -0.24457444
000220 ab 85 6d 3d 50 49 91 be 39 d0 b6 bd 1f 45 93 3e
       0.057988804 -0.28376245 -0.08926434 0.28763673
000230 31 99 41 3d 93 04 29 3d 38 ff 4a 3b bb 83 1d bd
       0.047265235 0.041264128 0.0030974876 -0.038455706
000240 45 1d 78 3e d8 a3 52 be ed 74 13 be a8 08 ec bb
       0.24229915 -0.20570314 -0.14400072 -0.0072031803
000250 15 85 31 bd 2e a4 a3 bd 06 2a 48 3e 3d 01 50 3d
       -0.043339808 -0.07990299 0.1954728 0.05078243
000260 d3 ec 7c bd ec 68 11 3d 84 51 d5 bc ce 62 21 be
       -0.06174929 0.035500452 -0.026039846 -0.15760347
000270 9b 55 2c 3e 14 d5 30 be ba 79 f2 bd 03 e0 5f bd
       0.16829531 -0.17268783 -0.11839624 -0.054656994
000280 92 7c 2d bb c5 c3 75 be ed c7 35 be 9b 35 b7 3c
       -0.0026471955 -0.24000461 -0.17752047 0.022364428
000290 f0 d9 ac bd 8d be 81 bc 06 83 80 3e 32 92 36 3e
       -0.08440006 -0.015837932 0.25099963 0.17829207
0002a0 53 7b ea 3d 39 e4 ad 3d 04 09 70 3e 11 31 63 be
       0.114493035 0.08490796 0.23440939 -0.22186686
0002b0 a3 e3 77 3e 2b ca 4c be 7f c8 7e be d2 a1 2c 3e
       0.2420793 -0.19998996 -0.2488117 0.16858605
0002c0 65 5c 41 be 50 8d 19 3e 7b c1 8b 3e 71 a9 f0 bc
       -0.18882902 0.14995313 0.2729605 -0.029377671
0002d0 0b f4 92 3e 9c 0d 46 3d 6c 4e 4b be 04 75 10 be
       0.28701815 0.048352823 -0.19854134 -0.14107138
0002e0 fc 61 18 be ec 29 45 be 24 a9 fd bd d8 6e 8f 3e
       -0.14881128 -0.19254273 -0.12385777 0.28014255
0002f0 b6 26 55 be b5 4b 3d 3e d2 43 4c 3e 8d b4 91 bc
       -0.20815548 0.18485911 0.19947746 -0.017786289
000300 a4 24 7f 3c a9 38 57 3d 9e cf 41 3e 2e 46 38 be
       0.015572701 0.05254427 0.18926856 -0.17995521
000310 72 7b 59 3c 1d 72 91 3e e2 4c 42 3d 96 b5 57 be
       0.013274061 0.28407374 0.047436602 -0.21065363
000320 f2 ae 20 3d 80 1d 4b bd da 27 01 bd fe 24 97 3e
       0.03922934 -0.04958868 -0.031532146 0.2952041
000330 b9 f0 c7 bc 84 01 2c bb 1f 0b 6a 3e bb bc 8d bd
       -0.024406778 -0.002624602 0.22855805 -0.06920763
000340 ad 7c 0c be 96 0c 46 3d 97 e0 95 3e cb 56 cc bc
       -0.13719435 0.048351847 0.2927291 -0.02494373
000350 ff d3 b9 3d 7b 5c f4 3d ef 50 cb bd b0 e6 61 be
       0.09073638 0.11931702 -0.09927546 -0.22060657
000360 1e 35 7e bd dc 32 80 be 48 88 f0 bd 51 3b be 3d
       -0.062062375 -0.25038803 -0.117447436 0.092886575
000370 3e c0 2c be 77 b9 79 3e e6 2d 2d 3e e7 24 c4 bc
       -0.1687021 0.24387155 0.1691204 -0.023943378
000380 0a bd 68 3a 42 e2 be bd 4d 61 68 bd 6e a1 5b 3e
       0.00088782667 -0.09320499 -0.05673342 0.214483
000390 82 2f 31 be ee 97 25 be db 39 a7 bc 47 e6 6f 3e
       -0.17303279 -0.16171238 -0.02041333 0.23427688
0003a0 33 9b 78 3e 13 69 53 3e 1a 5d 5a 3e b9 36 54 bc
       0.24277954 0.20645551 0.21324578 -0.0129525
0003b0 6e 7b 93 3e 78 ae 77 3c b1 2a 74 bd 57 f1 27 3e
       0.28805107 0.01511728 -0.059611026 0.16400658
0003c0 1e 29 08 be 25 5c 1e 3e a8 3f 24 3e ec c4 6f be
       -0.13296935 0.15464838 0.16039908 -0.23414963
0003d0 63 0b 73 3d 9a 20 b2 3b 7b 86 56 be 92 04 a7 3c
       0.05933703 0.0054360153 -0.20949738 0.020387921
0003e0 7c 26 22 3d d2 1b f0 bd 62 d3 29 bd 25 8c a0 3d
       0.039587483 -0.11724056 -0.041461356 0.078392304
0003f0 ba 59 d5 3c c9 e8 14 3d 35 78 92 3c 73 7f c7 bd
       0.026043762 0.036354814 0.017879585 -0.09741106

act_fun.1.scale_sp f4 [32, 16]
000000 7b 06 9c 3e 5e 46 92 3e 4d 4e 9c 3e 6f a2 96 3e
       0.30473694 0.2856931 0.3052849 0.29420802
000010 33 a9 9b 3e 38 c1 95 3e 73 75 9a 3e f5 72 8d 3e
       0.30402526 0.29248977 0.30167732 0.27626768
000020 0b e7 9b 3e 59 84 9b 3e b4 ff 99 3e fb 24 9d 3e
       0.3044971 0.3037441 0.30077899 0.30692276
000030 23 95 9a 3e b2 26 5b 3e be 84 8e 3e 90 57 9b 3e
       0.30191907 0.2140148 0.2783565 0.30340242
000040 9b 2c 85 3e 41 a6 9b 3e 29 cb 9c 3e e5 a8 86 3e
       0.26010594 0.3040028 0.3062375 0.2630073
000050 43 b2 9c 3e 4d aa 95 3e 8d e1 99 3e 43 fa 85 3e
       0.30604753 0.29231492 0.30054894 0.26167497
000060 bd ef 91 3e 81 cb 9b 3e 76 e7 98 3e 1e 19 98 3e
       0.28503218 0.304287 0.2986409 0.29706663
000070 fc 6a 8e 3e 12 4e 76 3e 11 54 95 3e ef a4 92 3e
       0.27815998 0.24053219 0.291657 0.2864146
000080 46 f6 95 3e 08 a7 98 3e f4 31 9c 3e e1 76 9a 3e
       0.29289454 0.29814935 0.3050686 0.30168822
000090 e2 df 8c 3e 28 ca 9b 3e 68 f2 93 3e 5a c4 9d 3e
       0.2751456 0.3042767 0.2889588 0.30813867
0000a0 63 be 9b 3e 61 d7 8c 3e 5a 4b 92 3e 3f 83 98 3e
       0.3041869 0.2750807 0.28573114 0.29787633
0000b0 f6 2c 99 3e a9 bb 20 3e 73 a8 99 3e eb e2 9c 3e
       0.29917115 0.15696587 0.3001133 0.30641875
0000c0 44 1a 89 3e 7d 75 9a 3e 62 84 9b 3e 22 f4 79 3e
       0.26777852 0.3016776 0.30374438 0.24409536
0000d0 58 48 9b 3e 76 3a 9d 3e dd c6 9a 3e c9 eb 7c 3e
       0.3032863 0.30708665 0.30229846 0.2469932
0000e0 2b 85 99 3e 04 70 85 3e d2 8c 8d 3e 19 d5 9a 3e
       0.29984412 0.26062024 0.276465 0.30240706
0000f0 e8 3c 9b 3e 23 9d 08 3e 46 b5 94 3e 94 50 9c 3e
       0.30319905 0.13341193 0.2904455 0.30530226
000100 59 91 98 3e 16 a7 9a 3e ec 05 8b 3e 3e bd 70 3e
       0.2979839 0.302056 0.27152956 0.2350969
000110 c6 71 95 3e 13 fb 9c 3e 50 29 9b 3e b7 c9 82 3e
       0.29188365 0.30660304 0.30304956 0.2554452
000120 8f fd 9c 3e 60 4f 9d 3e 55 e3 7c 3e 21 ad 90 3e
       0.306622 0.3072462 0.24696095 0.28257087
000130 17 64 8b 3e 55 50 73 3e 7d 6d 89 3e 03 61 94 3e
       0.272248 0.23761113 0.26841345 0.28980264
000140 8a 27 6f 3e 9f 08 9b 3e c3 5d 89 3e 8b 08 8e 3e
       0.23354927 0.30280015 0.26829347 0.27740893
000150 70 83 9a 3e 16 b5 8e 3e 88 17 98 3e 8f 2f 9d 3e
       0.30178404 0.27872533 0.29705453 0.30700347
000160 b9 1b 9a 3e e9 bc 88 3e 3b 6c 97 3e 27 0b 9a 3e
       0.30099276 0.26706627 0.2957476 0.30086634
000170 f5 65 86 3e 03 a4 61 3e 5b 42 9a 3e ad 27 8c 3e
       0.26249662 0.22035222 0.3012875 0.2737402
000180 31 29 62 3e 2b d6 55 3e b3 46 84 3e f0 92 96 3e
       0.22086026 0.2088248 0.2583519 0.2940898
000190 c9 36 9c 3e 95 ca 9a 3e f9 8f 9a 3e 35 67 94 3e
       0.30510548 0.30232683 0.30187967 0.2898499
0001a0 5f 44 8c 3e b3 e6 61 3e 2a c6 99 3e 98 5b 96 3e
       0.27395913 0.22060661 0.30034 0.29366755
0001b0 a5 d7 92 3e 43 a0 55 3e e8 7a 9a 3e 91 19 9a 3e
       0.2868015 0.20861916 0.30171895 0.3009763
0001c0 f1 3e 97 3e 56 5c 99 3e e7 3c 97 3e f3 5d 6c 3e
       0.29540208 0.2995326 0.29538652 0.23082714
0001d0 12 92 99 3e 96 d8 7c 3e 9d b5 9a 3e 55 35 9c 3e
       0.29994255 0.24691996 0.30216685 0.3050944
0001e0 88 74 8e 3e 3c e6 84 3e 84 1f 87 3e b8 ab 7d 3e
       0.2782328 0.25956905 0.26391232 0.24772537
0001f0 8f 60 88 3e 03 77 59 3e eb cd 9a 3e 00 a7 9b 3e
       0.26636168 0.21236806 0.30235228 0.30400848
000200 be 89 9b 3e 36 34 9d 3e 9d 80 91 3e 9f f4 76 3e
       0.30378526 0.30703896 0.28418437 0.24116753
000210 46 fd 9b 3e 18 d7 8f 3e 18 67 9b 3e d7 c9 9d 3e
       0.3046667 0.2809379 0.30352092 0.30818054
000220 b8 e8 8a 3e d8 26 78 3e e9 36 9b 3e d1 4f 9e 3e
       0.27130675 0.24233568 0.3031533 0.3092027
000230 86 54 99 3e 17 55 47 3e 53 6c 77 3e 49 35 87 3e
       0.299473 0.19466053 0.24162416 0.2640784
000240 1b 29 98 3e 74 4a 8b 3e 94 25 9d 3e 83 e4 9b 3e
       0.2971886 0.2720524 0.30692732 0.30447778
000250 e2 d8 8b 3e 3d 6e 9d 3e 14 6e 9c 3e eb 87 92 3e
       0.27313906 0.30748168 0.30552733 0.28619322
000260 ff 86 87 3e b8 84 5c 3e 3f 4a 83 3e 8f c6 8a 3e
       0.2647018 0.21535003 0.25642583 0.27104613
000270 b1 f8 9a 3e 5f 5c 16 3e a7 7c 9a 3e 98 20 9e 3e
       0.3026786 0.14683674 0.30173227 0.30884242
000280 c0 a2 89 3e c1 4c 62 3e ae 71 5e 3e 4b f2 90 3e
       0.2688198 0.22099592 0.21723053 0.28309855
000290 49 24 9c 3e 3c a2 9d 3e ba d7 8e 3e b7 47 9d 3e
       0.30496433 0.30787838 0.2789896 0.30718777
0002a0 e4 fe 82 3e ba 6c 9c 3e 33 24 86 3e 68 7c 9c 3e
       0.2558509 0.30551702 0.26199493 0.30563664
0002b0 16 f3 92 3e 08 3a 88 3e aa 11 9a 3e 9c 9f 8c 3e
       0.28701085 0.26606774 0.30091602 0.27465522
0002c0 31 36 9c 3e 5e ce 9b 3e c0 68 9a 3e 0c 13 9a 3e
       0.30510095 0.30430883 0.30158043 0.30092657
0002d0 8b 79 99 3e 26 eb 82 3e 6a 86 9a 3e 48 a1 9d 3e
       0.29975542 0.2557003 0.30180675 0.3078711
0002e0 e9 d9 8c 3e bb e9 8e 3e cf ca 98 3e 28 69 88 3e
       0.27510002 0.27912697 0.2984223 0.26642728
0002f0 fd 65 97 3e f8 e8 80 3e b5 8b 95 3e d3 12 99 3e
       0.29569998 0.2517774 0.2920815 0.29897174
000300 20 c8 91 3e 33 3e 97 3e 22 9e 89 3e 30 c9 9c 3e
       0.28472996 0.29539642 0.26878458 0.30622244
000310 5c 8a 9c 3e 11 49 9e 3e 36 2e 95 3e 30 15 90 3e
       0.3057431 0.3091512 0.2913682 0.28141165
000320 3c 73 8c 3e 7f 1c 93 3e 08 08 91 3e ea fe 98 3e
       0.27431667 0.28732678 0.2832644 0.29881984
000330 bb 7e 99 3e cb 0e 48 3e e3 da 9c 3e 65 ee 87 3e
       0.299795 0.19536893 0.30635747 0.26549068
000340 c9 04 9b 3e 7d 09 9e 3e e3 4a 96 3e a4 3d 91 3e
       0.30277088 0.30866614 0.2935401 0.2836734
000350 bc 86 9e 3e 4d da 84 3e 90 b1 7e 3e 73 7a 8d 3e
       0.3096217 0.259478 0.24872422 0.27632484
000360 49 d7 99 3e cc 35 5e 3e 48 fa 87 3e 46 df 8f 3e
       0.30047062 0.2170021 0.26558137 0.28100032
000370 41 8d 98 3e 4b d9 96 3e fd 0f 7a 3e 8b 0f 98 3e
       0.29795268 0.29462656 0.24420162 0.29699358
000380 77 66 7c 3e 72 fd 67 3e 86 87 91 3e d1 03 9d 3e
       0.24648462 0.22655275 0.2842371 0.30666974
000390 38 0e 9e 3e 50 5b 9d 3e d7 b1 9c 3e e3 12 9f 3e
       0.30870223 0.30733728 0.3060443 0.31069097
0003a0 74 ac 85 3e 25 1d 95 3e 12 a1 9b 3e a8 e2 98 3e
       0.26108134 0.29123798 0.30396324 0.29860425
0003b0 6f 22 9b 3e 50 b5 94 3e 5f 21 7d 3e 87 0a 9d 3e
       0.30299708 0.2904458 0.24719761 0.30672094
0003c0 f5 bd 92 3e d1 24 99 3e 59 24 9c 3e 08 06 89 3e
       0.2866055 0.299109 0.3049648 0.26762414
0003d0 82 5d 7c 3e 45 6d 9c 3e cd 01 99 3e 02 77 9b 3e
       0.24645045 0.30552116 0.29884186 0.30364233
0003e0 92 bb 9a 3e c4 42 99 3e 53 c4 63 3e cb bd 99 3e
       0.3022123 0.2993375 0.2224286 0.30027613
0003f0 41 50 96 3e e6 52 8e 3e 25 fa 9a 3e f2 a2 9a 3e
       0.29358104 0.2779762 0.3026897 0.30202442
