models_cerebelo/kan_model_deep_nuclei_lif.pt (torch, 54526 bytes, 29 tensors)

node_bias_0 f4 [32]
00000000: 0000 0000 0000 0000 0000 0000 0000 0000
00000010: 0000 0000 0000 0000 0000 0000 0000 0000
00000020: 0000 0000 0000 0000 0000 0000 0000 0000
00000030: 0000 0000 0000 0000 0000 0000 0000 0000
00000040: 0000 0000 0000 0000 0000 0000 0000 0000
00000050: 0000 0000 0000 0000 0000 0000 0000 0000
00000060: 0000 0000 0000 0000 0000 0000 0000 0000
00000070: 0000 0000 0000 0000 0000 0000 0000 0000
0.0 0.0 0.0 0.0 0.0 0.0 0.0 0.0
0.0 0.0 0.0 0.0 0.0 0.0 0.0 0.0
0.0 0.0 0.0 0.0 0.0 0.0 0.0 0.0
0.0 0.0 0.0 0.0 0.0 0.0 0.0 0.0

node_scale_0 f4 [32]
00000000: 0000 803f 0000 803f 0000 803f 0000 803f
00000010: 0000 803f 0000 803f 0000 803f 0000 803f
00000020: 0000 803f 0000 803f 0000 803f 0000 803f
00000030: 0000 803f 0000 803f 0000 803f 0000 803f
00000040: 0000 803f 0000 803f 0000 803f 0000 803f
00000050: 0000 803f 0000 803f 0000 803f 0000 803f
00000060: 0000 803f 0000 803f 0000 803f 0000 803f
00000070: 0000 803f 0000 803f 0000 803f 0000 803f
1.0 1.0 1.0 1.0 1.0 1.0 1.0 1.0
1.0 1.0 1.0 1.0 1.0 1.0 1.0 1.0
1.0 1.0 1.0 1.0 1.0 1.0 1.0 1.0
1.0 1.0 1.0 1.0 1.0 1.0 1.0 1.0

subnode_bias_0 f4 [32]
00000000: 0000 0000 0000 0000 0000 0000 0000 0000
00000010: 0000 0000 0000 0000 0000 0000 0000 0000
00000020: 0000 0000 0000 0000 0000 0000 0000 0000
00000030: 0000 0000 0000 0000 0000 0000 0000 0000
00000040: 0000 0000 0000 0000 0000 0000 0000 0000
00000050: 0000 0000 0000 0000 0000 0000 0000 0000
00000060: 0000 0000 0000 0000 0000 0000 0000 0000
00000070: 0000 0000 0000 0000 0000 0000 0000 0000
0.0 0.0 0.0 0.0 0.0 0.0 0.0 0.0
0.0 0.0 0.0 0.0 0.0 0.0 0.0 0.0
0.0 0.0 0.0 0.0 0.0 0.0 0.0 0.0
0.0 0.0 0.0 0.0 0.0 0.0 0.0 0.0

subnode_scale_0 f4 [32]
00000000: 0000 803f 0000 803f 0000 803f 0000 803f
00000010: 0000 803f 0000 803f 0000 803f 0000 803f
00000020: 0000 803f 0000 803f 0000 803f 0000 803f
00000030: 0000 803f 0000 803f 0000 803f 0000 803f
00000040: 0000 803f 0000 803f 0000 803f 0000 803f
00000050: 0000 803f 0000 803f 0000 803f 0000 803f
00000060: 0000 803f 0000 803f 0000 803f 0000 803f
00000070: 0000 803f 0000 803f 0000 803f 0000 803f
1.0 1.0 1.0 1.0 1.0 1.0 1.0 1.0
1.0 1.0 1.0 1.0 1.0 1.0 1.0 1.0
1.0 1.0 1.0 1.0 1.0 1.0 1.0 1.0
1.0 1.0 1.0 1.0 1.0 1.0 1.0 1.0

node_bias_1 f4 [16]
00000000: 0000 0000 0000 0000 0000 0000 0000 0000
00000010: 0000 0000 0000 0000 0000 0000 0000 0000
00000020: 0000 0000 0000 0000 0000 0000 0000 0000
00000030: 0000 0000 0000 0000 0000 0000 0000 0000
0.0 0.0 0.0 0.0 0.0 0.0 0.0 0.0
0.0 0.0 0.0 0.0 0.0 0.0 0.0 0.0

node_scale_1 f4 [16]
00000000: 0000 803f 0000 803f 0000 803f 0000 803f
00000010: 0000 803f 0000 803f 0000 803f 0000 803f
00000020: 0000 803f 0000 803f 0000 803f 0000 803f
00000030: 0000 803f 0000 803f 0000 803f 0000 803f
1.0 1.0 1.0 1.0 1.0 1.0 1.0 1.0
1.0 1.0 1.0 1.0 1.0 1.0 1.0 1.0

subnode_bias_1 f4 [16]
00000000: 0000 0000 0000 0000 0000 0000 0000 0000
00000010: 0000 0000 0000 0000 0000 0000 0000 0000
00000020: 0000 0000 0000 0000 0000 0000 0000 0000
00000030: 0000 0000 0000 0000 0000 0000 0000 0000
0.0 0.0 0.0 0.0 0.0 0.0 0.0 0.0
0.0 0.0 0.0 0.0 0.0 0.0 0.0 0.0

subnode_scale_1 f4 [16]
00000000: 0000 803f 0000 803f 0000 803f 0000 803f
00000010: 0000 803f 0000 803f 0000 803f 0000 803f
00000020: 0000 803f 0000 803f 0000 803f 0000 803f
00000030: 0000 803f 0000 803f 0000 803f 0000 803f
1.0 1.0 1.0 1.0 1.0 1.0 1.0 1.0
1.0 1.0 1.0 1.0 1.0 1.0 1.0 1.0

act_fun.0.grid f4 [3, 12]
00000000: cdcc 0cc0 6666 e6bf 3333 b3bf 0000 80bf
00000010: 9a99 19bf cccc 4cbe cccc 4c3e 9a99 193f
00000020: 0000 803f 3333 b33f 6666 e63f cdcc 0c40
00000030: cdcc 0cc0 6666 e6bf 3333 b3bf 0000 80bf
00000040: 9a99 19bf cccc 4cbe cccc 4c3e 9a99 193f
00000050: 0000 803f 3333 b33f 6666 e63f cdcc 0c40
00000060: cdcc 0cc0 6666 e6bf 3333 b3bf 0000 80bf
00000070: 9a99 19bf cccc 4cbe cccc 4c3e 9a99 193f
00000080: 0000 803f 3333 b33f 6666 e63f cdcc 0c40
-2.2 -1.8 -1.4 -1.0 -0.6 -0.19999999 0.19999999 0.6
1.0 1.4 1.8 2.2 -2.2 -1.8 -1.4 -1.0
-0.6 -0.19999999 0.19999999 0.6 1.0 1.4 1.8 2.2
-2.2 -1.8 -1.4 -1.0 -0.6 -0.19999999 0.19999999 0.6
1.0 1.4 1.8 2.2

act_fun.0.coef f4 [3, 32, 8]
00000000: 6a24 f3bd 7e7d c6bd dd87 acbd 7881 0d3e
00000010: 535b 253e 2031 d43d e8b3 103e 659a fd3d
00000020: 8d4b a2bd b4a3 50bd 9677 05be 81e2 143e
00000030: f0cc 4a3d 2615 0d3e cb59 393d 2161 573d
00000040: 32f5 fdbd cb13 04be f710 02be bb68 013e
00000050: cab9 043e 78a6 b23d d2bf cf3d b475 e93d
00000060: 50eb 113e eb07 333e cafd 763d 8a78 f5bd
00000070: b033 0fbe 9f62 09be 005e d9bd d352 e2bd
00000080: 4e9a d0bd d6c2 d6bd 211f c4bd 6942 093e
00000090: 61b5 4f3d 39b8 1d3e 1763 813d a234 a13d
000000a0: b0bc 003e f572 053e 0875 043e 041b f9bd
000000b0: e0fb 31be b4a0 e5bd 29aa 16be cff6 fabd
000000c0: 163c 03be ed48 11be 45c6 f1bd a338 093e
000000d0: 03e4 123e 209d c83d 0eaf 113e ed48 fc3d
000000e0: dbbc 90bd 58de 43bd c55e ecbd 9d33 f93d
000000f0: fcbc 563d 46ca 793d 3964 2a3d 618a cb3c
00000100: 92c7 e3bd 94ab a8bd bc3b e6bd a566 ba3d
00000110: 3da8 bf3d 7aa7 183e a686 1a3e f2f4 fb3d
00000120: 3832 883d 4229 363d 9a24 833c cf58 d6bd
00000130: 3822 b8bd 0db5 82bd ee03 cebc 4749 23bd
00000140: 1c69 133e dd16 323e 4335 4e3d 8dc1 88bd
00000150: cf5e 25be 6b56 ccbd 6e59 debd d0e1 e8bd
00000160: 0bd8 eabd bef8 d7bd 720a 1bbe a957 213e
00000170: f05a db3d 62da bd3d 63cb 0b3e 54b3 f83d
00000180: b77a 0b3e 7ac5 263e 6bfc 853d 2079 e0bd
00000190: fe82 d5bd 6505 1dbe 3781 abbd e14c b9bd
000001a0: 99ed d6bd 6db8 c6bd 9310 04be bfe5 bf3d
000001b0: 167a d43d f156 eb3d a7db d93d 0bab dd3d
000001c0: b2a4 003e 8d85 0b3e e3a2 353e 070c 2bbe
000001d0: 3c97 09be 3452 d2bd a619 fdbd cac9 f0bd
000001e0: dc12 e9bd 7fc0 f3bd 82ec acbd 36e5 9fbc
000001f0: 467d d13d 6de4 b13d 016c e03d 3f4f d43d
00000200: 8b46 043e 20ef 1a3e 2ad6 fd3d 6c57 06be
00000210: e679 1bbe 29f6 05be 1a19 c9bd 052b ddbd
00000220: 2f32 f43d f429 023e 9287 5e3d ef4c b2bd
00000230: f060 9cbd 247e b2bd 3c6d 83bd fe89 b0bd
00000240: 7946 ff3d 7531 e43d d671 a43d df3b a8bd
00000250: 6ed2 20be ade7 d1bd b574 01be 898d e8bd
00000260: 7d99 0b3e 4e68 143e 2cd8 c83d 3b45 dabd
00000270: 1573 00be ff16 f6bd d6f1 0fbe d9eb fcbd
00000280: 8524 ef3d da43 ce3d 9cc0 153e e5ea 33be
00000290: fd93 01be 1dda 02be a7ea fcbd 3383 d0bd
000002a0: 1081 f43d 6b16 f23d 53b0 903d dec2 18be
000002b0: 0b5c cfbd ce7d 20be 00e8 e4bd 11ea b7bd
000002c0: b9bf fcbd d27a 07be 1a9e cbbd dac5 dc3d
000002d0: 7082 3f3e a3f9 653d 727d 0a3e c0fa fe3d
000002e0: 1f6b 103e 0a1a 283e 4e66 953d 9500 a4bd
000002f0: e98d e0bd 18a7 21be 7506 9ebd cc20 cbbd
00000300: 2214 aebd 029c debd 7971 1fbd 94cf f93d
00000310: fb97 6f3d 8fd7 813d ee72 f03d ac03 c23d
00000320: 2d99 d1bd 3027 eabd 82d1 cdbd 2cbc b83d
00000330: 3ea3 fe3d 060d e03d eb84 fc3d 2253 de3d
00000340: d4de d03d 5a5e bc3d f315 943d c25a e3bd
00000350: f037 8bbd 1f1c fabd 9c74 d1bd c69e f43c
00000360: 038b ea3d 50ac c73d 9c3d bf3d 2f82 08be
00000370: 236c babd 32d2 f7bd a7ce dcbd 79e4 3cbd
00000380: 699b 043e 4f0f 0a3e 07af c43d 5877 25be
00000390: d106 cbbd 17be a9bd 5750 0fbe 37d3 03be
000003a0: 3463 cb3d 9bab 8e3d d66d 9c3d 288b aabd
000003b0: 8d59 98bd ffad babd 1c18 d3bd d074 bcbd
000003c0: 1944 0e3e b040 2c3e b617 c93d 7d17 11be
000003d0: 2ab0 0cbe f07e adbd c146 ffbd 1a6d f8bd
000003e0: a6bb eb3d cb5f b93d 19fa b63d b9ca 07be
000003f0: 8374 d9bd fdf7 08be e231 17be 0442 f0bd
-0.1187218 -0.096919045 -0.08424351 0.1381892 0.16148119 0.10360932 0.14131129 0.12382964
-0.079245664 -0.05093737 -0.130339 0.1453953 0.04951185 0.13777599 0.04525165 0.052582864
-0.12400283 -0.12898175 -0.12701784 0.12637608 0.12961498 0.08723158 0.10144009 0.11399403
0.14249921 0.17483489 0.060300626 -0.119858816 -0.13984561 -0.13416527 -0.10613632 -0.11050954
-0.10185681 -0.10486381 -0.0957625 0.1340424 0.050710086 0.15402307 0.06317728 0.07871367
0.12571979 0.13032134 0.12935269 -0.12163356 -0.17381239 -0.11212292 -0.14713348 -0.12254106
-0.1281589 -0.14187975 -0.11805395 0.13400511 0.14344792 0.09795594 0.14226934 0.12318597
-0.07067271 -0.047819465 -0.11541513 0.121680476 0.052426323 0.06098392 0.041599486 0.024846258
-0.111220494 -0.08235851 -0.11241862 0.09101609 0.09358261 0.14907637 0.15090427 0.12302579
0.066502035 0.04447294 0.016008664 -0.10466158 -0.08990902 -0.06382189 -0.025148358 -0.039864805
0.14395565 0.17391534 0.050343763 -0.06677542 -0.16149448 -0.099774204 -0.10856901 -0.11371195
-0.11466988 -0.10545491 -0.15140703 0.15756096 0.10710704 0.09270169 0.13651805 0.12143579
0.13621031 0.16286269 0.065422855 -0.10960603 -0.104253754 -0.15334089 -0.08374255 -0.090478666
-0.10494537 -0.09703145 -0.12896948 0.093699925 0.103748485 0.11491192 0.106375985 0.108236395
0.12562826 0.13625164 0.17737918 -0.16703807 -0.13436598 -0.10269585 -0.12358408 -0.11757238
-0.1138055 -0.1190195 -0.08443548 -0.019518476 0.10228972 0.08686147 0.109581 0.103666775
0.12917535 0.15130281 0.12394364 -0.13119286 -0.1518322 -0.13082184 -0.09819241 -0.10799221
0.11923634 0.12711316 0.05432851 -0.0870608 -0.07635677 -0.08715466 -0.06417319 -0.0862007
0.124646135 0.11142246 0.08029525 -0.082145445 -0.15705273 -0.10249267 -0.12642176 -0.11355121
0.1363277 0.14492914 0.098068565 -0.10657736 -0.125439 -0.12016105 -0.14057097 -0.12349672
0.116768874 0.100715354 0.14624256 -0.17570074 -0.1265411 -0.12778516 -0.12349444 -0.10181274
0.11938679 0.11820682 0.07064881 -0.14918086 -0.10124978 -0.1567299 -0.11177063 -0.089801915
-0.12341256 -0.13230446 -0.09942265 0.10779925 0.18702102 0.056146275 0.13524416 0.124501705
0.14103363 0.16416183 0.07294904 -0.080079235 -0.10964567 -0.15786397 -0.07716075 -0.09918365
-0.08499934 -0.108696 -0.038926575 0.121977955 0.05849455 0.06339943 0.11740671 0.094733566
-0.10234294 -0.11433256 -0.10049726 0.09020266 0.1243348 0.10939984 0.123300396 0.108557
0.10198751 0.09197684 0.07230749 -0.11101295 -0.067977786 -0.12212395 -0.102273196 0.029860865
0.11452296 0.09749663 0.09337923 -0.13330911 -0.09102657 -0.121006384 -0.10781603 -0.046116326
0.1294991 0.13482402 0.09603696 -0.16158807 -0.099134095 -0.0828821 -0.13995491 -0.12873541
0.09931031 0.06966325 0.07638137 -0.08327323 -0.074389555 -0.09115218 -0.10307333 -0.09201968
0.13893165 0.16821551 0.098189756 -0.14169116 -0.13739076 -0.08471477 -0.12464667 -0.121301845
0.115104005 0.09051474 0.08934421 -0.13260926 -0.10617926 -0.1337585 -0.14765123 -0.117313415

act_fun.0.mask f4 [3, 32]
00000000: 0000 803f 0000 803f 0000 803f 0000 803f
00000010: 0000 803f 0000 803f 0000 803f 0000 803f
00000020: 0000 803f 0000 803f 0000 803f 0000 803f
00000030: 0000 803f 0000 803f 0000 803f 0000 803f
00000040: 0000 803f 0000 803f 0000 803f 0000 803f
00000050: 0000 803f 0000 803f 0000 803f 0000 803f
00000060: 0000 803f 0000 803f 0000 803f 0000 803f
00000070: 0000 803f 0000 803f 0000 803f 0000 803f
00000080: 0000 803f 0000 803f 0000 803f 0000 803f
00000090: 0000 803f 0000 803f 0000 803f 0000 803f
000000a0: 0000 803f 0000 803f 0000 803f 0000 803f
000000b0: 0000 803f 0000 803f 0000 803f 0000 803f
000000c0: 0000 803f 0000 803f 0000 803f 0000 803f
000000d0: 0000 803f 0000 803f 0000 803f 0000 803f
000000e0: 0000 803f 0000 803f 0000 803f 0000 803f
000000f0: 0000 803f 0000 803f 0000 803f 0000 803f
00000100: 0000 803f 0000 803f 0000 803f 0000 803f
00000110: 0000 803f 0000 803f 0000 803f 0000 803f
00000120: 0000 803f 0000 803f 0000 803f 0000 803f
00000130: 0000 803f 0000 803f 0000 803f 0000 803f
00000140: 0000 803f 0000 803f 0000 803f 0000 803f
00000150: 0000 803f 0000 803f 0000 803f 0000 803f
00000160: 0000 803f 0000 803f 0000 803f 0000 803f
00000170: 0000 803f 0000 803f 0000 803f 0000 803f
1.0 1.0 1.0 1.0 1.0 1.0 1.0 1.0
1.0 1.0 1.0 1.0 1.0 1.0 1.0 1.0
1.0 1.0 1.0 1.0 1.0 1.0 1.0 1.0
1.0 1.0 1.0 1.0 1.0 1.0 1.0 1.0
1.0 1.0 1.0 1.0 1.0 1.0 1.0 1.0
1.0 1.0 1.0 1.0 1.0 1.0 1.0 1.0
1.0 1.0 1.0 1.0 1.0 1.0 1.0 1.0
1.0 1.0 1.0 1.0 1.0 1.0 1.0 1.0
1.0 1.0 1.0 1.0 1.0 1.0 1.0 1.0
1.0 1.0 1.0 1.0 1.0 1.0 1.0 1.0
1.0 1.0 1.0 1.0 1.0 1.0 1.0 1.0
1.0 1.0 1.0 1.0 1.0 1.0 1.0 1.0

act_fun.0.scale_base f4 [3, 32]
00000000: a6d3 55bd 60d8 c03e 0a01 2dbe 8d53 c7be
00000010: b246 e63e 7b8f 1ebf 2a2d 3e3e e87b 0d3f
00000020: 5f03 5c3e 6fe2 da3d 92cd e7be a9c6 da3d
00000030: 3ea7 99bd 35ab 813e 8734 da3d 5fd0 193f
00000040: 5e04 10bf 8d67 a5bd bf6c cebe 5c55 14bf
00000050: 1698 29be f0d3 1cbf f831 043f 2a87 4cbd
00000060: 0530 6dbe cf7e cd3e 2a71 20bf cb12 a6be
00000070: f04e 70be dfec 17bf 7183 f9be 601c 53be
00000080: 079d 0e3f 9ac0 223f 147f f93e 2086 edbe
00000090: 7cf4 8bbe e6e1 c33e 9a8f a53e 68ec a73d
000000a0: f6f4 493e 6893 07bf f5d3 a0be 0d57 2c3f
000000b0: 5575 82be b68e a73d cc3c 19bf 8958 60be
000000c0: b3ee 0cbe f0a1 ecbe cce5 43be 2f8b db3d
000000d0: bc68 2fbf 374f 6b3d 3be9 85be 7029 cebe
000000e0: b7c9 9c3e faa3 0f3f 22d0 84be 65de b0be
000000f0: 44ba 24bf 166d cebe 1e4b 20bf b71f 7fbe
00000100: 9e31 213e 9c03 05bf 959f 1f3f 5879 783e
00000110: 3e34 12bf 39ec 44be 235b 693e a27c 26bd
00000120: 8740 663c d3ad 81be 84a1 ac3e 210e 81be
00000130: cf24 133f ab45 1a3e 29c2 fa3d 61b4 f53e
00000140: 8763 9a3b 1af4 4ebe 8bc2 f23c 84dd da3e
00000150: 9da6 9abe d63d 0f3c 8028 16bf 71be 973e
00000160: fe4d a43e f708 183d fc09 fd3d 3e72 d73d
00000170: d6bc 763e 738e aebe eed0 143d 002d 0a3e
-0.052203797 0.3766508 -0.16894928 -0.38930932 0.4497581 -0.61937684 0.18571916 0.5526719
0.21485661 0.1068772 -0.45274025 0.10682423 -0.07502602 0.25325933 0.1065455 0.60083574
-0.56256664 -0.08076391 -0.40317342 -0.5794275 -0.16561922 -0.6126089 0.51638746 -0.04993359
-0.23162849 0.4013581 -0.62672675 -0.32436213 -0.23467612 -0.5934581 -0.48733094 -0.20616293
0.55708355 0.63575137 0.48729765 -0.46391392 -0.27334964 0.38258284 0.32336122 0.08199388
0.19722351 -0.529593 -0.3141171 0.6732033 -0.25480142 0.08181517 -0.59858394 -0.21908773
-0.13762932 -0.46217299 -0.1913063 0.107199065 -0.68519187 0.057448592 -0.26154503 -0.4026599
0.30622646 0.56109583 -0.25940043 -0.34544674 -0.6434672 -0.403176 -0.6261462 -0.24914442
0.15741584 -0.5195863 0.6235288 0.24265039 -0.57110965 -0.19230737 0.22788672 -0.040646203
0.01405347 -0.2532793 0.33716977 -0.25206092 0.5747804 0.15065639 0.12244064 0.4798918
0.0047115716 -0.20210305 0.029633781 0.42747128 -0.3020524 0.00874277 -0.5865555 0.29637483
0.32090753 0.037117925 0.1235542 0.10519837 0.24095473 -0.34093055 0.036332063 0.13493729

act_fun.0.scale_sp f4 [3, 32]
00000000: 77ea 2d3f 4fb4 283f 5245 363f 83c3 343f
00000010: 3513 313f d59b 353f 640b 353f 02f9 253f
00000020: 0527 2c3f a75c 1e3f 0bc9 2f3f 9a36 353f
00000030: 33e0 2f3f 24c3 2d3f 2d82 353f 12d8 2d3f
00000040: f665 333f 25d9 233f 0875 2a3f 6d8e 333f
00000050: b761 353f 3a01 2e3f c161 343f c184 2f3f
00000060: cb9c 2c3f 3663 2e3f cf04 273f 585a 273f
00000070: d098 2f3f 8325 1e3f 42c3 353f d4df 2b3f
00000080: 1c31 333f a70f 233f f613 253f 07c4 343f
00000090: f4c9 2f3f 059f 353f 9668 343f 25b0 243f
000000a0: 6beb 333f 1446 1c3f a83d 353f a864 2b3f
000000b0: 2219 313f 3bd6 303f e6e1 303f e712 333f
000000c0: 88fe 353f 98cf 283f 0faa 353f 47cf 2f3f
000000d0: 95f4 343f 4a02 2c3f b820 353f 85a4 303f
000000e0: 7710 2b3f 20b2 303f 46bf 2f3f ba56 233f
000000f0: 3e1e 2f3f 160f 2f3f 898e 353f 6027 2b3f
00000100: f487 2b3f 33cb 353f 1bb5 343f 8bdd 333f
00000110: 3e86 263f 1322 333f 2d8c 343f eba6 203f
00000120: 23c3 333f 499c 273f df1f 313f c583 323f
00000130: 218c 343f 6fde 303f 9204 363f d78d 303f
00000140: 48d2 353f dd28 303f 9913 353f 0c71 323f
00000150: 32d2 2f3f 017a 323f 3511 343f fd7d 313f
00000160: 8320 2a3f 9882 283f 773b 333f 5ae7 2a3f
00000170: f74f 323f eb00 283f b67b 353f 0152 343f
0.6793589 0.6590013 0.71199524 0.7061083 0.6916993 0.70940906 0.70720506 0.6483308
0.6724704 0.61860126 0.6866614 0.7078644 0.68701476 0.67875886 0.7090176 0.6790782
0.70077455 0.6400321 0.66584826 0.701392 0.70852226 0.6797062 0.7046166 0.6856194
0.6742675 0.68120134 0.6524171 0.6537223 0.6859255 0.6177599 0.71001065 0.6713841
0.6999681 0.6369576 0.6448358 0.70611614 0.6866753 0.7094577 0.70472085 0.64331275
0.70281094 0.6104443 0.70797205 0.66950464 0.69178975 0.6907689 0.69094694 0.6995072
0.7109151 0.6594176 0.70962614 0.68675655 0.706857 0.6719099 0.7075305 0.69001037
0.66822 0.690218 0.68651235 0.6380421 0.6840552 0.68382394 0.70920616 0.66856956
0.67004323 0.7101318 0.70588845 0.7025992 0.6504859 0.6997387 0.7052639 0.62754697
0.7021963 0.6547285 0.69189256 0.69732314 0.7052632 0.69089407 0.71100724 0.6896643
0.7102399 0.6881235 0.7073303 0.69703746 0.6868011 0.69717413 0.70338756 0.6933287
0.6645586 0.6582427 0.7001261 0.66759264 0.69653267 0.656264 0.7089189 0.7043763

act_fun.1.grid f4 [32, 12]
00000000: cdcc 0cc0 6666 e6bf 3333 b3bf 0000 80bf
00000010: 9a99 19bf cccc 4cbe cccc 4c3e 9a99 193f
00000020: 0000 803f 3333 b33f 6666 e63f cdcc 0c40
00000030: cdcc 0cc0 6666 e6bf 3333 b3bf 0000 80bf
00000040: 9a99 19bf cccc 4cbe cccc 4c3e 9a99 193f
00000050: 0000 803f 3333 b33f 6666 e63f cdcc 0c40
00000060: cdcc 0cc0 6666 e6bf 3333 b3bf 0000 80bf
00000070: 9a99 19bf cccc 4cbe cccc 4c3e 9a99 193f
00000080: 0000 803f 3333 b33f 6666 e63f cdcc 0c40
00000090: cdcc 0cc0 6666 e6bf 3333 b3bf 0000 80bf
000000a0: 9a99 19bf cccc 4cbe cccc 4c3e 9a99 193f
000000b0: 0000 803f 3333 b33f 6666 e63f cdcc 0c40
000000c0: cdcc 0cc0 6666 e6bf 3333 b3bf 0000 80bf
000000d0: 9a99 19bf cccc 4cbe cccc 4c3e 9a99 193f
000000e0: 0000 803f 3333 b33f 6666 e63f cdcc 0c40
000000f0: cdcc 0cc0 6666 e6bf 3333 b3bf 0000 80bf
00000100: 9a99 19bf cccc 4cbe cccc 4c3e 9a99 193f
00000110: 0000 803f 3333 b33f 6666 e63f cdcc 0c40
00000120: cdcc 0cc0 6666 e6bf 3333 b3bf 0000 80bf
00000130: 9a99 19bf cccc 4cbe cccc 4c3e 9a99 193f
00000140: 0000 803f 3333 b33f 6666 e63f cdcc 0c40
00000150: cdcc 0cc0 6666 e6bf 3333 b3bf 0000 80bf
00000160: 9a99 19bf cccc 4cbe cccc 4c3e 9a99 193f
00000170: 0000 803f 3333 b33f 6666 e63f cdcc 0c40
00000180: cdcc 0cc0 6666 e6bf 3333 b3bf 0000 80bf
00000190: 9a99 19bf cccc 4cbe cccc 4c3e 9a99 193f
000001a0: 0000 803f 3333 b33f 6666 e63f cdcc 0c40
000001b0: cdcc 0cc0 6666 e6bf 3333 b3bf 0000 80bf
000001c0: 9a99 19bf cccc 4cbe cccc 4c3e 9a99 193f
000001d0: 0000 803f 3333 b33f 6666 e63f cdcc 0c40
000001e0: cdcc 0cc0 6666 e6bf 3333 b3bf 0000 80bf
000001f0: 9a99 19bf cccc 4cbe cccc 4c3e 9a99 193f
00000200: 0000 803f 3333 b33f 6666 e63f cdcc 0c40
00000210: cdcc 0cc0 6666 e6bf 3333 b3bf 0000 80bf
00000220: 9a99 19bf cccc 4cbe cccc 4c3e 9a99 193f
00000230: 0000 803f 3333 b33f 6666 e63f cdcc 0c40
00000240: cdcc 0cc0 6666 e6bf 3333 b3bf 0000 80bf
00000250: 9a99 19bf cccc 4cbe cccc 4c3e 9a99 193f
00000260: 0000 803f 3333 b33f 6666 e63f cdcc 0c40
00000270: cdcc 0cc0 6666 e6bf 3333 b3bf 0000 80bf
00000280: 9a99 19bf cccc 4cbe cccc 4c3e 9a99 193f
00000290: 0000 803f 3333 b33f 6666 e63f cdcc 0c40
000002a0: cdcc 0cc0 6666 e6bf 3333 b3bf 0000 80bf
000002b0: 9a99 19bf cccc 4cbe cccc 4c3e 9a99 193f
000002c0: 0000 803f 3333 b33f 6666 e63f cdcc 0c40
000002d0: cdcc 0cc0 6666 e6bf 3333 b3bf 0000 80bf
000002e0: 9a99 19bf cccc 4cbe cccc 4c3e 9a99 193f
000002f0: 0000 803f 3333 b33f 6666 e63f cdcc 0c40
00000300: cdcc 0cc0 6666 e6bf 3333 b3bf 0000 80bf
00000310: 9a99 19bf cccc 4cbe cccc 4c3e 9a99 193f
00000320: 0000 803f 3333 b33f 6666 e63f cdcc 0c40
00000330: cdcc 0cc0 6666 e6bf 3333 b3bf 0000 80bf
00000340: 9a99 19bf cccc 4cbe cccc 4c3e 9a99 193f
00000350: 0000 803f 3333 b33f 6666 e63f cdcc 0c40
00000360: cdcc 0cc0 6666 e6bf 3333 b3bf 0000 80bf
00000370: 9a99 19bf cccc 4cbe cccc 4c3e 9a99 193f
00000380: 0000 803f 3333 b33f 6666 e63f cdcc 0c40
00000390: cdcc 0cc0 6666 e6bf 3333 b3bf 0000 80bf
000003a0: 9a99 19bf cccc 4cbe cccc 4c3e 9a99 193f
000003b0: 0000 803f 3333 b33f 6666 e63f cdcc 0c40
000003c0: cdcc 0cc0 6666 e6bf 3333 b3bf 0000 80bf
000003d0: 9a99 19bf cccc 4cbe cccc 4c3e 9a99 193f
000003e0: 0000 803f 3333 b33f 6666 e63f cdcc 0c40
000003f0: cdcc 0cc0 6666 e6bf 3333 b3bf 0000 80bf
-2.2 -1.8 -1.4 -1.0 -0.6 -0.19999999 0.19999999 0.6
1.0 1.4 1.8 2.2 -2.2 -1.8 -1.4 -1.0
-0.6 -0.19999999 0.19999999 0.6 1.0 1.4 1.8 2.2
-2.2 -1.8 -1.4 -1.0 -0.6 -0.19999999 0.19999999 0.6
1.0 1.4 1.8 2.2 -2.2 -1.8 -1.4 -1.0
-0.6 -0.19999999 0.19999999 0.6 1.0 1.4 1.8 2.2
-2.2 -1.8 -1.4 -1.0 -0.6 -0.19999999 0.19999999 0.6
1.0 1.4 1.8 2.2 -2.2 -1.8 -1.4 -1.0
-0.6 -0.19999999 0.19999999 0.6 1.0 1.4 1.8 2.2
-2.2 -1.8 -1.4 -1.0 -0.6 -0.19999999 0.19999999 0.6
1.0 1.4 1.8 2.2 -2.2 -1.8 -1.4 -1.0
-0.6 -0.19999999 0.19999999 0.6 1.0 1.4 1.8 2.2
-2.2 -1.8 -1.4 -1.0 -0.6 -0.19999999 0.19999999 0.6
1.0 1.4 1.8 2.2 -2.2 -1.8 -1.4 -1.0
-0.6 -0.19999999 0.19999999 0.6 1.0 1.4 1.8 2.2
-2.2 -1.8 -1.4 -1.0 -0.6 -0.19999999 0.19999999 0.6
1.0 1.4 1.8 2.2 -2.2 -1.8 -1.4 -1.0
-0.6 -0.19999999 0.19999999 0.6 1.0 1.4 1.8 2.2
-2.2 -1.8 -1.4 -1.0 -0.6 -0.19999999 0.19999999 0.6
1.0 1.4 1.8 2.2 -2.2 -1.8 -1.4 -1.0
-0.6 -0.19999999 0.19999999 0.6 1.0 1.4 1.8 2.2
-2.2 -1.8 -1.4 -1.0 -0.6 -0.19999999 0.19999999 0.6
1.0 1.4 1.8 2.2 -2.2 -1.8 -1.4 -1.0
-0.6 -0.19999999 0.19999999 0.6 1.0 1.4 1.8 2.2
-2.2 -1.8 -1.4 -1.0 -0.6 -0.19999999 0.19999999 0.6
1.0 1.4 1.8 2.2 -2.2 -1.8 -1.4 -1.0
-0.6 -0.19999999 0.19999999 0.6 1.0 1.4 1.8 2.2
-2.2 -1.8 -1.4 -1.0 -0.6 -0.19999999 0.19999999 0.6
1.0 1.4 1.8 2.2 -2.2 -1.8 -1.4 -1.0
-0.6 -0.19999999 0.19999999 0.6 1.0 1.4 1.8 2.2
-2.2 -1.8 -1.4 -1.0 -0.6 -0.19999999 0.19999999 0.6
1.0 1.4 1.8 2.2 -2.2 -1.8 -1.4 -1.0

act_fun.1.coef f4 [32, 16, 8]
00000000: bce5 443c 1d04 a63d 1b1b e93d 6d38 e93d
00000010: 8120 463d 4342 edbd 6945 ffbd 510c e1bd
00000020: d0be 303c d63f 813d c27a 89bd eb44 66bb
00000030: 3e96 d23d ca34 2a3e de73 213e c56e fd3d
00000040: 6413 1bbc 03ed 52bb 2ca2 afbb f514 b0bc
00000050: f4ce dc3d b650 2e3e 9f7c f03d 617e e43d
00000060: 9804 273c c601 a93d 1eef eb3d ba10 dc3d
00000070: f874 603d ab4a 1dbe 672d afbd 8e1f c7bd
00000080: 50c8 bbbb 9d5f 07bd 08c7 c8bd d581 13be
00000090: 9e27 fe3d 04b5 f13d 5e95 263e 8572 c93d
000000a0: c0c6 e8bb f7fe a5bb 1d4f 8cbd d1a2 e7bd
000000b0: 3620 303e df5a ab3d 49ad 2e3e 33dd 0d3e
000000c0: 485f bcbb fe99 543c c1f4 d73d 9265 3e3e
000000d0: c2c6 863d 4563 98bd a98a 31be 6ea3 0bbe
000000e0: 34af 1ebc b12b e93c e9c2 3a3e f4f7 a93d
000000f0: 5563 313d c378 2fbe f347 05be b71e cbbd
00000100: 8445 be3b ace9 933d f6e3 1c3e b2f5 193e
00000110: 89e6 00bd 4ca6 a3bd 0c01 2ebe b1fe 0ebe
00000120: 80f6 173c ece4 803d e386 a03d a1c2 2c3e
00000130: a274 6f3d b7c6 eebd ffbe 0dbe 9e59 e4bd
00000140: d0b7 d039 b984 d83c e1f5 813d f2f0 243e
00000150: 48cf 20bd 84d3 bebd 8d3b 0fbe 6607 e5bd
00000160: 103c 113c 2482 443d 6aab 90bd a9ec 0dbd
00000170: c5b4 d43d 9784 0a3e 8e20 0f3e f0c4 f13d
00000180: b8e8 9dba 336a ed3c 3db3 d63d 4596 f13d
00000190: 48db 793d 1d38 26be 40cf 94bd 9c7a bebd
000001a0: c681 863c 2791 a33d 65ef 8bbd 9691 5a3c
000001b0: 121e a0bc 440a dc3d e159 333d 6d7c edbc
000001c0: a0b7 0dbc 75e6 abbc 89fa aebd fd20 81bd
000001d0: 3857 d83d d88f 223e cd7c c63d cd9d dd3d
000001e0: 9c3d 4239 1620 9b3c 5acb a63d 125a 163e
000001f0: 358d 89bd ac77 0fbe 2f2a 11be a9e1 d1bd
00000200: 22f5 f9bd e7e8 13bd f31c c83d c05e d03d
00000210: 49f3 19be 3e07 1ebd 2ae5 5f38 61fd 5d3d
00000220: 35fc eb3d ebe5 d53d 8d27 39bd 137c 98bd
00000230: ddac c83d 3c1e 223e ad11 dc3d f9dc e63d
00000240: 1535 fe3d ec44 0b3e 6fd6 afbd 3fb3 72bd
00000250: a414 c63d a412 133e f15a e53d c476 dc3d
00000260: e5f3 e2bd 8b5d 213e 5205 283e dbe7 493d
00000270: cee6 35bd d324 dcbd cb0d c1bd e353 93bd
00000280: 37e5 003e d172 713d dd49 e4bd c35b adbd
00000290: 0267 103e 4f19 fe3d b3db d53d f4c1 eb3d
000002a0: caa4 063e 510a 2b3e 5015 1abe e1c7 8fbd
000002b0: 687d ba3d e5c8 c93d 3eab 0a3e 731c 043e
000002c0: de92 e3bd 248a 063d 387d 013e 4f27 0d3e
000002d0: 1e3d f4bd b0dc d8bd 6922 bcbc 8ddb 0f3c
000002e0: 8604 c3bd d252 833d a7d3 f03d 694e dd3d
000002f0: a9c2 13be 0806 a6bd 81ed dc3a 6db1 79bc
00000300: 9270 ddbd 8ac0 183d 1805 143e 1450 e13d
00000310: dd75 fbbd ac4e a2bd 236c 3a3c dff9 cd3a
00000320: 5aa4 ddbd 0309 253e a34d 043e a700 1b3e
00000330: 56cb 2cbe 18b2 71bd 19df 81bd bc11 edbc
00000340: 9781 0abe 546a 37bd d089 403e 18e7 363d
00000350: 7b0e 9abd a97b 19be 03e0 9a3b 904b 0e3d
00000360: 34d8 0b3e 57c0 2a3e c5e1 85bd aa8e f5bd
00000370: a39f ad3d cb5a 303e 8a76 cd3d 8dd2 e93d
00000380: e9a5 e9bd 11a5 473b 5946 1c3e 4cd3 773d
00000390: 2494 45bd 0ffe fdbd e359 cc3c 1e34 223d
000003a0: d044 17bd 61b3 cbbc 70ee 503d 8f81 8ebd
000003b0: a9c5 c93d 23f4 e73d 55cc 29bc c0cb dfbc
000003c0: fa21 ee3d c578 dc3d b0c3 ecbd 04da 26bd
000003d0: 2c17 853d 15aa 1e3e 6fda 133e a30a fa3d
000003e0: 1564 0ebe fabc 70bd 1c66 293e 0819 5f3d
000003f0: a53b 12be 5a53 49bd 7af2 96bd 62d6 25bd
0.012017664 0.08106253 0.11382123 0.113877155 0.048370842 -0.11584904 -0.12464411 -0.10988677
0.010787681 0.06311004 -0.06712867 -0.0035136293 0.10282563 0.166217 0.15766856 0.12374643
-0.009465072 -0.0032184727 -0.0053599086 -0.021494368 0.10781661 0.17022976 0.117425196 0.11156917
0.010193966 0.082522914 0.11520217 0.10745378 0.05479905 -0.15360515 -0.08553582 -0.097228155
-0.005730666 -0.03305017 -0.09803587 -0.14404996 0.124099 0.11802104 0.16267917 0.09836296
-0.007103771 -0.0050657946 -0.06851027 -0.11310352 0.17199787 0.08366942 0.1705829 0.13853912
-0.005748663 0.012976168 0.1054473 0.18593433 0.06580879 -0.07440809 -0.17338051 -0.13636562
-0.009685326 0.028463216 0.18238415 0.082992464 0.04330762 -0.1713591 -0.13015728 -0.09917968
0.0058066268 0.07222304 0.15321335 0.15035132 -0.031469855 -0.07990703 -0.16992587 -0.13964345
0.009275079 0.062936634 0.078382276 0.1687112 0.05846084 -0.116589956 -0.1384239 -0.111499056
0.00039809803 0.026430475 0.06345726 0.16107538 -0.03926018 -0.09317687 -0.1398756 -0.11183052
0.008864418 0.047975674 -0.07063945 -0.034649525 0.103860416 0.13527142 0.13977262 0.11805141
-0.0012047505 0.028981304 0.10483406 0.1179624 0.06100014 -0.16232343 -0.07266092 -0.0930073
0.016419303 0.0798667 -0.0683277 0.013340374 -0.019545589 0.107441455 0.043786887 -0.028989995
-0.008649737 -0.020983914 -0.085438795 -0.0630512 0.10563511 0.15875185 0.096917726 0.10821114
0.00018524233 0.018936198 0.08144255 0.14682797 -0.06716386 -0.14010495 -0.14176248 -0.102481194
-0.122049585 -0.036110785 0.097711466 0.10174322 -0.15034212 -0.038581125 5.338077e-05 0.05419672
0.11522714 0.10444244 -0.045203734 -0.0744554 0.09798596 0.15831846 0.10745559 0.11272616
0.12412468 0.1360051 -0.08585822 -0.059252974 0.09671906 0.1436258 0.11198986 0.1076484
-0.110816754 0.1575834 0.1640828 0.04929338 -0.044409566 -0.10749211 -0.09426459 -0.071937345
0.12587439 0.058947388 -0.11146901 -0.08464768 0.14101794 0.12407171 0.10442295 0.11511603
0.131488 0.16703154 -0.15047193 -0.07020546 0.091059506 0.09852771 0.13541886 0.12901478
-0.11111997 0.032846585 0.12645423 0.13784526 -0.1192572 -0.10588968 -0.022965627 0.008780372
-0.09522347 0.06412281 0.117591195 0.10805971 -0.14429726 -0.08106619 0.001685545 -0.0152400555
-0.10812487 0.037292995 0.14455068 0.11001602 -0.1227834 -0.07925162 0.011378321 0.0015714726
-0.10822363 0.16116719 0.12920241 0.15136968 -0.16874442 -0.059007734 -0.063413806 -0.02893912
-0.13525997 -0.044779137 0.18802571 0.044653982 -0.07522293 -0.14988579 0.0047264113 0.03474003
0.13656694 0.16674934 -0.06537203 -0.11990102 0.08477714 0.17222135 0.10032375 0.114171125
-0.11408598 0.0030463377 0.1526121 0.060504243 -0.04823698 -0.124019735 0.024945205 0.039600484
-0.03693086 -0.024865808 0.05100864 -0.06958305 0.09852154 0.11325862 -0.010363658 -0.027318835
0.11627574 0.107652225 -0.11560762 -0.04073526 0.0649856 0.15494569 0.14438795 0.1220906
-0.13905366 -0.058773972 0.16542858 0.05446723 -0.14280565 -0.049151756 -0.073704675 -0.040487655

act_fun.1.mask f4 [32, 16]
00000000: 0000 803f 0000 803f 0000 803f 0000 803f
00000010: 0000 803f 0000 803f 0000 803f 0000 803f
00000020: 0000 803f 0000 803f 0000 803f 0000 803f
00000030: 0000 803f 0000 803f 0000 803f 0000 803f
00000040: 0000 803f 0000 803f 0000 803f 0000 803f
00000050: 0000 803f 0000 803f 0000 803f 0000 803f
00000060: 0000 803f 0000 803f 0000 803f 0000 803f
00000070: 0000 803f 0000 803f 0000 803f 0000 803f
00000080: 0000 803f 0000 803f 0000 803f 0000 803f
00000090: 0000 803f 0000 803f 0000 803f 0000 803f
000000a0: 0000 803f 0000 803f 0000 803f 0000 803f
000000b0: 0000 803f 0000 803f 0000 803f 0000 803f
000000c0: 0000 803f 0000 803f 0000 803f 0000 803f
000000d0: 0000 803f 0000 803f 0000 803f 0000 803f
000000e0: 0000 803f 0000 803f 0000 803f 0000 803f
000000f0: 0000 803f 0000 803f 0000 803f 0000 803f
00000100: 0000 803f 0000 803f 0000 803f 0000 803f
00000110: 0000 803f 0000 803f 0000 803f 0000 803f
00000120: 0000 803f 0000 803f 0000 803f 0000 803f
00000130: 0000 803f 0000 803f 0000 803f 0000 803f
00000140: 0000 803f 0000 803f 0000 803f 0000 803f
00000150: 0000 803f 0000 803f 0000 803f 0000 803f
00000160: 0000 803f 0000 803f 0000 803f 0000 803f
00000170: 0000 803f 0000 803f 0000 803f 0000 803f
00000180: 0000 803f 0000 803f 0000 803f 0000 803f
00000190: 0000 803f 0000 803f 0000 803f 0000 803f
000001a0: 0000 803f 0000 803f 0000 803f 0000 803f
000001b0: 0000 803f 0000 803f 0000 803f 0000 803f
000001c0: 0000 803f 0000 803f 0000 803f 0000 803f
000001d0: 0000 803f 0000 803f 0000 803f 0000 803f
000001e0: 0000 803f 0000 803f 0000 803f 0000 803f
000001f0: 0000 803f 0000 803f 0000 803f 0000 803f
00000200: 0000 803f 0000 803f 0000 803f 0000 803f
00000210: 0000 803f 0000 803f 0000 803f 0000 803f
00000220: 0000 803f 0000 803f 0000 803f 0000 803f
00000230: 0000 803f 0000 803f 0000 803f 0000 803f
00000240: 0000 803f 0000 803f 0000 803f 0000 803f
00000250: 0000 803f 0000 803f 0000 803f 0000 803f
00000260: 0000 803f 0000 803f 0000 803f 0000 803f
00000270: 0000 803f 0000 803f 0000 803f 0000 803f
00000280: 0000 803f 0000 803f 0000 803f 0000 803f
00000290: 0000 803f 0000 803f 0000 803f 0000 803f
000002a0: 0000 803f 0000 803f 0000 803f 0000 803f
000002b0: 0000 803f 0000 803f 0000 803f 0000 803f
000002c0: 0000 803f 0000 803f 0000 803f 0000 803f
000002d0: 0000 803f 0000 803f 0000 803f 0000 803f
000002e0: 0000 803f 0000 803f 0000 803f 0000 803f
000002f0: 0000 803f 0000 803f 0000 803f 0000 803f
00000300: 0000 803f 0000 803f 0000 803f 0000 803f
00000310: 0000 803f 0000 803f 0000 803f 0000 803f
00000320: 0000 803f 0000 803f 0000 803f 0000 803f
00000330: 0000 803f 0000 803f 0000 803f 0000 803f
00000340: 0000 803f 0000 803f 0000 803f 0000 803f
00000350: 0000 803f 0000 803f 0000 803f 0000 803f
00000360: 0000 803f 0000 803f 0000 803f 0000 803f
00000370: 0000 803f 0000 803f 0000 803f 0000 803f
00000380: 0000 803f 0000 803f 0000 803f 0000 803f
00000390: 0000 803f 0000 803f 0000 803f 0000 803f
000003a0: 0000 803f 0000 803f 0000 803f 0000 803f
000003b0: 0000 803f 0000 803f 0000 803f 0000 803f
000003c0: 0000 803f 0000 803f 0000 803f 0000 803f
000003d0: 0000 803f 0000 803f 0000 803f 0000 803f
000003e0: 0000 803f 0000 803f 0000 803f 0000 803f
000003f0: 0000 803f 0000 803f 0000 803f 0000 803f
1.0 1.0 1.0 1.0 1.0 1.0 1.0 1.0
1.0 1.0 1.0 1.0 1.0 1.0 1.0 1.0
1.0 1.0 1.0 1.0 1.0 1.0 1.0 1.0
1.0 1.0 1.0 1.0 1.0 1.0 1.0 1.0
1.0 1.0 1.0 1.0 1.0 1.0 1.0 1.0
1.0 1.0 1.0 1.0 1.0 1.0 1.0 1.0
1.0 1.0 1.0 1.0 1.0 1.0 1.0 1.0
1.0 1.0 1.0 1.0 1.0 1.0 1.0 1.0
1.0 1.0 1.0 1.0 1.0 1.0 1.0 1.0
1.0 1.0 1.0 1.0 1.0 1.0 1.0 1.0
1.0 1.0 1.0 1.0 1.0 1.0 1.0 1.0
1.0 1.0 1.0 1.0 1.0 1.0 1.0 1.0
1.0 1.0 1.0 1.0 1.0 1.0 1.0 1.0
1.0 1.0 1.0 1.0 1.0 1.0 1.0 1.0
1.0 1.0 1.0 1.0 1.0 1.0 1.0 1.0
1.0 1.0 1.0 1.0 1.0 1.0 1.0 1.0
1.0 1.0 1.0 1.0 1.0 1.0 1.0 1.0
1.0 1.0 1.0 1.0 1.0 1.0 1.0 1.0
1.0 1.0 1.0 1.0 1.0 1.0 1.0 1.0
1.0 1.0 1.0 1.0 1.0 1.0 1.0 1.0
1.0 1.0 1.0 1.0 1.0 1.0 1.0 1.0
1.0 1.0 1.0 1.0 1.0 1.0 1.0 1.0
1.0 1.0 1.0 1.0 1.0 1.0 1.0 1.0
1.0 1.0 1.0 1.0 1.0 1.0 1.0 1.0
1.0 1.0 1.0 1.0 1.0 1.0 1.0 1.0
1.0 1.0 1.0 1.0 1.0 1.0 1.0 1.0
1.0 1.0 1.0 1.0 1.0 1.0 1.0 1.0
1.0 1.0 1.0 1.0 1.0 1.0 1.0 1.0
1.0 1.0 1.0 1.0 1.0 1.0 1.0 1.0
1.0 1.0 1.0 1.0 1.0 1.0 1.0 1.0
1.0 1.0 1.0 1.0 1.0 1.0 1.0 1.0
1.0 1.0 1.0 1.0 1.0 1.0 1.0 1.0

act_fun.1.scale_base f4 [32, 16]
00000000: 9e03 ecbd 2fb7 163e c577 bb3c 9af3 7bbd
00000010: 060a 223e cbb7 783e b3a4 e1bb 94fa 86be
00000020: 27ea 7ebe 8d34 3cbe bb9b 7bbe 5330 373e
00000030: 5a60 6cbe c772 4dbd 8037 313e 86fb 203b
00000040: 2f2a 1dbe de31 8dbd eb0d 073e 7b0d b1bb
00000050: 914a 783e ed45 063e bbc6 bf3c f1f0 88be
00000060: 5142 8e3d 1d8d 5ebe ad0f 5cbe 040d 773e
00000070: 4b10 07be 2919 283e 4a7f 8dbc a82a 2b3d
00000080: 05e4 593d ea51 263e 3171 803e bf36 44be
00000090: 5ced 183d d6f7 393e 37e7 2ebc b4c3 4ebe
000000a0: 06f8 53bb e9e7 0abe 7354 3abe 6131 113e
000000b0: 8141 74be e184 c7bd ec45 363e 4f9c 89bd
000000c0: 0b16 363e e48f 07be 90a9 75be 7e8e 1abd
000000d0: d203 803d 90d1 89be a6ec 253e 946a 853e
000000e0: 18a4 793e 22d8 0ab9 73c2 4e3d 4f85 82be
000000f0: b48e 5c3e 7cc4 56be 5117 8bbe 0a08 9fbc
00000100: db5a b73d c827 683e b938 663e 3ded ff3c
00000110: 6325 b73c e642 943c 361d 58be 9169 6dbd
00000120: 3341 0fbd 0a7d 99bd ae81 53be 5e38 0a3e
00000130: b7fb 2dbe c119 54bd e275 ac3d a7f9 6bbd
00000140: b9a2 cebd 34b5 073d 1a10 3fbe 58ed 283e
00000150: db7a ed3a 8d2e 41bd 34d4 723e 7cbb 603e
00000160: 2479 783e 1ec2 1e3e e059 613e 506f 4dbe
00000170: d700 903a e0a0 823b a8f8 91bd 0ccc 1b3d
00000180: 3264 85be 0de5 323e 13ee 6c3e bad4 01be
00000190: b5ee 233e 4639 4c3e d730 92be cc24 14be
000001a0: 2826 35be 75af 4fbe a897 84bb 1108 983e
000001b0: f2c7 9ebd 2847 453e 4abf 68bc 5d1e a6bd
000001c0: ccce bdbd d001 21bb acb9 0e3e fbbb 0fbd
000001d0: 8bd8 c63d 5111 413e d9ee 13bc 04da 5e3d
000001e0: 209f b0bd 17b5 babd 5db8 b9bd 0790 0e3e
000001f0: 3919 47be 49c8 413d d7bb 31bd aa7c 2ebe
00000200: 233f 87be 0223 7f3e 9d05 853c 59b7 fbbd
00000210: b3f2 0b3e f68c 8e3e d54b 03bd 1509 7abe
00000220: 817a 773d 2f8b 90be b96d b0bd f0f3 913e
00000230: 0be7 483d 442e 1f3d 0c55 7939 bd8f bebc
00000240: f5c3 7b3e d8b7 54be d464 19be 93eb b9bc
00000250: d8cb 55bd ee94 acbd f2e7 4b3e 4136 483d
00000260: 6328 76bd 85f7 ef3c 6f67 94bc e554 28be
00000270: 88fe 373e ad17 54be 43c5 f5bd 9613 75bd
00000280: 36d3 73bc f996 6ebe 4d9f 2ebe 8b10 7c3c
00000290: e593 9fbd 2c87 04bc a227 783e 22e8 313e
000002a0: 53f3 dc3d 2795 a43d c551 673e 5310 5cbe
000002b0: 430d 6d3e 0bda 3bbe 47a1 76be 58bb 113e
000002c0: 9c60 3abe 42e4 143e c15f 893e fa8a c2bc
000002d0: 360c 913e bcc7 333d 7056 45be 9cb7 0dbe
000002e0: a625 13be 5446 41be 6bd8 f0bd 5af5 8d3e
000002f0: ee12 4ebe c8b6 333e d605 473e deac 793c
00000300: 18ea 293e e7c9 29be 76d3 bf3c 1040 243d
00000310: d9a8 42be 3573 0b3e 9cc5 8c3e a732 0abd
00000320: d0be 843e 787a 263e 8e61 cf3d 4452 5a3d
00000330: 7056 373d 1da3 75bd d253 afbb 55bb d6bc
00000340: 1ae9 1dbe 57b8 463d 6fdd 953e aac5 c9bc
00000350: 660a bd3d 7b2f f43d 8e77 cebd 57ff 63be
00000360: e504 82bd e44e 81be bebf f4bd c1b6 bc3d
00000370: b145 33be 268f 7b3e fb42 2d3e d90e b9bc
00000380: 15ee 18bb 7aaa b6bd a720 95bd bf1d 573e
00000390: 52bc 2cbe 638c 22be 8e82 c2bc 1c5f 6f3e
000003a0: 51e7 743e c0c6 503e 3767 583e 2a3e 43bc
000003b0: c364 923e 1675 cc3b 7738 60bd b180 023e
000003c0: 40f5 19be 7a9b 213e fe13 263e 35cb 6ebe
000003d0: 3af3 853d 3462 053c d56d 57be 5f74 ae3c
000003e0: e898 1b3d 6ec8 f7bd 1ac0 f9bc 551a a33d
000003f0: a620 b23c 97b4 393d 573b ad3c c3ba e0bd
-0.115241274 0.14718316 0.022884259 -0.061511613 0.15824136 0.24288861 -0.0068860888 -0.2636305
-0.2489401 -0.18379422 -0.24571125 0.17889528 -0.2308363 -0.05015829 0.17306328 0.0024563982
-0.15348123 -0.06894277 0.13188903 -0.0054032183 0.24247195 0.13112612 0.023410192 -0.26746324
0.069462426 -0.21733518 -0.21490355 0.24126059 -0.13189809 0.16415848 -0.01727261 0.041788727
0.053195972 0.16242185 0.25086358 -0.19161509 0.03733574 0.18160948 -0.010675243 -0.20191842
-0.0032343878 -0.13565029 -0.18196277 0.14178993 -0.23853113 -0.097421415 0.1780011 -0.067192666
0.17781846 -0.13238484 -0.23990464 -0.037733547 0.06250729 -0.26917696 0.16203555 0.26057875
0.24379003 -0.00013241221 0.05047841 -0.2549233 0.21538812 -0.2097339 -0.27166227 -0.019413013
0.08952876 0.22671425 0.22482575 0.031241054 0.022356695 0.018098306 -0.21104893 -0.057962004
-0.03497429 -0.074945524 -0.20654938 0.13498065 -0.16990553 -0.051782373 0.08420922 -0.057611134
-0.10089631 0.033131793 -0.18658486 0.1649679 0.0018118279 -0.047163535 0.23713762 0.2194652
0.24264961 0.15503737 0.22006941 -0.20061994 0.0010986578 0.003986463 -0.071275055 0.03803639
-0.26053005 0.17470188 0.23137693 -0.12678805 0.16009028 0.19943723 -0.28552887 -0.14467162
-0.17690337 -0.20281775 -0.004046399 0.29693654 -0.0775298 0.19265425 -0.014205763 -0.0811126
-0.09267959 -0.002456773 0.13938016 -0.03509138 0.09709271 0.18854262 -0.009029114 0.054407135
-0.08624101 -0.091165714 -0.09068368 0.1392213 -0.19443215 0.047310147 -0.04339203 -0.17039743
-0.26415357 0.24915698 0.016238028 -0.1229083 0.13666801 0.2784192 -0.03205474 -0.24417527
0.060419563 -0.2823119 -0.08614678 0.28506422 0.049048465 0.03886248 0.00023778173 -0.0232619
0.2458647 -0.20773256 -0.14979869 -0.022695338 -0.052196354 -0.084268436 0.19912699 0.048879866
-0.06009711 0.029292831 -0.018115727 -0.16438635 0.1796819 -0.20712157 -0.12000515 -0.05983313
-0.0148819 -0.23299779 -0.17052956 0.0153848035 -0.077918805 -0.008088868 0.24233869 0.17373708
0.10788598 0.08036261 0.22589786 -0.21490602 0.2314959 -0.18344896 -0.2408496 0.14231622
-0.18200916 0.14540198 0.26830867 -0.02374791 0.2832963 0.043891653 -0.19271255 -0.13839573
-0.1436983 -0.18874484 -0.117600285 0.2772625 -0.20124409 0.17550194 0.1943582 0.015238969
0.16593206 -0.16580926 0.023416262 0.040100157 -0.19009723 0.13618167 0.27494514 -0.033739712
0.25926828 0.16257656 0.10126029 0.05330111 0.044760168 -0.05997001 -0.0053505683 -0.026212374
-0.15420952 0.048515644 0.29270503 -0.024630386 0.09230499 0.11923119 -0.10081397 -0.22265373
-0.0634859 -0.252555 -0.119506344 0.09214545 -0.17507054 0.24566326 0.16920082 -0.022590088
-0.0023335267 -0.089192346 -0.072816186 0.21007441 -0.16868713 -0.15873866 -0.023743894 0.23376125
0.23916365 0.20388317 0.21133123 -0.011916677 0.285925 0.0062395437 -0.05474135 0.12744404
-0.15034962 0.15781966 0.16218564 -0.23319705 0.065405324 0.008141089 -0.21037991 0.021295724
0.03798762 -0.12098776 -0.030487109 0.07964007 0.021744084 0.04533824 0.02114646 -0.10973122

act_fun.1.scale_sp f4 [32, 16]
00000000: dd77 9b3e f3b8 913e a814 9d3e e592 973e
00000010: 411f 9d3e 173d 953e 4a93 9b3e 2d58 8c3e
00000020: 57e8 9c3e 4b24 9c3e 1efb 9a3e 2d1d 9a3e
00000030: aa80 9b3e 80ec 603e 0cc9 8d3e 812e 8e3e
00000040: da87 893e b981 9a3e 7b00 9b3e b496 883e
00000050: 8ad1 993e 538e 963e e916 983e 42bd 8b3e
00000060: 9e4f 973e 671f 9a3e d1cc 993e d90b 993e
00000070: 1428 8c3e b80d 693e 9a36 943e 1366 973e
00000080: a91c 983e 9861 623e 3d18 953e 9f12 863e
00000090: 5894 823e 0cf8 9a3e 64a8 8e3e 1b51 943e
000000a0: 0e08 9d3e e369 9d3e 659f 893e 2027 733e
000000b0: 6360 903e eb99 4a3e ff7e 973e 4a85 8a3e
000000c0: 41ad 833e 4bf9 983e bcf6 993e e536 723e
000000d0: fd4e 993e 1efc 9b3e f69e 993e 6f24 7d3e
000000e0: fa20 983e 03e9 833e 6cef 8a3e 1fa7 993e
000000f0: 4e70 993e 3469 103e e576 963e 05ad 8a3e
00000100: a05a 873e 3aec 993e f2ed 993e 1fc0 893e
00000110: 4726 9a3e 6d07 9e3e 1d9e 9a3e 83db 9c3e
00000120: d7ee 993e 72e4 9a3e 9d71 993e 81b9 983e
00000130: c6a0 7c3e a06a 613e 42dd 983e f809 8c3e
00000140: 80a6 6a3e 4855 963e a503 8c3e 6dba 873e
00000150: 1ae1 943e 8cc8 833e 2d2d 8d3e c8b6 9d3e
00000160: 5d1d 9a3e f1c7 873e a25c 933e 33d6 993e
00000170: 6964 803e 727e 4f3e 12e5 993e 1c1c 5e3e
00000180: 5115 573e bf81 543e 8455 823e 1dac 9c3e
00000190: ce06 9d3e ee03 9b3e 32f6 9a3e ed00 963e
000001a0: 5de2 8a3e 58f2 633e 05c1 9a3e a8b6 993e
000001b0: 739b 953e e9aa 6c3e 6f04 9b3e a19c 953e
000001c0: 1b00 943e 2362 983e 15d8 973e 311f 683e
000001d0: c9d5 983e 2ca6 7b3e 63aa 993e ac31 9c3e
000001e0: c006 903e 56cd 873e 0f48 893e efa0 7e3e
000001f0: 272a 893e 49e2 5f3e 4824 9a3e c095 903e
00000200: 1d19 9a3e df56 9c3e 9896 8f3e 9ec5 773e
00000210: 8bfa 9a3e acdd 8c3e 6a77 9a3e 28eb 9d3e
00000220: 4e99 8a3e 29be 743e a4d6 9a3e b592 9c3e
00000230: 9ced 983e fdb5 523e 00ff 743e 4a03 843e
00000240: a707 983e 9ae1 823e d5a1 9d3e 1401 953e
00000250: f197 913e 0c22 9d3e 18c0 9c3e d801 8d3e
00000260: 9d5c 913e 66e7 613e 0483 663e 5e77 7e3e
00000270: 52cd 9d3e 0a73 1e3e e6ac 983e af6a 6e3e
00000280: 7aa9 8e3e 0fa5 653e 193d 683e 428a 873e
00000290: 267f 983e 0e33 953e 179f 8b3e c3f1 923e
000002a0: fb92 883e 3202 983e 9918 863e c38f 9b3e
000002b0: 1484 843e e040 863e 260e 983e 9951 8a3e
000002c0: 3393 9a3e ca2d 9a3e 8c53 983e da06 983e
000002d0: 7ed7 973e 2414 873e eca5 983e 58fa 9b3e
000002e0: e01a 903e 99bd 9a3e 1cd8 963e 2df0 863e
000002f0: ade7 923e 71f1 863e 0600 933e 09ea 903e
00000300: dc76 463e ccc8 9a3e 6bdf 9a3e 5970 963e
00000310: be84 603e 4577 9c3e 2cb4 9a3e 4e43 943e
00000320: 33ce 5e3e 7507 9d3e 641f 573e dffa 863e
00000330: 440e 9a3e 56e7 543e 54b5 9b3e 7886 613e
00000340: c1cc 9a3e b02d 9e3e 4097 913e 6dd4 8f3e
00000350: 8dd8 9e3e d5ae 843e 0408 7d3e f0e3 8d3e
00000360: 9420 9d3e d230 663e 8217 8d3e e1da 8e3e
00000370: 7c3b 993e 2d49 993e 50d3 793e 62ca 8b3e
00000380: 9b33 813e 951f 6b3e 83ad 923e ef0a 9c3e
00000390: 2c09 9d3e 1b5b 953e 0f88 9b3e 2498 9e3e
000003a0: 0f9a 863e bca2 913e be1a 9b3e fcf6 993e
000003b0: a595 9a3e 2c0b 8e3e 253b 803e 4822 7a3e
000003c0: 1307 973e 6ac0 963e 07bf 9b3e 168a 903e
000003d0: 8e39 743e b42c 8e3e 31c6 9a3e def1 9c3e
000003e0: 09ac 983e c27d 993e 1caa 833e fc05 963e
000003f0: f80a 973e 9875 943e 1073 863e f9cc 553e
0.30364886 0.28461418 0.30679822 0.2960426 0.30687907 0.2914817 0.3038581 0.27411023
0.3064601 0.3049644 0.30269712 0.30100384 0.303716 0.21965218 0.2769245 0.27769855
0.2686146 0.30177096 0.30273804 0.26677477 0.30042678 0.2940546 0.2970498 0.2729283
0.2955293 0.30102083 0.30039075 0.29891852 0.27374327 0.2275914 0.28947908 0.29570064
0.29709366 0.22107542 0.29120055 0.26186082 0.25503802 0.3026737 0.27862847 0.2896813
0.30670208 0.30744848 0.2687942 0.23745394 0.28198537 0.19785278 0.29589078 0.27054816
0.2571812 0.29877695 0.30071056 0.23653753 0.29943076 0.30465788 0.3000409 0.2472093
0.2971266 0.2576371 0.2713579 0.30010316 0.29968494 0.14102632 0.29387584 0.27085128
0.2643633 0.3006304 0.3006435 0.2690439 0.30107328 0.3086504 0.30198756 0.30636224
0.30065033 0.30252415 0.29969493 0.29829028 0.24670705 0.2201333 0.29856306 0.27351356
0.22915077 0.2936194 0.2734653 0.2650942 0.2907799 0.25738943 0.2757353 0.30803514
0.30100527 0.2651973 0.2878161 0.30046234 0.25076607 0.20263079 0.3005758 0.2169041
0.21004225 0.20752619 0.25455868 0.30600062 0.30669254 0.30276436 0.30265957 0.2929758
0.27125826 0.22260416 0.30225387 0.30022168 0.2922016 0.23112072 0.3027682 0.2922106
0.2890633 0.29762372 0.29657045 0.22668149 0.29850605 0.24575108 0.30012807 0.30506647
0.2813015 0.26523846 0.2681279 0.24866079 0.26789972 0.21863665 0.30105805 0.2823925
0.30097285 0.30535027 0.2804458 0.24196479 0.30269274 0.27512872 0.3016923 0.30843472
0.27070087 0.23900665 0.30241883 0.3058068 0.29868782 0.20577236 0.239254 0.2578376
0.29693338 0.25562745 0.3078753 0.29102385 0.28436235 0.30690038 0.30615306 0.2754047
0.2839097 0.22060928 0.22510916 0.24850222 0.3082071 0.15473571 0.2981941 0.23282884
0.27863675 0.22426246 0.22679557 0.2647267 0.29784507 0.29140514 0.27269813 0.28700075
0.26674637 0.29689175 0.26190642 0.3038312 0.25882018 0.2622137 0.29698294 0.2701538
0.3019043 0.3011306 0.2975124 0.29692727 0.29656595 0.26382554 0.29814088 0.30464435
0.28145504 0.30222777 0.29461753 0.26355115 0.2869238 0.2635608 0.28710955 0.28303555
0.19381279 0.3023132 0.3024858 0.2938259 0.21925637 0.30559745 0.30215585 0.289576
0.21758346 0.30669752 0.21008068 0.26363274 0.3008901 0.20791373 0.3041178 0.22023952
0.3023434 0.30894232 0.28435707 0.28091756 0.3102459 0.25914636 0.24710089 0.27712965
0.30688918 0.22479561 0.27556998 0.27901366 0.29928195 0.2993864 0.24397016 0.27302843
0.25234684 0.22961266 0.28648004 0.30477092 0.3067106 0.2917107 0.30377242 0.3097545
0.26289412 0.2844447 0.3029384 0.30071247 0.30192295 0.27742898 0.25045124 0.2442714
0.29497585 0.29443675 0.3041918 0.2823035 0.2385008 0.2776848 0.30229333 0.3065328
0.29818752 0.29978758 0.2571572 0.2930144 0.29500556 0.28995967 0.2625966 0.20878972

act_fun.2.grid f4 [16, 12]
00000000: cdcc 0cc0 6666 e6bf 3333 b3bf 0000 80bf
00000010: 9a99 19bf cccc 4cbe cccc 4c3e 9a99 193f
00000020: 0000 803f 3333 b33f 6666 e63f cdcc 0c40
00000030: cdcc 0cc0 6666 e6bf 3333 b3bf 0000 80bf
00000040: 9a99 19bf cccc 4cbe cccc 4c3e 9a99 193f
00000050: 0000 803f 3333 b33f 6666 e63f cdcc 0c40
00000060: cdcc 0cc0 6666 e6bf 3333 b3bf 0000 80bf
00000070: 9a99 19bf cccc 4cbe cccc 4c3e 9a99 193f
00000080: 0000 803f 3333 b33f 6666 e63f cdcc 0c40
00000090: cdcc 0cc0 6666 e6bf 3333 b3bf 0000 80bf
000000a0: 9a99 19bf cccc 4cbe cccc 4c3e 9a99 193f
000000b0: 0000 803f 3333 b33f 6666 e63f cdcc 0c40
000000c0: cdcc 0cc0 6666 e6bf 3333 b3bf 0000 80bf
000000d0: 9a99 19bf cccc 4cbe cccc 4c3e 9a99 193f
000000e0: 0000 803f 3333 b33f 6666 e63f cdcc 0c40
000000f0: cdcc 0cc0 6666 e6bf 3333 b3bf 0000 80bf
00000100: 9a99 19bf cccc 4cbe cccc 4c3e 9a99 193f
00000110: 0000 803f 3333 b33f 6666 e63f cdcc 0c40
00000120: cdcc 0cc0 6666 e6bf 3333 b3bf 0000 80bf
00000130: 9a99 19bf cccc 4cbe cccc 4c3e 9a99 193f
00000140: 0000 803f 3333 b33f 6666 e63f cdcc 0c40
00000150: cdcc 0cc0 6666 e6bf 3333 b3bf 0000 80bf
00000160: 9a99 19bf cccc 4cbe cccc 4c3e 9a99 193f
00000170: 0000 803f 3333 b33f 6666 e63f cdcc 0c40
00000180: cdcc 0cc0 6666 e6bf 3333 b3bf 0000 80bf
00000190: 9a99 19bf cccc 4cbe cccc 4c3e 9a99 193f
000001a0: 0000 803f 3333 b33f 6666 e63f cdcc 0c40
000001b0: cdcc 0cc0 6666 e6bf 3333 b3bf 0000 80bf
000001c0: 9a99 19bf cccc 4cbe cccc 4c3e 9a99 193f
000001d0: 0000 803f 3333 b33f 6666 e63f cdcc 0c40
000001e0: cdcc 0cc0 6666 e6bf 3333 b3bf 0000 80bf
000001f0: 9a99 19bf cccc 4cbe cccc 4c3e 9a99 193f
00000200: 0000 803f 3333 b33f 6666 e63f cdcc 0c40
00000210: cdcc 0cc0 6666 e6bf 3333 b3bf 0000 80bf
00000220: 9a99 19bf cccc 4cbe cccc 4c3e 9a99 193f
00000230: 0000 803f 3333 b33f 6666 e63f cdcc 0c40
00000240: cdcc 0cc0 6666 e6bf 3333 b3bf 0000 80bf
00000250: 9a99 19bf cccc 4cbe cccc 4c3e 9a99 193f
00000260: 0000 803f 3333 b33f 6666 e63f cdcc 0c40
00000270: cdcc 0cc0 6666 e6bf 3333 b3bf 0000 80bf
00000280: 9a99 19bf cccc 4cbe cccc 4c3e 9a99 193f
00000290: 0000 803f 3333 b33f 6666 e63f cdcc 0c40
000002a0: cdcc 0cc0 6666 e6bf 3333 b3bf 0000 80bf
000002b0: 9a99 19bf cccc 4cbe cccc 4c3e 9a99 193f
000002c0: 0000 803f 3333 b33f 6666 e63f cdcc 0c40
000002d0: cdcc 0cc0 6666 e6bf 3333 b3bf 0000 80bf
000002e0: 9a99 19bf cccc 4cbe cccc 4c3e 9a99 193f
000002f0: 0000 803f 3333 b33f 6666 e63f cdcc 0c40
-2.2 -1.8 -1.4 -1.0 -0.6 -0.19999999 0.19999999 0.6
1.0 1.4 1.8 2.2 -2.2 -1.8 -1.4 -1.0
-0.6 -0.19999999 0.19999999 0.6 1.0 1.4 1.8 2.2
-2.2 -1.8 -1.4 -1.0 -0.6 -0.19999999 0.19999999 0.6
1.0 1.4 1.8 2.2 -2.2 -1.8 -1.4 -1.0
-0.6 -0.19999999 0.19999999 0.6 1.0 1.4 1.8 2.2
-2.2 -1.8 -1.4 -1.0 -0.6 -0.19999999 0.19999999 0.6
1.0 1.4 1.8 2.2 -2.2 -1.8 -1.4 -1.0
-0.6 -0.19999999 0.19999999 0.6 1.0 1.4 1.8 2.2
-2.2 -1.8 -1.4 -1.0 -0.6 -0.19999999 0.19999999 0.6
1.0 1.4 1.8 2.2 -2.2 -1.8 -1.4 -1.0
-0.6 -0.19999999 0.19999999 0.6 1.0 1.4 1.8 2.2
-2.2 -1.8 -1.4 -1.0 -0.6 -0.19999999 0.19999999 0.6
1.0 1.4 1.8 2.2 -2.2 -1.8 -1.4 -1.0
-0.6 -0.19999999 0.19999999 0.6 1.0 1.4 1.8 2.2
-2.2 -1.8 -1.4 -1.0 -0.6 -0.19999999 0.19999999 0.6
1.0 1.4 1.8 2.2 -2.2 -1.8 -1.4 -1.0
-0.6 -0.19999999 0.19999999 0.6 1.0 1.4 1.8 2.2
-2.2 -1.8 -1.4 -1.0 -0.6 -0.19999999 0.19999999 0.6
1.0 1.4 1.8 2.2 -2.2 -1.8 -1.4 -1.0
-0.6 -0.19999999 0.19999999 0.6 1.0 1.4 1.8 2.2
-2.2 -1.8 -1.4 -1.0 -0.6 -0.19999999 0.19999999 0.6
1.0 1.4 1.8 2.2 -2.2 -1.8 -1.4 -1.0
-0.6 -0.19999999 0.19999999 0.6 1.0 1.4 1.8 2.2

act_fun.2.coef f4 [16, 1, 8]
00000000: 37c0 c03d 0396 253e 8195 b33d a854 093e
00000010: 411e 03be 5ebf acbd 76a4 13be 7b57 a2bd
00000020: 04a8 5cbd aaed 7abd 5582 3dbe ae6d a8bd
00000030: fe04 063e 2175 f03d 9653 b43d d4a6 a13d
00000040: e30e 7fbd 35ec cbbd 68e4 14be 53e1 e8bd
00000050: 817b 803d 4174 293e f179 bd3d 1039 c23d
00000060: 8ae6 af3d ed00 383e ed10 143d 8827 f73d
00000070: 72e8 a5bd 24ee 20bd 1ecc 90bd 6394 82bd
00000080: b564 3cbd cfb9 62bd 4d0b 45bd 6161 f5bd
00000090: 904b fc3d c4fe a73d eaba 003e 5932 ac3d
000000a0: c7b0 76bd a142 e8bd 9dfa 09be e203 c1bd
000000b0: a919 323c c05f 253e 34fb 233e 9dd1 c23d
000000c0: 1922 bd3d 60db cd3d 05e3 0c3e a6b4 e13d
000000d0: 4890 87bc 5844 06be 0e40 74bd 6dda 89bd
000000e0: a26c 9b3d 59a3 153e 717e 1d3e 5b19 2d3d
000000f0: 31ed 51bd 8a2a f4bd 3920 a5bd e67d 75bd
00000100: 0a3d 9f3d 6688 b83d 55e0 123e 8785 e33d
00000110: 19f4 54bd 4201 d6bd 4513 20bd 6623 d5bc
00000120: 4d34 da3d 2d0c 2e3e 250b 803d 0555 173e
00000130: 4f33 4bbd 71f6 acbd 62d1 a2bd 5a5f 89bd
00000140: 8826 bc3d 3db5 ac3d f23a 073e 9244 983d
00000150: 58ac 10be 64df b8bd 7476 0dbe 042a a3bd
00000160: 438d 88bd cbfc d9bd f7fa 06be d4ee 06be
00000170: 44d4 d93d b702 8b3d b441 113e 49ae b83d
00000180: fd77 a73d 5b1c a73d 9beb 1d3e cbb5 0b3e
00000190: d47a e0bd 860b fcbd 020a 08be f04c 9fbd
000001a0: 02d0 583d cf43 ca3b 6b3f 07be 923e f1bd
000001b0: 8b8c 183e 0781 103e a725 f13d 46f3 863d
000001c0: 12a2 47bd f386 35bd bb67 d3bd b4a9 cfbd
000001d0: 725b ac3d 600d be3d 8624 9f3d ed70 843d
000001e0: f684 953d 89da 063e e437 1d3e 09e7 ae3d
000001f0: a954 01be 32a5 aabd fd4f 83bd 06e3 19bd
0.09411662 0.16170506 0.0876875 0.134112 -0.1280451 -0.08434938 -0.14418206 -0.07926842
-0.05387117 -0.06126181 -0.18506749 -0.08224045 0.13087842 0.117410906 0.08805005 0.07893148
-0.062270056 -0.09957162 -0.14540255 -0.11371102 0.062735565 0.16548254 0.09251774 0.0948354
0.08588894 0.17969103 0.036148954 0.12068087 -0.08100976 -0.03928961 -0.07070182 -0.06375959
-0.04599448 -0.055352982 -0.04810648 -0.11981464 0.123191 0.082028896 0.12571302 0.084080406
-0.06022718 -0.113408335 -0.13474508 -0.09424569 0.010870376 0.16149807 0.16013795 0.09512637
0.09235019 0.10051608 0.13758476 0.11020784 -0.01654829 -0.13112009 -0.0596314 -0.067311145
0.075890794 0.14613093 0.15380265 0.04226051 -0.051251594 -0.11922176 -0.080627866 -0.05993452
0.07775314 0.09010391 0.14343388 0.11109453 -0.051990602 -0.10449459 -0.039080877 -0.026017856
0.10654507 0.16996832 0.06252126 0.14778526 -0.04960948 -0.084454425 -0.07950093 -0.0670764
0.09187037 0.08433006 0.1320608 0.07434954 -0.14128244 -0.090269834 -0.13814718 -0.07966998
-0.066675685 -0.106439196 -0.13181673 -0.13177043 0.106361896 0.06787627 0.1418522 0.09017617
0.08177183 0.08159705 0.15421908 0.13643567 -0.109609276 -0.123068854 -0.13285068 -0.077783465
0.052932747 0.006172634 -0.13207786 -0.117795125 0.14897363 0.1411172 0.1177476 0.065893695
-0.048738547 -0.04431815 -0.103225194 -0.1013979 0.08415879 0.09279895 0.07770638 0.064668514
0.07300751 0.13169302 0.15353352 0.0854016 -0.12629952 -0.0833229 -0.06411741 -0.037570022
