models_cerebelo/kan_model_stellate_lif.pt (torch, 54409 bytes, 29 tensors)

node_bias_0 f4 [32]
00000000: 0000 0000 0000 0000 0000 0000 0000 0000
00000010: 0000 0000 0000 0000 0000 0000 0000 0000
00000020: 0000 0000 0000 0000 0000 0000 0000 0000
00000030: 0000 0000 0000 0000 0000 0000 0000 0000
00000040: 0000 0000 0000 0000 0000 0000 0000 0000
00000050: 0000 0000 0000 0000 0000 0000 0000 0000
00000060: 0000 0000 0000 0000 0000 0000 0000 0000
00000070: 0000 0000 0000 0000 0000 0000 0000 0000
0.0 0.0 0.0 0.0 0.0 0.0 0.0 0.0
0.0 0.0 0.0 0.0 0.0 0.0 0.0 0.0
0.0 0.0 0.0 0.0 0.0 0.0 0.0 0.0
0.0 0.0 0.0 0.0 0.0 0.0 0.0 0.0

node_scale_0 f4 [32]
00000000: 0000 803f 0000 803f 0000 803f 0000 803f
00000010: 0000 803f 0000 803f 0000 803f 0000 803f
00000020: 0000 803f 0000 803f 0000 803f 0000 803f
00000030: 0000 803f 0000 803f 0000 803f 0000 803f
00000040: 0000 803f 0000 803f 0000 803f 0000 803f
00000050: 0000 803f 0000 803f 0000 803f 0000 803f
00000060: 0000 803f 0000 803f 0000 803f 0000 803f
00000070: 0000 803f 0000 803f 0000 803f 0000 803f
1.0 1.0 1.0 1.0 1.0 1.0 1.0 1.0
1.0 1.0 1.0 1.0 1.0 1.0 1.0 1.0
1.0 1.0 1.0 1.0 1.0 1.0 1.0 1.0
1.0 1.0 1.0 1.0 1.0 1.0 1.0 1.0

subnode_bias_0 f4 [32]
00000000: 0000 0000 0000 0000 0000 0000 0000 0000
00000010: 0000 0000 0000 0000 0000 0000 0000 0000
00000020: 0000 0000 0000 0000 0000 0000 0000 0000
00000030: 0000 0000 0000 0000 0000 0000 0000 0000
00000040: 0000 0000 0000 0000 0000 0000 0000 0000
00000050: 0000 0000 0000 0000 0000 0000 0000 0000
00000060: 0000 0000 0000 0000 0000 0000 0000 0000
00000070: 0000 0000 0000 0000 0000 0000 0000 0000
0.0 0.0 0.0 0.0 0.0 0.0 0.0 0.0
0.0 0.0 0.0 0.0 0.0 0.0 0.0 0.0
0.0 0.0 0.0 0.0 0.0 0.0 0.0 0.0
0.0 0.0 0.0 0.0 0.0 0.0 0.0 0.0

subnode_scale_0 f4 [32]
00000000: 0000 803f 0000 803f 0000 803f 0000 803f
00000010: 0000 803f 0000 803f 0000 803f 0000 803f
00000020: 0000 803f 0000 803f 0000 803f 0000 803f
00000030: 0000 803f 0000 803f 0000 803f 0000 803f
00000040: 0000 803f 0000 803f 0000 803f 0000 803f
00000050: 0000 803f 0000 803f 0000 803f 0000 803f
00000060: 0000 803f 0000 803f 0000 803f 0000 803f
00000070: 0000 803f 0000 803f 0000 803f 0000 803f
1.0 1.0 1.0 1.0 1.0 1.0 1.0 1.0
1.0 1.0 1.0 1.0 1.0 1.0 1.0 1.0
1.0 1.0 1.0 1.0 1.0 1.0 1.0 1.0
1.0 1.0 1.0 1.0 1.0 1.0 1.0 1.0

node_bias_1 f4 [16]
00000000: 0000 0000 0000 0000 0000 0000 0000 0000
00000010: 0000 0000 0000 0000 0000 0000 0000 0000
00000020: 0000 0000 0000 0000 0000 0000 0000 0000
00000030: 0000 0000 0000 0000 0000 0000 0000 0000
0.0 0.0 0.0 0.0 0.0 0.0 0.0 0.0
0.0 0.0 0.0 0.0 0.0 0.0 0.0 0.0

node_scale_1 f4 [16]
00000000: 0000 803f 0000 803f 0000 803f 0000 803f
00000010: 0000 803f 0000 803f 0000 803f 0000 803f
00000020: 0000 803f 0000 803f 0000 803f 0000 803f
00000030: 0000 803f 0000 803f 0000 803f 0000 803f
1.0 1.0 1.0 1.0 1.0 1.0 1.0 1.0
1.0 1.0 1.0 1.0 1.0 1.0 1.0 1.0

subnode_bias_1 f4 [16]
00000000: 0000 0000 0000 0000 0000 0000 0000 0000
00000010: 0000 0000 0000 0000 0000 0000 0000 0000
00000020: 0000 0000 0000 0000 0000 0000 0000 0000
00000030: 0000 0000 0000 0000 0000 0000 0000 0000
0.0 0.0 0.0 0.0 0.0 0.0 0.0 0.0
0.0 0.0 0.0 0.0 0.0 0.0 0.0 0.0

subnode_scale_1 f4 [16]
00000000: 0000 803f 0000 803f 0000 803f 0000 803f
00000010: 0000 803f 0000 803f 0000 803f 0000 803f
00000020: 0000 803f 0000 803f 0000 803f 0000 803f
00000030: 0000 803f 0000 803f 0000 803f 0000 803f
1.0 1.0 1.0 1.0 1.0 1.0 1.0 1.0
1.0 1.0 1.0 1.0 1.0 1.0 1.0 1.0

act_fun.0.grid f4 [3, 12]
00000000: cdcc 0cc0 6666 e6bf 3333 b3bf 0000 80bf
00000010: 9a99 19bf cccc 4cbe cccc 4c3e 9a99 193f
00000020: 0000 803f 3333 b33f 6666 e63f cdcc 0c40
00000030: cdcc 0cc0 6666 e6bf 3333 b3bf 0000 80bf
00000040: 9a99 19bf cccc 4cbe cccc 4c3e 9a99 193f
00000050: 0000 803f 3333 b33f 6666 e63f cdcc 0c40
00000060: cdcc 0cc0 6666 e6bf 3333 b3bf 0000 80bf
00000070: 9a99 19bf cccc 4cbe cccc 4c3e 9a99 193f
00000080: 0000 803f 3333 b33f 6666 e63f cdcc 0c40
-2.2 -1.8 -1.4 -1.0 -0.6 -0.19999999 0.19999999 0.6
1.0 1.4 1.8 2.2 -2.2 -1.8 -1.4 -1.0
-0.6 -0.19999999 0.19999999 0.6 1.0 1.4 1.8 2.2
-2.2 -1.8 -1.4 -1.0 -0.6 -0.19999999 0.19999999 0.6
1.0 1.4 1.8 2.2

act_fun.0.coef f4 [3, 32, 8]
00000000: 7605 f6bd 81c0 cabd 7da6 b4bd 5c47 0f3e
00000010: 6910 253e cb9d d33d 3f13 103e 4b9e fc3d
00000020: ae33 a1bd 0975 4fbd b9b3 07be 32cd 143e
00000030: cb73 403d f3eb 093e 5670 333d 49e2 543d
00000040: e7ca 00be f607 06be 6b06 ffbd d521 043e
00000050: 69e0 043e 65f1 b13d 5103 d23d b1f8 ee3d
00000060: f2e4 123e dfb2 343e facd 813d ce36 f6bd
00000070: 0d6b 0dbe 91fb 06be a7ab d5bd 3770 e0bd
00000080: c32b cdbd 1cef d8bd 5b37 0abe a668 d03d
00000090: 6d23 483d db33 1e3e f792 833d 100e a73d
000000a0: 5664 043e a161 093e cce9 073e 0b67 fdbd
000000b0: f0c1 30be f5e4 e2bd 7ec3 15be 6730 fabd
000000c0: 4df0 04be 33c3 13be 75d3 fbbd bbc2 0a3e
000000d0: d462 123e 4558 c73d 1315 113e 9e0f fd3d
000000e0: f73f 95bd 3262 50bd f40c 05be f20a ff3d
000000f0: 8818 5a3d fa97 813d c8db 353d dfb2 c03c
00000100: 8e72 e6bd 26ec acbd 3881 f0bd 8fe8 bc3d
00000110: 4452 bf3d b4df 173e 2da3 193e 48b7 fb3d
00000120: b234 893d c6b0 3b3d 8a7b 1b3d 0093 e0bd
00000130: 6c37 b9bd a80b 88bd fba0 f5bc d407 3dbd
00000140: 029c 143e 4019 343e 849d 5f3d 2254 89bd
00000150: 7ea1 23be cfe4 c6bd 4d7f d9bd 7e3e e4bd
00000160: c6df edbd c079 dcbd 2f1b 1fbe 949f 223e
00000170: 486f d93d 1fc8 bb3d e5cb 0a3e 2925 f83d
00000180: 50c9 d9bd 8ac9 9cbd a4dd 1abe 78db 123e
00000190: 442e 113e e005 ae3d 5ecf 163e 0857 0b3e
000001a0: 7a40 d9bd bb23 cabd 7279 07be 6a74 c43d
000001b0: 2b7e d43d 1e4f eb3d 39e6 d83d 120a de3d
000001c0: 8b02 013e a939 0c3e 8c71 363e 9934 2cbe
000001d0: 7048 08be f543 cebd 0a8e f9bd f0dd eebd
000001e0: 3194 fbbd ec1a 03be 5d8e b8bd 15d6 a13d
000001f0: 0df1 e83d 21ed af3d 8c6d de3d 7b7c d73d
00000200: 83c9 053e 7f1a 1d3e 8a35 033e d078 06be
00000210: a7a7 19be 6855 04be fdf0 c3bd 444f d8bd
00000220: e9e1 f83d c590 053e 2c91 763d 1f49 b3bd
00000230: 4a7d 9fbd 82c1 b3bd 95f1 80bd 7b58 b1bd
00000240: 6892 003e ce5f e73d 846b aa3d 2e89 aabd
00000250: 40f1 1fbe 08c1 cebd d391 febd 2db9 e4bd
00000260: 59a7 0c3e 362e 163e 9722 d23d 25ad dabd
00000270: aa58 febd 304a f2bd cf62 0dbe 3f4f f7bd
00000280: 7a4e f13d 8d6b d13d b8cc 173e 5ea7 35be
00000290: c407 02be d0fd 03be 8aae febd 1906 eabd
000002a0: c317 f93d d580 f83d 1d18 a23d 873e 18be
000002b0: 241a cebd c957 21be b761 e4bd b14b b8bd
000002c0: f42b 02be df27 0dbe 5289 06be 55ae e33d
000002d0: bc0d 413e 9564 713d b923 0d3e 383d 013e
000002e0: 27aa 113e 76d4 293e 7b80 993d 0201 a4bd
000002f0: c4ac ddbd 1c21 20be e9e1 9cbd 4d79 cbbd
00000300: 1e46 dcbd 21cd 04be 467e d6bc 2d40 0e3e
00000310: 672c 9d3d 2de2 ab3d 3d78 0b3e a30e d43d
00000320: 2b95 d2bd dce1 ebbd 110d d1bd 8280 bc3d
00000330: 3987 fe3d 72d8 e13d 592d fc3d e46e de3d
00000340: fc57 d63d 2f6b c43d 716c cb3d eaa0 e3bd
00000350: 3633 87bd acac f6bd 3128 ccbd 041f 473d
00000360: aa14 ed3d 93bd cb3d 8ba0 c63d b854 09be
00000370: 58d4 b8bd 267a efbd 1d8c d3bd 2cff 45bd
00000380: b30a 053e 18ed 0a3e 2995 c63d 8113 25be
00000390: 3850 c6bd ac35 a4bd 2380 0bbe 6c2d 00be
000003a0: a30b cc3d 2cdb 903d eb51 a13d f647 aebd
000003b0: 80f1 97bd d11d bdbd 4593 d5bd 3e12 c1bd
000003c0: 31c7 0f3e 0463 2e3e 95f2 cf3d 1a7b 12be
000003d0: e64c 0cbe 2337 adbd 6036 00be cbf6 f9bd
000003e0: d9b1 ed3d 2ea2 bc3d e4dc bc3d 3eca 08be
000003f0: adaf d7bd 4dc0 07be 9e28 16be 1885 eebd
-0.1201276 -0.098999985 -0.088208176 0.13992065 0.16119541 0.10332831 0.14069842 0.123348795
-0.07871185 -0.050648723 -0.13252153 0.14531401 0.04698543 0.13468914 0.043808304 0.051973615
-0.12577401 -0.13088974 -0.12452396 0.12903531 0.1297623 0.086886205 0.10254539 0.11668528
0.14345148 0.17646359 0.06338115 -0.12022172 -0.13810368 -0.13181902 -0.10433131 -0.10958903
-0.100181125 -0.105924815 -0.13497679 0.1017621 0.04886191 0.15449469 0.06424516 0.08156979
0.129289 0.13416149 0.1327278 -0.123731695 -0.17261481 -0.11078826 -0.14625356 -0.12216263
-0.12982292 -0.14429931 -0.122961916 0.13550846 0.14295512 0.09733633 0.14168195 0.12356494
-0.07287591 -0.050874896 -0.12993222 0.124532595 0.05324605 0.06327815 0.044399053 0.023522792
-0.11252318 -0.08443479 -0.117433965 0.092240445 0.09341863 0.1483143 0.15003653 0.122908175
0.06699504 0.04582288 0.037959613 -0.10965538 -0.09043774 -0.06642848 -0.029983988 -0.046150044
0.14512637 0.17587757 0.054593578 -0.067055 -0.15979573 -0.097116105 -0.10619984 -0.11144732
-0.11614947 -0.107654095 -0.15537713 0.15881187 0.10616928 0.091690294 0.13554342 0.12116463
-0.106341004 -0.07655628 -0.15123612 0.14341533 0.14177805 0.08497214 0.14727542 0.13607419
-0.10608001 -0.09870096 -0.13229921 0.09592517 0.10375627 0.114897 0.105907865 0.108417645
0.12598626 0.1369387 0.17816752 -0.1681694 -0.13308883 -0.100715555 -0.12185295 -0.11663425
-0.12284125 -0.12803239 -0.09011529 0.07902161 0.11374102 0.085901506 0.10860738 0.1052179
0.13065152 0.15342139 0.12813392 -0.13132024 -0.1500536 -0.12923205 -0.09567449 -0.10561994
0.12152464 0.13043506 0.06019704 -0.08754181 -0.07787569 -0.08777143 -0.06296078 -0.086594544
0.1255585 0.1129757 0.08321288 -0.08326946 -0.15619373 -0.100954115 -0.124301575 -0.11168132
0.13735713 0.14666066 0.10260504 -0.10677556 -0.12419255 -0.118305564 -0.13807224 -0.12075662
0.11782546 0.10225592 0.14824188 -0.17739627 -0.12698275 -0.1288979 -0.124356344 -0.11426944
0.12162735 0.12133948 0.079147555 -0.14867602 -0.1006358 -0.15756144 -0.1115145 -0.08998812
-0.1271208 -0.13784741 -0.13138321 0.111172356 0.18852895 0.058933813 0.13783158 0.1262101
0.14225064 0.16584954 0.07495209 -0.08008005 -0.10823968 -0.1563763 -0.076602764 -0.09935246
-0.10755561 -0.12968875 -0.026183259 0.13891669 0.07674485 0.08392749 0.13620086 0.10354354
-0.10282358 -0.11517689 -0.1020757 0.092041984 0.124281354 0.11027612 0.12313337 0.108609945
0.104660004 0.09590756 0.09932793 -0.11114676 -0.066015646 -0.12044653 -0.099686034 0.048613563
0.11576207 0.09948268 0.0969859 -0.13411224 -0.09024876 -0.1169322 -0.10329459 -0.048339054
0.12992363 0.13567007 0.09696419 -0.16120721 -0.09683269 -0.080180496 -0.13623099 -0.12517327
0.09963157 0.07073054 0.07876953 -0.08509819 -0.07419109 -0.09234203 -0.1042848 -0.094273075
0.14040829 0.17029959 0.10153691 -0.14304772 -0.1370121 -0.08457782 -0.12520742 -0.12205275
0.116061874 0.09210621 0.09221819 -0.133584 -0.10531554 -0.1325695 -0.14663932 -0.11646479

act_fun.0.mask f4 [3, 32]
00000000: 0000 803f 0000 803f 0000 803f 0000 803f
00000010: 0000 803f 0000 803f 0000 803f 0000 803f
00000020: 0000 803f 0000 803f 0000 803f 0000 803f
00000030: 0000 803f 0000 803f 0000 803f 0000 803f
00000040: 0000 803f 0000 803f 0000 803f 0000 803f
00000050: 0000 803f 0000 803f 0000 803f 0000 803f
00000060: 0000 803f 0000 803f 0000 803f 0000 803f
00000070: 0000 803f 0000 803f 0000 803f 0000 803f
00000080: 0000 803f 0000 803f 0000 803f 0000 803f
00000090: 0000 803f 0000 803f 0000 803f 0000 803f
000000a0: 0000 803f 0000 803f 0000 803f 0000 803f
000000b0: 0000 803f 0000 803f 0000 803f 0000 803f
000000c0: 0000 803f 0000 803f 0000 803f 0000 803f
000000d0: 0000 803f 0000 803f 0000 803f 0000 803f
000000e0: 0000 803f 0000 803f 0000 803f 0000 803f
000000f0: 0000 803f 0000 803f 0000 803f 0000 803f
00000100: 0000 803f 0000 803f 0000 803f 0000 803f
00000110: 0000 803f 0000 803f 0000 803f 0000 803f
00000120: 0000 803f 0000 803f 0000 803f 0000 803f
00000130: 0000 803f 0000 803f 0000 803f 0000 803f
00000140: 0000 803f 0000 803f 0000 803f 0000 803f
00000150: 0000 803f 0000 803f 0000 803f 0000 803f
00000160: 0000 803f 0000 803f 0000 803f 0000 803f
00000170: 0000 803f 0000 803f 0000 803f 0000 803f
1.0 1.0 1.0 1.0 1.0 1.0 1.0 1.0
1.0 1.0 1.0 1.0 1.0 1.0 1.0 1.0
1.0 1.0 1.0 1.0 1.0 1.0 1.0 1.0
1.0 1.0 1.0 1.0 1.0 1.0 1.0 1.0
1.0 1.0 1.0 1.0 1.0 1.0 1.0 1.0
1.0 1.0 1.0 1.0 1.0 1.0 1.0 1.0
1.0 1.0 1.0 1.0 1.0 1.0 1.0 1.0
1.0 1.0 1.0 1.0 1.0 1.0 1.0 1.0
1.0 1.0 1.0 1.0 1.0 1.0 1.0 1.0
1.0 1.0 1.0 1.0 1.0 1.0 1.0 1.0
1.0 1.0 1.0 1.0 1.0 1.0 1.0 1.0
1.0 1.0 1.0 1.0 1.0 1.0 1.0 1.0

act_fun.0.scale_base f4 [3, 32]
00000000: fb76 51bd d5fe c03e c5bc 2abe 90a6 c7be
00000010: faec e73e 3c26 1fbf a7ed 3f3e f896 0e3f
00000020: 621d 5c3e f550 ce3d 6b0f e8be c04b dd3d
00000030: 340e 223e 6a93 823e 1068 d93d 4a82 1a3f
00000040: fe5e 10bf ef43 aabd 43df cebe 096d 14bf
00000050: 0d0b 2abe db79 1dbf b73a 053f 9a43 53bd
00000060: 6467 60be ae4a ce3e f454 21bf 76c2 a6be
00000070: 43a1 6fbe 2af3 17bf d5a5 fabe 4bd3 53be
00000080: e09a 0e3f 2199 223f 274a fb3e 04db ecbe
00000090: 42ce 90be 1679 c33e 988f a53e 5c32 ab3d
000000a0: cb21 493e 1f21 09bf a4db 9fbe 3263 2c3f
000000b0: c938 51bc 3621 aa3d d93f 19bf 5bde 5bbe
000000c0: e29c 0cbe df54 ebbe 5c01 43be 3167 e03d
000000d0: b97f 2fbf eaa1 6d3d eeb2 86be 4e5a cebe
000000e0: 76d3 a93e 9de9 0f3f 2e8d 83be 1ec5 afbe
000000f0: fca8 24bf cab0 cebe 30f4 1fbf 7176 7ebe
00000100: 92d3 763e b436 eebe 60b2 1f3f 0d3d 743e
00000110: 97a5 e2be ecf4 cfbe 4a49 9f3e ae5f 31bd
00000120: f1c1 443d 2ded c6be 059b ac3e e698 48be
00000130: 63b6 1a3f d0a0 273e ab2a 08bc 15b2 f23e
00000140: 0f3f 66be 2ec9 9dbe e531 5dbe 48bf bb3e
00000150: 5000 cebe 661d 58bb 3248 f5be 6a30 303e
00000160: 27e5 a83e fcd4 163e 8b2f ed3d 3aae 64bd
00000170: 66b6 413e f9ea debe c118 f5bd 4b16 083e
-0.05113886 0.3769442 -0.16673572 -0.38994265 0.45297986 -0.62167716 0.18743001 0.5569911
0.21495584 0.10074035 -0.45324263 0.10805464 0.1582573 0.25503093 0.106155515 0.60355055
-0.56394947 -0.083137386 -0.4040471 -0.57978874 -0.16605778 -0.6151406 0.52042717 -0.05157814
-0.2191444 0.4029135 -0.63020253 -0.32570237 -0.2340136 -0.59355414 -0.48954645 -0.2068607
0.5570507 0.63514906 0.4908001 -0.46260846 -0.28282362 0.3817832 0.32336116 0.08359215
0.19641797 -0.53566164 -0.3122226 0.6733886 -0.012769886 0.08307116 -0.5986305 -0.2147154
-0.13731721 -0.4596319 -0.19043487 0.10957182 -0.68554264 0.05801574 -0.26308388 -0.40303272
0.33169144 0.5621584 -0.2569365 -0.34330076 -0.6432035 -0.40369254 -0.62481976 -0.2484987
0.24104145 -0.4652611 0.62381554 0.23851414 -0.4426696 -0.40616548 0.31110603 -0.043304138
0.04803652 -0.38852826 0.3371202 -0.19589576 0.6043455 0.16369939 -0.008310954 0.4740149
-0.22484992 -0.3081755 -0.21601065 0.36669374 -0.40234613 -0.0032976507 -0.47906643 0.17205968
0.3298733 0.14729685 0.11581334 -0.055830218 0.18917236 -0.43538645 -0.11967612 0.13289754

act_fun.0.scale_sp f4 [3, 32]
00000000: 2d15 2e3f 8db9 273f 63d1 353f a5d8 343f
00000010: df07 313f 1ffc 353f c872 353f b2bb 273f
00000020: 666f 2c3f 00d3 1e3f 2466 2f3f da7b 353f
00000030: ccb9 303f 2206 2e3f 909d 353f 0e28 2c3f
00000040: b8b6 333f 0512 243f 1f73 2a3f 2253 333f
00000050: 97b6 353f 67c0 2d3f a35c 353f edc9 2e3f
00000060: 2566 333f 9b7f 2e3f 132f 283f 29ad 273f
00000070: 8bb3 2f3f f736 1e3f 8630 363f d529 2c3f
00000080: cf9a 333f 8d82 223f 39d1 263f 02ad 343f
00000090: 27eb 2b3f a5cc 353f 4753 353f fb05 263f
000000a0: 94b0 333f c80a 1d3f ab15 353f 6a95 2b3f
000000b0: 09a1 363f e50e 313f 5602 313f b904 333f
000000c0: b505 363f ddfc 2a3f f79e 353f ab1c 303f
000000d0: 4771 343f 0daf 2b3f df11 353f 72c2 303f
000000e0: 047d 303f ccf9 303f 98fe 2f3f 64a2 233f
000000f0: bf66 2e3f 5e9c 313f 4ac1 353f 7e5a 2b3f
00000100: ce5f 313f e040 333f ebd4 353f 1211 2c3f
00000110: 8f89 273f 8031 353f 82aa 343f 0e0b 2c3f
00000120: 4126 353f 17b6 293f 2828 313f f0c2 2e3f
00000130: a941 373f 02b8 363f ceb4 333f d73c 303f
00000140: 1c45 323f 6a94 353f d752 323f 2eb6 343f
00000150: 4b25 343f c44b 323f 8ee6 343f 3395 343f
00000160: 76e5 243f 13de 273f 0f1e 363f 3f74 2c3f
00000170: bf78 333f c010 2d3f a565 333f a610 323f
0.6800106 0.65517503 0.71022624 0.70643073 0.69152635 0.7108783 0.7087827 0.65520775
0.6735748 0.6204071 0.6851523 0.7089211 0.69033504 0.6797811 0.70943546 0.6724862
0.7020068 0.64089996 0.6658191 0.70048726 0.70981735 0.6787171 0.7084448 0.68276864
0.70077735 0.6816346 0.6569683 0.65498596 0.68633336 0.6180262 0.7116779 0.6725133
0.70158094 0.63480455 0.65163 0.7057649 0.6715569 0.7101539 0.70830196 0.64852875
0.7019131 0.61344576 0.7073619 0.6702486 0.7133947 0.6916335 0.6914419 0.6992908
0.7110246 0.6679209 0.70945686 0.68793744 0.7048535 0.6706398 0.70730394 0.690467
0.6894076 0.6913116 0.68747854 0.63919663 0.6812553 0.6937922 0.7099806 0.66934955
0.6928681 0.70020866 0.7102801 0.6721355 0.6544427 0.70778656 0.70572674 0.6720437
0.70761496 0.6629347 0.692019 0.682662 0.71584564 0.71374524 0.7019776 0.68842834
0.696367 0.70929587 0.69657654 0.70590484 0.70369405 0.6964686 0.706643 0.7054016
0.6441263 0.65573233 0.71139616 0.6736488 0.7010612 0.67603683 0.7007697 0.69556653

act_fun.1.grid f4 [32, 12]
00000000: cdcc 0cc0 6666 e6bf 3333 b3bf 0000 80bf
00000010: 9a99 19bf cccc 4cbe cccc 4c3e 9a99 193f
00000020: 0000 803f 3333 b33f 6666 e63f cdcc 0c40
00000030: cdcc 0cc0 6666 e6bf 3333 b3bf 0000 80bf
00000040: 9a99 19bf cccc 4cbe cccc 4c3e 9a99 193f
00000050: 0000 803f 3333 b33f 6666 e63f cdcc 0c40
00000060: cdcc 0cc0 6666 e6bf 3333 b3bf 0000 80bf
00000070: 9a99 19bf cccc 4cbe cccc 4c3e 9a99 193f
00000080: 0000 803f 3333 b33f 6666 e63f cdcc 0c40
00000090: cdcc 0cc0 6666 e6bf 3333 b3bf 0000 80bf
000000a0: 9a99 19bf cccc 4cbe cccc 4c3e 9a99 193f
000000b0: 0000 803f 3333 b33f 6666 e63f cdcc 0c40
000000c0: cdcc 0cc0 6666 e6bf 3333 b3bf 0000 80bf
000000d0: 9a99 19bf cccc 4cbe cccc 4c3e 9a99 193f
000000e0: 0000 803f 3333 b33f 6666 e63f cdcc 0c40
000000f0: cdcc 0cc0 6666 e6bf 3333 b3bf 0000 80bf
00000100: 9a99 19bf cccc 4cbe cccc 4c3e 9a99 193f
00000110: 0000 803f 3333 b33f 6666 e63f cdcc 0c40
00000120: cdcc 0cc0 6666 e6bf 3333 b3bf 0000 80bf
00000130: 9a99 19bf cccc 4cbe cccc 4c3e 9a99 193f
00000140: 0000 803f 3333 b33f 6666 e63f cdcc 0c40
00000150: cdcc 0cc0 6666 e6bf 3333 b3bf 0000 80bf
00000160: 9a99 19bf cccc 4cbe cccc 4c3e 9a99 193f
00000170: 0000 803f 3333 b33f 6666 e63f cdcc 0c40
00000180: cdcc 0cc0 6666 e6bf 3333 b3bf 0000 80bf
00000190: 9a99 19bf cccc 4cbe cccc 4c3e 9a99 193f
000001a0: 0000 803f 3333 b33f 6666 e63f cdcc 0c40
000001b0: cdcc 0cc0 6666 e6bf 3333 b3bf 0000 80bf
000001c0: 9a99 19bf cccc 4cbe cccc 4c3e 9a99 193f
000001d0: 0000 803f 3333 b33f 6666 e63f cdcc 0c40
000001e0: cdcc 0cc0 6666 e6bf 3333 b3bf 0000 80bf
000001f0: 9a99 19bf cccc 4cbe cccc 4c3e 9a99 193f
00000200: 0000 803f 3333 b33f 6666 e63f cdcc 0c40
00000210: cdcc 0cc0 6666 e6bf 3333 b3bf 0000 80bf
00000220: 9a99 19bf cccc 4cbe cccc 4c3e 9a99 193f
00000230: 0000 803f 3333 b33f 6666 e63f cdcc 0c40
00000240: cdcc 0cc0 6666 e6bf 3333 b3bf 0000 80bf
00000250: 9a99 19bf cccc 4cbe cccc 4c3e 9a99 193f
00000260: 0000 803f 3333 b33f 6666 e63f cdcc 0c40
00000270: cdcc 0cc0 6666 e6bf 3333 b3bf 0000 80bf
00000280: 9a99 19bf cccc 4cbe cccc 4c3e 9a99 193f
00000290: 0000 803f 3333 b33f 6666 e63f cdcc 0c40
000002a0: cdcc 0cc0 6666 e6bf 3333 b3bf 0000 80bf
000002b0: 9a99 19bf cccc 4cbe cccc 4c3e 9a99 193f
000002c0: 0000 803f 3333 b33f 6666 e63f cdcc 0c40
000002d0: cdcc 0cc0 6666 e6bf 3333 b3bf 0000 80bf
000002e0: 9a99 19bf cccc 4cbe cccc 4c3e 9a99 193f
000002f0: 0000 803f 3333 b33f 6666 e63f cdcc 0c40
00000300: cdcc 0cc0 6666 e6bf 3333 b3bf 0000 80bf
00000310: 9a99 19bf cccc 4cbe cccc 4c3e 9a99 193f
00000320: 0000 803f 3333 b33f 6666 e63f cdcc 0c40
00000330: cdcc 0cc0 6666 e6bf 3333 b3bf 0000 80bf
00000340: 9a99 19bf cccc 4cbe cccc 4c3e 9a99 193f
00000350: 0000 803f 3333 b33f 6666 e63f cdcc 0c40
00000360: cdcc 0cc0 6666 e6bf 3333 b3bf 0000 80bf
00000370: 9a99 19bf cccc 4cbe cccc 4c3e 9a99 193f
00000380: 0000 803f 3333 b33f 6666 e63f cdcc 0c40
00000390: cdcc 0cc0 6666 e6bf 3333 b3bf 0000 80bf
000003a0: 9a99 19bf cccc 4cbe cccc 4c3e 9a99 193f
000003b0: 0000 803f 3333 b33f 6666 e63f cdcc 0c40
000003c0: cdcc 0cc0 6666 e6bf 3333 b3bf 0000 80bf
000003d0: 9a99 19bf cccc 4cbe cccc 4c3e 9a99 193f
000003e0: 0000 803f 3333 b33f 6666 e63f cdcc 0c40
000003f0: cdcc 0cc0 6666 e6bf 3333 b3bf 0000 80bf
-2.2 -1.8 -1.4 -1.0 -0.6 -0.19999999 0.19999999 0.6
1.0 1.4 1.8 2.2 -2.2 -1.8 -1.4 -1.0
-0.6 -0.19999999 0.19999999 0.6 1.0 1.4 1.8 2.2
-2.2 -1.8 -1.4 -1.0 -0.6 -0.19999999 0.19999999 0.6
1.0 1.4 1.8 2.2 -2.2 -1.8 -1.4 -1.0
-0.6 -0.19999999 0.19999999 0.6 1.0 1.4 1.8 2.2
-2.2 -1.8 -1.4 -1.0 -0.6 -0.19999999 0.19999999 0.6
1.0 1.4 1.8 2.2 -2.2 -1.8 -1.4 -1.0
-0.6 -0.19999999 0.19999999 0.6 1.0 1.4 1.8 2.2
-2.2 -1.8 -1.4 -1.0 -0.6 -0.19999999 0.19999999 0.6
1.0 1.4 1.8 2.2 -2.2 -1.8 -1.4 -1.0
-0.6 -0.19999999 0.19999999 0.6 1.0 1.4 1.8 2.2
-2.2 -1.8 -1.4 -1.0 -0.6 -0.19999999 0.19999999 0.6
1.0 1.4 1.8 2.2 -2.2 -1.8 -1.4 -1.0
-0.6 -0.19999999 0.19999999 0.6 1.0 1.4 1.8 2.2
-2.2 -1.8 -1.4 -1.0 -0.6 -0.19999999 0.19999999 0.6
1.0 1.4 1.8 2.2 -2.2 -1.8 -1.4 -1.0
-0.6 -0.19999999 0.19999999 0.6 1.0 1.4 1.8 2.2
-2.2 -1.8 -1.4 -1.0 -0.6 -0.19999999 0.19999999 0.6
1.0 1.4 1.8 2.2 -2.2 -1.8 -1.4 -1.0
-0.6 -0.19999999 0.19999999 0.6 1.0 1.4 1.8 2.2
-2.2 -1.8 -1.4 -1.0 -0.6 -0.19999999 0.19999999 0.6
1.0 1.4 1.8 2.2 -2.2 -1.8 -1.4 -1.0
-0.6 -0.19999999 0.19999999 0.6 1.0 1.4 1.8 2.2
-2.2 -1.8 -1.4 -1.0 -0.6 -0.19999999 0.19999999 0.6
1.0 1.4 1.8 2.2 -2.2 -1.8 -1.4 -1.0
-0.6 -0.19999999 0.19999999 0.6 1.0 1.4 1.8 2.2
-2.2 -1.8 -1.4 -1.0 -0.6 -0.19999999 0.19999999 0.6
1.0 1.4 1.8 2.2 -2.2 -1.8 -1.4 -1.0
-0.6 -0.19999999 0.19999999 0.6 1.0 1.4 1.8 2.2
-2.2 -1.8 -1.4 -1.0 -0.6 -0.19999999 0.19999999 0.6
1.0 1.4 1.8 2.2 -2.2 -1.8 -1.4 -1.0

act_fun.1.coef f4 [32, 16, 8]
00000000: bce5 443c 265e 3c3d 10f0 e53d ebf3 f03d
00000010: ca1f c73d 18c3 f2bd 8ca8 cabd a8f4 02bd
00000020: d0be 303c 0711 f83c b201 87bd 0ce3 a3bd
00000030: cee8 cc3d 5c04 2a3e f6fa 223e 0ab4 ea3d
00000040: 6413 1bbc e94a ffbc d28c dcbc 3d38 c8bd
00000050: eccb cf3d c9a2 2e3e c568 f43d f39f d13d
00000060: 9804 273c efdb 343d 40e1 e53d 176e db3d
00000070: e90a a83d 025c 1ebe 6157 a3bd 63d3 a0bc
00000080: 50c8 bbbb 448d 64bc 130f c6bd 3454 18be
00000090: 2213 f23d c358 ee3d 194e 263e 93a2 e13d
000000a0: c0c6 e8bb ff51 7ebc f91e abbd 7cd0 f5bd
000000b0: b65e 2e3e a45e ab3d 445e 313e e335 063e
000000c0: 485f bcbb ee40 d4bc b6e2 d33d d699 3f3e
000000d0: 1a84 903d 9a3a 99bd 8758 30be 8a0f ebbd
000000e0: 34af 1ebc ca63 22bc 89ae 3c3e f36a a93d
000000f0: 1589 653d 4648 30be 5db4 fcbd 6d7c 64bb
00000100: 8445 be3b b0f5 093d 170d 1a3e 51f5 193e
00000110: 3c41 89bc 4a69 a5bd ed50 2cbe c870 f7bd
00000120: 80f6 173c ed04 c63c 18db 9b3d 1d9b 2d3e
00000130: 35f4 7b3d 84af f2bd e4fd 09be b6ff 19bd
00000140: d0b7 d039 cf6d 34bc 2e3e 933d 272a 3a3e
00000150: 5d5b aebc 1941 c0bd 1186 0ebe 4642 95bd
00000160: 103c 113c 04cf bf3c 3d58 9cbd da4c d7bd
00000170: cd51 b83d 7179 0b3e 8851 123e 3724 d83d
00000180: b8e8 9dba 0d73 bebb ccfe d23d 01b8 f33d
00000190: 2855 a03d fc91 26be b960 52bd 73fd 27bb
000001a0: c681 863c b505 4a3d 424f 95bd 4cd5 8ebd
000001b0: 55ec f9bc 7084 e63d 11a8 a63d 220c 013d
000001c0: a0b7 0dbc bbce 12bd a444 dcbd 334d 9ebd
000001d0: 58c4 d53d f654 223e af1f c93d 04c7 c93d
000001e0: 9c3d 4239 cf92 cabb 7c4f d63d 65de 303e
000001f0: 2f41 aebc 9d55 1fbe 5b46 f6bd b9c0 24bd
00000200: c6e3 e9bd 1749 afbc 65b0 c33d 37a8 ca3d
00000210: dcdb 62bd 9b69 71bd 7034 8fbb c3cb 5b3d
00000220: 6af2 db3d a09d 593d 89b9 31bd f5fa 983b
00000230: 0458 b63d aadc 223e b914 df3d 0ef8 e53d
00000240: 8b25 f53d 5a07 023e f398 90bd d26a 933c
00000250: 092c ac3d 0b01 133e e33c e93d a536 dc3d
00000260: df3a afbd b20a 1e3e 9059 283e 1d44 573d
00000270: a643 693d 324f debd 0f9b d9bd 9b8f 9bbd
00000280: 262c ff3d 1855 9d3d 92c5 e6bd 8ed2 97bd
00000290: b16a 093e e057 fe3d b308 d73d 259d e83d
000002a0: cd84 fe3d 4e1b 273e 8171 0abe 5419 38bd
000002b0: 84d5 b53d 460c cd3d 910d 0d3e 017c 053e
000002c0: 81e9 cebd 75bb 5f3d 9077 013e 2689 0f3e
000002d0: 2628 93bc 2c1c d5bd 2ff4 14bd 44b3 f23b
000002e0: 9dae 64bd 1917 893d a6d9 ef3d 2b8d e13d
000002f0: ab61 49bd 28d0 9bbd 8386 f0bb 4bed 2dbc
00000300: c2c7 ccbd 2edb 423d 8d21 133e d93f e43d
00000310: f6f3 dbbc a90c a2bd 0d26 b0bb fe5c 36b9
00000320: 57ba ccbd ecc6 1f3e 04c5 023e a4f9 1b3e
00000330: 7b53 3abd 0bde 6fbd 4ae6 97bd 701c c4bc
00000340: c731 f3bd 172f 32bd 3b46 3f3e 317d 3c3d
00000350: 9fb5 c63c ebe3 1dbe 6746 123a 7659 0b3d
00000360: 62a8 fc3d 9992 243e a477 5bbd a3f7 e1bc
00000370: f86d 9a3d d046 313e ef76 d23d 95a7 ec3d
00000380: 7595 c3bd 8324 823c d31f 1b3e 0b1d 7f3d
00000390: 1f3b 863d cfeb 8abd 246e ac3c 0807 1d3d
000003a0: 0361 fcbc 667c 03bd 4bab 483d 45be a93c
000003b0: fd67 5e3c 2a2a e23d f59b 163c 03c8 8dbc
000003c0: 5c39 dd3d 6ea0 c23d 353c aabd 9b61 eb3c
000003d0: 3c07 803d de58 203e fde8 153e ecb0 fb3d
000003e0: 83b0 04be 0f06 4ebd 6fa0 3c3e b74f a83d
000003f0: 95a4 aabd 5dab 5bbd c2ee 98bd 24ed 09bd
0.012017664 0.045988224 0.11227429 0.11765274 0.0972286 -0.118536174 -0.09895429 -0.031971604
0.010787681 0.030281557 -0.0659212 -0.0800229 0.100053415 0.16603225 0.15916047 0.11460121
-0.009465072 -0.03116365 -0.026922617 -0.097763516 0.10146317 0.17054285 0.11934046 0.10235586
0.010193966 0.044155058 0.11224604 0.10714357 0.08205206 -0.15464786 -0.079756506 -0.019632047
-0.005730666 -0.013949696 -0.09670844 -0.14875871 0.118200555 0.11638024 0.1624073 0.11017337
-0.007103771 -0.015522479 -0.08355517 -0.12002656 0.17028317 0.08367661 0.17321116 0.13106494
-0.005748663 -0.025909867 0.10345976 0.18711028 0.070564464 -0.074818805 -0.1722127 -0.11477573
-0.009685326 -0.009911487 0.18425955 0.08272352 0.056038935 -0.1721507 -0.12339089 -0.0034864203
0.0058066268 0.03368157 0.15044056 0.15034987 -0.016754739 -0.08076723 -0.16827746 -0.12082058
0.009275079 0.02417227 0.07610148 0.16953702 0.06151219 -0.11849883 -0.13475758 -0.03759738
0.00039809803 -0.0110125085 0.07189594 0.18180142 -0.0212838 -0.093874164 -0.1391833 -0.07288031
0.008864418 0.023414142 -0.076340176 -0.10512705 0.08999977 0.13620545 0.14288914 0.105537824
-0.0012047505 -0.005812055 0.10302505 0.1190033 0.07828742 -0.16266626 -0.051361773 -0.0025633245
0.016419303 0.04932185 -0.07290508 -0.06974277 -0.0305082 0.11255729 0.08137525 0.03150571
-0.008649737 -0.035841685 -0.1075528 -0.07729568 0.1043784 0.15852723 0.09820496 0.09852412
0.00018524233 -0.0061820517 0.10464379 0.17272337 -0.021271316 -0.15560003 -0.12025138 -0.040222857
-0.114203975 -0.021397157 0.09555129 0.09895366 -0.055385455 -0.058938604 -0.0043702647 0.05366112
0.10739596 0.05312884 -0.04338983 0.0046685883 0.089035064 0.15904489 0.108926244 0.11228953
0.119700514 0.12698117 -0.07060423 0.017995272 0.084068365 0.14355867 0.11388566 0.1075261
-0.08556151 0.15433767 0.16440415 0.052555192 0.05694928 -0.10854949 -0.10625278 -0.0759575
0.124595925 0.07682246 -0.11268152 -0.07413207 0.13419606 0.124191046 0.10499706 0.11358098
0.124276735 0.1631901 -0.13519861 -0.04494603 0.088786155 0.100121066 0.13774706 0.13035585
-0.10103131 0.054622132 0.12643266 0.14017162 -0.01796348 -0.10405764 -0.036365684 0.007406624
-0.055830587 0.06693859 0.11711435 0.11013254 -0.04916541 -0.07608062 -0.007340254 -0.010615657
-0.09999038 0.047572307 0.14368267 0.111449905 -0.026849728 -0.07912571 -0.0053756298 -0.00017391515
-0.09996479 0.15603226 0.12770468 0.15231949 -0.04548977 -0.058561366 -0.07416971 -0.023939341
-0.11874729 -0.04350194 0.18679135 0.04601783 0.024256526 -0.15418975 0.0005579949 0.034020863
0.12336804 0.16071548 -0.053580895 -0.027583903 0.07540506 0.17312169 0.10276591 0.11555401
-0.09549991 0.01588655 0.15148859 0.062283557 0.06554245 -0.06783258 0.021048613 0.038336784
-0.030807978 -0.032101057 0.048991483 0.02072061 0.013574597 0.110431984 0.0091924565 -0.017307287
0.10801956 0.09503256 -0.08312265 0.028733065 0.0625138 0.156589 0.14639659 0.122896045
-0.12957959 -0.050298747 0.18420576 0.082183294 -0.08332173 -0.05363022 -0.074674144 -0.03367342

act_fun.1.mask f4 [32, 16]
00000000: 0000 803f 0000 803f 0000 803f 0000 803f
00000010: 0000 803f 0000 803f 0000 803f 0000 803f
00000020: 0000 803f 0000 803f 0000 803f 0000 803f
00000030: 0000 803f 0000 803f 0000 803f 0000 803f
00000040: 0000 803f 0000 803f 0000 803f 0000 803f
00000050: 0000 803f 0000 803f 0000 803f 0000 803f
00000060: 0000 803f 0000 803f 0000 803f 0000 803f
00000070: 0000 803f 0000 803f 0000 803f 0000 803f
00000080: 0000 803f 0000 803f 0000 803f 0000 803f
00000090: 0000 803f 0000 803f 0000 803f 0000 803f
000000a0: 0000 803f 0000 803f 0000 803f 0000 803f
000000b0: 0000 803f 0000 803f 0000 803f 0000 803f
000000c0: 0000 803f 0000 803f 0000 803f 0000 803f
000000d0: 0000 803f 0000 803f 0000 803f 0000 803f
000000e0: 0000 803f 0000 803f 0000 803f 0000 803f
000000f0: 0000 803f 0000 803f 0000 803f 0000 803f
00000100: 0000 803f 0000 803f 0000 803f 0000 803f
00000110: 0000 803f 0000 803f 0000 803f 0000 803f
00000120: 0000 803f 0000 803f 0000 803f 0000 803f
00000130: 0000 803f 0000 803f 0000 803f 0000 803f
00000140: 0000 803f 0000 803f 0000 803f 0000 803f
00000150: 0000 803f 0000 803f 0000 803f 0000 803f
00000160: 0000 803f 0000 803f 0000 803f 0000 803f
00000170: 0000 803f 0000 803f 0000 803f 0000 803f
00000180: 0000 803f 0000 803f 0000 803f 0000 803f
00000190: 0000 803f 0000 803f 0000 803f 0000 803f
000001a0: 0000 803f 0000 803f 0000 803f 0000 803f
000001b0: 0000 803f 0000 803f 0000 803f 0000 803f
000001c0: 0000 803f 0000 803f 0000 803f 0000 803f
000001d0: 0000 803f 0000 803f 0000 803f 0000 803f
000001e0: 0000 803f 0000 803f 0000 803f 0000 803f
000001f0: 0000 803f 0000 803f 0000 803f 0000 803f
00000200: 0000 803f 0000 803f 0000 803f 0000 803f
00000210: 0000 803f 0000 803f 0000 803f 0000 803f
00000220: 0000 803f 0000 803f 0000 803f 0000 803f
00000230: 0000 803f 0000 803f 0000 803f 0000 803f
00000240: 0000 803f 0000 803f 0000 803f 0000 803f
00000250: 0000 803f 0000 803f 0000 803f 0000 803f
00000260: 0000 803f 0000 803f 0000 803f 0000 803f
00000270: 0000 803f 0000 803f 0000 803f 0000 803f
00000280: 0000 803f 0000 803f 0000 803f 0000 803f
00000290: 0000 803f 0000 803f 0000 803f 0000 803f
000002a0: 0000 803f 0000 803f 0000 803f 0000 803f
000002b0: 0000 803f 0000 803f 0000 803f 0000 803f
000002c0: 0000 803f 0000 803f 0000 803f 0000 803f
000002d0: 0000 803f 0000 803f 0000 803f 0000 803f
000002e0: 0000 803f 0000 803f 0000 803f 0000 803f
000002f0: 0000 803f 0000 803f 0000 803f 0000 803f
00000300: 0000 803f 0000 803f 0000 803f 0000 803f
00000310: 0000 803f 0000 803f 0000 803f 0000 803f
00000320: 0000 803f 0000 803f 0000 803f 0000 803f
00000330: 0000 803f 0000 803f 0000 803f 0000 803f
00000340: 0000 803f 0000 803f 0000 803f 0000 803f
00000350: 0000 803f 0000 803f 0000 803f 0000 803f
00000360: 0000 803f 0000 803f 0000 803f 0000 803f
00000370: 0000 803f 0000 803f 0000 803f 0000 803f
00000380: 0000 803f 0000 803f 0000 803f 0000 803f
00000390: 0000 803f 0000 803f 0000 803f 0000 803f
000003a0: 0000 803f 0000 803f 0000 803f 0000 803f
000003b0: 0000 803f 0000 803f 0000 803f 0000 803f
000003c0: 0000 803f 0000 803f 0000 803f 0000 803f
000003d0: 0000 803f 0000 803f 0000 803f 0000 803f
000003e0: 0000 803f 0000 803f 0000 803f 0000 803f
000003f0: 0000 803f 0000 803f 0000 803f 0000 803f
1.0 1.0 1.0 1.0 1.0 1.0 1.0 1.0
1.0 1.0 1.0 1.0 1.0 1.0 1.0 1.0
1.0 1.0 1.0 1.0 1.0 1.0 1.0 1.0
1.0 1.0 1.0 1.0 1.0 1.0 1.0 1.0
1.0 1.0 1.0 1.0 1.0 1.0 1.0 1.0
1.0 1.0 1.0 1.0 1.0 1.0 1.0 1.0
1.0 1.0 1.0 1.0 1.0 1.0 1.0 1.0
1.0 1.0 1.0 1.0 1.0 1.0 1.0 1.0
1.0 1.0 1.0 1.0 1.0 1.0 1.0 1.0
1.0 1.0 1.0 1.0 1.0 1.0 1.0 1.0
1.0 1.0 1.0 1.0 1.0 1.0 1.0 1.0
1.0 1.0 1.0 1.0 1.0 1.0 1.0 1.0
1.0 1.0 1.0 1.0 1.0 1.0 1.0 1.0
1.0 1.0 1.0 1.0 1.0 1.0 1.0 1.0
1.0 1.0 1.0 1.0 1.0 1.0 1.0 1.0
1.0 1.0 1.0 1.0 1.0 1.0 1.0 1.0
1.0 1.0 1.0 1.0 1.0 1.0 1.0 1.0
1.0 1.0 1.0 1.0 1.0 1.0 1.0 1.0
1.0 1.0 1.0 1.0 1.0 1.0 1.0 1.0
1.0 1.0 1.0 1.0 1.0 1.0 1.0 1.0
1.0 1.0 1.0 1.0 1.0 1.0 1.0 1.0
1.0 1.0 1.0 1.0 1.0 1.0 1.0 1.0
1.0 1.0 1.0 1.0 1.0 1.0 1.0 1.0
1.0 1.0 1.0 1.0 1.0 1.0 1.0 1.0
1.0 1.0 1.0 1.0 1.0 1.0 1.0 1.0
1.0 1.0 1.0 1.0 1.0 1.0 1.0 1.0
1.0 1.0 1.0 1.0 1.0 1.0 1.0 1.0
1.0 1.0 1.0 1.0 1.0 1.0 1.0 1.0
1.0 1.0 1.0 1.0 1.0 1.0 1.0 1.0
1.0 1.0 1.0 1.0 1.0 1.0 1.0 1.0
1.0 1.0 1.0 1.0 1.0 1.0 1.0 1.0
1.0 1.0 1.0 1.0 1.0 1.0 1.0 1.0

act_fun.1.scale_base f4 [32, 16]
00000000: 057d edbd 24b2 163e e2a4 be3c c5af 77bd
00000010: 348a 203e 0dd3 783e b052 b3bb 46c4 85be
00000020: 5c59 7dbe a2b9 3bbe 7bea 7abe f181 383e
00000030: 60df 6abe 3f96 3abd eceb 303e f471 72bc
00000040: 580f 1cbe d99a 8cbd 625a 073e 7231 cbbb
00000050: 936d 773e cdd7 073e fe9d bf3c 1b5b 88be
00000060: d1f6 8e3d 86fe 5cbe a5e7 59be 5edc 763e
00000070: ab26 03be 37d5 d23d 7904 87bc 8b61 c43c
00000080: b5ee 553d b72a 373e 2a97 883e 6914 7dbe
00000090: 6d03 b63d 8d30 373e 8012 93bc 9be2 57be
000000a0: 3eaa c7bb 2eb3 3abe fac9 54be 99e6 253e
000000b0: 4c48 83be c013 a7bd d7a8 3b3e 50a1 80bd
000000c0: cbb4 363e feb6 07be 5ce5 75be 419d 15bd
000000d0: 92b8 7f3d 2c42 8abe 40a6 263e 6541 853e
000000e0: f3ad 793e 815d eab9 9ed1 4c3d 528a 82be
000000f0: 1a67 5b3e 4341 28be 4a6e 8bbe 3937 5bba
00000100: 7002 233e 1f92 6b3e b954 5d3e da7f e83c
00000110: 2254 9c3c 697a c03c d7bd 57be ad58 73bd
00000120: 6d7d 0abd 6d21 97bd c569 31be e255 083e
00000130: c39f debd 50c0 75bd d10c b53d 31c0 27bc
00000140: 7e68 02bd b9b2 063d 182e 42be 7634 273e
00000150: 9eef 3a3b 9b38 46bd 7e25 723e b1c8 5e3e
00000160: daf9 763e 110a 1c3e 5bc2 653e aa70 4fbe
00000170: b703 293c c5b7 9eb9 4c72 90bd 6742 dd3d
00000180: b101 86be 0f17 333e ee64 6d3e 3882 01be
00000190: 8cad 223e 6c9e 4c3e c5b9 91be 3894 12be
000001a0: f216 34be 0dfd 4ebe 632c 6dbb 6d03 993e
000001b0: 47d0 9dbd b9d0 473e 2819 6bbc 39d7 acbd
000001c0: 90d0 c8bd 61d5 a4ba d746 103e 5f2b 15bd
000001d0: 9bb9 c73d 5a91 423e 7141 27bc e425 613d
000001e0: c0b8 b1bd ac40 b8bd c128 bfbd 104c 113e
000001f0: 981c 4abe 16a4 633d 0732 2dbd 00d3 29be
00000200: ae9a 88be 1390 803e 4a9f 963c 5e3b febd
00000210: 06a5 0d3e 4e87 8f3e a86b 06bd 0a2c 79be
00000220: a1ad 753d 3766 90be 69fd b2bd 1d61 933e
00000230: 60a6 453d 0263 353d 33ca 0d3b 533e 1cbd
00000240: 95f8 7e3e 0032 57be 633a 18be dab7 91bc
00000250: b8ec 51bd 952d adbd 8c1e 483e acdd 3b3d
00000260: 8e7e 7fbd fdcf 013d 37b4 a3bc 0e35 2abe
00000270: 01b6 333e c846 6abe 1f73 fabd 0761 4ebd
00000280: d383 62bc 65d9 6ebe fce8 2ebe 7d14 8b3c
00000290: 143c 9fbd bf29 19bc 415c 793e 9616 323e
000002a0: 917f dd3d f7e8 a33d 9d5d 663e a6e7 5bbe
000002b0: 49bd 6b3e 86cb 2dbe 879d 77be ef0f 283e
000002c0: 6fbb 3bbe c2ce 163e 6e70 8a3e ed60 d1bc
000002d0: 4ae3 913e d866 3d3d 48dd 46be 668f 0dbe
000002e0: a269 14be 2f9c 41be 7dca f2bd 688f 8e3e
000002f0: cd5a 4ebe e92f 383e 1776 493e aa5c 6bbc
00000300: 8765 84bc 993d 803d 1205 4a3e e9de 48be
00000310: ee32 223c 37f7 943e 985e 013d 7f54 73be
00000320: f33a e93c 0c2f abbd b581 8abd 9414 9b3e
00000330: 4a2b f7bd d0a9 b03c 5e1c 733e e39c 21be
00000340: 6b24 22be 2799 4b3d cc9f 963e a764 cabc
00000350: 0687 bd3d 88c5 f63d c1e1 ccbd c582 62be
00000360: c1d0 7fbd a1a8 80be 3c99 f4bd ee04 c23d
00000370: e367 34be 27ab 7f3e c441 2e3e 2f0b ebbc
00000380: 5f63 30bb 23e1 b8bd 11ce 83bd 620b 593e
00000390: 3dba 2ebe e0c7 23be 3d7e b9bc 1f40 6f3e
000003a0: 6ce4 753e eb5c 513e 782b 593e 5234 35bc
000003b0: 434c 923e 6997 753c 9ace 67bd fe37 2e3e
000003c0: a557 1cbe 6b8e 213e 36f3 263e d625 70be
000003d0: 414b 813d 361d 093c a28d 58be 87f0 8f3c
000003e0: db96 1a3d 2b0d f7bd e54b 3cbd 150a a83d
000003f0: 81aa a13b 6795 453d a4f2 a83c 32c8 cdbd
-0.11596111 0.14716393 0.023271982 -0.06047036 0.1567772 0.2429926 -0.0054725036 -0.26126307
-0.24741119 -0.18332532 -0.2450351 0.18018319 -0.22936773 -0.045553442 0.17277497 -0.014797676
-0.15240228 -0.06865472 0.13218072 -0.0062009627 0.24162893 0.13265915 0.023390766 -0.26632008
0.0698067 -0.21581468 -0.21279772 0.24107501 -0.1280772 0.10294574 -0.016481625 0.023972293
0.052229602 0.17887388 0.2667783 -0.24714817 0.08887372 0.17889614 -0.017953157 -0.21082537
-0.0060932925 -0.18232414 -0.20780173 0.16201247 -0.25641096 -0.08158064 0.18326126 -0.06280768
0.17842405 -0.132534 -0.24013275 -0.036526922 0.06243188 -0.2700361 0.16274357 0.26026455
0.24382763 -0.00044701624 0.050004594 -0.25496155 0.21426049 -0.16431145 -0.2723258 -0.0008362416
0.15918899 0.2300496 0.2161435 0.028381277 0.019083086 0.02349587 -0.21068512 -0.05941074
-0.03381102 -0.07379422 -0.17325504 0.13314012 -0.10870316 -0.059997857 0.08840335 -0.010238693
-0.031837933 0.032885287 -0.18962896 0.16328606 0.002852417 -0.048393827 0.23647115 0.21756245
0.24118748 0.15238215 0.22437422 -0.20257822 0.010315827 -0.00030273027 -0.070530504 0.10803681
-0.26173165 0.17489265 0.23183033 -0.12647331 0.15886515 0.19982308 -0.28462043 -0.14314353
-0.17586878 -0.20213719 -0.0036189787 0.29885426 -0.077057414 0.19513215 -0.014349259 -0.08439488
-0.09805405 -0.0012575799 0.14089523 -0.036418315 0.09752198 0.1900076 -0.010208474 0.054967776
-0.086778164 -0.0899671 -0.09333945 0.14189172 -0.1973747 0.055576406 -0.042284038 -0.16584396
-0.2668051 0.2510992 0.018386502 -0.12413667 0.13832483 0.28032917 -0.032817513 -0.24333206
0.05998004 -0.28202984 -0.087397404 0.2878503 0.04825437 0.044283874 0.0021635413 -0.038145375
0.24899514 -0.21015167 -0.14866023 -0.017787863 -0.051251143 -0.0845596 0.19542903 0.0458657
-0.06237655 0.031692494 -0.019983394 -0.16621801 0.17549898 -0.22878563 -0.12228989 -0.0503855
-0.013825375 -0.23325117 -0.17081064 0.016977543 -0.07775131 -0.009348332 0.24351598 0.17391428
0.10815347 0.08003419 0.22496648 -0.21475086 0.23021425 -0.1697217 -0.24181186 0.16412328
-0.18333219 0.1472731 0.27038902 -0.025558913 0.2849372 0.046240658 -0.1942035 -0.13824233
-0.1449342 -0.18907236 -0.11855028 0.27843785 -0.20151825 0.17987026 0.19673954 -0.014365355
-0.016161693 0.06261749 0.19728497 -0.19616283 0.009899838 0.2909486 0.031584352 -0.23762701
0.028470492 -0.08358583 -0.06763021 0.30289137 -0.120688036 0.021565348 0.2374129 -0.15782504
-0.15834205 0.049706604 0.2941879 -0.024706198 0.09254269 0.12049395 -0.10003997 -0.22120197
-0.062454943 -0.25128654 -0.1194329 0.094735965 -0.17617755 0.24967633 0.17017275 -0.028691856
-0.0026914699 -0.090273164 -0.064357884 0.21195748 -0.17063232 -0.15994215 -0.022643203 0.23364304
0.24012917 0.20445602 0.21207988 -0.011059837 0.28573808 0.014989712 -0.056593515 0.17013547
-0.15267809 0.15776984 0.16303715 -0.23451933 0.06313182 0.008368781 -0.21147779 0.017570747
0.037741523 -0.120630585 -0.045970816 0.08205048 0.0049336557 0.048238184 0.020623513 -0.1004795

act_fun.1.scale_sp f4 [32, 16]
00000000: 147c 9c3e 6c60 953e 7941 9d3e a7a2 9c3e
00000010: 3a1c 9d3e c10a 943e 9d52 9c3e d368 903e
00000020: 32e6 9c3e 63a2 9c3e 556f 9b3e 534c 9c3e
00000030: 2869 9c3e 50fb 6a3e 0d42 903e 8647 9b3e
00000040: b2f8 853e d625 9a3e ffaa 9a3e f1da 8d3e
00000050: b737 993e 8789 9a3e 3236 983e fe6e 8b3e
00000060: 2bbc 973e 72be 993e e00d 973e 94ac 973e
00000070: feaa 8f3e 59dd 2e3e 1ddd 993e 3f7d 9c3e
00000080: 0174 953e 5ad9 9a3e a94f 9b3e 0fa0 8e3e
00000090: 8fba 903e cec6 9b3e 2cfd 8a3e 9593 963e
000000a0: bb64 9e3e b9ea 963e 46fd 973e 54b0 993e
000000b0: 58c9 983e 698a 823e a8dc 8e3e 5066 963e
000000c0: 60c9 853e a0c3 983e 71c9 993e 6e72 7d3e
000000d0: f860 993e 302c 9c3e 0f16 9a3e 1665 7d3e
000000e0: a953 983e 6082 863e a80d 8b3e 340c 993e
000000f0: 26cc 973e 5697 0e3e 6b3d 933e 1986 993e
00000100: f9dd 8e3e ccd1 983e 4353 9b3e 66a7 923e
00000110: bb60 993e 19af 9e3e 86a0 9b3e b9b9 9d3e
00000120: 4345 9a3e 7f8f 9b3e 8991 9b3e 699d 983e
00000130: 9666 6e3e 9a2f 923e 719e 853e 0770 993e
00000140: a5f7 7d3e 0ee0 983e 7f72 8c3e 15ee 863e
00000150: 04e2 963e d04c 8a3e 5ac6 8f3e a335 9b3e
00000160: 98e4 9a3e c6ec 8a3e c0d3 983e bc64 9c3e
00000170: 3e8b 813e b77d 8a3e 5500 9b3e 45cc 8a3e
00000180: 098f 5d3e baab 533e ac82 833e e5ad 993e
00000190: 713d 9d3e a690 9b3e 8981 9b3e 14f1 953e
000001a0: 7ad4 8b3e fcbf 5e3e 1f74 9b3e 4e7c 993e
000001b0: 74ed 933e f771 723e c05b 9b3e 9dcf 9b3e
000001c0: b4da 953e dabf 983e ff9c 963e 5bbd 683e
000001d0: b8f0 983e 5bec 7a3e 6a23 9a3e 6384 9c3e
000001e0: 35e0 8e3e 1a4c 873e 6e69 873e a73e 7d3e
000001f0: 17c2 873e 79cf 5e3e 4d51 9a3e cb2a 9b3e
00000200: 8907 9b3e 1213 9d3e 653a 913e 92f6 753e
00000210: c885 9b3e 8317 8e3e 47fe 9a3e 1cc7 9d3e
00000220: aa9b 8a3e 0193 763e 3f68 9b3e cc87 9d3e
00000230: 2633 993e 962c 593e 0c14 763e 4f17 8a3e
00000240: 09b9 9a3e 8af1 893e e394 9c3e 8754 9b3e
00000250: 4185 9e3e ef8d 9e3e 8bf3 9c3e 5491 8a3e
00000260: 17c3 8f3e f956 6c3e 2388 7e3e 83de 8f3e
00000270: d3ac 9d3e 8fa7 3a3e 6735 973e 2fe4 8f3e
00000280: e83d 8a3e de7f 6b3e 8e48 6e3e 4575 893e
00000290: 66ce 983e b6c2 983e 83a6 8d3e c798 973e
000002a0: b99a 853e 231d 993e 37b1 833e 0c5a 9b3e
000002b0: 1d6c 893e 2bca 4c3e ca54 983e 74d1 8c3e
000002c0: ca72 9a3e c35b 9a3e 9474 983e 7047 983e
000002d0: c726 983e a847 873e c135 993e 03b9 9b3e
000002e0: 1eb7 923e d52b 9d3e 7ea5 963e 6197 843e
000002f0: 76d0 903e e766 6e3e 89f5 923e b652 9c3e
00000300: cef7 813e 0e54 9a3e 696c 973e 3c3a 993e
00000310: b8c2 813e 86ab 9e3e e594 9c3e 2621 8f3e
00000320: d757 723e c58c 9d3e 0590 793e 89c4 943e
00000330: 68fb 9b3e 7300 963e cfad 9a3e 78ff 8d3e
00000340: 7e53 9c3e 10b7 9e3e ab7b 943e a4fe 903e
00000350: 5e53 9f3e 764f 863e 5bc7 7f3e 9424 8e3e
00000360: a6fc 9b3e 4aa6 653e a56d 8b3e a5f8 8f3e
00000370: 124f 9a3e e81b 9c3e 43ef 783e 6114 953e
00000380: 9b75 7f3e f7a3 693e aa85 913e 3461 9c3e
00000390: 746e 9d3e 3872 973e 1432 9c3e ebba 9e3e
000003a0: 2df4 843e 14c1 913e 630e 9b3e 1520 993e
000003b0: 7d2f 9a3e 11f3 8c3e ef91 7f3e 0072 993e
000003c0: 1fe0 973e b991 9a3e da1d 9d3e 7e7b 8d3e
000003d0: 6065 803e 36fa 943e ec94 9b3e ec0d 9d3e
000003e0: 6fc2 993e f1bd 993e 3113 713e db67 9a3e
000003f0: a185 983e b969 9b3e 00cb 913e 6866 9a3e
0.30563414 0.29175127 0.30714014 0.30592844 0.30685598 0.28914455 0.3053178 0.28204975
0.30644375 0.3059264 0.30358377 0.3052698 0.30548978 0.2294743 0.28175393 0.30328006
0.26166302 0.30106992 0.30208585 0.27706102 0.2992532 0.3018305 0.29728848 0.27233118
0.29635748 0.3002811 0.29502773 0.29623854 0.28060144 0.17076625 0.3005151 0.30564305
0.29190066 0.3024395 0.30334213 0.2785649 0.28267333 0.30425113 0.2714628 0.2940947
0.30936226 0.29475954 0.2968542 0.3001734 0.29841113 0.25496224 0.27902722 0.29374933
0.261302 0.2983675 0.300365 0.24750683 0.29956794 0.30502462 0.30094954 0.24745592
0.29751328 0.26271343 0.27158856 0.29892123 0.2964794 0.13924918 0.28757796 0.2998512
0.27903727 0.29847562 0.3033696 0.2864334 0.29956612 0.30992964 0.30395907 0.30805758
0.30130967 0.30382916 0.30384472 0.29807594 0.23281321 0.28551942 0.26097444 0.29968283
0.248015 0.2985844 0.27431104 0.26353517 0.2946931 0.27011728 0.28081018 0.3031436
0.30252528 0.2713377 0.29849052 0.30545604 0.25301546 0.27049038 0.3027369 0.2710897
0.21636595 0.20670977 0.25685632 0.30015483 0.3071094 0.30383795 0.30372265 0.2928549
0.27310544 0.21752924 0.3036203 0.2997765 0.288921 0.23676287 0.30343437 0.30431834
0.2926842 0.2983387 0.29416654 0.22728483 0.29871154 0.24504225 0.30105144 0.30569753
0.2790543 0.26425248 0.26447624 0.24730931 0.26515266 0.21758832 0.30140153 0.30306086
0.30279186 0.30678612 0.28364864 0.2401984 0.30375504 0.27752313 0.30272123 0.3081597
0.27071887 0.24079515 0.3035297 0.30767667 0.29921836 0.21208414 0.24031085 0.26970908
0.30219296 0.26942092 0.30582342 0.30337927 0.3096104 0.30967662 0.3065456 0.27064002
0.2807853 0.23080052 0.2485662 0.2809945 0.30795917 0.18227981 0.2953293 0.28103778
0.27000356 0.22997996 0.23269865 0.26847282 0.2984497 0.29836053 0.276661 0.29608747
0.26094607 0.29905042 0.25721142 0.30342138 0.26840296 0.19998996 0.2975219 0.2750355
0.30165702 0.30148134 0.29776442 0.29742002 0.29717085 0.26421857 0.29923823 0.3041459
0.28655332 0.30697504 0.29423136 0.25896743 0.28284043 0.23281442 0.28702953 0.30531853
0.25384372 0.30142254 0.29574898 0.29927242 0.2534387 0.30990237 0.30582348 0.27954978
0.2366632 0.3077146 0.24371345 0.29056194 0.30465245 0.29297218 0.3021073 0.2773397
0.3053245 0.3099904 0.290006 0.28319275 0.31118292 0.262325 0.24978392 0.27762282
0.30466193 0.22426715 0.2723209 0.28119388 0.3013845 0.3049004 0.24310021 0.2911711
0.24947207 0.22816454 0.2842229 0.3054291 0.30748332 0.2957933 0.30506957 0.31001982
0.2596754 0.2846762 0.30284414 0.2990729 0.30114356 0.27529195 0.24958013 0.29969788
0.29663178 0.30189303 0.30686837 0.2763328 0.25077343 0.29097146 0.30387056 0.30674684
0.30031154 0.30027726 0.23542477 0.3015736 0.2978945 0.30354097 0.2847519 0.30156255

act_fun.2.grid f4 [16, 12]
00000000: cdcc 0cc0 6666 e6bf 3333 b3bf 0000 80bf
00000010: 9a99 19bf cccc 4cbe cccc 4c3e 9a99 193f
00000020: 0000 803f 3333 b33f 6666 e63f cdcc 0c40
00000030: cdcc 0cc0 6666 e6bf 3333 b3bf 0000 80bf
00000040: 9a99 19bf cccc 4cbe cccc 4c3e 9a99 193f
00000050: 0000 803f 3333 b33f 6666 e63f cdcc 0c40
00000060: cdcc 0cc0 6666 e6bf 3333 b3bf 0000 80bf
00000070: 9a99 19bf cccc 4cbe cccc 4c3e 9a99 193f
00000080: 0000 803f 3333 b33f 6666 e63f cdcc 0c40
00000090: cdcc 0cc0 6666 e6bf 3333 b3bf 0000 80bf
000000a0: 9a99 19bf cccc 4cbe cccc 4c3e 9a99 193f
000000b0: 0000 803f 3333 b33f 6666 e63f cdcc 0c40
000000c0: cdcc 0cc0 6666 e6bf 3333 b3bf 0000 80bf
000000d0: 9a99 19bf cccc 4cbe cccc 4c3e 9a99 193f
000000e0: 0000 803f 3333 b33f 6666 e63f cdcc 0c40
000000f0: cdcc 0cc0 6666 e6bf 3333 b3bf 0000 80bf
00000100: 9a99 19bf cccc 4cbe cccc 4c3e 9a99 193f
00000110: 0000 803f 3333 b33f 6666 e63f cdcc 0c40
00000120: cdcc 0cc0 6666 e6bf 3333 b3bf 0000 80bf
00000130: 9a99 19bf cccc 4cbe cccc 4c3e 9a99 193f
00000140: 0000 803f 3333 b33f 6666 e63f cdcc 0c40
00000150: cdcc 0cc0 6666 e6bf 3333 b3bf 0000 80bf
00000160: 9a99 19bf cccc 4cbe cccc 4c3e 9a99 193f
00000170: 0000 803f 3333 b33f 6666 e63f cdcc 0c40
00000180: cdcc 0cc0 6666 e6bf 3333 b3bf 0000 80bf
00000190: 9a99 19bf cccc 4cbe cccc 4c3e 9a99 193f
000001a0: 0000 803f 3333 b33f 6666 e63f cdcc 0c40
000001b0: cdcc 0cc0 6666 e6bf 3333 b3bf 0000 80bf
000001c0: 9a99 19bf cccc 4cbe cccc 4c3e 9a99 193f
000001d0: 0000 803f 3333 b33f 6666 e63f cdcc 0c40
000001e0: cdcc 0cc0 6666 e6bf 3333 b3bf 0000 80bf
000001f0: 9a99 19bf cccc 4cbe cccc 4c3e 9a99 193f
00000200: 0000 803f 3333 b33f 6666 e63f cdcc 0c40
00000210: cdcc 0cc0 6666 e6bf 3333 b3bf 0000 80bf
00000220: 9a99 19bf cccc 4cbe cccc 4c3e 9a99 193f
00000230: 0000 803f 3333 b33f 6666 e63f cdcc 0c40
00000240: cdcc 0cc0 6666 e6bf 3333 b3bf 0000 80bf
00000250: 9a99 19bf cccc 4cbe cccc 4c3e 9a99 193f
00000260: 0000 803f 3333 b33f 6666 e63f cdcc 0c40
00000270: cdcc 0cc0 6666 e6bf 3333 b3bf 0000 80bf
00000280: 9a99 19bf cccc 4cbe cccc 4c3e 9a99 193f
00000290: 0000 803f 3333 b33f 6666 e63f cdcc 0c40
000002a0: cdcc 0cc0 6666 e6bf 3333 b3bf 0000 80bf
000002b0: 9a99 19bf cccc 4cbe cccc 4c3e 9a99 193f
000002c0: 0000 803f 3333 b33f 6666 e63f cdcc 0c40
000002d0: cdcc 0cc0 6666 e6bf 3333 b3bf 0000 80bf
000002e0: 9a99 19bf cccc 4cbe cccc 4c3e 9a99 193f
000002f0: 0000 803f 3333 b33f 6666 e63f cdcc 0c40
-2.2 -1.8 -1.4 -1.0 -0.6 -0.19999999 0.19999999 0.6
1.0 1.4 1.8 2.2 -2.2 -1.8 -1.4 -1.0
-0.6 -0.19999999 0.19999999 0.6 1.0 1.4 1.8 2.2
-2.2 -1.8 -1.4 -1.0 -0.6 -0.19999999 0.19999999 0.6
1.0 1.4 1.8 2.2 -2.2 -1.8 -1.4 -1.0
-0.6 -0.19999999 0.19999999 0.6 1.0 1.4 1.8 2.2
-2.2 -1.8 -1.4 -1.0 -0.6 -0.19999999 0.19999999 0.6
1.0 1.4 1.8 2.2 -2.2 -1.8 -1.4 -1.0
-0.6 -0.19999999 0.19999999 0.6 1.0 1.4 1.8 2.2
-2.2 -1.8 -1.4 -1.0 -0.6 -0.19999999 0.19999999 0.6
1.0 1.4 1.8 2.2 -2.2 -1.8 -1.4 -1.0
-0.6 -0.19999999 0.19999999 0.6 1.0 1.4 1.8 2.2
-2.2 -1.8 -1.4 -1.0 -0.6 -0.19999999 0.19999999 0.6
1.0 1.4 1.8 2.2 -2.2 -1.8 -1.4 -1.0
-0.6 -0.19999999 0.19999999 0.6 1.0 1.4 1.8 2.2
-2.2 -1.8 -1.4 -1.0 -0.6 -0.19999999 0.19999999 0.6
1.0 1.4 1.8 2.2 -2.2 -1.8 -1.4 -1.0
-0.6 -0.19999999 0.19999999 0.6 1.0 1.4 1.8 2.2
-2.2 -1.8 -1.4 -1.0 -0.6 -0.19999999 0.19999999 0.6
1.0 1.4 1.8 2.2 -2.2 -1.8 -1.4 -1.0
-0.6 -0.19999999 0.19999999 0.6 1.0 1.4 1.8 2.2
-2.2 -1.8 -1.4 -1.0 -0.6 -0.19999999 0.19999999 0.6
1.0 1.4 1.8 2.2 -2.2 -1.8 -1.4 -1.0
-0.6 -0.19999999 0.19999999 0.6 1.0 1.4 1.8 2.2

act_fun.2.coef f4 [16, 1, 8]
00000000: 06bf c13d 7c76 263e 77e6 b53d ca42 0a3e
00000010: aad1 0fbe 23f6 afbd 1d9c 15be 144e a4bd
00000020: 35e4 54bd 1583 7abd f88d 3ebe 4a93 aabd
00000030: 0549 d53d d8d3 f13d 0701 b73d 54df 993d
00000040: 6d85 75bd 4578 c5bd 6777 16be b69d ebbd
00000050: 27a6 753c f7c7 293e bfff bd3d e908 c23d
00000060: 7d15 e13d b9d1 413e 7865 363d 198e 003e
00000070: c921 c5bd 86a9 33bd f5fc 94bd 2ed0 82bd
00000080: 6f9b 7bbd b924 aabd 0fc6 3cbd 6dd4 e9bd
00000090: 1c12 473d 7b0f 8f3d 0257 fa3d 322b a43d
000000a0: 7659 77bd 5576 ecbd 2b90 0bbe 54fb c3bd
000000b0: c81e 32bd 93af 253e 3c13 213e c08b ac3d
000000c0: 66b3 b83d d1ce cf3d a559 0f3e 2544 e33d
000000d0: a29d ddbc 4251 09be 79bb 9bbd 02b4 89bd
000000e0: 3dcb a33d a86e 173e 276d 243e 857d 353d
000000f0: 565b 91bd 18cb f9bd 17da abbd c1d5 7abd
00000100: 197a 983d 0edd b73d 4200 153e 7c9e e73d
00000110: 1494 cfbd 9e37 d1bd 962b 62bd 4447 6dbd
00000120: e158 cd3d f12c 2f3e 210e 833d daf0 173e
00000130: 8551 97bd 1037 b1bd c82b a6bd 4ecd 87bd
00000140: 745e be3d 1122 af3d d946 093e 54e4 983d
00000150: e8e0 17be 0791 bcbd 9a89 08be bc8d a1bd
00000160: 95b0 87bd 163a d9bd e7bb 07be 86e6 07be
00000170: 03cd 5e3d a4d6 8a3d f4bf 153e 0207 bd3d
00000180: e981 a03d d5a6 a63d d574 1f3e 369f 0c3e
00000190: 7fbb 07be c0ed febd 9f55 07be 9a37 9fbd
000001a0: fad3 07bc ad04 9dbb 24bb 02be 78e5 f5bd
000001b0: 2da2 183e cd58 0f3e 5515 ec3d 7e76 7a3d
000001c0: 5150 45bd 2a3c 36bd 95f8 d8bd f9d5 d1bd
000001d0: fd92 113d 03e3 be3d fdd5 a33d f2d1 8a3d
000001e0: 76f2 a93d da93 093e 6bdc 203e 37d1 d43d
000001f0: 984a 07be d61d ffbd 82d3 9bbd b959 66bd
0.09460263 0.16256136 0.08881848 0.1350204 -0.14044824 -0.08591869 -0.14610334 -0.08022705
-0.051975448 -0.061160166 -0.18608844 -0.083288744 0.10414318 0.11807984 0.08935743 0.075132996
-0.059941698 -0.0964208 -0.14693986 -0.1150469 0.014993227 0.16580187 0.09277295 0.09474356
0.10990427 0.18927659 0.044530362 0.12554206 -0.09625585 -0.043862842 -0.0727481 -0.063873634
-0.06142753 -0.083077855 -0.04608732 -0.1141747 0.048601255 0.069853745 0.12223627 0.08016051
-0.06038805 -0.115460075 -0.13629214 -0.095694214 -0.043486387 0.16180257 0.15729994 0.08425093
0.090185925 0.10146869 0.1399904 0.11096982 -0.027052704 -0.13409904 -0.07604117 -0.06723787
0.07997749 0.14788306 0.16057263 0.044309158 -0.07097499 -0.1219694 -0.08391207 -0.061239008
0.07445163 0.0897771 0.1455088 0.11309525 -0.101356655 -0.10215686 -0.055217348 -0.057929292
0.10026718 0.17106988 0.06399179 0.14837971 -0.073885955 -0.086530805 -0.08113819 -0.06630956
0.09295359 0.085514195 0.13405932 0.07465425 -0.14831889 -0.09207349 -0.13333741 -0.07888362
-0.06625477 -0.10606782 -0.13255273 -0.13271531 0.054394733 0.06779221 0.14624006 0.09229852
0.078372784 0.081372894 0.15571912 0.13732609 -0.13255118 -0.12447691 -0.13216256 -0.07774277
-0.008290285 -0.004791817 -0.12766701 -0.12006658 0.14905615 0.13998719 0.11527506 0.06114816
-0.0481723 -0.04449097 -0.10594288 -0.1024589 0.03554057 0.09320643 0.079997994 0.06778325
0.08298199 0.13435307 0.15709083 0.10391467 -0.13212049 -0.12456863 -0.07608701 -0.05623791
