models_cerebelo/kan_model_mossy_fiber.pt (torch, 54306 bytes, 29 tensors)

node_bias_0 f4 [32]
000000 00 00 00 00 00 00 00 00 00 00 00 00 00 00 00 00
       0.0 0.0 0.0 0.0
000010 00 00 00 00 00 00 00 00 00 00 00 00 00 00 00 00
       0.0 0.0 0.0 0.0
000020 00 00 00 00 00 00 00 00 00 00 00 00 00 00 00 00
       0.0 0.0 0.0 0.0
000030 00 00 00 00 00 00 00 00 00 00 00 00 00 00 00 00
       0.0 0.0 0.0 0.0
000040 00 00 00 00 00 00 00 00 00 00 00 00 00 00 00 00
       0.0 0.0 0.0 0.0
000050 00 00 00 00 00 00 00 00 00 00 00 00 00 00 00 00
       0.0 0.0 0.0 0.0
000060 00 00 00 00 00 00 00 00 00 00 00 00 00 00 00 00
       0.0 0.0 0.0 0.0
000070 00 00 00 00 00 00 00 00 00 00 00 00 00 00 00 00
       0.0 0.0 0.0 0.0

node_scale_0 f4 [32]
000000 00 00 80 3f 00 00 80 3f 00 00 80 3f 00 00 80 3f
       1.0 1.0 1.0 1.0
000010 00 00 80 3f 00 00 80 3f 00 00 80 3f 00 00 80 3f
       1.0 1.0 1.0 1.0
000020 00 00 80 3f 00 00 80 3f 00 00 80 3f 00 00 80 3f
       1.0 1.0 1.0 1.0
000030 00 00 80 3f 00 00 80 3f 00 00 80 3f 00 00 80 3f
       1.0 1.0 1.0 1.0
000040 00 00 80 3f 00 00 80 3f 00 00 80 3f 00 00 80 3f
       1.0 1.0 1.0 1.0
000050 00 00 80 3f 00 00 80 3f 00 00 80 3f 00 00 80 3f
       1.0 1.0 1.0 1.0
000060 00 00 80 3f 00 00 80 3f 00 00 80 3f 00 00 80 3f
       1.0 1.0 1.0 1.0
000070 00 00 80 3f 00 00 80 3f 00 00 80 3f 00 00 80 3f
       1.0 1.0 1.0 1.0

subnode_bias_0 f4 [32]
000000 00 00 00 00 00 00 00 00 00 00 00 00 00 00 00 00
       0.0 0.0 0.0 0.0
000010 00 00 00 00 00 00 00 00 00 00 00 00 00 00 00 00
       0.0 0.0 0.0 0.0
000020 00 00 00 00 00 00 00 00 00 00 00 00 00 00 00 00
       0.0 0.0 0.0 0.0
000030 00 00 00 00 00 00 00 00 00 00 00 00 00 00 00 00
       0.0 0.0 0.0 0.0
000040 00 00 00 00 00 00 00 00 00 00 00 00 00 00 00 00
       0.0 0.0 0.0 0.0
000050 00 00 00 00 00 00 00 00 00 00 00 00 00 00 00 00
       0.0 0.0 0.0 0.0
000060 00 00 00 00 00 00 00 00 00 00 00 00 00 00 00 00
       0.0 0.0 0.0 0.0
000070 00 00 00 00 00 00 00 00 00 00 00 00 00 00 00 00
       0.0 0.0 0.0 0.0

subnode_scale_0 f4 [32]
000000 00 00 80 3f 00 00 80 3f 00 00 80 3f 00 00 80 3f
       1.0 1.0 1.0 1.0
000010 00 00 80 3f 00 00 80 3f 00 00 80 3f 00 00 80 3f
       1.0 1.0 1.0 1.0
000020 00 00 80 3f 00 00 80 3f 00 00 80 3f 00 00 80 3f
       1.0 1.0 1.0 1.0
000030 00 00 80 3f 00 00 80 3f 00 00 80 3f 00 00 80 3f
       1.0 1.0 1.0 1.0
000040 00 00 80 3f 00 00 80 3f 00 00 80 3f 00 00 80 3f
       1.0 1.0 1.0 1.0
000050 00 00 80 3f 00 00 80 3f 00 00 80 3f 00 00 80 3f
       1.0 1.0 1.0 1.0
000060 00 00 80 3f 00 00 80 3f 00 00 80 3f 00 00 80 3f
       1.0 1.0 1.0 1.0
000070 00 00 80 3f 00 00 80 3f 00 00 80 3f 00 00 80 3f
       1.0 1.0 1.0 1.0

node_bias_1 f4 [16]
000000 00 00 00 00 00 00 00 00 00 00 00 00 00 00 00 00
       0.0 0.0 0.0 0.0
000010 00 00 00 00 00 00 00 00 00 00 00 00 00 00 00 00
       0.0 0.0 0.0 0.0
000020 00 00 00 00 00 00 00 00 00 00 00 00 00 00 00 00
       0.0 0.0 0.0 0.0
000030 00 00 00 00 00 00 00 00 00 00 00 00 00 00 00 00
       0.0 0.0 0.0 0.0

node_scale_1 f4 [16]
000000 00 00 80 3f 00 00 80 3f 00 00 80 3f 00 00 80 3f
       1.0 1.0 1.0 1.0
000010 00 00 80 3f 00 00 80 3f 00 00 80 3f 00 00 80 3f
       1.0 1.0 1.0 1.0
000020 00 00 80 3f 00 00 80 3f 00 00 80 3f 00 00 80 3f
       1.0 1.0 1.0 1.0
000030 00 00 80 3f 00 00 80 3f 00 00 80 3f 00 00 80 3f
       1.0 1.0 1.0 1.0

subnode_bias_1 f4 [16]
000000 00 00 00 00 00 00 00 00 00 00 00 00 00 00 00 00
       0.0 0.0 0.0 0.0
000010 00 00 00 00 00 00 00 00 00 00 00 00 00 00 00 00
       0.0 0.0 0.0 0.0
000020 00 00 00 00 00 00 00 00 00 00 00 00 00 00 00 00
       0.0 0.0 0.0 0.0
000030 00 00 00 00 00 00 00 00 00 00 00 00 00 00 00 00
       0.0 0.0 0.0 0.0

subnode_scale_1 f4 [16]
000000 00 00 80 3f 00 00 80 3f 00 00 80 3f 00 00 80 3f
       1.0 1.0 1.0 1.0
000010 00 00 80 3f 00 00 80 3f 00 00 80 3f 00 00 80 3f
       1.0 1.0 1.0 1.0
000020 00 00 80 3f 00 00 80 3f 00 00 80 3f 00 00 80 3f
       1.0 1.0 1.0 1.0
000030 00 00 80 3f 00 00 80 3f 00 00 80 3f 00 00 80 3f
       1.0 1.0 1.0 1.0

act_fun.0.grid f4 [3, 12]
000000 cd cc 0c c0 66 66 e6 bf 33 33 b3 bf 00 00 80 bf
       -2.2 -1.8 -1.4 -1.0
000010 9a 99 19 bf cc cc 4c be cc cc 4c 3e 9a 99 19 3f
       -0.6 -0.19999999 0.19999999 0.6
000020 00 00 80 3f 33 33 b3 3f 66 66 e6 3f cd cc 0c 40
       1.0 1.4 1.8 2.2
000030 cd cc 0c c0 66 66 e6 bf 33 33 b3 bf 00 00 80 bf
       -2.2 -1.8 -1.4 -1.0
000040 9a 99 19 bf cc cc 4c be cc cc 4c 3e 9a 99 19 3f
       -0.6 -0.19999999 0.19999999 0.6
000050 00 00 80 3f 33 33 b3 3f 66 66 e6 3f cd cc 0c 40
       1.0 1.4 1.8 2.2
000060 cd cc 0c c0 66 66 e6 bf 33 33 b3 bf 00 00 80 bf
       -2.2 -1.8 -1.4 -1.0
000070 9a 99 19 bf cc cc 4c be cc cc 4c 3e 9a 99 19 3f
       -0.6 -0.19999999 0.19999999 0.6
000080 00 00 80 3f 33 33 b3 3f 66 66 e6 3f cd cc 0c 40
       1.0 1.4 1.8 2.2

act_fun.0.coef f4 [3, 32, 8]
000000 49 12 81 bd 86 c8 10 3e 74 ea 7b 3d 3f 68 24 3d
       -0.06302316 0.14138994 0.06150289 0.04013848
000010 d4 24 7f 3d 43 76 13 bc 22 75 a0 3b ab 11 2d 3d
       0.06229098 -0.009000364 0.004896776 0.042253178
000020 2a 56 88 bc 28 a1 05 3e 3d a2 3a bd 89 82 91 3d
       -0.016642649 0.13049757 -0.04556488 0.07104976
000030 75 e3 33 bd 91 8a 89 3d c5 de d0 bd a6 d1 e5 bd
       -0.04391809 0.067158826 -0.1019874 -0.11221628
000040 e5 12 8e bd 3d 53 d9 3d d7 db 99 3c d3 35 04 3d
       -0.069371976 0.106115796 0.018781586 0.032277893
000050 c0 90 09 3d 06 4b 30 3d 38 ff 81 bc 62 6a 2f 3d
       0.03358531 0.043040298 -0.015868768 0.042826064
000060 07 cb 94 3d 87 84 88 bd 73 b6 b6 bd 70 33 0f bd
       0.07265287 -0.066659026 -0.08921518 -0.034961164
000070 10 40 0c bd cc 0d fd 39 84 57 8a 3d 0a aa 77 3d
       -0.034240782 0.000482662 0.067549735 0.060464896
000080 98 0f f7 3d ea cc ca bd d5 12 89 bd a3 9d 78 bc
       0.12063521 -0.099023655 -0.06693045 -0.015174302
000090 f3 35 bf bd e6 8c 63 bd 75 44 d3 bc 29 50 01 bd
       -0.09336462 -0.055554293 -0.025789479 -0.031570587
0000a0 1d 27 fa 3d ba 8b e6 3d 82 71 aa bd e8 47 bb bd
       0.122144915 0.112571195 -0.08322431 -0.091445744
0000b0 10 ef 1d be 14 fa 22 bd 90 a4 df 3b 37 f4 1d 3d
       -0.15423226 -0.039789274 0.0068250373 0.03856298
0000c0 a6 10 64 bd e8 cc b0 3d cf a3 eb 3c 22 b8 5d 3d
       -0.05567994 0.08632833 0.028764633 0.05413068
0000d0 c1 48 41 3d c5 fc 22 bc 66 12 a3 bc ea a4 1c bd
       0.047188524 -0.00994796 -0.019906234 -0.03824321
0000e0 bd a8 8a 3c 1d ce 18 3e 4a 9e 6e bd 31 8d 32 3d
       0.016926164 0.14922376 -0.058256425 0.043591682
0000f0 d4 09 4f bd 36 35 6b bd 11 95 d0 bd 48 29 4d bd
       -0.050546482 -0.057423793 -0.10184682 -0.050088197
000100 b4 c9 fa bc 72 3d f4 3d 51 a3 e5 3c e1 e4 52 3c
       -0.030613758 0.11925782 0.028031977 0.012871952
000110 5d 00 49 bb 9a 59 36 3d d0 4b 71 ba 5e 21 d7 bc
       -0.0030670383 0.044519044 -0.00092047174 -0.026261028
000120 c5 b4 fe 3c c6 f7 ef bd e7 7c 54 bc f1 58 94 3a
       0.031092057 -0.11717181 -0.012969232 0.001131801
000130 33 2d 50 3c f6 41 57 3d cb 07 d3 3d 71 68 ee 3c
       0.012706089 0.05255314 0.10304221 0.029102536
000140 2e 5d 9f 3d b5 41 59 bd fc b1 ca bd 02 8f 8c 3c
       0.077814445 -0.05304118 -0.09897229 0.017158035
000150 56 57 6f bd 05 83 f9 3c 1a 3f 80 3d d7 21 5a 3d
       -0.0584329 0.030457983 0.06262036 0.05325493
000160 21 2f 26 bd 04 cb c9 3d 83 d4 a2 bb 65 db 94 3d
       -0.04057229 0.09853175 -0.004969181 0.07268409
000170 f8 1f 20 3c 08 27 2b 3c b6 10 0d b9 fc 03 f1 bc
       0.009773247 0.0104463175 -0.00013453033 -0.029420845
000180 a7 3a 48 bc fc 56 20 3e 6f 79 e7 bc 0a 90 11 3d
       -0.012221015 0.15658182 -0.028256146 0.035537757
000190 7c dd 12 3d f5 5f 14 bd 49 1f 5c 3c 15 8b 3a 3d
       0.035855755 -0.036224324 0.013435193 0.045542795
0001a0 83 54 ad bc f0 de ea 3d ff c4 43 bc db ad 81 3c
       -0.021158462 0.11468303 -0.011948823 0.015829971
0001b0 9e 78 d2 3b 02 73 14 3c 7d 32 11 bd 38 67 9d bc
       0.00642307 0.009060623 -0.03544854 -0.019214258
0001c0 b9 f7 a6 3d 90 9e 25 bd 22 2f c8 3c 79 38 80 bd
       0.08152718 -0.04043442 0.024436537 -0.06260771
0001d0 eb 84 01 bd 1c cf 07 ba 63 95 01 bc 79 94 31 bd
       -0.0316209 -0.0005180703 -0.007909152 -0.043354485
0001e0 0b fd f9 bd 4a d5 1f bd eb fe ca 3d 5e 19 e0 3c
       -0.12206467 -0.039021768 0.09911903 0.027355846
0001f0 17 bc a0 3d 62 fd b1 3d d2 57 7f bd c5 a1 db bd
       0.07848375 0.08690907 -0.06233961 -0.107242145
000200 8b 65 ae 3d 5b 10 51 bd d9 0a 94 bc 21 03 0c bd
       0.085154615 -0.05104099 -0.018071579 -0.03418267
000210 4d 88 51 bd f5 e2 c4 bc 15 1b 8f 3d 39 f0 5c 3d
       -0.051155377 -0.024034003 0.06987587 0.05394003
000220 91 23 91 3d b2 62 18 bd cc 40 8d bd eb a6 0e 3b
       0.07086862 -0.0372035 -0.06897125 0.0021766971
000230 8e 78 45 3c 7a 1e 21 3c 69 a6 bc 3d c7 1a b8 3d
       0.012052668 0.009833926 0.09211428 0.089894824
000240 04 b6 98 3d e6 29 89 bd 65 48 8e bd 9a d9 78 39
       0.07456592 -0.066974446 -0.06947402 0.00023732186
000250 09 36 6f bd 9c 89 d0 3b 57 c2 1f 3d 4a fd 51 3d
       -0.05840114 0.0063640606 0.039003696 0.051266946
000260 da f6 a7 bc f7 4f e7 3d 6c 02 ed bb c2 2d 86 3d
       -0.02050345 0.11294549 -0.0072329547 0.06551696
000270 ed 7c f3 3c 66 ce b4 3d 82 bf 82 bc a0 f1 17 3d
       0.029722655 0.0882843 -0.015960459 0.037095666
000280 6f ce 9c 3d ac dd 84 bd fa 82 13 bc d7 4e 9a bd
       0.076565616 -0.06487593 -0.009003395 -0.07534569
000290 e8 2e d4 bc f1 8a 77 bc 5d 09 61 3d bd a4 90 3d
       -0.025901273 -0.01510881 0.05494057 0.07062671
0002a0 44 51 d1 3d 24 63 51 bd 54 6c 71 bd 98 ef 9f bd
       0.10220578 -0.05111994 -0.0589412 -0.07809371
0002b0 f5 8b a3 bc b5 87 4e bd 84 35 69 3d 3a 86 89 3d
       -0.019964198 -0.05042239 0.056935802 0.06715055
0002c0 e8 dc 00 3c 7b ec 05 be 6c db 47 bc df ce f8 bc
       0.007865168 -0.13078491 -0.01219831 -0.030372081
0002d0 61 38 ac 3d 22 8a 30 bd b5 fd 8d 3d b7 09 fc 3c
       0.08409191 -0.043100484 0.069331564 0.030766351
0002e0 f1 30 b1 3d f6 25 4f bc 7f 86 a9 bd 28 b6 b5 3b
       0.08651913 -0.012643328 -0.08277606 0.0055453964
0002f0 50 e4 51 bc dd 11 55 bd 0e ff 6e 3d 51 29 cf 3c
       -0.012810782 -0.05201899 0.058348708 0.025288256
000300 c9 3a 51 bd 17 f2 bd 3d 61 20 11 3d e2 cb 82 3d
       -0.051081453 0.092746906 0.03543127 0.06386544
000310 df 08 17 bc 0d 7b 3f 3d 5e 21 2c 3d 52 2b 87 3d
       -0.009218424 0.04674821 0.04202401 0.066000596
000320 ea fb a1 bc b2 24 86 3d 63 55 42 bc 5c 25 2b ba
       -0.019773442 0.06549968 -0.011861178 -0.00065286993
000330 e4 80 11 3c 78 95 14 bd 24 4a 77 bd a2 65 85 bd
       0.008880828 -0.036275357 -0.06037344 -0.065135255
000340 37 28 e6 3c 0b a4 00 be a0 6d 9b bc 40 af e0 bc
       0.028095348 -0.12562577 -0.018973172 -0.027427316
000350 5d 34 22 3d f8 af 4f 3c 00 5c 96 3d e4 6c 9d 3d
       0.03960072 0.012676232 0.07341766 0.07686785
000360 d8 f9 52 3d af f3 a0 bd d6 f6 28 bd 97 56 18 bd
       0.0515078 -0.07858979 -0.041251026 -0.037191954
000370 ef e3 26 3c bb ac d1 3a 2e 78 9b 3d 9a 3d ef 3d
       0.01018618 0.0015996912 0.07591282 0.116816714
000380 f1 63 79 3d ad 51 3a bd 69 6b 5b bd 0b da 52 bd
       0.060886327 -0.04548805 -0.05356923 -0.051477473
000390 83 3f 5d 3c 6a d4 5f 3d 1e c8 2a 3d b4 16 7e 3d
       0.013503912 0.054645933 0.041694753 0.06203337
0003a0 75 03 46 3d 14 8c 19 be a4 56 2e bd a7 62 16 3c
       0.04834314 -0.14994842 -0.042563096 0.009178794
0003b0 c7 b8 c4 3c 4f 24 40 3c d7 a8 aa 3d 9e cc bb 3d
       0.02401389 0.011727407 0.08332985 0.09169887
0003c0 c2 dc 86 3d 39 d3 9d bd a6 74 5c bd 07 06 09 bd
       0.06585075 -0.07706303 -0.053822182 -0.033453014
0003d0 39 7a ad bc 74 e0 5d 3d 67 03 a0 3d c5 5f 3b 3d
       -0.021176444 0.054169133 0.07813149 0.04574563
0003e0 73 e0 57 3d aa 4b de bd ae bf 6c bd 1c b7 66 bd
       0.052704286 -0.108542755 -0.057799987 -0.05632697
0003f0 46 72 49 bc 86 c6 1b bd 25 52 e7 bb e4 fd 0f 3d
       -0.012295311 -0.038031124 -0.007059353 0.03515424

act_fun.0.mask f4 [3, 32]
000000 00 00 80 3f 00 00 80 3f 00 00 80 3f 00 00 80 3f
       1.0 1.0 1.0 1.0
000010 00 00 80 3f 00 00 80 3f 00 00 80 3f 00 00 80 3f
       1.0 1.0 1.0 1.0
000020 00 00 80 3f 00 00 80 3f 00 00 80 3f 00 00 80 3f
       1.0 1.0 1.0 1.0
000030 00 00 80 3f 00 00 80 3f 00 00 80 3f 00 00 80 3f
       1.0 1.0 1.0 1.0
000040 00 00 80 3f 00 00 80 3f 00 00 80 3f 00 00 80 3f
       1.0 1.0 1.0 1.0
000050 00 00 80 3f 00 00 80 3f 00 00 80 3f 00 00 80 3f
       1.0 1.0 1.0 1.0
000060 00 00 80 3f 00 00 80 3f 00 00 80 3f 00 00 80 3f
       1.0 1.0 1.0 1.0
000070 00 00 80 3f 00 00 80 3f 00 00 80 3f 00 00 80 3f
       1.0 1.0 1.0 1.0
000080 00 00 80 3f 00 00 80 3f 00 00 80 3f 00 00 80 3f
       1.0 1.0 1.0 1.0
000090 00 00 80 3f 00 00 80 3f 00 00 80 3f 00 00 80 3f
       1.0 1.0 1.0 1.0
0000a0 00 00 80 3f 00 00 80 3f 00 00 80 3f 00 00 80 3f
       1.0 1.0 1.0 1.0
0000b0 00 00 80 3f 00 00 80 3f 00 00 80 3f 00 00 80 3f
       1.0 1.0 1.0 1.0
0000c0 00 00 80 3f 00 00 80 3f 00 00 80 3f 00 00 80 3f
       1.0 1.0 1.0 1.0
0000d0 00 00 80 3f 00 00 80 3f 00 00 80 3f 00 00 80 3f
       1.0 1.0 1.0 1.0
0000e0 00 00 80 3f 00 00 80 3f 00 00 80 3f 00 00 80 3f
       1.0 1.0 1.0 1.0
0000f0 00 00 80 3f 00 00 80 3f 00 00 80 3f 00 00 80 3f
       1.0 1.0 1.0 1.0
000100 00 00 80 3f 00 00 80 3f 00 00 80 3f 00 00 80 3f
       1.0 1.0 1.0 1.0
000110 00 00 80 3f 00 00 80 3f 00 00 80 3f 00 00 80 3f
       1.0 1.0 1.0 1.0
000120 00 00 80 3f 00 00 80 3f 00 00 80 3f 00 00 80 3f
       1.0 1.0 1.0 1.0
000130 00 00 80 3f 00 00 80 3f 00 00 80 3f 00 00 80 3f
       1.0 1.0 1.0 1.0
000140 00 00 80 3f 00 00 80 3f 00 00 80 3f 00 00 80 3f
       1.0 1.0 1.0 1.0
000150 00 00 80 3f 00 00 80 3f 00 00 80 3f 00 00 80 3f
       1.0 1.0 1.0 1.0
000160 00 00 80 3f 00 00 80 3f 00 00 80 3f 00 00 80 3f
       1.0 1.0 1.0 1.0
000170 00 00 80 3f 00 00 80 3f 00 00 80 3f 00 00 80 3f
       1.0 1.0 1.0 1.0

act_fun.0.scale_base f4 [3, 32]
000000 27 e6 dc bd 8e 58 73 3e d2 18 59 be 5f d7 7f be
       -0.107860856 0.2376425 -0.21200874 -0.24984501
000010 d9 81 97 3e 8a 67 15 bf 46 6f 43 3d ed 17 df 3e
       0.29591253 -0.58361113 0.04771354 0.4357294
000020 b4 68 94 3d f5 cb 13 3e 94 e1 a2 be 30 33 c5 bc
       0.07246533 0.14433272 -0.31812727 -0.02407226
000030 f1 d1 46 3d ef fa e4 3d 0c f3 19 3e 04 13 08 3f
       0.04854006 0.11180674 0.15034121 0.53154016
000040 3d 94 ee be ed 78 5b 3d 3c eb 91 be 09 e7 ca be
       -0.46597472 0.05358212 -0.28499782 -0.3962939
000050 d2 24 92 bc 89 58 02 bf 20 c3 d4 3e c2 d0 73 3d
       -0.017839823 -0.50916344 0.4155512 0.05952526
000060 f5 02 73 be 09 7b 76 3e a6 31 04 bf f1 ea 3c be
       -0.23731597 0.24070372 -0.5163826 -0.18448998
000070 1d 02 a4 bd 0f a0 04 bf 5b 46 bf be f6 dd 9a bd
       -0.080082156 -0.5180673 -0.37358364 -0.07561867
000080 e9 0e 11 3f 1e 76 26 3f 1c 2d fe 3e c4 84 f2 be
       0.56663376 0.6502398 0.4964379 -0.47366917
000090 d5 c4 02 bf af 8f f6 3e 85 f6 a9 3e 5f b4 c0 3d
       -0.5108159 0.48156497 0.33195892 0.09409403
0000a0 d0 f7 52 3e 9a 4e 0e bf ba 2a a5 be 13 3c 2f 3f
       0.20602345 -0.55588686 -0.3225916 0.6845104
0000b0 b5 c5 7e bc aa b4 b3 3d db 99 1c bf 77 70 89 be
       -0.015550067 0.08774693 -0.61172265 -0.26843616
0000c0 36 fc 11 be c1 2d f4 be 12 04 4b be 80 b2 b5 3e
       -0.14256367 -0.47691157 -0.19825771 0.35487747
0000d0 a4 e1 31 bf 84 65 71 3d c9 f3 ea be 5e 3f d5 be
       -0.69484925 0.058934703 -0.45889118 -0.41649908
0000e0 4d e8 b2 3e 7d 19 10 3f 73 57 89 be 60 04 b7 be
       0.34942856 0.5628889 -0.2682453 -0.35745525
0000f0 da 46 27 bf 4f 9b cf be 0f 16 23 bf 2b ce 84 be
       -0.65342486 -0.4054818 -0.63705534 -0.25938544
000100 1e 18 8e 3d 42 d2 f7 be db 04 ea 3e 3b be 9c 3e
       0.06938194 -0.484026 0.4570683 0.30613884
000110 c6 c4 05 bf c6 e8 8a be 18 7d 14 3e ca 5e 42 be
       -0.5225338 -0.27130717 0.14500844 -0.18981472
000120 50 c4 e5 bc 3a 24 20 be 6c bd d6 3e e5 78 75 be
       -0.02804771 -0.1563882 0.41941392 -0.23971899
000130 34 a9 e0 3e 5e df 42 3d 2d d6 85 3d cf 04 c9 3e
       0.43879092 0.0475763 0.065349914 0.3926148
000140 b6 66 1e be 7e a5 72 be 8a 2e 6e bd 4f 41 d1 3e
       -0.15468869 -0.23695943 -0.05814985 0.4087014
000150 cf 90 bf be 80 52 40 3e e4 48 eb be 63 64 57 3e
       -0.37415168 0.18781471 -0.4595405 0.21034388
000160 63 45 32 3e 1a e1 24 bd 9f 2b 8a 3e be b7 92 3d
       0.17409281 -0.040253736 0.26986405 0.07163952
000170 f3 27 85 3e ad 5e bb be d0 90 04 bd 24 d8 4d 3e
       0.2600704 -0.3659567 -0.032364666 0.20101982

act_fun.0.scale_sp f4 [3, 32]
000000 0c 02 20 3f b6 67 27 3f 66 ce 20 3f af 94 1c 3f
       0.62503123 0.65392625 0.6281494 0.61164373
000010 41 3d 25 3f 7c 96 34 3f 4f 78 1d 3f 32 73 26 3f
       0.6454659 0.7054212 0.615117 0.65019524
000020 6d fb 25 3f b1 81 1b 3f f8 b5 1c 3f b2 7f 1c 3f
       0.6483677 0.6074477 0.6121516 0.6113235
000030 d3 5a 2d 3f 57 f8 25 3f a8 4f 1c 3f 44 69 35 3f
       0.6771671 0.6483206 0.61059046 0.7086375
000040 ba f6 1a 3f 3c dc 17 3f be 8c 1e 3f c5 f4 26 3f
       0.60532725 0.59320426 0.61933506 0.6521724
000050 be c6 1a 3f ce 60 20 3f ec 4d 28 3f d8 75 1d 3f
       0.60459507 0.6264771 0.657439 0.6150794
000060 68 a5 23 3f c4 45 29 3f 99 79 24 3f 0b 0b 1d 3f
       0.63924265 0.6612208 0.64248043 0.61344975
000070 48 dd 1c 3f 7a c6 21 3f 80 b6 1d 3f a0 5c 24 3f
       0.6127515 0.63193476 0.616066 0.64203835
000080 91 a5 31 3f 49 4d 28 3f 01 25 33 3f 40 61 37 3f
       0.6939326 0.6574293 0.6997834 0.71632767
000090 54 ce 37 3f 0b 2b 1c 3f 3b 66 2d 3f c0 d8 22 3f
       0.71799207 0.6100318 0.67734116 0.63611984
0000a0 99 c5 33 3f 94 e9 29 3f d5 5d 37 3f fe f1 28 3f
       0.70223385 0.66372037 0.7162755 0.6599425
0000b0 5e 6b 2b 3f c5 21 33 3f 23 c4 2a 3f 57 4f 23 3f
       0.66960704 0.69973403 0.6670553 0.6379294
0000c0 32 f2 36 3f 8a 60 25 3f 1b e8 36 3f 85 79 33 3f
       0.7146331 0.6460043 0.71447915 0.701073
0000d0 db 5e 37 3f 45 e2 2e 3f 24 c4 1f 3f db d3 37 3f
       0.7162911 0.6831401 0.6240866 0.7180764
0000e0 f9 03 30 3f 81 ac 2c 3f f9 31 26 3f 1a 40 27 3f
       0.6875606 0.6745072 0.6492 0.65332186
0000f0 52 8e 2e 3f 56 db 2d 3f 2a b0 37 3f cc cb 23 3f
       0.68185914 0.67912805 0.7175318 0.63982844
000100 62 86 0e 3f bc 54 30 3f 4d ec 14 3f 41 4e 2b 3f
       0.556738 0.68879294 0.58173066 0.6691628
000110 76 bb 20 3f 90 4c 2e 3f 64 b4 0d 3f 70 6b 17 3f
       0.6278604 0.68085575 0.5535338 0.5914831
000120 62 8c 0b 3f e1 b2 2a 3f 07 4f 24 3f 67 ed 30 3f
       0.5451108 0.666792 0.64183086 0.6911225
000130 a6 17 0f 3f c0 b1 0c 3f 4e 0c 2a 3f 1f 64 2e 3f
       0.5589546 0.54958725 0.66425025 0.6812152
000140 09 a2 24 3f 0c fe 2d 3f e6 0a 2b 3f 57 c2 20 3f
       0.64309746 0.6796577 0.66813505 0.6279654
000150 de a8 36 3f 29 b4 15 3f 17 a9 2c 3f 8e d6 28 3f
       0.7135142 0.5847803 0.6744551 0.65952384
000160 e5 41 17 3f 41 6a 1d 3f 50 21 25 3f a9 62 2c 3f
       0.5908492 0.61490256 0.64503956 0.67338043
000170 6c 36 34 3f 40 2c 26 3f 32 99 29 3f 63 0d 13 3f
       0.7039554 0.6491127 0.6624938 0.574423

act_fun.1.grid f4 [32, 12]
000000 cd cc 0c c0 66 66 e6 bf 33 33 b3 bf 00 00 80 bf
       -2.2 -1.8 -1.4 -1.0
000010 9a 99 19 bf cc cc 4c be cc cc 4c 3e 9a 99 19 3f
       -0.6 -0.19999999 0.19999999 0.6
000020 00 00 80 3f 33 33 b3 3f 66 66 e6 3f cd cc 0c 40
       1.0 1.4 1.8 2.2
000030 cd cc 0c c0 66 66 e6 bf 33 33 b3 bf 00 00 80 bf
       -2.2 -1.8 -1.4 -1.0
000040 9a 99 19 bf cc cc 4c be cc cc 4c 3e 9a 99 19 3f
       -0.6 -0.19999999 0.19999999 0.6
000050 00 00 80 3f 33 33 b3 3f 66 66 e6 3f cd cc 0c 40
       1.0 1.4 1.8 2.2
000060 cd cc 0c c0 66 66 e6 bf 33 33 b3 bf 00 00 80 bf
       -2.2 -1.8 -1.4 -1.0
000070 9a 99 19 bf cc cc 4c be cc cc 4c 3e 9a 99 19 3f
       -0.6 -0.19999999 0.19999999 0.6
000080 00 00 80 3f 33 33 b3 3f 66 66 e6 3f cd cc 0c 40
       1.0 1.4 1.8 2.2
000090 cd cc 0c c0 66 66 e6 bf 33 33 b3 bf 00 00 80 bf
       -2.2 -1.8 -1.4 -1.0
0000a0 9a 99 19 bf cc cc 4c be cc cc 4c 3e 9a 99 19 3f
       -0.6 -0.19999999 0.19999999 0.6
0000b0 00 00 80 3f 33 33 b3 3f 66 66 e6 3f cd cc 0c 40
       1.0 1.4 1.8 2.2
0000c0 cd cc 0c c0 66 66 e6 bf 33 33 b3 bf 00 00 80 bf
       -2.2 -1.8 -1.4 -1.0
0000d0 9a 99 19 bf cc cc 4c be cc cc 4c 3e 9a 99 19 3f
       -0.6 -0.19999999 0.19999999 0.6
0000e0 00 00 80 3f 33 33 b3 3f 66 66 e6 3f cd cc 0c 40
       1.0 1.4 1.8 2.2
0000f0 cd cc 0c c0 66 66 e6 bf 33 33 b3 bf 00 00 80 bf
       -2.2 -1.8 -1.4 -1.0
000100 9a 99 19 bf cc cc 4c be cc cc 4c 3e 9a 99 19 3f
       -0.6 -0.19999999 0.19999999 0.6
000110 00 00 80 3f 33 33 b3 3f 66 66 e6 3f cd cc 0c 40
       1.0 1.4 1.8 2.2
000120 cd cc 0c c0 66 66 e6 bf 33 33 b3 bf 00 00 80 bf
       -2.2 -1.8 -1.4 -1.0
000130 9a 99 19 bf cc cc 4c be cc cc 4c 3e 9a 99 19 3f
       -0.6 -0.19999999 0.19999999 0.6
000140 00 00 80 3f 33 33 b3 3f 66 66 e6 3f cd cc 0c 40
       1.0 1.4 1.8 2.2
000150 cd cc 0c c0 66 66 e6 bf 33 33 b3 bf 00 00 80 bf
       -2.2 -1.8 -1.4 -1.0
000160 9a 99 19 bf cc cc 4c be cc cc 4c 3e 9a 99 19 3f
       -0.6 -0.19999999 0.19999999 0.6
000170 00 00 80 3f 33 33 b3 3f 66 66 e6 3f cd cc 0c 40
       1.0 1.4 1.8 2.2
000180 cd cc 0c c0 66 66 e6 bf 33 33 b3 bf 00 00 80 bf
       -2.2 -1.8 -1.4 -1.0
000190 9a 99 19 bf cc cc 4c be cc cc 4c 3e 9a 99 19 3f
       -0.6 -0.19999999 0.19999999 0.6
0001a0 00 00 80 3f 33 33 b3 3f 66 66 e6 3f cd cc 0c 40
       1.0 1.4 1.8 2.2
0001b0 cd cc 0c c0 66 66 e6 bf 33 33 b3 bf 00 00 80 bf
       -2.2 -1.8 -1.4 -1.0
0001c0 9a 99 19 bf cc cc 4c be cc cc 4c 3e 9a 99 19 3f
       -0.6 -0.19999999 0.19999999 0.6
0001d0 00 00 80 3f 33 33 b3 3f 66 66 e6 3f cd cc 0c 40
       1.0 1.4 1.8 2.2
0001e0 cd cc 0c c0 66 66 e6 bf 33 33 b3 bf 00 00 80 bf
       -2.2 -1.8 -1.4 -1.0
0001f0 9a 99 19 bf cc cc 4c be cc cc 4c 3e 9a 99 19 3f
       -0.6 -0.19999999 0.19999999 0.6
000200 00 00 80 3f 33 33 b3 3f 66 66 e6 3f cd cc 0c 40
       1.0 1.4 1.8 2.2
000210 cd cc 0c c0 66 66 e6 bf 33 33 b3 bf 00 00 80 bf
       -2.2 -1.8 -1.4 -1.0
000220 9a 99 19 bf cc cc 4c be cc cc 4c 3e 9a 99 19 3f
       -0.6 -0.19999999 0.19999999 0.6
000230 00 00 80 3f 33 33 b3 3f 66 66 e6 3f cd cc 0c 40
       1.0 1.4 1.8 2.2
000240 cd cc 0c c0 66 66 e6 bf 33 33 b3 bf 00 00 80 bf
       -2.2 -1.8 -1.4 -1.0
000250 9a 99 19 bf cc cc 4c be cc cc 4c 3e 9a 99 19 3f
       -0.6 -0.19999999 0.19999999 0.6
000260 00 00 80 3f 33 33 b3 3f 66 66 e6 3f cd cc 0c 40
       1.0 1.4 1.8 2.2
000270 cd cc 0c c0 66 66 e6 bf 33 33 b3 bf 00 00 80 bf
       -2.2 -1.8 -1.4 -1.0
000280 9a 99 19 bf cc cc 4c be cc cc 4c 3e 9a 99 19 3f
       -0.6 -0.19999999 0.19999999 0.6
000290 00 00 80 3f 33 33 b3 3f 66 66 e6 3f cd cc 0c 40
       1.0 1.4 1.8 2.2
0002a0 cd cc 0c c0 66 66 e6 bf 33 33 b3 bf 00 00 80 bf
       -2.2 -1.8 -1.4 -1.0
0002b0 9a 99 19 bf cc cc 4c be cc cc 4c 3e 9a 99 19 3f
       -0.6 -0.19999999 0.19999999 0.6
0002c0 00 00 80 3f 33 33 b3 3f 66 66 e6 3f cd cc 0c 40
       1.0 1.4 1.8 2.2
0002d0 cd cc 0c c0 66 66 e6 bf 33 33 b3 bf 00 00 80 bf
       -2.2 -1.8 -1.4 -1.0
0002e0 9a 99 19 bf cc cc 4c be cc cc 4c 3e 9a 99 19 3f
       -0.6 -0.19999999 0.19999999 0.6
0002f0 00 00 80 3f 33 33 b3 3f 66 66 e6 3f cd cc 0c 40
       1.0 1.4 1.8 2.2
000300 cd cc 0c c0 66 66 e6 bf 33 33 b3 bf 00 00 80 bf
       -2.2 -1.8 -1.4 -1.0
000310 9a 99 19 bf cc cc 4c be cc cc 4c 3e 9a 99 19 3f
       -0.6 -0.19999999 0.19999999 0.6
000320 00 00 80 3f 33 33 b3 3f 66 66 e6 3f cd cc 0c 40
       1.0 1.4 1.8 2.2
000330 cd cc 0c c0 66 66 e6 bf 33 33 b3 bf 00 00 80 bf
       -2.2 -1.8 -1.4 -1.0
000340 9a 99 19 bf cc cc 4c be cc cc 4c 3e 9a 99 19 3f
       -0.6 -0.19999999 0.19999999 0.6
000350 00 00 80 3f 33 33 b3 3f 66 66 e6 3f cd cc 0c 40
       1.0 1.4 1.8 2.2
000360 cd cc 0c c0 66 66 e6 bf 33 33 b3 bf 00 00 80 bf
       -2.2 -1.8 -1.4 -1.0
000370 9a 99 19 bf cc cc 4c be cc cc 4c 3e 9a 99 19 3f
       -0.6 -0.19999999 0.19999999 0.6
000380 00 00 80 3f 33 33 b3 3f 66 66 e6 3f cd cc 0c 40
       1.0 1.4 1.8 2.2
000390 cd cc 0c c0 66 66 e6 bf 33 33 b3 bf 00 00 80 bf
       -2.2 -1.8 -1.4 -1.0
0003a0 9a 99 19 bf cc cc 4c be cc cc 4c 3e 9a 99 19 3f
       -0.6 -0.19999999 0.19999999 0.6
0003b0 00 00 80 3f 33 33 b3 3f 66 66 e6 3f cd cc 0c 40
       1.0 1.4 1.8 2.2
0003c0 cd cc 0c c0 66 66 e6 bf 33 33 b3 bf 00 00 80 bf
       -2.2 -1.8 -1.4 -1.0
0003d0 9a 99 19 bf cc cc 4c be cc cc 4c 3e 9a 99 19 3f
       -0.6 -0.19999999 0.19999999 0.6
0003e0 00 00 80 3f 33 33 b3 3f 66 66 e6 3f cd cc 0c 40
       1.0 1.4 1.8 2.2
0003f0 cd cc 0c c0 66 66 e6 bf 33 33 b3 bf 00 00 80 bf
       -2.2 -1.8 -1.4 -1.0

act_fun.1.coef f4 [32, 16, 8]
000000 bc e5 44 3c 9b 9b 95 3d a1 40 fa 3d 79 a1 07 3e
       0.012017664 0.0730507 0.12219358 0.1324519
000010 7f 81 b0 bd 86 9c fe bd bb 19 ff bd e0 74 46 37
       -0.086184494 -0.12432198 -0.124560796 1.1828932e-05
000020 d0 be 30 3c a6 2e 40 bc 96 59 20 be 32 57 bd bd
       0.010787681 -0.011729872 -0.15659174 -0.09245147
000030 6b ee a1 3d 5a 43 27 3e 4a d4 16 3e c4 47 3c 3b
       0.07906803 0.16334286 0.1472942 0.00287293
000040 64 13 1b bc 94 12 94 bd 78 26 f4 bd a5 48 0f be
       -0.009465072 -0.07230106 -0.119214 -0.13992555
000050 3b fd d4 3d 9e 69 30 3e 0f ea dd 3d 71 26 f3 bb
       0.103998624 0.1722779 0.10835659 -0.007420354
000060 98 04 27 3c 20 a2 a8 3d 6c 95 e1 3d b4 2a e0 3d
       0.010193966 0.08234048 0.11014828 0.10945645
000070 51 f6 7d bd b2 a4 21 be 8a 82 a0 bd c7 32 72 3c
       -0.062002484 -0.15785483 -0.07837398 0.014782614
000080 50 c8 bb bb 01 1d 3d bd 63 a6 d7 bd 7a e1 25 be
       -0.005730666 -0.04617024 -0.105297826 -0.16199294
000090 6a f3 fb 3d d1 e3 eb 3d 4a a0 1b 3e 7a bb 06 3c
       0.12302287 0.11518062 0.15197864 0.008223409
0000a0 c0 c6 e8 bb bd ac 65 bd 7e d0 c0 bd 3d cf 04 be
       -0.007103771 -0.05607294 -0.09414767 -0.1296968
0000b0 00 1f 2c 3e f4 4d a8 3d f0 9b 24 3e f7 10 6c 3c
       0.168087 0.082179934 0.1607511 0.014408342
0000c0 48 5f bc bb 46 7b 1f 3c 08 8d d4 3d 5e b1 43 3e
       -0.005748663 0.0097339805 0.10378462 0.19110629
0000d0 b8 f1 1f be 15 d9 a2 bd 47 dc 2d be ad 60 8e bc
       -0.15619552 -0.07951561 -0.1697856 -0.017380083
0000e0 34 af 1e bc 0c 8a da 3c 92 5c 39 3e 0b 08 aa 3d
       -0.009685326 0.026677154 0.18101719 0.08302315
0000f0 19 f0 1f 3b d8 9f 32 be 7d ab 03 be b8 2c 36 3b
       0.0024404584 -0.17443788 -0.12858386 0.002779765
000100 84 45 be 3b b7 ba 9b 3d 70 94 19 3e 9b d9 1d 3e
       0.0058066268 0.076039724 0.1499803 0.15415041
000110 cb 43 11 be 13 de ae bd 36 b5 28 be 7f 35 76 bc
       -0.14186017 -0.08538451 -0.16475376 -0.015027403
000120 80 f6 17 3c c3 47 82 3d 7a d8 9d 3d bc 1c 33 3e
       0.009275079 0.06361344 0.07707305 0.1749143
000130 ab 19 f7 bd 7f 19 fc bd ef 1f 08 be f4 09 84 bb
       -0.12065443 -0.123095505 -0.13293432 -0.004029507
000140 d0 b7 d0 39 ca 05 b1 3c fb 34 b0 3d 1f 7f 40 3e
       0.00039809803 0.021609206 0.08603855 0.18798493
000150 06 67 12 be 83 3d d0 bd 6c 7b 0d be ca 65 dd bb
       -0.14297113 -0.101679824 -0.13816613 -0.006756519
000160 10 3c 11 3c 0c ef b4 bb fc 99 2c be 1f aa 03 be
       0.008864418 -0.0055216607 -0.16855615 -0.12857865
000170 ae 32 0e 3e 2c 25 0a 3e d5 55 06 3e b6 37 d7 3a
       0.1388652 0.13490742 0.1311868 0.0016419801
000180 b8 e8 9d ba aa 11 ca 3c e0 9a dd 3d 60 0d 02 3e
       -0.0012047505 0.024666626 0.10820556 0.12700415
000190 09 ff 86 bd 5e e7 30 be 9d 87 9d bd 65 b5 89 3c
       -0.06591613 -0.1727576 -0.07691882 0.016810128
0001a0 c6 81 86 3c bc 08 0f 3d da b1 13 be 0b 97 8c bd
       0.016419303 0.03492044 -0.14423314 -0.06864747
0001b0 3d e0 a8 3d 27 3a f8 3d 4b 5b b7 3d 6e 06 01 3b
       0.08245895 0.12120467 0.089529596 0.001968767
0001c0 a0 b7 0d bc e3 00 91 bd 3d 5f 00 be f5 33 b8 bd
       -0.008649737 -0.07080247 -0.1253633 -0.08994285
0001d0 71 c1 af 3d e7 3f 1d 3e 2c 1f af 3d 3f dc 50 bc
       0.08581818 0.15356408 0.085508674 -0.012747823
0001e0 9c 3d 42 39 e8 47 bd 3c 6e b8 e1 3d 1f d5 3d 3e
       0.00018524233 0.023105577 0.11021505 0.1853833
0001f0 19 37 09 be 90 34 27 be 72 06 13 be 24 22 5f bb
       -0.13399924 -0.16328645 -0.14357927 -0.003404745
000200 52 27 de 3d d4 3b c7 3d c7 a8 f7 3d 08 46 f8 3d
       0.108473435 0.09728208 0.120927386 0.121227324
000210 04 1f 03 be 1f d8 73 bd 10 dd 79 bd be 5b 6d bc
       -0.128048 -0.05953228 -0.061001837 -0.014487205
000220 02 50 06 be 5b af 15 be d7 5e 17 be 7d 29 ba bd
       -0.13116458 -0.14617674 -0.14782272 -0.090899445
000230 55 c4 aa 3d 61 77 1d 3e cc d9 c2 3d 2e 99 13 3d
       0.083382286 0.1537757 0.09514198 0.036034755
000240 f2 47 e1 bd 7d 7b ba bd 5b db 29 be d4 de a7 bd
       -0.110000506 -0.09105585 -0.16587584 -0.08196798
000250 71 86 98 3d f8 ab 11 3e 09 2a d6 3d 9a f6 09 3d
       0.07447518 0.14225757 0.10457236 0.033682443
000260 01 94 0b 3e c3 ec 28 3e 03 d8 37 3e 74 04 75 3d
       0.13630678 0.16496567 0.17953496 0.0598187
000270 a4 bf a3 bc 3e 48 e2 bd e8 ac e3 bd 59 c2 2a bd
       -0.019988842 -0.11048935 -0.111169636 -0.04168925
000280 76 22 02 be 73 d4 fb bd df b9 18 be 06 b6 d9 bd
       -0.12708458 -0.12296381 -0.14914654 -0.10630421
000290 52 eb 07 3e 3a 16 f4 3d 83 cf c3 3d 3c 41 1a 3d
       0.13273361 0.11918302 0.09561064 0.03765987
0002a0 c0 ef b0 bd 1c 1e 2d bd dc c8 2a be eb bb da bd
       -0.08639479 -0.042265043 -0.16678184 -0.10680374
0002b0 ed 09 bf 3d b0 3f c1 3d f3 92 01 3e b8 a8 3b 3d
       0.09328065 0.094359756 0.12653713 0.0458152
0002c0 42 93 04 3e 9c e8 0d 3e 2d 48 10 3e 7f fa 17 3e
       0.129468 0.13858265 0.14090033 0.1484165
0002d0 0b 69 cb bd 45 fb ed bd 26 cb f4 bd e4 1b 22 bd
       -0.09932145 -0.116201915 -0.1195281 -0.03957738
0002e0 89 7a 01 3e 31 f6 0e 3e fb 41 02 3e 35 f3 ed 3d
       0.126444 0.13961102 0.12720482 0.11618654
0002f0 d7 f2 a9 3a 29 b1 a9 bd 1a b4 9e bd a0 c0 14 bd
       0.0012966049 -0.08285744 -0.077491954 -0.036316514
000300 89 73 04 3e cf 51 23 3e b1 ee 21 3e b7 c0 f7 3d
       0.12934698 0.15949176 0.1581371 0.12097304
000310 e4 37 dc bd 34 d9 ae bd c5 72 a1 bd c3 25 21 bd
       -0.10752848 -0.08537522 -0.07883219 -0.039342653
000320 15 91 12 3e 86 58 2b 3e 13 d9 10 3e 3f 93 24 3e
       0.14313157 0.16732988 0.14145307 0.16071795
000330 cd 1a ea bd bf 59 89 bd 2d a3 03 be e6 e8 53 bd
       -0.11430893 -0.06706571 -0.12855215 -0.05173578
000340 be 3e c4 3d 78 16 93 3d 07 b0 4d 3e 21 19 74 3d
       0.095822796 0.0718202 0.2008668 0.059594277
000350 09 f7 5a bd 8a 6a 27 be 0d f3 d9 bd e5 af d0 bc
       -0.053458247 -0.16349235 -0.106420614 -0.025474498
000360 9a b4 ec bd 9f ac b3 bd 5e 96 31 be 43 c3 0f be
       -0.115578845 -0.08773159 -0.17342517 -0.1403933
000370 0b 9f a7 3d 6a 50 2a 3e 1b b2 af 3d c8 38 bf 3c
       0.08184632 0.16632238 0.08578893 0.023342505
000380 a9 1a ef 3d b4 09 06 3e 45 42 2e 3e b2 e7 9c 3d
       0.11675007 0.13089639 0.17017467 0.0766138
000390 60 41 56 bd f6 79 18 be be a3 b6 bd ea b2 c7 bc
       -0.05230844 -0.14890274 -0.0891795 -0.024377305
0003a0 94 ce 9a bd 78 c5 20 be 24 02 88 bd e5 39 b1 bd
       -0.07558933 -0.15700328 -0.06641033 -0.08653621
0003b0 b1 62 bf 3d a5 41 fc 3d 85 28 52 3d 7e cd b1 b9
       0.09344996 0.12317208 0.051308174 -0.00033913174
0003c0 92 b1 03 be 9f b0 16 be 61 2c 25 be d8 95 84 bd
       -0.12860706 -0.14715813 -0.1613021 -0.06473893
0003d0 a9 e8 6f 3d c2 b6 17 3e 6d 9b 08 3e ef 7c 3d 3d
       0.05857149 0.1481581 0.1334054 0.046261724
0003e0 83 b8 ea 3d 2c 26 b3 3d a6 ff 4a 3e a9 fb c3 3d
       0.11460974 0.08747515 0.19824085 0.09569485
0003f0 1d 98 33 be 0b 24 ac bd 10 ca 2a be c3 ea 37 bd
       -0.17538495 -0.08405312 -0.16678643 -0.04490162

act_fun.1.mask f4 [32, 16]
000000 00 00 80 3f 00 00 80 3f 00 00 80 3f 00 00 80 3f
       1.0 1.0 1.0 1.0
000010 00 00 80 3f 00 00 80 3f 00 00 80 3f 00 00 80 3f
       1.0 1.0 1.0 1.0
000020 00 00 80 3f 00 00 80 3f 00 00 80 3f 00 00 80 3f
       1.0 1.0 1.0 1.0
000030 00 00 80 3f 00 00 80 3f 00 00 80 3f 00 00 80 3f
       1.0 1.0 1.0 1.0
000040 00 00 80 3f 00 00 80 3f 00 00 80 3f 00 00 80 3f
       1.0 1.0 1.0 1.0
000050 00 00 80 3f 00 00 80 3f 00 00 80 3f 00 00 80 3f
       1.0 1.0 1.0 1.0
000060 00 00 80 3f 00 00 80 3f 00 00 80 3f 00 00 80 3f
       1.0 1.0 1.0 1.0
000070 00 00 80 3f 00 00 80 3f 00 00 80 3f 00 00 80 3f
       1.0 1.0 1.0 1.0
000080 00 00 80 3f 00 00 80 3f 00 00 80 3f 00 00 80 3f
       1.0 1.0 1.0 1.0
000090 00 00 80 3f 00 00 80 3f 00 00 80 3f 00 00 80 3f
       1.0 1.0 1.0 1.0
0000a0 00 00 80 3f 00 00 80 3f 00 00 80 3f 00 00 80 3f
       1.0 1.0 1.0 1.0
0000b0 00 00 80 3f 00 00 80 3f 00 00 80 3f 00 00 80 3f
       1.0 1.0 1.0 1.0
0000c0 00 00 80 3f 00 00 80 3f 00 00 80 3f 00 00 80 3f
       1.0 1.0 1.0 1.0
0000d0 00 00 80 3f 00 00 80 3f 00 00 80 3f 00 00 80 3f
       1.0 1.0 1.0 1.0
0000e0 00 00 80 3f 00 00 80 3f 00 00 80 3f 00 00 80 3f
       1.0 1.0 1.0 1.0
0000f0 00 00 80 3f 00 00 80 3f 00 00 80 3f 00 00 80 3f
       1.0 1.0 1.0 1.0
000100 00 00 80 3f 00 00 80 3f 00 00 80 3f 00 00 80 3f
       1.0 1.0 1.0 1.0
000110 00 00 80 3f 00 00 80 3f 00 00 80 3f 00 00 80 3f
       1.0 1.0 1.0 1.0
000120 00 00 80 3f 00 00 80 3f 00 00 80 3f 00 00 80 3f
       1.0 1.0 1.0 1.0
000130 00 00 80 3f 00 00 80 3f 00 00 80 3f 00 00 80 3f
       1.0 1.0 1.0 1.0
000140 00 00 80 3f 00 00 80 3f 00 00 80 3f 00 00 80 3f
       1.0 1.0 1.0 1.0
000150 00 00 80 3f 00 00 80 3f 00 00 80 3f 00 00 80 3f
       1.0 1.0 1.0 1.0
000160 00 00 80 3f 00 00 80 3f 00 00 80 3f 00 00 80 3f
       1.0 1.0 1.0 1.0
000170 00 00 80 3f 00 00 80 3f 00 00 80 3f 00 00 80 3f
       1.0 1.0 1.0 1.0
000180 00 00 80 3f 00 00 80 3f 00 00 80 3f 00 00 80 3f
       1.0 1.0 1.0 1.0
000190 00 00 80 3f 00 00 80 3f 00 00 80 3f 00 00 80 3f
       1.0 1.0 1.0 1.0
0001a0 00 00 80 3f 00 00 80 3f 00 00 80 3f 00 00 80 3f
       1.0 1.0 1.0 1.0
0001b0 00 00 80 3f 00 00 80 3f 00 00 80 3f 00 00 80 3f
       1.0 1.0 1.0 1.0
0001c0 00 00 80 3f 00 00 80 3f 00 00 80 3f 00 00 80 3f
       1.0 1.0 1.0 1.0
0001d0 00 00 80 3f 00 00 80 3f 00 00 80 3f 00 00 80 3f
       1.0 1.0 1.0 1.0
0001e0 00 00 80 3f 00 00 80 3f 00 00 80 3f 00 00 80 3f
       1.0 1.0 1.0 1.0
0001f0 00 00 80 3f 00 00 80 3f 00 00 80 3f 00 00 80 3f
       1.0 1.0 1.0 1.0
000200 00 00 80 3f 00 00 80 3f 00 00 80 3f 00 00 80 3f
       1.0 1.0 1.0 1.0
000210 00 00 80 3f 00 00 80 3f 00 00 80 3f 00 00 80 3f
       1.0 1.0 1.0 1.0
000220 00 00 80 3f 00 00 80 3f 00 00 80 3f 00 00 80 3f
       1.0 1.0 1.0 1.0
000230 00 00 80 3f 00 00 80 3f 00 00 80 3f 00 00 80 3f
       1.0 1.0 1.0 1.0
000240 00 00 80 3f 00 00 80 3f 00 00 80 3f 00 00 80 3f
       1.0 1.0 1.0 1.0
000250 00 00 80 3f 00 00 80 3f 00 00 80 3f 00 00 80 3f
       1.0 1.0 1.0 1.0
000260 00 00 80 3f 00 00 80 3f 00 00 80 3f 00 00 80 3f
       1.0 1.0 1.0 1.0
000270 00 00 80 3f 00 00 80 3f 00 00 80 3f 00 00 80 3f
       1.0 1.0 1.0 1.0
000280 00 00 80 3f 00 00 80 3f 00 00 80 3f 00 00 80 3f
       1.0 1.0 1.0 1.0
000290 00 00 80 3f 00 00 80 3f 00 00 80 3f 00 00 80 3f
       1.0 1.0 1.0 1.0
0002a0 00 00 80 3f 00 00 80 3f 00 00 80 3f 00 00 80 3f
       1.0 1.0 1.0 1.0
0002b0 00 00 80 3f 00 00 80 3f 00 00 80 3f 00 00 80 3f
       1.0 1.0 1.0 1.0
0002c0 00 00 80 3f 00 00 80 3f 00 00 80 3f 00 00 80 3f
       1.0 1.0 1.0 1.0
0002d0 00 00 80 3f 00 00 80 3f 00 00 80 3f 00 00 80 3f
       1.0 1.0 1.0 1.0
0002e0 00 00 80 3f 00 00 80 3f 00 00 80 3f 00 00 80 3f
       1.0 1.0 1.0 1.0
0002f0 00 00 80 3f 00 00 80 3f 00 00 80 3f 00 00 80 3f
       1.0 1.0 1.0 1.0
000300 00 00 80 3f 00 00 80 3f 00 00 80 3f 00 00 80 3f
       1.0 1.0 1.0 1.0
000310 00 00 80 3f 00 00 80 3f 00 00 80 3f 00 00 80 3f
       1.0 1.0 1.0 1.0
000320 00 00 80 3f 00 00 80 3f 00 00 80 3f 00 00 80 3f
       1.0 1.0 1.0 1.0
000330 00 00 80 3f 00 00 80 3f 00 00 80 3f 00 00 80 3f
       1.0 1.0 1.0 1.0
000340 00 00 80 3f 00 00 80 3f 00 00 80 3f 00 00 80 3f
       1.0 1.0 1.0 1.0
000350 00 00 80 3f 00 00 80 3f 00 00 80 3f 00 00 80 3f
       1.0 1.0 1.0 1.0
000360 00 00 80 3f 00 00 80 3f 00 00 80 3f 00 00 80 3f
       1.0 1.0 1.0 1.0
000370 00 00 80 3f 00 00 80 3f 00 00 80 3f 00 00 80 3f
       1.0 1.0 1.0 1.0
000380 00 00 80 3f 00 00 80 3f 00 00 80 3f 00 00 80 3f
       1.0 1.0 1.0 1.0
000390 00 00 80 3f 00 00 80 3f 00 00 80 3f 00 00 80 3f
       1.0 1.0 1.0 1.0
0003a0 00 00 80 3f 00 00 80 3f 00 00 80 3f 00 00 80 3f
       1.0 1.0 1.0 1.0
0003b0 00 00 80 3f 00 00 80 3f 00 00 80 3f 00 00 80 3f
       1.0 1.0 1.0 1.0
0003c0 00 00 80 3f 00 00 80 3f 00 00 80 3f 00 00 80 3f
       1.0 1.0 1.0 1.0
0003d0 00 00 80 3f 00 00 80 3f 00 00 80 3f 00 00 80 3f
       1.0 1.0 1.0 1.0
0003e0 00 00 80 3f 00 00 80 3f 00 00 80 3f 00 00 80 3f
       1.0 1.0 1.0 1.0
0003f0 00 00 80 3f 00 00 80 3f 00 00 80 3f 00 00 80 3f
       1.0 1.0 1.0 1.0

act_fun.1.scale_base f4 [32, 16]
000000 4e f0 fc bd 4d 45 15 3e a6 32 d3 3c 78 9f 85 bd
       -0.12350522 0.14577217 0.025780987 -0.06524557
000010 50 e6 1e 3e 3b 87 77 3e 4e 07 22 bc b8 fa 87 be
       0.15517545 0.2417268 -0.009889437 -0.2655847
000020 f7 eb 80 be cb 85 40 be 71 c8 81 be 85 a4 37 3e
       -0.25180027 -0.18801038 -0.25348237 0.17933853
000030 9a 3e 76 be ee b9 0b bd 0b 57 2d 3e 88 74 b8 bc
       -0.24047318 -0.034112863 0.16927736 -0.022516504
000040 29 e6 2f be 38 af 7c bd e5 9a 12 3e 44 3e 9f bc
       -0.17177643 -0.06169054 0.143169 -0.01943887
000050 a5 3e 7f 3e f4 41 0d 3e f0 ff dd 3b 09 c5 8d be
       0.2492624 0.1379469 0.006774895 -0.27689388
000060 b4 b4 64 3d 3a 45 6c be e6 2b 78 be d5 bb 7d 3e
       0.055836394 -0.23073283 -0.24235496 0.24778683
000070 5c 7a 24 be 25 05 4d 3e 0f 7c 1e bc 72 b2 b4 3b
       -0.16062301 0.20021494 -0.009673133 0.0055144364
000080 6b 83 78 3d 0c c1 24 3e 4b 3c 83 3e 8f 25 6e be
       0.060672205 0.16089267 0.25631937 -0.23256515
000090 83 f7 92 3d a7 f5 27 3e f7 3e 10 bc 24 f4 52 be
       0.07176115 0.16402303 -0.0088040745 -0.20600945
0000a0 a0 13 08 3b 5c 29 2f be 8a 1c 56 be b7 b4 10 3e
       0.002076365 -0.17105621 -0.20909324 0.14131437
0000b0 6e a8 7f be 5a 2e 82 bd e4 e4 23 3e 64 64 6c bd
       -0.24966595 -0.06356497 0.16005284 -0.057712927
0000c0 aa 1a 41 3e 72 6e 0e be 17 d7 7e be 7c cd de bc
       0.18857828 -0.13909319 -0.24886738 -0.027197592
0000d0 92 70 62 3d 03 1a 8d be f4 4c 30 3e a5 3f 88 3e
       0.055283137 -0.27558908 0.17216855 0.26611057
0000e0 7f 1a 81 3e 44 4c f9 3b 42 34 87 3d 3a 8c 85 be
       0.25215527 0.0076079685 0.06601764 -0.26083547
0000f0 0a ec 6d 3e 9a 4a 85 be 2e 6f 8e be 7c b0 13 3c
       0.23234573 -0.2603348 -0.27819198 0.009014245
000100 15 51 88 3e 08 ec af bb c9 60 e8 bb 27 eb 82 3e
       0.2662436 -0.0053687133 -0.007091616 0.25570032
000110 58 54 51 be 71 1f 62 be e2 6b 47 3c d1 70 3a 3e
       -0.20442331 -0.22082306 0.012171717 0.18207099
000120 c7 c5 43 3e bd 00 25 3e 7f 18 18 bc 39 b1 db bd
       0.19118415 0.16113563 -0.009283184 -0.10727162
000130 67 54 fc 3c 46 c1 10 be e8 b8 12 be 92 9b 0c 3e
       0.030801965 -0.14136228 -0.14328349 0.1373122
000140 d2 f2 6f be 05 9a 46 3e e8 eb c7 bc 3c 0a 77 3c
       -0.23432472 0.19394691 -0.024404481 0.015078124
000150 79 5a 30 3e 06 42 ef 3d 1e b6 ab 3d d9 88 b2 3d
       0.17222013 0.11682515 0.083843455 0.08717508
000160 7d 79 b2 3d 71 61 2a bc 07 c5 70 3d 08 88 6a bc
       0.08714578 -0.010399208 0.05878165 -0.014314659
000170 45 bc 19 be 0d 74 2b 3e 45 73 c1 3d 9e 04 82 bd
       -0.15013225 0.16743489 0.09445814 -0.06348537
000180 78 30 7c be 17 67 25 3e 41 0f 61 3e d4 57 fc bd
       -0.24627864 0.16152607 0.21978475 -0.123214394
000190 79 9f 11 3e ce 8b 3f 3e 97 58 90 be 13 28 10 be
       0.1422099 0.18705675 -0.2819259 -0.14077787
0001a0 67 4c 2f be 3b d7 49 be d4 b4 56 3a a3 e6 8a 3e
       -0.17118989 -0.1971101 0.00081903976 0.27129087
0001b0 35 17 96 bd 1d f0 4b 3e e8 a8 04 bd f7 e4 a6 bd
       -0.07328645 0.19915815 -0.032387644 -0.0814914
0001c0 6d 2e 74 bd e7 0c 97 bd 2a 50 59 3d dc a8 9f bc
       -0.059614588 -0.07375508 0.053054966 -0.019489698
0001d0 70 4b 5a 3d ef d6 1b 3e 8b cc 01 3d 68 31 99 3d
       0.0532946 0.1521871 0.031689208 0.074801266
0001e0 6a cd 65 bd 6e 53 80 bd c4 08 81 bd 27 01 99 3d
       -0.0561041 -0.06265913 -0.063005 0.07470923
0001f0 71 9f 30 be c9 3e 2e bb fd 51 a0 bd 47 d8 3b be
       -0.17248322 -0.0026587716 -0.07828138 -0.18344222
000200 5d ca 8b be 49 83 80 3e fd 73 a3 3c b2 c4 07 be
       -0.27302828 0.25100163 0.019952768 -0.13258627
000210 74 c6 0c 3e 69 f3 8f 3e 4f 9d 2d bd b2 6b 80 be
       0.13747579 0.28115395 -0.04238635 -0.25082165
000220 56 32 56 3d 29 32 94 be 84 35 cf bd c0 46 90 3e
       0.052294098 -0.2894452 -0.10117629 0.28178978
000230 0e b7 ff 3c 89 fe 6c 3d 13 8a 8f 39 42 cf 4f bd
       0.031215217 0.05785993 0.0002737796 -0.050734766
000240 f4 e5 84 3e d7 d0 59 be 5d 26 1d be e7 26 e8 3b
       0.2595669 -0.21271072 -0.15346666 0.0070847156
000250 96 8a 50 bd 66 9f ab bd 52 8f 52 3e 5f 9b 77 3d
       -0.050913416 -0.08380012 0.20562485 0.060450908
000260 8e c1 55 bd 22 bb 41 3d 82 0d 35 bc 70 3e 2b be
       -0.05218654 0.047297604 -0.011050584 -0.16723037
000270 a5 f0 41 3e 34 ac 7c be 34 93 fd bd c7 b3 2e bd
       0.18939455 -0.24675065 -0.123815924 -0.042651918
000280 82 d8 c1 ba 3c 58 78 be 7c 11 3a be 4e 92 ed 3c
       -0.0014789256 -0.24252409 -0.18170732 0.029000428
000290 bc 19 b6 bd f3 c6 93 bc 1c c4 82 3e 36 16 3a 3e
       -0.08891627 -0.018039202 0.25540245 0.18172535
0002a0 20 2d f3 3d a8 bb b8 3d c5 ec 7a 3e a0 ef 64 be
       0.11873841 0.090201676 0.24504383 -0.22357035
0002b0 93 00 81 3e ae 7e 87 be db e8 80 be e6 3d 34 3e
       0.2519575 -0.26463836 -0.25177655 0.17601737
0002c0 55 26 4b be 8a ec 1e 3e 45 72 8f 3e 79 12 22 bd
       -0.19838841 0.1551992 0.28016868 -0.0395684
0002d0 33 de 96 3e 3e c9 54 3d 60 dd 54 be 95 83 17 be
       0.294664 0.051949732 -0.20787573 -0.14796288
0002e0 85 53 22 be 15 03 4f be 4a 10 0e be 4e 33 92 3e
       -0.15852173 -0.2021602 -0.13873401 0.28554767
0002f0 7c 3a 65 be 2d 91 4a 3e fa 78 50 3e a3 e6 e7 bc
       -0.22385591 0.19781943 0.20358649 -0.028308218
000300 e3 29 80 3c 20 54 45 bd da de f4 3d 19 fe 45 bd
       0.015644973 -0.04817593 0.11956568 -0.04833803
000310 39 ff 5a bd fd 0b 66 3e ad 45 af 3d 6f bb 47 be
       -0.053466056 0.2246551 0.085582115 -0.19505094
000320 e9 76 a6 3d 08 f3 6c bb a8 28 ad bb 06 a9 54 3e
       0.08128149 -0.00361556 -0.0052843876 0.20767602
000330 3c 14 5e bd 19 43 cc bc 2f 96 21 3e fb 84 b0 bc
       -0.054218516 -0.024934338 0.15779947 -0.021547785
000340 80 b9 f2 bd fb 1d 0b 3d 7e e2 8c 3e 3a 43 a8 bc
       -0.118517876 0.03396414 0.2751655 -0.020539869
000350 14 f1 8c 3d 8c b0 db 3d 62 07 cc bd 53 94 63 be
       0.068819195 0.10727033 -0.09962346 -0.2222455
000360 59 61 69 bd d0 f7 79 be da ae e0 bd 07 fa 42 3d
       -0.056977604 -0.24410939 -0.1097085 0.047601726
000370 cc a1 29 be c3 19 79 3e c0 3e 18 3e a0 d6 ba bc
       -0.16565627 0.24326234 0.14867687 -0.02280742
000380 d8 e6 5d 3c 15 82 cd bd 53 a4 97 bd 2c 40 62 3e
       0.013543807 -0.10034577 -0.07404389 0.22094792
000390 5c 89 3a be b9 11 2a be 58 7a 69 bc 17 09 74 3e
       -0.18216461 -0.16608323 -0.01425036 0.23831593
0003a0 e0 f5 7d 3e 35 80 5a 3e c8 94 63 3e a3 4b c9 bc
       0.24800825 0.2133797 0.22224724 -0.0245722
0003b0 43 e6 98 3e 3a b5 45 bd bd f9 83 bd 58 91 40 3e
       0.29863176 -0.048268534 -0.06444118 0.18805444
0003c0 c8 c6 0a bd 7c 5d 02 3c 0d d0 15 3c 55 e4 de bd
       -0.03388098 0.007956859 0.009143841 -0.10883395
0003d0 ac 52 3d bd b0 5a f5 bd e7 76 a2 bd 43 6c ec 3d
       -0.04622142 -0.11980188 -0.07932835 0.11544087
0003e0 b7 db 13 3e 4e 2c 8b 3c 8c af c3 3d f0 7e bd bd
       0.14439283 0.0169889 0.09554967 -0.09252727
0003f0 8c 8c 22 3d ad bd 68 bd 46 ff 03 be c6 52 d4 bc
       0.039684817 -0.056821514 -0.12890348 -0.025918376

act_fun.1.scale_sp f4 [32, 16]
000000 1a 02 9a 3e 00 65 8b 3e f1 9f 9f 3e 0b f8 8f 3e
       0.30079728 0.27225494 0.31176713 0.2811893
000010 34 a2 9e 3e 97 db 9f 3e a7 e3 9c 3e ba 70 82 3e
       0.30983126 0.3122222 0.30642435 0.2547663
000020 0f 48 9e 3e 75 08 9e 3e 24 8e 9f 3e 9c 6e 9f 3e
       0.3091435 0.30865827 0.31163132 0.31139076
000030 7d 25 92 3e 24 fa 67 3e 57 45 88 3e d9 2b a0 3e
       0.28544226 0.22654015 0.26615402 0.31283453
000040 5f ab 8d 3e 1d d6 9a 3e 3c 95 93 3e 73 f6 75 3e
       0.27669808 0.3024148 0.28824794 0.24019794
000050 84 d6 9e 3e 57 d2 84 3e 3b 55 9d 3e d2 e2 8e 3e
       0.31023037 0.25941727 0.30729088 0.27907425
000060 30 8e 98 3e 54 65 9e 3e fe 9e 88 3e 51 42 9e 3e
       0.2979598 0.30936682 0.266838 0.3090997
000070 05 99 84 3e 28 ca 71 3e c1 dd 84 3e 0f 3b 8e 3e
       0.25897995 0.23612273 0.25950435 0.27779433
000080 d7 fc 93 3e e2 fc 9b 3e 8e 79 9e 3e b1 eb 9b 3e
       0.2890384 0.30466372 0.30952114 0.30453256
000090 ae 67 96 3e 0a 8e 9f 3e b7 6f 98 3e d1 4d 9f 3e
       0.29375976 0.31163055 0.29772732 0.31114057
0000a0 10 3c 94 3e 50 ce 88 3e 89 b9 9d 3e 7e 2a 91 3e
       0.28952074 0.26719904 0.30805615 0.2835273
0000b0 2b e9 9e 3e 35 c4 84 3e b1 9c 9d 3e 01 9d a0 3e
       0.31037268 0.25930944 0.3078361 0.31369784
0000c0 8a f7 86 3e a4 36 9b 3e 1a 56 9d 3e b8 98 5c 3e
       0.26360732 0.30315125 0.30729753 0.21542633
0000d0 af 5d 9c 3e d4 29 9f 3e 6b 72 9d 3e 04 c3 7d 3e
       0.30540225 0.310866 0.30751356 0.24781424
0000e0 4e cb 9b 3e 27 92 80 3e 83 66 8e 3e a2 b8 9c 3e
       0.30428547 0.25111505 0.27812585 0.30609614
0000f0 dc b5 9e 3e 22 55 4b 3e 60 e6 9c 3e 9b 45 a0 3e
       0.30998123 0.19856694 0.30644512 0.31303105
000100 77 e7 9d 3e bd d3 87 3e b4 5a 7a 3e 95 03 68 3e
       0.30840656 0.2652873 0.24448663 0.22657616
000110 00 79 9d 3e 47 ed 9e 3e c6 28 9d 3e bd e7 65 3e
       0.30756378 0.31040403 0.3069517 0.22451682
000120 90 da 7d 3e b4 63 87 3e 8e 8b 6d 3e 6e a6 8c 3e
       0.24790406 0.26443255 0.23197767 0.27470726
000130 ea 0b 99 3e b2 de 92 3e e9 82 86 3e 3d 92 9b 3e
       0.29891902 0.28685528 0.26271752 0.30385008
000140 65 b0 81 3e d4 91 5e 3e d0 1b 3f 3e e2 09 96 3e
       0.2532989 0.21735317 0.18662953 0.29304415
000150 61 26 7f 3e 40 1f 7b 3e 78 31 99 3e 7f 31 9e 3e
       0.24916984 0.2452364 0.29920554 0.30897138
000160 67 9a 91 3e bb b7 83 3e f9 3a 1e 3e 5b 56 73 3e
       0.28438112 0.25726113 0.15452184 0.23763411
000170 22 da 78 3e 1e 3f 53 3e 64 df 7a 3e e7 df 3d 3e
       0.24301961 0.20629546 0.2449928 0.18542443
000180 cf 21 53 3e ad 82 45 3e 58 2f 85 3e d8 f9 9b 3e
       0.20618366 0.1928813 0.26012683 0.30464053
000190 0e 88 9a 3e ed 88 99 3e 8c 02 9c 3e d3 da 9b 3e
       0.30181926 0.2998728 0.30470693 0.30440387
0001a0 03 e8 81 3e 45 60 5d 3e ec 3f 9c 3e 7e a2 8c 3e
       0.25372323 0.21618755 0.3051752 0.27467722
0001b0 8c 67 9a 3e 84 61 88 3e 02 7f 97 3e ac 11 9b 3e
       0.30157125 0.266369 0.29589087 0.3028692
0001c0 ed da 83 3e 79 5d 8f 3e 98 2e 95 3e da 5c 56 3e
       0.25752965 0.28001 0.2913711 0.20933858
0001d0 62 74 86 3e 84 06 59 3e ef 10 99 3e 2f 09 9e 3e
       0.26260668 0.21193892 0.29895732 0.30866382
0001e0 02 7f 96 3e 01 74 73 3e 06 b6 7a 3e 25 27 2e 3e
       0.29393774 0.2377472 0.24483499 0.1700712
0001f0 23 ac 62 3e 36 b9 3d 3e 2e d6 87 3e d6 76 9c 3e
       0.22135977 0.18527684 0.26530594 0.30559415
000200 b1 63 a0 3e f6 a2 9e 3e cf 81 97 3e cb 5a 6f 3e
       0.31326059 0.30983704 0.29591224 0.23374479
000210 d4 cb 9c 3e c6 b2 91 3e 44 74 9e 3e 29 2c a1 3e
       0.3062426 0.28456706 0.3094808 0.31479004
000220 3b 28 8e 3e da 89 7e 3e c0 42 a0 3e 53 9a 9c 3e
       0.27765068 0.24857274 0.31300926 0.3058649
000230 1b 79 9f 3e fb bc 8f 3e cd 8a 69 3e db 9a 87 3e
       0.31147084 0.28073868 0.22806855 0.26485333
000240 fa 43 9f 3e 04 0e 90 3e 03 26 a0 3e 6f 1c 9e 3e
       0.3110655 0.28135693 0.31279 0.30881068
000250 31 0f 6a 3e 93 b9 98 3e d5 ea 9c 3e 9c bf 99 3e
       0.22857358 0.29829082 0.30647913 0.30029
000260 a8 1c 89 3e f2 4f 67 3e 03 72 8d 3e 2d e7 97 3e
       0.26779675 0.2258909 0.27626047 0.2966856
000270 48 59 a0 3e 7f 3c 56 3e 20 a8 9f 3e 00 9b a1 3e
       0.31318116 0.20921515 0.31182957 0.31563568
000280 9b 60 90 3e dc 16 58 3e a9 3f 57 3e 87 eb 92 3e
       0.28198704 0.2110247 0.21020378 0.28695318
000290 6d f4 9b 3e fc 3e 9f 3e eb 34 8b 3e 44 24 a0 3e
       0.3045992 0.3110274 0.2718881 0.31277668
0002a0 8f bd 84 3e 36 12 96 3e 13 db 88 3e b2 6e 9d 3e
       0.25925872 0.2931077 0.2672964 0.30748516
0002b0 bd 60 81 3e 7a 24 8c 3e 9f 45 9a 3e 57 28 81 3e
       0.25269118 0.2737158 0.30131242 0.2522609
0002c0 67 1b a0 3e 69 f8 9e 3e 47 79 9e 3e 71 49 9e 3e
       0.31270906 0.31048897 0.30951902 0.30915406
0002d0 5e ae 9d 3e 29 b2 84 3e 9b c0 9e 3e 79 5a a0 3e
       0.30797094 0.25917175 0.3100632 0.31319025
0002e0 d3 4c 91 3e da 89 99 3e 9c 31 9f 3e 5a 67 82 3e
       0.28378925 0.29987985 0.31092536 0.25469476
0002f0 f2 c4 98 3e 5c 8b 8e 3e 3e ea 96 3e b3 da a0 3e
       0.29837757 0.27840698 0.29475588 0.31416854
000300 bc 82 8a 3e 1b 3f 96 3e ea ba 23 3e c7 79 99 3e
       0.27052867 0.2934502 0.15989271 0.2997572
000310 95 94 8f 3e 16 95 7d 3e c9 c6 8e 3e 7b cc 8a 3e
       0.28043047 0.24763903 0.27886036 0.2710913
000320 36 d4 94 3e 0e 0e 92 3e 2d d2 8b 3e 0f a1 8d 3e
       0.29068154 0.28526348 0.2730879 0.2766194
000330 8e 5d 99 3e ef 39 85 3e 96 17 9c 3e 7a b9 81 3e
       0.2995419 0.26020762 0.30486745 0.2533682
000340 49 c6 98 3e 7f 12 a1 3e f7 03 97 3e ea a4 93 3e
       0.2983878 0.31459424 0.29495212 0.28836757
000350 82 45 9e 3e e3 ff 83 3e a0 80 79 3e 93 d8 8f 3e
       0.30912405 0.25781164 0.24365473 0.2809492
000360 37 d5 9b 3e 87 01 78 3e 37 0c 5d 3e f4 6d 92 3e
       0.30436108 0.24219333 0.21586691 0.28599513
000370 cb 84 9e 3e 2a ed 9b 3e 65 73 48 3e da aa 93 3e
       0.30960688 0.3045438 0.1957527 0.28841287
000380 cb 7e 8b 3e 25 a4 68 3e c4 e7 96 3e de e2 9f 3e
       0.27245173 0.22718866 0.29473698 0.31227773
000390 c3 c6 a0 3e b0 7e 9d 3e da d1 9f 3e 9d 57 a1 3e
       0.31401643 0.30760717 0.31214792 0.31512156
0003a0 0b 28 86 3e 2d d6 95 3e 5a be a0 3e a5 3a a0 3e
       0.26202425 0.29264966 0.31395227 0.31294742
0003b0 07 ad a0 3e f2 0b 97 3e 12 43 82 3e fe 0a a1 3e
       0.3138201 0.295013 0.25441796 0.314537
0003c0 fe 74 6c 3e 24 22 6a 3e dc b7 0c 3e 4e 05 87 3e
       0.23091504 0.22864586 0.13742012 0.26371235
0003d0 e9 9f 08 3e d8 29 80 3e 1b e2 91 3e 8a 88 99 3e
       0.13342251 0.25031924 0.28492817 0.29986984
0003e0 82 12 8a 3e ec d4 94 3e 44 e3 39 3e d9 d0 84 3e
       0.26967245 0.29068696 0.18153101 0.25940588
0003f0 48 2a 7e 3e cf 1b 8d 3e 96 cd 6e 3e 5c 53 47 3e
       0.24820817 0.2756028 0.23320612 0.19465393
