models_cerebelo/kan_model_granule_lif.pt (torch, 54306 bytes, 29 tensors)

node_bias_0 f4 [32]
0	0x00000000	0.0
1	0x00000000	0.0
2	0x00000000	0.0
3	0x00000000	0.0
4	0x00000000	0.0
5	0x00000000	0.0
6	0x00000000	0.0
7	0x00000000	0.0
8	0x00000000	0.0
9	0x00000000	0.0
10	0x00000000	0.0
11	0x00000000	0.0
12	0x00000000	0.0
13	0x00000000	0.0
14	0x00000000	0.0
15	0x00000000	0.0
16	0x00000000	0.0
17	0x00000000	0.0
18	0x00000000	0.0
19	0x00000000	0.0
20	0x00000000	0.0
21	0x00000000	0.0
22	0x00000000	0.0
23	0x00000000	0.0
24	0x00000000	0.0
25	0x00000000	0.0
26	0x00000000	0.0
27	0x00000000	0.0
28	0x00000000	0.0
29	0x00000000	0.0
30	0x00000000	0.0
31	0x00000000	0.0

node_scale_0 f4 [32]
0	0x3f800000	1.0
1	0x3f800000	1.0
2	0x3f800000	1.0
3	0x3f800000	1.0
4	0x3f800000	1.0
5	0x3f800000	1.0
6	0x3f800000	1.0
7	0x3f800000	1.0
8	0x3f800000	1.0
9	0x3f800000	1.0
10	0x3f800000	1.0
11	0x3f800000	1.0
12	0x3f800000	1.0
13	0x3f800000	1.0
14	0x3f800000	1.0
15	0x3f800000	1.0
16	0x3f800000	1.0
17	0x3f800000	1.0
18	0x3f800000	1.0
19	0x3f800000	1.0
20	0x3f800000	1.0
21	0x3f800000	1.0
22	0x3f800000	1.0
23	0x3f800000	1.0
24	0x3f800000	1.0
25	0x3f800000	1.0
26	0x3f800000	1.0
27	0x3f800000	1.0
28	0x3f800000	1.0
29	0x3f800000	1.0
30	0x3f800000	1.0
31	0x3f800000	1.0

subnode_bias_0 f4 [32]
0	0x00000000	0.0
1	0x00000000	0.0
2	0x00000000	0.0
3	0x00000000	0.0
4	0x00000000	0.0
5	0x00000000	0.0
6	0x00000000	0.0
7	0x00000000	0.0
8	0x00000000	0.0
9	0x00000000	0.0
10	0x00000000	0.0
11	0x00000000	0.0
12	0x00000000	0.0
13	0x00000000	0.0
14	0x00000000	0.0
15	0x00000000	0.0
16	0x00000000	0.0
17	0x00000000	0.0
18	0x00000000	0.0
19	0x00000000	0.0
20	0x00000000	0.0
21	0x00000000	0.0
22	0x00000000	0.0
23	0x00000000	0.0
24	0x00000000	0.0
25	0x00000000	0.0
26	0x00000000	0.0
27	0x00000000	0.0
28	0x00000000	0.0
29	0x00000000	0.0
30	0x00000000	0.0
31	0x00000000	0.0

subnode_scale_0 f4 [32]
0	0x3f800000	1.0
1	0x3f800000	1.0
2	0x3f800000	1.0
3	0x3f800000	1.0
4	0x3f800000	1.0
5	0x3f800000	1.0
6	0x3f800000	1.0
7	0x3f800000	1.0
8	0x3f800000	1.0
9	0x3f800000	1.0
10	0x3f800000	1.0
11	0x3f800000	1.0
12	0x3f800000	1.0
13	0x3f800000	1.0
14	0x3f800000	1.0
15	0x3f800000	1.0
16	0x3f800000	1.0
17	0x3f800000	1.0
18	0x3f800000	1.0
19	0x3f800000	1.0
20	0x3f800000	1.0
21	0x3f800000	1.0
22	0x3f800000	1.0
23	0x3f800000	1.0
24	0x3f800000	1.0
25	0x3f800000	1.0
26	0x3f800000	1.0
27	0x3f800000	1.0
28	0x3f800000	1.0
29	0x3f800000	1.0
30	0x3f800000	1.0
31	0x3f800000	1.0

node_bias_1 f4 [16]
0	0x00000000	0.0
1	0x00000000	0.0
2	0x00000000	0.0
3	0x00000000	0.0
4	0x00000000	0.0
5	0x00000000	0.0
6	0x00000000	0.0
7	0x00000000	0.0
8	0x00000000	0.0
9	0x00000000	0.0
10	0x00000000	0.0
11	0x00000000	0.0
12	0x00000000	0.0
13	0x00000000	0.0
14	0x00000000	0.0
15	0x00000000	0.0

node_scale_1 f4 [16]
0	0x3f800000	1.0
1	0x3f800000	1.0
2	0x3f800000	1.0
3	0x3f800000	1.0
4	0x3f800000	1.0
5	0x3f800000	1.0
6	0x3f800000	1.0
7	0x3f800000	1.0
8	0x3f800000	1.0
9	0x3f800000	1.0
10	0x3f800000	1.0
11	0x3f800000	1.0
12	0x3f800000	1.0
13	0x3f800000	1.0
14	0x3f800000	1.0
15	0x3f800000	1.0

subnode_bias_1 f4 [16]
0	0x00000000	0.0
1	0x00000000	0.0
2	0x00000000	0.0
3	0x00000000	0.0
4	0x00000000	0.0
5	0x00000000	0.0
6	0x00000000	0.0
7	0x00000000	0.0
8	0x00000000	0.0
9	0x00000000	0.0
10	0x00000000	0.0
11	0x00000000	0.0
12	0x00000000	0.0
13	0x00000000	0.0
14	0x00000000	0.0
15	0x00000000	0.0

subnode_scale_1 f4 [16]
0	0x3f800000	1.0
1	0x3f800000	1.0
2	0x3f800000	1.0
3	0x3f800000	1.0
4	0x3f800000	1.0
5	0x3f800000	1.0
6	0x3f800000	1.0
7	0x3f800000	1.0
8	0x3f800000	1.0
9	0x3f800000	1.0
10	0x3f800000	1.0
11	0x3f800000	1.0
12	0x3f800000	1.0
13	0x3f800000	1.0
14	0x3f800000	1.0
15	0x3f800000	1.0

act_fun.0.grid f4 [3, 12]
0	0xc00ccccd	-2.2
1	0xbfe66666	-1.8
2	0xbfb33333	-1.4
3	0xbf800000	-1.0
4	0xbf19999a	-0.6
5	0xbe4ccccc	-0.19999999
6	0x3e4ccccc	0.19999999
7	0x3f19999a	0.6
8	0x3f800000	1.0
9	0x3fb33333	1.4
10	0x3fe66666	1.8
11	0x400ccccd	2.2
12	0xc00ccccd	-2.2
13	0xbfe66666	-1.8
14	0xbfb33333	-1.4
15	0xbf800000	-1.0
16	0xbf19999a	-0.6
17	0xbe4ccccc	-0.19999999
18	0x3e4ccccc	0.19999999
19	0x3f19999a	0.6
20	0x3f800000	1.0
21	0x3fb33333	1.4
22	0x3fe66666	1.8
23	0x400ccccd	2.2
24	0xc00ccccd	-2.2
25	0xbfe66666	-1.8
26	0xbfb33333	-1.4
27	0xbf800000	-1.0
28	0xbf19999a	-0.6
29	0xbe4ccccc	-0.19999999
30	0x3e4ccccc	0.19999999
31	0x3f19999a	0.6
32	0x3f800000	1.0
33	0x3fb33333	1.4
34	0x3fe66666	1.8
35	0x400ccccd	2.2

act_fun.0.coef f4 [3, 32, 8]
0	0xbdf56509	-0.119821616
1	0xbdc97c97	-0.09838217
2	0xbdad3d6d	-0.08458982
3	0x3e0f44b0	0.13991046
4	0x3e24d6d5	0.16097577
5	0x3dd079e4	0.10179499
6	0x3e0fdefa	0.14049903
7	0x3df23358	0.11826199
8	0xbd967357	-0.07346218
9	0xbd39ae9d	-0.04533254
10	0xbdfe7e09	-0.12426383
11	0x3e181d56	0.14854941
12	0x3d4b7692	0.049673624
13	0x3e0b1139	0.13580789
14	0x3d3b0f7a	0.045669056
15	0x3d48478c	0.048896357
16	0xbdc74326	-0.097296044
17	0xbdce725d	-0.10080407
18	0xbd2dec60	-0.042461753
19	0x3dedbeb2	0.11608638
20	0x3defc116	0.1170675
21	0x3d9adf1b	0.07562085
22	0x3db7fbc2	0.08983566
23	0x3dbaed61	0.09127308
24	0x3e12d36e	0.14338467
25	0x3e346b91	0.17619158
26	0x3d7d7bb5	0.061885554
27	0xbdf7f7ba	-0.12107797
28	0xbe0ea135	-0.13928683
29	0xbe0756a1	-0.1321664
30	0xbdd7e7cb	-0.10542258
31	0xbdd8c1f0	-0.10583866
32	0xbdd1adee	-0.102382526
33	0xbdda0c95	-0.10646931
34	0xbde341ec	-0.11096558
35	0x3e0a9cd4	0.13536388
36	0x3d51c9f1	0.051217977
37	0x3e1c1122	0.1524091
38	0x3d7c3ac1	0.06157947
39	0x3d8eb22b	0.069675766
40	0x3e036d86	0.12834749
41	0x3e0821d6	0.13294157
42	0x3e05475b	0.13015501
43	0xbdfd22e2	-0.12360169
44	0xbe316136	-0.1732224
45	0xbde0bda6	-0.109736726
46	0xbe15902b	-0.14605777
47	0xbdf2fd72	-0.11864747
48	0xbe0486a4	-0.12941986
49	0xbe12fe5c	-0.14354843
50	0xbdf3d240	-0.119053364
51	0x3e0ad6d6	0.13558516
52	0x3e121dfe	0.14269254
53	0x3dc3f261	0.095677145
54	0x3e105642	0.14095405
55	0x3df145fa	0.11780925
56	0xbd90b4c2	-0.07065727
57	0xbd458d7e	-0.04823064
58	0xbdd7c96a	-0.105364636
59	0x3dfb3dcd	0.12267647
60	0x3d4f7ef2	0.050658174
61	0x3d645753	0.05574734
62	0x3d00063f	0.031255957
63	0x3b59ff7b	0.003326385
64	0xbde5574c	-0.11198291
65	0xbdaae1f1	-0.08343876
66	0xbde40a1f	-0.11134743
67	0x3dbd88dc	0.092546195
68	0x3dbee02a	0.093201
69	0x3e16dfcb	0.14733808
70	0x3e1a6dcb	0.15080945
71	0x3df7fbc1	0.12108565
72	0x3d87b538	0.066263616
73	0x3d388a4c	0.045053765
74	0x3c55fb18	0.013060354
75	0xbdd9002f	-0.10595738
76	0xbdb3b826	-0.08775358
77	0xbd708f25	-0.058730263
78	0xbcac81a4	-0.021057911
79	0xbcee71ef	-0.029107062
80	0x3e14793b	0.14499371
81	0x3e33b293	0.1754859
82	0x3d56c36b	0.05243246
83	0xbd8a69a6	-0.06758432
84	0xbe240d89	-0.16020788
85	0xbdc417a6	-0.09574823
86	0xbdd9dadb	-0.106374465
87	0xbddebabc	-0.108754605
88	0xbdee4bda	-0.11635561
89	0xbddc63e1	-0.10761238
90	0xbe1d3a28	-0.15354216
91	0x3e229244	0.15876108
92	0x3dd9c1d4	0.10632673
93	0x3db95b6e	0.09050642
94	0x3e0ac6a4	0.13552338
95	0x3dedbe9f	0.11608624
96	0x3e0c062f	0.13674234
97	0x3e27a298	0.16370618
98	0x3d8826c1	0.06648017
99	0xbde541fb	-0.111942254
100	0xbdd39fdf	-0.10333227
101	0xbe19c083	-0.15014844
102	0xbdac82d6	-0.084233925
103	0xbdaca5be	-0.0843005
104	0xbdd770c4	-0.10519555
105	0xbdc79f24	-0.097471505
106	0xbdf44a4f	-0.11928236
107	0x3dc2cea2	0.09512068
108	0x3dd2f70c	0.10301027
109	0x3de72ba5	0.112876214
110	0x3dd811f0	0.10550296
111	0x3dd3d068	0.10342485
112	0x3e012f24	0.12615639
113	0x3e0c4b06	0.13700494
114	0x3e364551	0.1779988
115	0xbe2c0119	-0.16797294
116	0xbe085837	-0.13314901
117	0xbdcd4cf2	-0.10024442
118	0xbdfac47a	-0.12244506
119	0xbde1d234	-0.11026421
120	0xbdf49ee4	-0.119443685
121	0xbdfe5973	-0.12419405
122	0xbda1ef60	-0.07906985
123	0x3da76dde	0.081752524
124	0x3de83b9c	0.113394946
125	0x3db1150d	0.08646593
126	0x3ddce543	0.10785916
127	0x3dc3bd00	0.09557533
128	0x3e05312d	0.1300704
129	0x3e1c0ecf	0.15240024
130	0x3dfc94d3	0.123330735
131	0xbe06c37b	-0.13160507
132	0xbe198b7d	-0.14994617
133	0xbe01bbe5	-0.12669332
134	0xbdbe7f4c	-0.09301624
135	0xbdc56ab3	-0.09639492
136	0x3df2bad5	0.11852042
137	0x3e0230c1	0.1271391
138	0x3d5d404d	0.0540164
139	0xbdb73e2c	-0.08947405
140	0xbd9e99c6	-0.07744174
141	0xbdb10efa	-0.08645435
142	0xbd829fce	-0.063781366
143	0xbda8e9fa	-0.082477525
144	0x3dffe2d4	0.12494436
145	0x3de55ebb	0.11199709
146	0x3da3a0ea	0.07989676
147	0xbdaa33c3	-0.08310654
148	0xbe1f8483	-0.15577893
149	0xbdcab238	-0.09897274
150	0xbdfd140d	-0.1235734
151	0xbdd85e8b	-0.10564908
152	0x3e0cbc85	0.1374379
153	0x3e15e8f1	0.14639641
154	0x3dcdbc73	0.100457095
155	0xbddb2580	-0.10700512
156	0xbdfdf251	-0.12399734
157	0xbdee63a5	-0.116400994
158	0xbe0d7512	-0.1381419
159	0xbdf09b54	-0.117483765
160	0x3df0b9b5	0.11754171
161	0x3dd087d8	0.1018216
162	0x3e168a3f	0.14701174
163	0xbe358027	-0.17724667
164	0xbe00c753	-0.12576036
165	0xbdfe02a8	-0.124028504
166	0xbdf6ae2d	-0.1204494
167	0xbdc8aae1	-0.097982176
168	0x3df64c27	0.12026244
169	0x3df48261	0.1193893
170	0x3d5b2c52	0.053509064
171	0xbe18bb7d	-0.14915271
172	0xbdcce4fe	-0.10004614
173	0xbe1db126	-0.15399608
174	0xbdddc78b	-0.108290754
175	0xbda2a532	-0.07941665
176	0xbe01c7d4	-0.12673885
177	0xbe0be85b	-0.13662855
178	0xbdf7f80c	-0.12107858
179	0x3de05f1a	0.10955639
180	0x3e3eadba	0.18620959
181	0x3d5c1632	0.053732105
182	0x3e0abf2f	0.13549493
183	0x3df66977	0.120318346
184	0x3e11ffbe	0.14257714
185	0x3e29fbf4	0.16600019
186	0x3d98e93d	0.07466362
187	0xbda4574e	-0.080244645
188	0xbdde9571	-0.108683474
189	0xbe1ef7db	-0.15524237
190	0xbd9cef53	-0.07662835
191	0xbdc30852	-0.09523071
192	0xbd985038	-0.074371755
193	0xbdc6daa2	-0.0970967
194	0x3c80401a	0.015655566
195	0x3dec2119	0.115297504
196	0x3d3b018b	0.04565577
197	0x3d4f1c20	0.05056393
198	0x3ddf6175	0.1090726
199	0x3d9de152	0.07708992
200	0xbdd2e4ea	-0.10297568
201	0xbdebfb89	-0.11522586
202	0xbdcebd37	-0.100946836
203	0x3db9943f	0.09061479
204	0x3dfc4641	0.12318087
205	0x3ddcc7ed	0.1078032
206	0x3dfbfb89	0.12303836
207	0x3dd42acc	0.10359725
208	0x3dd3ef53	0.10348382
209	0x3dc0b957	0.09410351
210	0x3d945b06	0.07243924
211	0xbde42a80	-0.11140919
212	0xbd896048	-0.06707817
213	0xbdf46d2c	-0.119348854
214	0xbdc40ec9	-0.095731325
215	0x3d51f971	0.051263276
216	0x3de9f06d	0.11422811
217	0x3dc7defa	0.09759326
218	0x3dbdf05d	0.09274361
219	0xbe0b19cb	-0.13584058
220	0xbdb93790	-0.09043801
221	0xbdedb17d	-0.11606119
222	0xbdcdc458	-0.10047215
223	0x3c089444	0.0083361305
224	0x3e05362d	0.13008948
225	0x3e0b02a6	0.13575229
226	0x3dc68ce5	0.09694842
227	0xbe250e28	-0.16118681
228	0xbdc76abc	-0.09737155
229	0xbda35f3a	-0.079771474
230	0xbe0c4aa8	-0.13700354
231	0xbdfa3175	-0.122164644
232	0x3dca4a70	0.09877479
233	0x3d8fc05c	0.070191115
234	0x3d9bdbc5	0.07610277
235	0xbdae1340	-0.084997654
236	0xbd9860db	-0.07440349
237	0xbdb4968a	-0.088177755
238	0xbdcbf7b9	-0.09959359
239	0xbd8c94dc	-0.0686433
240	0x3e0f0ee1	0.1397052
241	0x3e2d645e	0.16932818
242	0x3dcb13fc	0.09915921
243	0xbe12073a	-0.14260569
244	0xbe0bc425	-0.13649042
245	0xbda7bd0f	-0.08190357
246	0xbdfcf559	-0.12351484
247	0xbdecd54f	-0.11564123
248	0x3ded8de7	0.11599331
249	0x3dbbd20f	0.09170925
250	0x3db78f0c	0.08962831
251	0xbe0917a2	-0.13387921
252	0xbdd7d1c8	-0.105380595
253	0xbe067434	-0.13130265
254	0xbe15e6b7	-0.14638792
255	0xbde4c18c	-0.11169729

act_fun.0.mask f4 [3, 32]
0	0x3f800000	1.0
1	0x3f800000	1.0
2	0x3f800000	1.0
3	0x3f800000	1.0
4	0x3f800000	1.0
5	0x3f800000	1.0
6	0x3f800000	1.0
7	0x3f800000	1.0
8	0x3f800000	1.0
9	0x3f800000	1.0
10	0x3f800000	1.0
11	0x3f800000	1.0
12	0x3f800000	1.0
13	0x3f800000	1.0
14	0x3f800000	1.0
15	0x3f800000	1.0
16	0x3f800000	1.0
17	0x3f800000	1.0
18	0x3f800000	1.0
19	0x3f800000	1.0
20	0x3f800000	1.0
21	0x3f800000	1.0
22	0x3f800000	1.0
23	0x3f800000	1.0
24	0x3f800000	1.0
25	0x3f800000	1.0
26	0x3f800000	1.0
27	0x3f800000	1.0
28	0x3f800000	1.0
29	0x3f800000	1.0
30	0x3f800000	1.0
31	0x3f800000	1.0
32	0x3f800000	1.0
33	0x3f800000	1.0
34	0x3f800000	1.0
35	0x3f800000	1.0
36	0x3f800000	1.0
37	0x3f800000	1.0
38	0x3f800000	1.0
39	0x3f800000	1.0
40	0x3f800000	1.0
41	0x3f800000	1.0
42	0x3f800000	1.0
43	0x3f800000	1.0
44	0x3f800000	1.0
45	0x3f800000	1.0
46	0x3f800000	1.0
47	0x3f800000	1.0
48	0x3f800000	1.0
49	0x3f800000	1.0
50	0x3f800000	1.0
51	0x3f800000	1.0
52	0x3f800000	1.0
53	0x3f800000	1.0
54	0x3f800000	1.0
55	0x3f800000	1.0
56	0x3f800000	1.0
57	0x3f800000	1.0
58	0x3f800000	1.0
59	0x3f800000	1.0
60	0x3f800000	1.0
61	0x3f800000	1.0
62	0x3f800000	1.0
63	0x3f800000	1.0
64	0x3f800000	1.0
65	0x3f800000	1.0
66	0x3f800000	1.0
67	0x3f800000	1.0
68	0x3f800000	1.0
69	0x3f800000	1.0
70	0x3f800000	1.0
71	0x3f800000	1.0
72	0x3f800000	1.0
73	0x3f800000	1.0
74	0x3f800000	1.0
75	0x3f800000	1.0
76	0x3f800000	1.0
77	0x3f800000	1.0
78	0x3f800000	1.0
79	0x3f800000	1.0
80	0x3f800000	1.0
81	0x3f800000	1.0
82	0x3f800000	1.0
83	0x3f800000	1.0
84	0x3f800000	1.0
85	0x3f800000	1.0
86	0x3f800000	1.0
87	0x3f800000	1.0
88	0x3f800000	1.0
89	0x3f800000	1.0
90	0x3f800000	1.0
91	0x3f800000	1.0
92	0x3f800000	1.0
93	0x3f800000	1.0
94	0x3f800000	1.0
95	0x3f800000	1.0

act_fun.0.scale_base f4 [3, 32]
0	0xbd5731e1	-0.052537803
1	0x3ec11695	0.3771254
2	0xbe3fdc0d	-0.18736286
3	0xbec7b605	-0.39006057
4	0x3ee521e9	0.44752434
5	0xbf1ea6d9	-0.6197334
6	0x3e3db263	0.1852508
7	0x3f0af4cc	0.5427978
8	0x3e5b2352	0.21400192
9	0x3dde11f0	0.10843265
10	0xbee803c3	-0.4531537
11	0x3dda9f86	0.10674958
12	0xbd9b32c3	-0.075780414
13	0x3e811d1c	0.2521752
14	0x3ddacb19	0.10683269
15	0x3f199ede	0.6000804
16	0xbf0fd046	-0.56177175
17	0xbda589be	-0.08082913
18	0xbecdc9cf	-0.4019303
19	0xbf145f92	-0.5795833
20	0xbe298817	-0.1655582
21	0xbf1c5223	-0.6106283
22	0x3f0457f8	0.5169673
23	0xbd51e746	-0.05124595
24	0xbe7548e6	-0.2395359
25	0x3ecd7663	0.40129384
26	0xbf1feef2	-0.62473977
27	0xbea5dc40	-0.323946
28	0xbe6fb562	-0.23409036
29	0xbf17ab15	-0.59245425
30	0xbef9da14	-0.48799193
31	0xbe52f9f0	-0.20603156
32	0x3f0ee5f6	0.5581964
33	0x3f22ef6a	0.63646567
34	0x3ef543d4	0.4790331
35	0xbeede2da	-0.46462137
36	0xbe8da561	-0.27665237
37	0x3ec2c42e	0.38040298
38	0x3ea614d3	0.32437763
39	0x3da3964c	0.07987651
40	0x3e4ae8a1	0.19815303
41	0xbf083477	-0.53205055
42	0xbea0c8e6	-0.31403273
43	0x3f2c94a9	0.6741434
44	0xbe82cc79	-0.25546625
45	0x3da9fa2a	0.08299668
46	0xbf196386	-0.59917486
47	0xbe5c373a	-0.21505442
48	0xbe0e10d3	-0.13873605
49	0xbeec3b64	-0.4613906
50	0xbe449073	-0.19195728
51	0x3ddb812c	0.10717997
52	0xbf2fb993	-0.6864254
53	0x3d6b3150	0.057420075
54	0xbe85c4d3	-0.26126727
55	0xbeced216	-0.40394658
56	0x3e9d26b6	0.30693597
57	0x3f0fcf89	0.5617605
58	0xbe8493cd	-0.25894013
59	0xbeb0e61b	-0.34550557
60	0xbf24ba82	-0.6434709
61	0xbecea154	-0.4035746
62	0xbf20958c	-0.6272819
63	0xbe80004f	-0.25000235
64	0x3e318d45	0.17339046
65	0xbed8798a	-0.42280227
66	0x3f21e8ac	0.63245654
67	0x3e8937a4	0.26800263
68	0xbef3788d	-0.4755291
69	0xbe2dc461	-0.16969444
70	0x3e6f1576	0.2334803
71	0x39b3f3ce	0.0003432319
72	0x3b45eb8b	0.003020021
73	0xbe8b7631	-0.2723861
74	0x3eca8be1	0.39559844
75	0xbe5c1924	-0.21493965
76	0x3eeb9260	0.46010113
77	0x3e256c32	0.16154554
78	0x3d691a5c	0.056909904
79	0x3ed20e10	0.41026354
80	0xbd8d3e95	-0.06896702
81	0xbe5cd3db	-0.21565191
82	0xbce360f7	-0.027756197
83	0x3ecd3426	0.4007885
84	0xbe9c190d	-0.30487862
85	0x3d84bb75	0.06481067
86	0xbf12e3f7	-0.57379097
87	0x3e649010	0.2232058
88	0x3e961303	0.2931138
89	0x3e01f521	0.12691166
90	0x3df3f7cd	0.119124986
91	0xbbf06cd3	-0.0073371916
92	0x3e6cdae8	0.23130381
93	0xbeae9cd2	-0.3410402
94	0xbc810295	-0.015748302
95	0x3e3af7c2	0.18258575

act_fun.0.scale_sp f4 [3, 32]
0	0x3f2e24e3	0.68025035
1	0x3f27a603	0.6548769
2	0x3f2eb33e	0.6824225
3	0x3f35a559	0.70955426
4	0x3f3079eb	0.6893603
5	0x3f35d224	0.71023774
6	0x3f354200	0.70803833
7	0x3f268aef	0.65055746
8	0x3f2bcbd1	0.67107874
9	0x3f1eb6c6	0.6199764
10	0x3f3135c9	0.69222695
11	0x3f3566dc	0.70860076
12	0x3f3071e2	0.6892377
13	0x3f2d529c	0.67704177
14	0x3f35aa3b	0.70962876
15	0x3f2bcc8f	0.67109007
16	0x3f33796c	0.7010715
17	0x3f2496a1	0.6429234
18	0x3f2aafc7	0.66674465
19	0x3f341a0f	0.7035226
20	0x3f358ef3	0.7092125
21	0x3f2e1e69	0.6801515
22	0x3f34dad0	0.7064638
23	0x3f3026ea	0.6880938
24	0x3f2750ce	0.65357673
25	0x3f2e4390	0.6807184
26	0x3f270cfa	0.65254176
27	0x3f27ccf1	0.6554709
28	0x3f3088f9	0.68959004
29	0x3f1de735	0.6168092
30	0x3f35e73d	0.71055967
31	0x3f2c019b	0.6718995
32	0x3f32bda4	0.6982062
33	0x3f218e32	0.631076
34	0x3f24e9e3	0.6441938
35	0x3f34d251	0.7063342
36	0x3f30798e	0.6893548
37	0x3f35d791	0.71032053
38	0x3f33b386	0.70195806
39	0x3f24ea9c	0.64420485
40	0x3f34157c	0.7034528
41	0x3f1b304b	0.60620564
42	0x3f353560	0.7078457
43	0x3f2ad098	0.6672454
44	0x3f35e807	0.7105717
45	0x3f30fa41	0.6913186
46	0x3f30c1f6	0.6904596
47	0x3f34b8f5	0.7059472
48	0x3f361cb1	0.7113753
49	0x3f29cdc5	0.66329604
50	0x3f35b540	0.7097969
51	0x3f2fdcf2	0.6869651
52	0x3f3538e2	0.7078992
53	0x3f2bbf55	0.67088825
54	0x3f350dd2	0.70724213
55	0x3f302b5b	0.68816155
56	0x3f268e76	0.6506113
57	0x3f307cb2	0.6894027
58	0x3f2fd9da	0.6869179
59	0x3f22f345	0.6365245
60	0x3f2e0c0b	0.67987126
61	0x3f2e71f3	0.6814262
62	0x3f358975	0.7091287
63	0x3f2afa21	0.66787916
64	0x3f2dd4e9	0.67903
65	0x3f32ee8d	0.6989525
66	0x3f3263e9	0.696837
67	0x3f3608e5	0.7110732
68	0x3f2c7126	0.6736015
69	0x3f335ef8	0.70066786
70	0x3f353bf5	0.7079461
71	0x3f2da14d	0.6782425
72	0x3f359c78	0.7094188
73	0x3f20a0dc	0.6274545
74	0x3f2e2fba	0.68041575
75	0x3f2fbecc	0.6865051
76	0x3f35530d	0.7082985
77	0x3f336601	0.7007752
78	0x3f369e0f	0.7133493
79	0x3f347ce5	0.70503074
80	0x3f34cc41	0.70624167
81	0x3f31bd6f	0.6942968
82	0x3f354817	0.70813125
83	0x3f367f45	0.7128795
84	0x3f2d7366	0.6775421
85	0x3f356aa8	0.7086587
86	0x3f3429bf	0.703762
87	0x3f2eaaf1	0.68229586
88	0x3f300f89	0.68773705
89	0x3f28e006	0.6596683
90	0x3f347a5a	0.70499194
91	0x3f2a1f11	0.66453654
92	0x3f364826	0.7120384
93	0x3f2b896e	0.67006576
94	0x3f35e9ee	0.71060073
95	0x3f35206f	0.70752615

act_fun.1.grid f4 [32, 12]
0	0xc00ccccd	-2.2
1	0xbfe66666	-1.8
2	0xbfb33333	-1.4
3	0xbf800000	-1.0
4	0xbf19999a	-0.6
5	0xbe4ccccc	-0.19999999
6	0x3e4ccccc	0.19999999
7	0x3f19999a	0.6
8	0x3f800000	1.0
9	0x3fb33333	1.4
10	0x3fe66666	1.8
11	0x400ccccd	2.2
12	0xc00ccccd	-2.2
13	0xbfe66666	-1.8
14	0xbfb33333	-1.4
15	0xbf800000	-1.0
16	0xbf19999a	-0.6
17	0xbe4ccccc	-0.19999999
18	0x3e4ccccc	0.19999999
19	0x3f19999a	0.6
20	0x3f800000	1.0
21	0x3fb33333	1.4
22	0x3fe66666	1.8
23	0x400ccccd	2.2
24	0xc00ccccd	-2.2
25	0xbfe66666	-1.8
26	0xbfb33333	-1.4
27	0xbf800000	-1.0
28	0xbf19999a	-0.6
29	0xbe4ccccc	-0.19999999
30	0x3e4ccccc	0.19999999
31	0x3f19999a	0.6
32	0x3f800000	1.0
33	0x3fb33333	1.4
34	0x3fe66666	1.8
35	0x400ccccd	2.2
36	0xc00ccccd	-2.2
37	0xbfe66666	-1.8
38	0xbfb33333	-1.4
39	0xbf800000	-1.0
40	0xbf19999a	-0.6
41	0xbe4ccccc	-0.19999999
42	0x3e4ccccc	0.19999999
43	0x3f19999a	0.6
44	0x3f800000	1.0
45	0x3fb33333	1.4
46	0x3fe66666	1.8
47	0x400ccccd	2.2
48	0xc00ccccd	-2.2
49	0xbfe66666	-1.8
50	0xbfb33333	-1.4
51	0xbf800000	-1.0
52	0xbf19999a	-0.6
53	0xbe4ccccc	-0.19999999
54	0x3e4ccccc	0.19999999
55	0x3f19999a	0.6
56	0x3f800000	1.0
57	0x3fb33333	1.4
58	0x3fe66666	1.8
59	0x400ccccd	2.2
60	0xc00ccccd	-2.2
61	0xbfe66666	-1.8
62	0xbfb33333	-1.4
63	0xbf800000	-1.0
64	0xbf19999a	-0.6
65	0xbe4ccccc	-0.19999999
66	0x3e4ccccc	0.19999999
67	0x3f19999a	0.6
68	0x3f800000	1.0
69	0x3fb33333	1.4
70	0x3fe66666	1.8
71	0x400ccccd	2.2
72	0xc00ccccd	-2.2
73	0xbfe66666	-1.8
74	0xbfb33333	-1.4
75	0xbf800000	-1.0
76	0xbf19999a	-0.6
77	0xbe4ccccc	-0.19999999
78	0x3e4ccccc	0.19999999
79	0x3f19999a	0.6
80	0x3f800000	1.0
81	0x3fb33333	1.4
82	0x3fe66666	1.8
83	0x400ccccd	2.2
84	0xc00ccccd	-2.2
85	0xbfe66666	-1.8
86	0xbfb33333	-1.4
87	0xbf800000	-1.0
88	0xbf19999a	-0.6
89	0xbe4ccccc	-0.19999999
90	0x3e4ccccc	0.19999999
91	0x3f19999a	0.6
92	0x3f800000	1.0
93	0x3fb33333	1.4
94	0x3fe66666	1.8
95	0x400ccccd	2.2
96	0xc00ccccd	-2.2
97	0xbfe66666	-1.8
98	0xbfb33333	-1.4
99	0xbf800000	-1.0
100	0xbf19999a	-0.6
101	0xbe4ccccc	-0.19999999
102	0x3e4ccccc	0.19999999
103	0x3f19999a	0.6
104	0x3f800000	1.0
105	0x3fb33333	1.4
106	0x3fe66666	1.8
107	0x400ccccd	2.2
108	0xc00ccccd	-2.2
109	0xbfe66666	-1.8
110	0xbfb33333	-1.4
111	0xbf800000	-1.0
112	0xbf19999a	-0.6
113	0xbe4ccccc	-0.19999999
114	0x3e4ccccc	0.19999999
115	0x3f19999a	0.6
116	0x3f800000	1.0
117	0x3fb33333	1.4
118	0x3fe66666	1.8
119	0x400ccccd	2.2
120	0xc00ccccd	-2.2
121	0xbfe66666	-1.8
122	0xbfb33333	-1.4
123	0xbf800000	-1.0
124	0xbf19999a	-0.6
125	0xbe4ccccc	-0.19999999
126	0x3e4ccccc	0.19999999
127	0x3f19999a	0.6
128	0x3f800000	1.0
129	0x3fb33333	1.4
130	0x3fe66666	1.8
131	0x400ccccd	2.2
132	0xc00ccccd	-2.2
133	0xbfe66666	-1.8
134	0xbfb33333	-1.4
135	0xbf800000	-1.0
136	0xbf19999a	-0.6
137	0xbe4ccccc	-0.19999999
138	0x3e4ccccc	0.19999999
139	0x3f19999a	0.6
140	0x3f800000	1.0
141	0x3fb33333	1.4
142	0x3fe66666	1.8
143	0x400ccccd	2.2
144	0xc00ccccd	-2.2
145	0xbfe66666	-1.8
146	0xbfb33333	-1.4
147	0xbf800000	-1.0
148	0xbf19999a	-0.6
149	0xbe4ccccc	-0.19999999
150	0x3e4ccccc	0.19999999
151	0x3f19999a	0.6
152	0x3f800000	1.0
153	0x3fb33333	1.4
154	0x3fe66666	1.8
155	0x400ccccd	2.2
156	0xc00ccccd	-2.2
157	0xbfe66666	-1.8
158	0xbfb33333	-1.4
159	0xbf800000	-1.0
160	0xbf19999a	-0.6
161	0xbe4ccccc	-0.19999999
162	0x3e4ccccc	0.19999999
163	0x3f19999a	0.6
164	0x3f800000	1.0
165	0x3fb33333	1.4
166	0x3fe66666	1.8
167	0x400ccccd	2.2
168	0xc00ccccd	-2.2
169	0xbfe66666	-1.8
170	0xbfb33333	-1.4
171	0xbf800000	-1.0
172	0xbf19999a	-0.6
173	0xbe4ccccc	-0.19999999
174	0x3e4ccccc	0.19999999
175	0x3f19999a	0.6
176	0x3f800000	1.0
177	0x3fb33333	1.4
178	0x3fe66666	1.8
179	0x400ccccd	2.2
180	0xc00ccccd	-2.2
181	0xbfe66666	-1.8
182	0xbfb33333	-1.4
183	0xbf800000	-1.0
184	0xbf19999a	-0.6
185	0xbe4ccccc	-0.19999999
186	0x3e4ccccc	0.19999999
187	0x3f19999a	0.6
188	0x3f800000	1.0
189	0x3fb33333	1.4
190	0x3fe66666	1.8
191	0x400ccccd	2.2
192	0xc00ccccd	-2.2
193	0xbfe66666	-1.8
194	0xbfb33333	-1.4
195	0xbf800000	-1.0
196	0xbf19999a	-0.6
197	0xbe4ccccc	-0.19999999
198	0x3e4ccccc	0.19999999
199	0x3f19999a	0.6
200	0x3f800000	1.0
201	0x3fb33333	1.4
202	0x3fe66666	1.8
203	0x400ccccd	2.2
204	0xc00ccccd	-2.2
205	0xbfe66666	-1.8
206	0xbfb33333	-1.4
207	0xbf800000	-1.0
208	0xbf19999a	-0.6
209	0xbe4ccccc	-0.19999999
210	0x3e4ccccc	0.19999999
211	0x3f19999a	0.6
212	0x3f800000	1.0
213	0x3fb33333	1.4
214	0x3fe66666	1.8
215	0x400ccccd	2.2
216	0xc00ccccd	-2.2
217	0xbfe66666	-1.8
218	0xbfb33333	-1.4
219	0xbf800000	-1.0
220	0xbf19999a	-0.6
221	0xbe4ccccc	-0.19999999
222	0x3e4ccccc	0.19999999
223	0x3f19999a	0.6
224	0x3f800000	1.0
225	0x3fb33333	1.4
226	0x3fe66666	1.8
227	0x400ccccd	2.2
228	0xc00ccccd	-2.2
229	0xbfe66666	-1.8
230	0xbfb33333	-1.4
231	0xbf800000	-1.0
232	0xbf19999a	-0.6
233	0xbe4ccccc	-0.19999999
234	0x3e4ccccc	0.19999999
235	0x3f19999a	0.6
236	0x3f800000	1.0
237	0x3fb33333	1.4
238	0x3fe66666	1.8
239	0x400ccccd	2.2
240	0xc00ccccd	-2.2
241	0xbfe66666	-1.8
242	0xbfb33333	-1.4
243	0xbf800000	-1.0
244	0xbf19999a	-0.6
245	0xbe4ccccc	-0.19999999
246	0x3e4ccccc	0.19999999
247	0x3f19999a	0.6
248	0x3f800000	1.0
249	0x3fb33333	1.4
250	0x3fe66666	1.8
251	0x400ccccd	2.2
252	0xc00ccccd	-2.2
253	0xbfe66666	-1.8
254	0xbfb33333	-1.4
255	0xbf800000	-1.0

act_fun.1.coef f4 [32, 16, 8]
0	0x3c44e5bc	0.012017664
1	0x3d933a95	0.07188908
2	0x3dec0e56	0.11526172
3	0x3df20c25	0.11818723
4	0x3d08b71b	0.033377748
5	0xbdf566c1	-0.119824894
6	0xbe04b1cf	-0.12958454
7	0xbd657119	-0.05601606
8	0x3c30bed0	0.010787681
9	0x3d58cd46	0.05293014
10	0xbd8bd4d1	-0.06827701
11	0xbd961e47	-0.07329994
12	0x3dd08890	0.10182297
13	0x3e29eb8b	0.16593759
14	0x3e213ff4	0.15747052
15	0x3d89240e	0.0669633
16	0xbc1b1364	-0.009465072
17	0xbc22bf2b	-0.009933273
18	0xbd0aca55	-0.033884365
19	0xbdb2b2aa	-0.08725484
20	0x3dd93b9d	0.106070735
21	0x3e2ebe02	0.1706467
22	0x3df61574	0.120158106
23	0x3d601db8	0.054715842
24	0x3c270498	0.010193966
25	0x3d9e0117	0.077150516
26	0x3deb3c4e	0.114861116
27	0x3de00bef	0.10939776
28	0x3d37abda	0.044841625
29	0xbe203c11	-0.15647914
30	0xbdb14ef6	-0.08657639
31	0xbd37c82c	-0.044868633
32	0xbbbbc850	-0.005730666
33	0xbcae6ab3	-0.021291113
34	0xbdc9df97	-0.098570995
35	0xbe190f36	-0.14947209
36	0x3df96e23	0.1217921
37	0x3def4d88	0.1168471
38	0x3e247178	0.1605891
39	0x3d8abf66	0.067747876
40	0xbbe8c6c0	-0.007103771
41	0xbbc2adb6	-0.005941118
42	0xbdb0fd8f	-0.086421125
43	0xbdf6a467	-0.12043076
44	0x3e2e1ad5	0.17002423
45	0x3dabbbaa	0.083854035
46	0x3e2dca3d	0.16971679
47	0x3da2850d	0.07935534
48	0xbbbc5f48	-0.005748663
49	0x3bf28b2b	0.007401844
50	0x3dd87701	0.10569573
51	0x3e403281	0.18769266
52	0x3d77e2ef	0.060519155
53	0xbd9f2724	-0.07771137
54	0xbe33e765	-0.17568739
55	0xbda2ee2b	-0.07955583
56	0xbc1eaf34	-0.009685326
57	0x3cb9a419	0.022661256
58	0x3e36b2f8	0.17841709
59	0x3dabc0c1	0.08386374
60	0x3d25a77e	0.040442936
61	0xbe342722	-0.17593053
62	0xbe091e3e	-0.13390443
63	0xbd5ec1ea	-0.05438415
64	0x3bbe4584	0.0058066268
65	0x3d893b01	0.06700707
66	0x3e1c4169	0.15259327
67	0x3e1b52d6	0.15168318
68	0xbd2a43c4	-0.041568533
69	0xbda90c11	-0.082542546
70	0xbe2de623	-0.16982321
71	0xbda1cfc7	-0.079009585
72	0x3c17f680	0.009275079
73	0x3d6a86a1	0.0572573
74	0x3d9fcff3	0.07803335
75	0x3e2e2965	0.17007978
76	0x3d58a155	0.052888233
77	0xbdf6b3eb	-0.120460354
78	0xbe11e44c	-0.14247245
79	0xbd78e3db	-0.060764175
80	0x39d0b7d0	0.00039809803
81	0x3c962696	0.018328946
82	0x3d7e1648	0.062032968
83	0x3e215379	0.15754499
84	0xbd2e07bf	-0.042487856
85	0xbdc52752	-0.096266404
86	0xbe15eec8	-0.14641869
87	0xbd82193d	-0.0635247
88	0x3c113c10	0.008864418
89	0x3d2c9c37	0.042141166
90	0xbdc401e2	-0.095706716
91	0xbdd33878	-0.10313505
92	0x3dcd9313	0.10037818
93	0x3e0a9e0a	0.1353685
94	0x3e114a64	0.14188534
95	0x3d7eb331	0.06218261
96	0xba9de8b8	-0.0012047505
97	0x3c9ec9e7	0.019383384
98	0x3dcf58d0	0.101243615
99	0x3df50da4	0.11965492
100	0x3d41a250	0.047273934
101	0xbe2af25c	-0.16694015
102	0xbda59c14	-0.0808641
103	0xbd1ac4d1	-0.037785355
104	0x3c8681c6	0.016419303
105	0x3d95b82e	0.0731052
106	0xbd910865	-0.07081679
107	0xbd3030d5	-0.04301532
108	0x3ad0d88e	0.0015933679
109	0x3de2fc92	0.1108333
110	0x3da8eb8a	0.082480505
111	0x3d509b3a	0.050929286
112	0xbc0db7a0	-0.008649737
113	0xbcd4378a	-0.02590539
114	0xbde7d91e	-0.11320709
115	0xbda00f7b	-0.07815453
116	0x3dd33a39	0.103138395
117	0x3e222d93	0.15837698
118	0x3dc188af	0.094498985
119	0x3d520cc6	0.051281713
120	0x39423d9c	0.00018524233
121	0xbbb7f7ac	-0.0056142416
122	0xbde82ac4	-0.11336282
123	0xbd329bb3	-0.043605518
124	0x3de2226c	0.11041722
125	0x3da0ca23	0.078510545
126	0x3dab2c1d	0.08358023
127	0x3d5daf45	0.05412223
128	0x3a0a9a66	0.00052872894
129	0x3d4690be	0.04847788
130	0x3db20744	0.08692792
131	0x3dd5c089	0.10437114
132	0xbe208d64	-0.15678936
133	0xbd7396e6	-0.05947008
134	0xba61e6e6	-0.00086174754
135	0x3d143552	0.036183663
136	0x3b217848	0.0024638344
137	0xbcdfd560	-0.027323425
138	0xbd1f3991	-0.03887326
139	0xbd9dfac2	-0.07713844
140	0x3dcb9b57	0.09941738
141	0x3e216236	0.15760121
142	0x3dd38ff5	0.10330192
143	0x3dcd5635	0.10026208
144	0x3bc8fdd3	0.006133774
145	0xbc358706	-0.011079555
146	0xbd66315c	-0.056199417
147	0xbd83ca51	-0.06435073
148	0x3dc2c1c6	0.095096156
149	0x3e12198d	0.1426756
150	0x3ddbf35f	0.10739779
151	0x3dc301c2	0.0952182
152	0x3dd857c1	0.10563613
153	0x3e0ddba1	0.13853313
154	0x3e270350	0.16309857
155	0x3d5bb51e	0.053639524
156	0xbd09b483	-0.033619415
157	0xbddff292	-0.109349385
158	0xbdd6da5c	-0.104908675
159	0xbda3a31a	-0.079900935
160	0x3c7b4c81	0.015338064
161	0x3c221a01	0.009893895
162	0xbdc51414	-0.0962297
163	0xbdbc1fa2	-0.09185721
164	0x3e12e581	0.14345361
165	0x3dfcc696	0.12342565
166	0x3dcc80a4	0.09985474
167	0x3dd054aa	0.101723984
168	0x3c849985	0.016186485
169	0xbcc7ac22	-0.024374072
170	0xbe02d3d9	-0.12776126
171	0xbdc0e6ef	-0.09419047
172	0x3dbe084d	0.09278927
173	0x3dc86683	0.097851776
174	0x3e068f4d	0.13140602
175	0x3df0256c	0.11725888
176	0x3dcad8c5	0.09904627
177	0x3de94fc1	0.11392165
178	0x3dfe9e4e	0.12432538
179	0x3e10dee9	0.14147533
180	0xbdf3bae2	-0.119008794
181	0xbdde51f5	-0.10855476
182	0xbccb6564	-0.02482862
183	0xba5e3ac4	-0.00084773847
184	0x3dfbedca	0.12301214
185	0x3e141f25	0.14465006
186	0x3dee734e	0.116430864
187	0x3de26602	0.11054613
188	0xbda30bf4	-0.07961264
189	0xbdacd9d9	-0.08439989
190	0xbad91ee1	-0.0016564989
191	0xbcb0ba6d	-0.02157327
192	0x3de684c1	0.112557895
193	0x3e0ecc21	0.13945056
194	0x3e12fccb	0.14354245
195	0x3de82e1e	0.11336921
196	0xbdf51e84	-0.11968711
197	0xbda78a72	-0.08180703
198	0x3b6c38a8	0.0036044512
199	0xbc37f6f6	-0.011228314
200	0x3df41432	0.119179145
201	0x3e155936	0.14584813
202	0x3e02033f	0.12696551
203	0x3e1dccf7	0.15410219
204	0xbdfd1f83	-0.12359526
205	0xbd7f360e	-0.06230741
206	0xbd8e41d9	-0.06946153
207	0xbd04ee72	-0.03245396
208	0xba1878cc	-0.000581634
209	0x3d9dbd13	0.07702079
210	0x3e3ea0ad	0.1861598
211	0x3d44f860	0.04808843
212	0xbd994360	-0.07483554
213	0xbe1c15b4	-0.15242654
214	0x39932708	0.00028067105
215	0x3cbab6d6	0.022792261
216	0x3d864eb4	0.0655798
217	0x3d37d1a2	0.044877656
218	0xbd4b3b07	-0.04961684
219	0xbdf9ab72	-0.12190904
220	0x3db7c920	0.089739084
221	0x3e306097	0.17224346
222	0x3dc4de56	0.0961272
223	0x3dd12dcf	0.102138154
224	0x3c281acb	0.010260294
225	0x3dfd4408	0.123664916
226	0x3e1883a0	0.14893961
227	0x3d8344fb	0.06409641
228	0xbd2f8d42	-0.042859323
229	0xbe0cce6d	-0.1375062
230	0x3c9e9870	0.019359797
231	0x3cdc7e6d	0.026915753
232	0xbbea49bb	-0.0071499026
233	0x3bb542ce	0.0055316454
234	0x3d7b2256	0.061312042
235	0xbd8feda9	-0.07027752
236	0x3d9f48bf	0.07777547
237	0x3de9341f	0.113868944
238	0xbc1f6d9a	-0.009730721
239	0xbce4051e	-0.027834471
240	0x3c65d251	0.014027194
241	0xbd14b275	-0.036303002
242	0xbd8c1a61	-0.06840969
243	0xbd485909	-0.048913036
244	0x3d8a30fd	0.06747625
245	0x3e1e40a5	0.15454347
246	0x3e0ffece	0.14062044
247	0x3de2495c	0.110491484
248	0x3da7ebd6	0.08199279
249	0xbc9965fb	-0.018725386
250	0x3d80d796	0.0629112
251	0xbe04c8d5	-0.12967236
252	0x3d6054a1	0.05476821
253	0x3e10d484	0.14143568
254	0x3d37778b	0.04479174
255	0x3d8e9fac	0.06964049

act_fun.1.mask f4 [32, 16]
0	0x3f800000	1.0
1	0x3f800000	1.0
2	0x3f800000	1.0
3	0x3f800000	1.0
4	0x3f800000	1.0
5	0x3f800000	1.0
6	0x3f800000	1.0
7	0x3f800000	1.0
8	0x3f800000	1.0
9	0x3f800000	1.0
10	0x3f800000	1.0
11	0x3f800000	1.0
12	0x3f800000	1.0
13	0x3f800000	1.0
14	0x3f800000	1.0
15	0x3f800000	1.0
16	0x3f800000	1.0
17	0x3f800000	1.0
18	0x3f800000	1.0
19	0x3f800000	1.0
20	0x3f800000	1.0
21	0x3f800000	1.0
22	0x3f800000	1.0
23	0x3f800000	1.0
24	0x3f800000	1.0
25	0x3f800000	1.0
26	0x3f800000	1.0
27	0x3f800000	1.0
28	0x3f800000	1.0
29	0x3f800000	1.0
30	0x3f800000	1.0
31	0x3f800000	1.0
32	0x3f800000	1.0
33	0x3f800000	1.0
34	0x3f800000	1.0
35	0x3f800000	1.0
36	0x3f800000	1.0
37	0x3f800000	1.0
38	0x3f800000	1.0
39	0x3f800000	1.0
40	0x3f800000	1.0
41	0x3f800000	1.0
42	0x3f800000	1.0
43	0x3f800000	1.0
44	0x3f800000	1.0
45	0x3f800000	1.0
46	0x3f800000	1.0
47	0x3f800000	1.0
48	0x3f800000	1.0
49	0x3f800000	1.0
50	0x3f800000	1.0
51	0x3f800000	1.0
52	0x3f800000	1.0
53	0x3f800000	1.0
54	0x3f800000	1.0
55	0x3f800000	1.0
56	0x3f800000	1.0
57	0x3f800000	1.0
58	0x3f800000	1.0
59	0x3f800000	1.0
60	0x3f800000	1.0
61	0x3f800000	1.0
62	0x3f800000	1.0
63	0x3f800000	1.0
64	0x3f800000	1.0
65	0x3f800000	1.0
66	0x3f800000	1.0
67	0x3f800000	1.0
68	0x3f800000	1.0
69	0x3f800000	1.0
70	0x3f800000	1.0
71	0x3f800000	1.0
72	0x3f800000	1.0
73	0x3f800000	1.0
74	0x3f800000	1.0
75	0x3f800000	1.0
76	0x3f800000	1.0
77	0x3f800000	1.0
78	0x3f800000	1.0
79	0x3f800000	1.0
80	0x3f800000	1.0
81	0x3f800000	1.0
82	0x3f800000	1.0
83	0x3f800000	1.0
84	0x3f800000	1.0
85	0x3f800000	1.0
86	0x3f800000	1.0
87	0x3f800000	1.0
88	0x3f800000	1.0
89	0x3f800000	1.0
90	0x3f800000	1.0
91	0x3f800000	1.0
92	0x3f800000	1.0
93	0x3f800000	1.0
94	0x3f800000	1.0
95	0x3f800000	1.0
96	0x3f800000	1.0
97	0x3f800000	1.0
98	0x3f800000	1.0
99	0x3f800000	1.0
100	0x3f800000	1.0
101	0x3f800000	1.0
102	0x3f800000	1.0
103	0x3f800000	1.0
104	0x3f800000	1.0
105	0x3f800000	1.0
106	0x3f800000	1.0
107	0x3f800000	1.0
108	0x3f800000	1.0
109	0x3f800000	1.0
110	0x3f800000	1.0
111	0x3f800000	1.0
112	0x3f800000	1.0
113	0x3f800000	1.0
114	0x3f800000	1.0
115	0x3f800000	1.0
116	0x3f800000	1.0
117	0x3f800000	1.0
118	0x3f800000	1.0
119	0x3f800000	1.0
120	0x3f800000	1.0
121	0x3f800000	1.0
122	0x3f800000	1.0
123	0x3f800000	1.0
124	0x3f800000	1.0
125	0x3f800000	1.0
126	0x3f800000	1.0
127	0x3f800000	1.0
128	0x3f800000	1.0
129	0x3f800000	1.0
130	0x3f800000	1.0
131	0x3f800000	1.0
132	0x3f800000	1.0
133	0x3f800000	1.0
134	0x3f800000	1.0
135	0x3f800000	1.0
136	0x3f800000	1.0
137	0x3f800000	1.0
138	0x3f800000	1.0
139	0x3f800000	1.0
140	0x3f800000	1.0
141	0x3f800000	1.0
142	0x3f800000	1.0
143	0x3f800000	1.0
144	0x3f800000	1.0
145	0x3f800000	1.0
146	0x3f800000	1.0
147	0x3f800000	1.0
148	0x3f800000	1.0
149	0x3f800000	1.0
150	0x3f800000	1.0
151	0x3f800000	1.0
152	0x3f800000	1.0
153	0x3f800000	1.0
154	0x3f800000	1.0
155	0x3f800000	1.0
156	0x3f800000	1.0
157	0x3f800000	1.0
158	0x3f800000	1.0
159	0x3f800000	1.0
160	0x3f800000	1.0
161	0x3f800000	1.0
162	0x3f800000	1.0
163	0x3f800000	1.0
164	0x3f800000	1.0
165	0x3f800000	1.0
166	0x3f800000	1.0
167	0x3f800000	1.0
168	0x3f800000	1.0
169	0x3f800000	1.0
170	0x3f800000	1.0
171	0x3f800000	1.0
172	0x3f800000	1.0
173	0x3f800000	1.0
174	0x3f800000	1.0
175	0x3f800000	1.0
176	0x3f800000	1.0
177	0x3f800000	1.0
178	0x3f800000	1.0
179	0x3f800000	1.0
180	0x3f800000	1.0
181	0x3f800000	1.0
182	0x3f800000	1.0
183	0x3f800000	1.0
184	0x3f800000	1.0
185	0x3f800000	1.0
186	0x3f800000	1.0
187	0x3f800000	1.0
188	0x3f800000	1.0
189	0x3f800000	1.0
190	0x3f800000	1.0
191	0x3f800000	1.0
192	0x3f800000	1.0
193	0x3f800000	1.0
194	0x3f800000	1.0
195	0x3f800000	1.0
196	0x3f800000	1.0
197	0x3f800000	1.0
198	0x3f800000	1.0
199	0x3f800000	1.0
200	0x3f800000	1.0
201	0x3f800000	1.0
202	0x3f800000	1.0
203	0x3f800000	1.0
204	0x3f800000	1.0
205	0x3f800000	1.0
206	0x3f800000	1.0
207	0x3f800000	1.0
208	0x3f800000	1.0
209	0x3f800000	1.0
210	0x3f800000	1.0
211	0x3f800000	1.0
212	0x3f800000	1.0
213	0x3f800000	1.0
214	0x3f800000	1.0
215	0x3f800000	1.0
216	0x3f800000	1.0
217	0x3f800000	1.0
218	0x3f800000	1.0
219	0x3f800000	1.0
220	0x3f800000	1.0
221	0x3f800000	1.0
222	0x3f800000	1.0
223	0x3f800000	1.0
224	0x3f800000	1.0
225	0x3f800000	1.0
226	0x3f800000	1.0
227	0x3f800000	1.0
228	0x3f800000	1.0
229	0x3f800000	1.0
230	0x3f800000	1.0
231	0x3f800000	1.0
232	0x3f800000	1.0
233	0x3f800000	1.0
234	0x3f800000	1.0
235	0x3f800000	1.0
236	0x3f800000	1.0
237	0x3f800000	1.0
238	0x3f800000	1.0
239	0x3f800000	1.0
240	0x3f800000	1.0
241	0x3f800000	1.0
242	0x3f800000	1.0
243	0x3f800000	1.0
244	0x3f800000	1.0
245	0x3f800000	1.0
246	0x3f800000	1.0
247	0x3f800000	1.0
248	0x3f800000	1.0
249	0x3f800000	1.0
250	0x3f800000	1.0
251	0x3f800000	1.0
252	0x3f800000	1.0
253	0x3f800000	1.0
254	0x3f800000	1.0
255	0x3f800000	1.0

act_fun.1.scale_base f4 [32, 16]
0	0xbdf29cc5	-0.11846308
1	0x3e169359	0.14704646
2	0x3cbdd3a0	0.0231722
3	0xbd81fce7	-0.063470654
4	0x3e20d104	0.15704733
5	0x3e7904ab	0.24318187
6	0xbc101608	-0.008794315
7	0xbe881d48	-0.2658484
8	0xbe8007ee	-0.2500605
9	0xbe3ebff8	-0.18627918
10	0xbe7ddb65	-0.24790724
11	0x3e376bc3	0.17912202
12	0xbe6f9a17	-0.23398624
13	0xbd4187a1	-0.047248486
14	0x3e30f184	0.17279631
15	0x3e5cf43d	0.21577545
16	0xbe1fcdf3	-0.15605907
17	0xbd9432dc	-0.07236263
18	0x3e03a6d8	0.12856615
19	0xbb8bcbdb	-0.004266245
20	0x3e76064b	0.24025838
21	0x3e040f31	0.1289642
22	0x3cc22478	0.02369903
23	0xbe88db3f	-0.26729771
24	0x3d8e4040	0.069458485
25	0xbe5e2c79	-0.21696652
26	0xbe5cc7b8	-0.21560562
27	0x3e7421b3	0.2384098
28	0xbe06f7a2	-0.13180402
29	0x3e2fd29d	0.17170186
30	0xbca24549	-0.019808428
31	0x3e68df87	0.22741519
32	0x3d802786	0.062575385
33	0x3e0299a0	0.12753916
34	0x3e6e8ba7	0.2329546
35	0xbe2206b9	-0.15822877
36	0x3d0aedc9	0.033918176
37	0x3e28f028	0.16497862
38	0x3ca4a42c	0.020097815
39	0xbe2b3be7	-0.1672207
40	0x3d106c85	0.035259742
41	0xbdd787ab	-0.105239235
42	0xbe3c3a5d	-0.18381639
43	0x3e031573	0.12801151
44	0xbe7278fd	-0.23678966
45	0xbd8da75b	-0.06916686
46	0x3e13a4d2	0.14418343
47	0x3e2b686e	0.16739056
48	0x3e35a16a	0.17737356
49	0xbe02a2fa	-0.12757483
50	0xbe71daa5	-0.23618563
51	0xbd1bc2aa	-0.038027443
52	0x3d86651f	0.06562256
53	0xbe8859cf	-0.2663102
54	0x3e253c35	0.16136248
55	0x3e853c44	0.26022542
56	0x3e798295	0.2436622
57	0xb9c030ba	-0.00036657398
58	0x3d50f6e8	0.05101672
59	0xbe80713b	-0.25086388
60	0x3e5c2bc5	0.21501072
61	0xbe447641	-0.19185735
62	0xbe89402b	-0.2680677
63	0xbe56772c	-0.20943898
64	0x3dcaea83	0.09908011
65	0x3e5d7aee	0.21628925
66	0x3e5b9cd5	0.21446545
67	0x3d0eb1b8	0.034837455
68	0x3c801d79	0.015639054
69	0x3be83b9b	0.0070871837
70	0xbe5415f0	-0.20711493
71	0xbd67bceb	-0.05657665
72	0xbd0b085b	-0.033943515
73	0xbd92e07a	-0.07171722
74	0xbe4dcc65	-0.20097502
75	0x3dfdad75	0.123866
76	0xbe211ccf	-0.15733646
77	0xbd3bf7f0	-0.04589075
78	0x3d9abfc7	0.0755611
79	0x3db68349	0.089117594
80	0xbd86fb3d	-0.06590889
81	0x3d0986a9	0.033575688
82	0xbe3e9f6a	-0.18615499
83	0x3e29ad02	0.16569903
84	0x3b67f9f1	0.003539678
85	0xbd39790c	-0.045281455
86	0x3e76a8ae	0.24087784
87	0x3e627a82	0.22117046
88	0x3e7a5ba2	0.24449018
89	0x3e20de0c	0.15709704
90	0x3e63f8f3	0.22262935
91	0xbe4cc933	-0.19998626
92	0x3c089bc2	0.008337917
93	0x3a7aa476	0.000956125
94	0xbd8fb780	-0.07017422
95	0xbd9e775a	-0.07737608
96	0xbe8805f4	-0.26567042
97	0x3e325ddb	0.17418616
98	0x3e6c8fa5	0.23101671
99	0xbe0395a9	-0.1285006
100	0x3e225b06	0.15855035
101	0x3e4bf6dc	0.19918388
102	0xbe9355b5	-0.28776327
103	0xbe1677ed	-0.14694186
104	0xbe364fde	-0.17803904
105	0xbe52920f	-0.2056353
106	0xbbc6f32d	-0.0060714693
107	0x3e97eba4	0.29671967
108	0xbda71eb8	-0.08160156
109	0x3e46776a	0.1938149
110	0xbc73617b	-0.014854784
111	0x3e009915	0.12558396
112	0xbdf94129	-0.121706314
113	0xbbb9395e	-0.0056525907
114	0x3e0be168	0.13660204
115	0xbd0d4207	-0.034486797
116	0x3dc1b325	0.09457997
117	0x3e3e2ca0	0.1857171
118	0xbc247610	-0.010037914
119	0x3d5ce8bc	0.05393289
120	0xbdb1a401	-0.086738594
121	0xbdbbdcf8	-0.09173006
122	0xbdc0c1f0	-0.09411991
123	0x3e0bac4a	0.13639942
124	0xbe516790	-0.20449662
125	0x3d3bb6ac	0.045828506
126	0xbd3d71a8	-0.04625097
127	0xbd242fa2	-0.04008449
128	0xbe897ff8	-0.26855445
129	0x3e7ca9cd	0.24674149
130	0x3c64ad1a	0.013957286
131	0xbdfad787	-0.1224814
132	0x3e0a1017	0.134827
133	0x3e8da5ef	0.2766566
134	0xbd0485e4	-0.03235425
135	0xbe7a828e	-0.24463865
136	0x3d775e2d	0.060392547
137	0xbe90d245	-0.28285423
138	0xbdb2a066	-0.08722
139	0x3e912527	0.28348657
140	0x3d3f87b0	0.04676026
141	0x3d1de28b	0.038546126
142	0xbaeea04c	-0.0018205731
143	0x3e3357a2	0.17513898
144	0x3e816929	0.25275543
145	0xbe56caca	-0.20975795
146	0xbe1c4dec	-0.152641
147	0xbcb33405	-0.02187539
148	0xbd61032a	-0.054934658
149	0xbdab9dbe	-0.08379696
150	0x3e5216a6	0.20516452
151	0x3d35ea24	0.044412747
152	0xbd6900b4	-0.056885436
153	0x3d10b498	0.035328478
154	0xbc68166f	-0.014165505
155	0xbe2c9d75	-0.1685694
156	0x3e3d0950	0.18460584
157	0xbe62a414	-0.22132903
158	0xbdfd2d57	-0.123621635
159	0xbe8c19c6	-0.27363414
160	0xbc9be6ec	-0.01903101
161	0xbe66ced2	-0.22539833
162	0xbe28002a	-0.16406313
163	0x3c6bff32	0.014404105
164	0xbd95510e	-0.072908506
165	0xbb5defe3	-0.0033864907
166	0x3e7675eb	0.2406842
167	0x3e3108ae	0.17288467
168	0x3ddbc12c	0.10730204
169	0x3da27a56	0.0793349
170	0x3e65f483	0.22456555
171	0xbe5475f2	-0.20748118
172	0x3e69dee9	0.2283894
173	0xbe295c36	-0.16539082
174	0xbe70dce0	-0.23521757
175	0xbd2bd700	-0.041953087
176	0xbe3cb4b4	-0.18428308
177	0x3e129509	0.14314665
178	0x3e8852d7	0.26625702
179	0xbcbfbf32	-0.023406599
180	0x3e907ff3	0.28222618
181	0x3d2de789	0.042457137
182	0xbe459435	-0.19294818
183	0xbe0dbb3e	-0.13840958
184	0xbe137dcd	-0.14403458
185	0xbe41b442	-0.18916419
186	0xbdf3fe50	-0.11913741
187	0x3e8d494a	0.27594978
188	0xbe4f2fae	-0.20233032
189	0x3e32f550	0.17476392
190	0x3e4557cb	0.19271772
191	0x3e500d21	0.20317508
192	0x3e03a85d	0.12857194
193	0xbdbadd9e	-0.091243014
194	0xbcb07c56	-0.021543663
195	0x3d0a3dc2	0.033750303
196	0xbe3e9f68	-0.18615496
197	0x3d4a37b3	0.049369525
198	0x3e875c36	0.2643754
199	0xba4b11e5	-0.0007746502
200	0x3e878842	0.26471144
201	0x3e20acd8	0.15690935
202	0x3df26ea1	0.11837507
203	0x3dc9320b	0.09823998
204	0x3d85e137	0.06537097
205	0xbcdc7670	-0.026911944
206	0x3bef1e09	0.0072972816
207	0xbde13fe6	-0.10998516
208	0xbe2815c5	-0.16414554
209	0x3d43bef4	0.04778953
210	0x3e958f5b	0.29210934
211	0xbccaf9a3	-0.02477724
212	0x3dbaf821	0.09129358
213	0x3df2c2c5	0.118535556
214	0xbdd1a1ea	-0.10235961
215	0xbe651555	-0.22371419
216	0xbd82fc03	-0.06395724
217	0xbe81f055	-0.2537867
218	0xbdfa3c7d	-0.122185685
219	0x3dbbacd5	0.091638245
220	0xbe398f52	-0.18121079
221	0x3e7d2b57	0.24723564
222	0x3e2c5e40	0.16832829
223	0x3e317711	0.17330576
224	0xba85b3c8	-0.0010200674
225	0xbdb10d75	-0.08645145
226	0xbd92e8d1	-0.071733125
227	0x3e570d05	0.2100106
228	0xbe2b2fd9	-0.16717471
229	0xbe20d48d	-0.15706082
230	0xbcc6b0fe	-0.024254318
231	0x3e6eba9a	0.2331337
232	0x3e743d72	0.23851565
233	0x3e50df3c	0.20397657
234	0x3e59cbbc	0.21269125
235	0xbc3030e5	-0.010753845
236	0x3e92deba	0.28685552
237	0xbc8a6cb7	-0.016897542
238	0xbd57a4c1	-0.052647356
239	0xbd58a68a	-0.0528932
240	0xbe3567d1	-0.17715384
241	0x3e22da21	0.15903522
242	0x3e26dc07	0.16294871
243	0xbe71fc2a	-0.23631349
244	0x3d8464a9	0.06464512
245	0x3c044b66	0.008074617
246	0xbe5eb809	-0.21749891
247	0x3c55e3b8	0.013054781
248	0x3d0dc2d7	0.034609642
249	0xbe036b5e	-0.12833926
250	0xbd4f1996	-0.05056151
251	0x3da4cec9	0.08047254
252	0xbd334287	-0.043764617
253	0x3d489924	0.04897417
254	0x3cb1c3e0	0.021699846
255	0xbb9985aa	-0.0046851235

act_fun.1.scale_sp f4 [32, 16]
0	0x3e9ce415	0.30642763
1	0x3e9409d5	0.2891375
2	0x3e9ce057	0.30639908
3	0x3e9ae4aa	0.30252582
4	0x3e9cebc6	0.3064863
5	0x3e93cbc2	0.28866392
6	0x3e9c3264	0.30507195
7	0x3e8b815e	0.27247137
8	0x3e9cecac	0.30649316
9	0x3e9caee0	0.3060217
10	0x3e9be0ab	0.30444846
11	0x3e98e585	0.2986261
12	0x3e9c7810	0.3056035
13	0x3e62a610	0.2213366
14	0x3e8e90e6	0.27844924
15	0x3e7fd632	0.24984053
16	0x3e8114d0	0.2521119
17	0x3e98c5b5	0.29838338
18	0x3e999619	0.29997328
19	0x3e927778	0.28606772
20	0x3e99c54f	0.30033347
21	0x3e911abf	0.28340718
22	0x3e989763	0.29803
23	0x3e8b9a2a	0.27266055
24	0x3e986821	0.29766944
25	0x3e9acbb4	0.30233538
26	0x3e980ca2	0.29697138
27	0x3e98e13d	0.29859343
28	0x3e95bb2b	0.2924436
29	0x3e6e963c	0.23299497
30	0x3e9a02cf	0.30080268
31	0x3e946a2a	0.28987247
32	0x3e9b5551	0.3033853
33	0x3e861fc6	0.26196116
34	0x3e9005a3	0.281293
35	0x3e8004db	0.25003704
36	0x3e89ef8c	0.26940572
37	0x3e9bc189	0.30421093
38	0x3e8defd6	0.27722043
39	0x3e929b84	0.28634274
40	0x3e9d0e6c	0.30675066
41	0x3e9d5565	0.30729213
42	0x3e93e5cc	0.2888626
43	0x3e92fa5d	0.28706637
44	0x3e8fdd1d	0.28098384
45	0x3e8d2171	0.27564576
46	0x3e981365	0.29702297
47	0x3e91f47a	0.28506833
48	0x3e85388f	0.26019713
49	0x3e98597c	0.2975577
50	0x3e98cef4	0.29845393
51	0x3e852fe3	0.26013097
52	0x3e990ca0	0.29892445
53	0x3e9b73f7	0.30361912
54	0x3e9a56f0	0.30144453
55	0x3e81b035	0.25329748
56	0x3e9913ad	0.29897824
57	0x3e8b88dd	0.27252856
58	0x3e8bf65d	0.27336398
59	0x3e9980da	0.29981118
60	0x3e94be8f	0.29051635
61	0x3e0a62fd	0.13514324
62	0x3e8e5002	0.27795416
63	0x3e84903f	0.258913
64	0x3e849b6d	0.2589983
65	0x3e98c616	0.29838628
66	0x3e994e75	0.2994267
67	0x3e9029a2	0.28156763
68	0x3e9ae34e	0.30251545
69	0x3e984cb4	0.2974602
70	0x3e9b9cd2	0.30393082
71	0x3e9c6522	0.30545908
72	0x3e99cdcd	0.30039826
73	0x3e9afbe8	0.30270314
74	0x3e978e30	0.29600668
75	0x3e9804c5	0.2969114
76	0x3e6d6643	0.23183541
77	0x3e92766f	0.28605983
78	0x3e9c57bd	0.3053569
79	0x3e83345d	0.25625888
80	0x3e702262	0.23450616
81	0x3e955d9b	0.29172978
82	0x3e8c5df0	0.2741542
83	0x3e8abb79	0.27096155
84	0x3e9645a1	0.29349998
85	0x3e828b67	0.2549698
86	0x3e8ea76c	0.27862108
87	0x3e9e3036	0.30896157
88	0x3e9b39f9	0.30317667
89	0x3e8a27fd	0.26983634
90	0x3e94f0ff	0.29090115
91	0x3e9943b1	0.29934457
92	0x3e835419	0.256501
93	0x3e6419cb	0.22275464
94	0x3e992d4d	0.29917374
95	0x3e816f1a	0.25280076
96	0x3e5ff60f	0.21871208
97	0x3e518889	0.2046224
98	0x3e80f7e2	0.2518912
99	0x3e9ceca2	0.30649287
100	0x3e9cc6b1	0.3062034
101	0x3e9b09e0	0.30280972
102	0x3e9bce09	0.3043063
103	0x3e970c93	0.2950178
104	0x3e89f834	0.26947176
105	0x3e606b18	0.21915853
106	0x3e9bbe1c	0.3041848
107	0x3e98f1c9	0.29871967
108	0x3e9b1f3b	0.30297264
109	0x3e73ef4a	0.2382175
110	0x3e9b0139	0.3027437
111	0x3e6b4f6a	0.22979513
112	0x3e95202a	0.29126102
113	0x3e9734f9	0.29532602
114	0x3e9667ff	0.29376218
115	0x3e675b09	0.22593321
116	0x3e983743	0.2972966
117	0x3e7a2371	0.24427582
118	0x3e99c0ea	0.30029994
119	0x3e9c4f99	0.30529478
120	0x3e8f650c	0.2800678
121	0x3e8a2a96	0.26985615
122	0x3e8987b8	0.26861358
123	0x3e7d7179	0.24750318
124	0x3e8a7de6	0.27049178
125	0x3e605025	0.21905573
126	0x3e99269e	0.29912275
127	0x3e7d728a	0.24750724
128	0x3e9b1a11	0.30293325
129	0x3e9b88fa	0.30377942
130	0x3e8ee01b	0.27905354
131	0x3e78d59b	0.24300234
132	0x3e9a7832	0.30169827
133	0x3e8c2714	0.27373564
134	0x3e9ab4a3	0.3021594
135	0x3e9e1ebc	0.30882823
136	0x3e8a3ba3	0.26998624
137	0x3e76d122	0.24103215
138	0x3e9b7f0f	0.30370376
139	0x3e9c033b	0.30471215
140	0x3e99b5df	0.3002157
141	0x3e53a522	0.20668462
142	0x3e7430e3	0.23846774
143	0x3e8c3848	0.2738669
144	0x3e9ab887	0.30218908
145	0x3e88efb0	0.26745367
146	0x3e9c97ec	0.30584657
147	0x3e890d11	0.2676778
148	0x3e9e985c	0.30975616
149	0x3e9e8604	0.3096162
150	0x3e9d589c	0.30731666
151	0x3e8a28c5	0.2698423
152	0x3e96e67c	0.2947272
153	0x3e686ded	0.22698183
154	0x3e517ba7	0.20457326
155	0x3e87aa9e	0.26497358
156	0x3e9df428	0.3085034
157	0x3e38482d	0.17996283
158	0x3e9801ff	0.29689023
159	0x3e923016	0.28552312
160	0x3e8e111b	0.27747425
161	0x3e6e3100	0.2326088
162	0x3e6e093d	0.23245712
163	0x3e87dbdf	0.26534936
164	0x3e99440c	0.29934728
165	0x3e912da2	0.28355128
166	0x3e90a202	0.28248602
167	0x3e9664c7	0.29373762
168	0x3e86d9c1	0.26338008
169	0x3e98ba8a	0.29829818
170	0x3e859c4b	0.26095805
171	0x3e9b5af9	0.30342844
172	0x3e8caaf7	0.27474186
173	0x3e85e17b	0.2614859
174	0x3e983754	0.29729712
175	0x3e91225b	0.28346524
176	0x3e9c09c4	0.304762
177	0x3e999df3	0.30003318
178	0x3e979c95	0.2961165
179	0x3e9829c5	0.29719368
180	0x3e98ae5f	0.29820535
181	0x3e8c4417	0.27395698
182	0x3e99d62a	0.30046207
183	0x3e95a0d9	0.2922428
184	0x3e9a69c0	0.30158806
185	0x3e9d1e28	0.3068707
186	0x3e979a98	0.29610133
187	0x3e874185	0.26417175
188	0x3e8fc137	0.280771
189	0x3e849361	0.2589369
190	0x3e8f7018	0.28015208
191	0x3e91a088	0.28442788
192	0x3e342309	0.1759149
193	0x3e99ad81	0.30015185
194	0x3e99f998	0.30073237
195	0x3e930928	0.28717923
196	0x3e5fe6e4	0.21865422
197	0x3e9d4452	0.30716187
198	0x3e9bc510	0.30423784
199	0x3e9e9ffa	0.30981427
200	0x3e724d07	0.23662196
201	0x3e9d5333	0.30727538
202	0x3e496e8e	0.1967108
203	0x3e88a39b	0.2668732
204	0x3e9b2749	0.3030341
205	0x3e8210db	0.25403485
206	0x3e9cb7a6	0.30608863
207	0x3e91820c	0.2841953
208	0x3e9c3a81	0.30513385
209	0x3e9dba06	0.30805987
210	0x3e905241	0.28187755
211	0x3e8f4887	0.2798502
212	0x3e9e6cbd	0.30942336
213	0x3e83ee77	0.25767872
214	0x3e7e406f	0.24829267
215	0x3e8e26e1	0.27764037
216	0x3e9c3879	0.30511835
217	0x3e686550	0.22694898
218	0x3e8ff3cf	0.281157
219	0x3e8e51a8	0.27796674
220	0x3e9a6a4b	0.3015922
221	0x3e9a810d	0.30176583
222	0x3e7a76ed	0.24459429
223	0x3e4fac51	0.20280577
224	0x3e84b396	0.25918263
225	0x3e6e346f	0.2326219
226	0x3e91c2a7	0.2846882
227	0x3e9c4bf8	0.3052671
228	0x3e9cd762	0.30633074
229	0x3e925527	0.2858059
230	0x3e9be615	0.30448976
231	0x3e9e7083	0.30945215
232	0x3e884093	0.26611766
233	0x3e9199b2	0.28437573
234	0x3e9bcda1	0.3043032
235	0x3e9a168a	0.3009532
236	0x3e9b7989	0.3036616
237	0x3e8ca84c	0.2747215
238	0x3e806204	0.2507478
239	0x3e810333	0.25197753
240	0x3e9810bf	0.29700276
241	0x3e993217	0.29921028
242	0x3e9cb4de	0.3060674
243	0x3e8aaf51	0.2708688
244	0x3e7d5f8b	0.24743478
245	0x3e9da9e3	0.30793676
246	0x3e9be146	0.30445307
247	0x3e9df758	0.3085277
248	0x3e9cde98	0.30638576
249	0x3e9b2b16	0.3030631
250	0x3e5cc741	0.21560384
251	0x3e96ede6	0.29478377
252	0x3e987268	0.29774785
253	0x3e99e259	0.30055502
254	0x3e9c60f0	0.30542707
255	0x3e9950d9	0.29944494
