models_cerebelo/kan_model_basket_lif.pt (torch, 54267 bytes, 29 tensors)

node_bias_0 f4 [32]
00000000: 0000 0000 0000 0000 0000 0000 0000 0000
00000010: 0000 0000 0000 0000 0000 0000 0000 0000
00000020: 0000 0000 0000 0000 0000 0000 0000 0000
00000030: 0000 0000 0000 0000 0000 0000 0000 0000
00000040: 0000 0000 0000 0000 0000 0000 0000 0000
00000050: 0000 0000 0000 0000 0000 0000 0000 0000
00000060: 0000 0000 0000 0000 0000 0000 0000 0000
00000070: 0000 0000 0000 0000 0000 0000 0000 0000
0.0 0.0 0.0 0.0 0.0 0.0 0.0 0.0
0.0 0.0 0.0 0.0 0.0 0.0 0.0 0.0
0.0 0.0 0.0 0.0 0.0 0.0 0.0 0.0
0.0 0.0 0.0 0.0 0.0 0.0 0.0 0.0

node_scale_0 f4 [32]
00000000: 0000 803f 0000 803f 0000 803f 0000 803f
00000010: 0000 803f 0000 803f 0000 803f 0000 803f
00000020: 0000 803f 0000 803f 0000 803f 0000 803f
00000030: 0000 803f 0000 803f 0000 803f 0000 803f
00000040: 0000 803f 0000 803f 0000 803f 0000 803f
00000050: 0000 803f 0000 803f 0000 803f 0000 803f
00000060: 0000 803f 0000 803f 0000 803f 0000 803f
00000070: 0000 803f 0000 803f 0000 803f 0000 803f
1.0 1.0 1.0 1.0 1.0 1.0 1.0 1.0
1.0 1.0 1.0 1.0 1.0 1.0 1.0 1.0
1.0 1.0 1.0 1.0 1.0 1.0 1.0 1.0
1.0 1.0 1.0 1.0 1.0 1.0 1.0 1.0

subnode_bias_0 f4 [32]
00000000: 0000 0000 0000 0000 0000 0000 0000 0000
00000010: 0000 0000 0000 0000 0000 0000 0000 0000
00000020: 0000 0000 0000 0000 0000 0000 0000 0000
00000030: 0000 0000 0000 0000 0000 0000 0000 0000
00000040: 0000 0000 0000 0000 0000 0000 0000 0000
00000050: 0000 0000 0000 0000 0000 0000 0000 0000
00000060: 0000 0000 0000 0000 0000 0000 0000 0000
00000070: 0000 0000 0000 0000 0000 0000 0000 0000
0.0 0.0 0.0 0.0 0.0 0.0 0.0 0.0
0.0 0.0 0.0 0.0 0.0 0.0 0.0 0.0
0.0 0.0 0.0 0.0 0.0 0.0 0.0 0.0
0.0 0.0 0.0 0.0 0.0 0.0 0.0 0.0

subnode_scale_0 f4 [32]
00000000: 0000 803f 0000 803f 0000 803f 0000 803f
00000010: 0000 803f 0000 803f 0000 803f 0000 803f
00000020: 0000 803f 0000 803f 0000 803f 0000 803f
00000030: 0000 803f 0000 803f 0000 803f 0000 803f
00000040: 0000 803f 0000 803f 0000 803f 0000 803f
00000050: 0000 803f 0000 803f 0000 803f 0000 803f
00000060: 0000 803f 0000 803f 0000 803f 0000 803f
00000070: 0000 803f 0000 803f 0000 803f 0000 803f
1.0 1.0 1.0 1.0 1.0 1.0 1.0 1.0
1.0 1.0 1.0 1.0 1.0 1.0 1.0 1.0
1.0 1.0 1.0 1.0 1.0 1.0 1.0 1.0
1.0 1.0 1.0 1.0 1.0 1.0 1.0 1.0

node_bias_1 f4 [16]
00000000: 0000 0000 0000 0000 0000 0000 0000 0000
00000010: 0000 0000 0000 0000 0000 0000 0000 0000
00000020: 0000 0000 0000 0000 0000 0000 0000 0000
00000030: 0000 0000 0000 0000 0000 0000 0000 0000
0.0 0.0 0.0 0.0 0.0 0.0 0.0 0.0
0.0 0.0 0.0 0.0 0.0 0.0 0.0 0.0

node_scale_1 f4 [16]
00000000: 0000 803f 0000 803f 0000 803f 0000 803f
00000010: 0000 803f 0000 803f 0000 803f 0000 803f
00000020: 0000 803f 0000 803f 0000 803f 0000 803f
00000030: 0000 803f 0000 803f 0000 803f 0000 803f
1.0 1.0 1.0 1.0 1.0 1.0 1.0 1.0
1.0 1.0 1.0 1.0 1.0 1.0 1.0 1.0

subnode_bias_1 f4 [16]
00000000: 0000 0000 0000 0000 0000 0000 0000 0000
00000010: 0000 0000 0000 0000 0000 0000 0000 0000
00000020: 0000 0000 0000 0000 0000 0000 0000 0000
00000030: 0000 0000 0000 0000 0000 0000 0000 0000
0.0 0.0 0.0 0.0 0.0 0.0 0.0 0.0
0.0 0.0 0.0 0.0 0.0 0.0 0.0 0.0

subnode_scale_1 f4 [16]
00000000: 0000 803f 0000 803f 0000 803f 0000 803f
00000010: 0000 803f 0000 803f 0000 803f 0000 803f
00000020: 0000 803f 0000 803f 0000 803f 0000 803f
00000030: 0000 803f 0000 803f 0000 803f 0000 803f
1.0 1.0 1.0 1.0 1.0 1.0 1.0 1.0
1.0 1.0 1.0 1.0 1.0 1.0 1.0 1.0

act_fun.0.grid f4 [3, 12]
00000000: cdcc 0cc0 6666 e6bf 3333 b3bf 0000 80bf
00000010: 9a99 19bf cccc 4cbe cccc 4c3e 9a99 193f
00000020: 0000 803f 3333 b33f 6666 e63f cdcc 0c40
00000030: cdcc 0cc0 6666 e6bf 3333 b3bf 0000 80bf
00000040: 9a99 19bf cccc 4cbe cccc 4c3e 9a99 193f
00000050: 0000 803f 3333 b33f 6666 e63f cdcc 0c40
00000060: cdcc 0cc0 6666 e6bf 3333 b3bf 0000 80bf
00000070: 9a99 19bf cccc 4cbe cccc 4c3e 9a99 193f
00000080: 0000 803f 3333 b33f 6666 e63f cdcc 0c40
-2.2 -1.8 -1.4 -1.0 -0.6 -0.19999999 0.19999999 0.6
1.0 1.4 1.8 2.2 -2.2 -1.8 -1.4 -1.0
-0.6 -0.19999999 0.19999999 0.6 1.0 1.4 1.8 2.2
-2.2 -1.8 -1.4 -1.0 -0.6 -0.19999999 0.19999999 0.6
1.0 1.4 1.8 2.2

act_fun.0.coef f4 [3, 32, 8]
00000000: 64fd f4bd 7d1e c9bd 5a26 b2bd b60b 0d3e
00000010: 62d9 233e 509a d23d 7f1b 0f3e 66b9 f93d
00000020: a67e 78bd db12 03bd 1001 b0bd 11f2 173e
00000030: adfa 4b3d afe0 0d3e a319 423d 1f83 6d3d
00000040: c1a8 ffbd 5ab9 04be faaa fabd 9d01 013e
00000050: 416d 023e 0294 ae3d 917f cd3d 1b8e ea3d
00000060: 607a 123e eefe 333e e371 7f3d 88ad eebd
00000070: ceaa 0abe e382 05be d187 cdbd d43e cdbd
00000080: 1944 083e 1480 023e 0893 bf3d 2a2b dfbd
00000090: df63 3ebe 437d 98bd fa0c 21be 3c9a 0abe
000000a0: 2387 033e c941 083e 9983 063e ee2d fbbd
000000b0: 9556 30be 9754 e3bd a0f5 14be ac6e fabd
000000c0: 3bff 03be 6269 12be c1af f6bd 50a1 083e
000000d0: c4ee 103e 6d8e c63d 0350 103e 932d fa3d
000000e0: 3a2f 8dbd 9601 3ebd 3554 f7bd c0a1 fc3d
000000f0: 61dc 543d 2f11 823d e2b5 4d3d 8804 0b3d
00000100: 6021 e7bd 6bed acbd bb7b edbd 5afb b93d
00000110: 9e91 bd3d 218d 173e 1157 173e 9f75 f63d
00000120: 7320 9a3d 7565 5c3d 9074 513d dd12 dabd
00000130: 1357 b8bd cb8d 89bd a943 16bd 435d 74bd
00000140: 400e 153e 211c 343e df04 543d be71 86bd
00000150: c49a 23be 734f c8bd af6b d5bd c7d3 d3bd
00000160: e22c ebbd c3fd d8bd ca48 1cbe 1970 213e
00000170: 163a d73d 73d9 ba3d b3e9 093e 5c3d f43d
00000180: 24cb e5bd 3347 acbd fcae 2fbe 6170 0d3e
00000190: 5414 0c3e 6a73 a43d 5cc4 103e 32c0 043e
000001a0: 2094 d7bd d1c4 c7bd ffea 04be f1dc c33d
000001b0: e414 d33d d473 ea3d c483 d73d 22b3 da3d
000001c0: 5392 003e 3f8c 0b3e 077d 353e d733 2abe
000001d0: 88dc 06be 2875 ccbd aa44 f7bd 8579 edbd
000001e0: e81b 03be a04d 08be ee64 c9bd 8771 793d
000001f0: 918d dc3d b109 b03d f913 d43d 8958 c83d
00000200: a0ca 063e bbeb 1d3e 4ec8 023e 4eeb 07be
00000210: 0b77 1abe 0194 04be 42b4 c1bd 5c86 d6bd
00000220: cf3f fc3d dfd8 063e c45d 783d db97 b0bd
00000230: fe41 a0bd 259c b8bd e663 85bd 1b5f b9bd
00000240: e2b1 fe3d 151f e43d 2f4d a53d 4c62 a7bd
00000250: 349e 1ebe c028 cfbd b84b ffbd 3b6f e6bd
00000260: 379b dfbd ae63 c9bd ae08 3fbd f20a 0f3e
00000270: 664d ea3d bb79 eb3d 945f a83d 2766 943c
00000280: 1d9a ee3d c936 ce3d 585e 163e dc2a 37be
00000290: 716b 00be b65a 02be 925d fcbd 4e3c ecbd
000002a0: 7045 e33d 2b46 e23d 1f41 843d 9d8c 0dbe
000002b0: 1908 bdbd ba2b 1ebe 5fee ecbd 7c22 cbbd
000002c0: e3b6 e8bd 6283 00be eb59 d4bd d895 52bc
000002d0: 1f12 443e c6f2 853d 4e6c 143e 79f1 063e
000002e0: b15f 9fbd d62d 56bd 76d7 05be 1ed6 293e
000002f0: a6f4 f83d 8b71 8a3d 4339 0e3e 890f df3d
00000300: e5bc 04be 925d 1dbe 8252 b3bd 7356 0f3e
00000310: d95c ac3d 9253 c23d d0c6 1c3e a1b4 fe3d
00000320: b354 ccbd 2567 e5bd 38ab c9bd 6be2 b73d
00000330: 7795 f63d 4e6b d93d 7d96 f43d 1370 d23d
00000340: e779 d33d f22d c13d c1b5 c33d 3be8 d7bd
00000350: 5377 80bd a161 f5bd b6e0 d6bd 99f4 0d3d
00000360: 5b88 ee3d 92d6 cc3d 3a9c c73d 9fad 01be
00000370: 5349 b2bd 3403 efbd 7cbd cdbd 86c5 43bd
00000380: 9e3b 043e 33da 093e c777 c43d 2dea 22be
00000390: ad4f c1bd 5ba6 a0bd 623f 07be 3ec6 d9bd
000003a0: 9f99 c33d 74bd 863d c9c9 933d 3762 afbd
000003b0: c53d 8dbd 612a a9bd 2106 b7bd 4b3e 25bd
000003c0: a69b 0f3e 17ce 2d3e 480f cc3d 1c34 13be
000003d0: 0fb7 0cbe 4d41 afbd f9d0 00be e516 fbbd
000003e0: 05bd ed3d 82dd bb3d 1de3 b83d f394 07be
000003f0: 9c7c d7bd 8277 08be f1e1 15be a79d ebbd
-0.11962393 -0.09820268 -0.08698721 0.13773999 0.16000894 0.10283339 0.13975333 0.12193565
-0.060667656 -0.032000404 -0.08593953 0.14838435 0.04979961 0.13855241 0.04738773 0.057986375
-0.12483359 -0.12961331 -0.122396424 0.12598272 0.1273699 0.08524324 0.10034097 0.11452886
0.14304495 0.17577717 0.06236447 -0.11654192 -0.1354172 -0.1303821 -0.100356705 -0.10021749
0.13307227 0.1274417 0.09354216 -0.10896905 -0.18592785 -0.07445767 -0.15727606 -0.13535398
0.1284452 0.13306345 0.13136138 -0.1226462 -0.17220528 -0.111001186 -0.14546824 -0.1222814
-0.12890331 -0.14298013 -0.12045241 0.13342786 0.14153582 0.09695134 0.14093022 0.12215724
-0.068937734 -0.04638823 -0.12076608 0.12335539 0.051967982 0.06350934 0.050222285 0.03393987
-0.11285663 -0.084437214 -0.11595865 0.09081145 0.0925629 0.1479993 0.14779307 0.12034153
0.075257204 0.053807694 0.051136553 -0.10648129 -0.09000983 -0.06716498 -0.03668562 -0.059659254
0.14556217 0.17588855 0.051762458 -0.06564663 -0.15977007 -0.09780779 -0.1042093 -0.10343128
-0.1148317 -0.10595276 -0.15262142 0.15765418 0.10509126 0.091235064 0.13468055 0.11925766
-0.112203866 -0.08412018 -0.17156595 0.138124 0.1367963 0.08029826 0.14137405 0.12963942
-0.105262995 -0.097543366 -0.12980269 0.095636256 0.10306719 0.11447874 0.10523179 0.10678698
0.12555818 0.13627718 0.17723475 -0.16621338 -0.13170063 -0.09983283 -0.120736435 -0.11595444
-0.12803614 -0.13310862 -0.09833704 0.060899284 0.10769189 0.085955985 0.10355372 0.09782512
0.13163233 0.15421955 0.12771723 -0.13273355 -0.15084474 -0.12947084 -0.094582096 -0.10474846
0.12316858 0.13168667 0.060636297 -0.08622714 -0.07825087 -0.09014157 -0.06513195 -0.09051343
0.12436272 0.11138741 0.08071362 -0.081730455 -0.15490037 -0.10115194 -0.12465614 -0.11251684
-0.10918277 -0.098334655 -0.046639137 0.13969019 0.11440544 0.114978276 0.08221355 0.018115116
0.116504885 0.10069043 0.14684427 -0.17887443 -0.12540986 -0.12729916 -0.123225346 -0.1153494
0.110972285 0.1104854 0.06457733 -0.13823171 -0.0923006 -0.15446368 -0.11568903 -0.09918687
-0.11363008 -0.12550119 -0.10368713 -0.012853108 0.19147538 0.06540446 0.1449444 0.13178052
-0.077819236 -0.052289806 -0.13070473 0.16585585 0.12156038 0.06759938 0.13889031 0.10891635
-0.12962683 -0.15367725 -0.087559715 0.13997822 0.08416147 0.09488596 0.15310216 0.12436796
-0.099770926 -0.11201314 -0.098471105 0.08978733 0.12040227 0.1061617 0.11942766 0.10275283
0.103259854 0.094325915 0.09556151 -0.10542341 -0.06272759 -0.11981512 -0.10492079 0.034657095
0.116471015 0.100018635 0.09746595 -0.12663887 -0.08705392 -0.11670533 -0.10045907 -0.047795795
0.12913367 0.13462143 0.09593158 -0.15909643 -0.09439025 -0.0784423 -0.13207772 -0.10633515
0.09550785 0.06579104 0.07216222 -0.08563655 -0.06896547 -0.08260036 -0.08936716 -0.04034261
0.14024219 0.16973148 0.09963852 -0.14375347 -0.13741706 -0.08557377 -0.12579717 -0.12260226
0.11608318 0.09173109 0.090276934 -0.13240413 -0.10521814 -0.13326839 -0.14636971 -0.11504679

act_fun.0.mask f4 [3, 32]
00000000: 0000 803f 0000 803f 0000 803f 0000 803f
00000010: 0000 803f 0000 803f 0000 803f 0000 803f
00000020: 0000 803f 0000 803f 0000 803f 0000 803f
00000030: 0000 803f 0000 803f 0000 803f 0000 803f
00000040: 0000 803f 0000 803f 0000 803f 0000 803f
00000050: 0000 803f 0000 803f 0000 803f 0000 803f
00000060: 0000 803f 0000 803f 0000 803f 0000 803f
00000070: 0000 803f 0000 803f 0000 803f 0000 803f
00000080: 0000 803f 0000 803f 0000 803f 0000 803f
00000090: 0000 803f 0000 803f 0000 803f 0000 803f
000000a0: 0000 803f 0000 803f 0000 803f 0000 803f
000000b0: 0000 803f 0000 803f 0000 803f 0000 803f
000000c0: 0000 803f 0000 803f 0000 803f 0000 803f
000000d0: 0000 803f 0000 803f 0000 803f 0000 803f
000000e0: 0000 803f 0000 803f 0000 803f 0000 803f
000000f0: 0000 803f 0000 803f 0000 803f 0000 803f
00000100: 0000 803f 0000 803f 0000 803f 0000 803f
00000110: 0000 803f 0000 803f 0000 803f 0000 803f
00000120: 0000 803f 0000 803f 0000 803f 0000 803f
00000130: 0000 803f 0000 803f 0000 803f 0000 803f
00000140: 0000 803f 0000 803f 0000 803f 0000 803f
00000150: 0000 803f 0000 803f 0000 803f 0000 803f
00000160: 0000 803f 0000 803f 0000 803f 0000 803f
00000170: 0000 803f 0000 803f 0000 803f 0000 803f
1.0 1.0 1.0 1.0 1.0 1.0 1.0 1.0
1.0 1.0 1.0 1.0 1.0 1.0 1.0 1.0
1.0 1.0 1.0 1.0 1.0 1.0 1.0 1.0
1.0 1.0 1.0 1.0 1.0 1.0 1.0 1.0
1.0 1.0 1.0 1.0 1.0 1.0 1.0 1.0
1.0 1.0 1.0 1.0 1.0 1.0 1.0 1.0
1.0 1.0 1.0 1.0 1.0 1.0 1.0 1.0
1.0 1.0 1.0 1.0 1.0 1.0 1.0 1.0
1.0 1.0 1.0 1.0 1.0 1.0 1.0 1.0
1.0 1.0 1.0 1.0 1.0 1.0 1.0 1.0
1.0 1.0 1.0 1.0 1.0 1.0 1.0 1.0
1.0 1.0 1.0 1.0 1.0 1.0 1.0 1.0

act_fun.0.scale_base f4 [3, 32]
00000000: 3e6d 54bd aa13 c03e 3dfa 2bbe d99a c6be
00000010: 81e8 6f3e 1314 1fbf fbc5 3e3e a4fb 0e3f
00000020: ef6d 5b3e 050c b33d 345f e6be 21d0 da3d
00000030: a516 1d3e 58c7 813e 960f da3d 30c3 1a3f
00000040: f2f8 0fbf f615 b1bd 726e cebe ccfe b5be
00000050: 86a6 29be ef6a 1dbf a465 053f 1dfd 243e
00000060: c05f 4abe b973 cb3e 6f92 20bf 7b99 a6be
00000070: d285 6dbe e531 16bf 7a3d fabe fd4b 53be
00000080: f99c 0e3f 7d3a 223f 555f fa3e fb61 ecbe
00000090: 921b 01bf 0d0c c33e 3aa4 a53e 9ee6 ab3d
000000a0: b49c 493e 39ab 0abf abff 9fbe 9551 2c3f
000000b0: 585d 90bc e50d aa3d b060 19bf 7126 5cbe
000000c0: b56c 0dbe 8185 edbe 0cd8 43be fb77 b03e
000000d0: b169 2fbf c0fe 753d bec7 85be fad2 3abe
000000e0: 979e ae3e e005 0f3f 479e 82be b0cb afbe
000000f0: a068 24bf 53cd ccbe e708 21bf c997 7fbe
00000100: 612e 663e 47a4 fabe 49f0 1a3f 2b32 803e
00000110: dbf4 17bf 9f19 c7be e00e 973e 6583 60bd
00000120: cf0b 333d 7529 9dbe 4e94 b43e 00b9 53be
00000130: 5761 173f c353 0f3e c9b2 5b3b a3ad ee3e
00000140: 743e 51be d547 c3be 92d2 4abe 8785 113f
00000150: 5e15 ecbe a1fc 753c 8e3c eabe 17b1 cd3e
00000160: d3be 9d3e 69d8 f83d 9e17 183e 3591 aebd
00000170: cc43 4d3e 39dc d6be f755 4fbe e804 173e
-0.051861994 0.37515002 -0.16794677 -0.38790014 0.23428537 -0.62140006 0.18630211 0.55852723
0.21428655 0.08742527 -0.4499451 0.10684229 0.1534067 0.253474 0.10647504 0.6045408
-0.56239235 -0.08646767 -0.40318638 -0.35545957 -0.1656743 -0.6149129 0.52108216 0.1611218
-0.19763088 0.39736727 -0.6272344 -0.3253897 -0.2319558 -0.58669883 -0.48875028 -0.20634456
0.5570827 0.63370496 0.48900858 -0.46168503 -0.50432694 0.38095132 0.32351857 0.08393596
0.19688684 -0.54167515 -0.31249747 0.67311984 -0.017622635 0.083034314 -0.5991316 -0.21499039
-0.13811 -0.46390918 -0.19125384 0.34466538 -0.6852065 0.0600574 -0.26128954 -0.18244544
0.3410537 0.5586834 -0.2551138 -0.3433509 -0.64222145 -0.400004 -0.6290421 -0.24960245
0.2247863 -0.4895346 0.60522896 0.25038275 -0.59357995 -0.38886735 0.29503536 -0.054812808
0.043712433 -0.30695692 0.35269397 -0.2067604 0.59132904 0.13996796 0.0033523312 0.4661685
-0.2043398 -0.3814074 -0.19806889 0.5684437 -0.46110052 0.015013845 -0.45749325 0.4017417
0.3080965 0.12150652 0.14852759 -0.0852379 0.20045394 -0.41964892 -0.20247637 0.14747965

act_fun.0.scale_sp f4 [3, 32]
00000000: 1131 2e3f e0b4 243f d377 353f 1e5f 353f
00000010: 2e04 333f 90b1 353f 722b 353f 99dc 243f
00000020: 43fb 2b3f c20f 1c3f 2af9 2f3f e61a 353f
00000030: 463f 353f d598 2d3f aa6b 353f 7ac6 313f
00000040: dbe3 333f 543c 253f fb35 2a3f cd9e 343f
00000050: 81a3 353f db7c 313f c033 353f 31bc 2e3f
00000060: ec33 353f 6c0c 2d3f 1e27 283f d5d0 263f
00000070: 5898 2f3f 7ad5 1a3f 56fe 353f da7b 2c3f
00000080: d227 333f 7263 223f 8886 253f 3148 343f
00000090: 655f 2d3f cb9f 353f 0914 353f 141a 253f
000000a0: 539e 333f ac45 1d3f 5a1e 353f 61e6 2b3f
000000b0: cd81 353f 7fc2 303f 5cf2 303f 8541 353f
000000c0: 95f6 353f dfa4 2c3f 4e82 353f 213c 313f
000000d0: 3b67 343f 4f63 293f 38f4 353f 08da 2e3f
000000e0: 69a6 2f3f 97dd 2f3f 91ba 2f3f 8bd2 243f
000000f0: 8190 2e3f 0577 2d3f ceb9 353f 2210 2b3f
00000100: 87a1 333f 0a66 2f3f b186 2e3f bdea 2d3f
00000110: 3c43 2b3f a0bb 2c3f 9d03 293f 7aeb 203f
00000120: 22e0 273f 82aa 1f3f d093 2f3f 4879 343f
00000130: a8c5 333f 9d04 303f 2660 333f 239a 2e3f
00000140: a557 2d3f 57fa 353f 6afb 323f 3603 253f
00000150: d383 343f a192 303f 674e 2e3f 0cfc 223f
00000160: de4c 323f 7eaf 253f 2bc0 2e3f dee5 2c3f
00000170: 97ef 343f e8d8 253f fe97 293f 8acc 333f
0.6804362 0.64338493 0.7088596 0.7084826 0.6992825 0.70974064 0.7076942 0.64399105
0.6718027 0.60961545 0.6873957 0.7074417 0.7079967 0.6781133 0.7086741 0.69443476
0.70269555 0.6454518 0.6648862 0.7055481 0.7095261 0.6933114 0.7078209 0.6825591
0.7078235 0.6759708 0.6568469 0.651624 0.68591833 0.6048199 0.7109121 0.6737648
0.69982636 0.6343299 0.64658403 0.70422655 0.67723686 0.7094695 0.70733696 0.6449292
0.7016346 0.61434436 0.7074944 0.67148405 0.70901185 0.6904678 0.6911981 0.708031
0.7107938 0.67439073 0.70901954 0.69232374 0.7047002 0.6616716 0.71075773 0.6830144
0.68613297 0.68697494 0.6864405 0.64383763 0.68189245 0.67759734 0.7098664 0.6682149
0.70168346 0.68515074 0.6817427 0.6793631 0.66899467 0.67473793 0.6602114 0.6285931
0.65576375 0.6236955 0.6858492 0.7049756 0.70223475 0.6875704 0.70068586 0.68203944
0.6771186 0.71085113 0.6991488 0.64458025 0.7051365 0.6897374 0.6808838 0.63665843
0.6964854 0.64720905 0.68261975 0.6753825 0.70678085 0.647841 0.66247547 0.70233977

act_fun.1.grid f4 [32, 12]
00000000: cdcc 0cc0 6666 e6bf 3333 b3bf 0000 80bf
00000010: 9a99 19bf cccc 4cbe cccc 4c3e 9a99 193f
00000020: 0000 803f 3333 b33f 6666 e63f cdcc 0c40
00000030: cdcc 0cc0 6666 e6bf 3333 b3bf 0000 80bf
00000040: 9a99 19bf cccc 4cbe cccc 4c3e 9a99 193f
00000050: 0000 803f 3333 b33f 6666 e63f cdcc 0c40
00000060: cdcc 0cc0 6666 e6bf 3333 b3bf 0000 80bf
00000070: 9a99 19bf cccc 4cbe cccc 4c3e 9a99 193f
00000080: 0000 803f 3333 b33f 6666 e63f cdcc 0c40
00000090: cdcc 0cc0 6666 e6bf 3333 b3bf 0000 80bf
000000a0: 9a99 19bf cccc 4cbe cccc 4c3e 9a99 193f
000000b0: 0000 803f 3333 b33f 6666 e63f cdcc 0c40
000000c0: cdcc 0cc0 6666 e6bf 3333 b3bf 0000 80bf
000000d0: 9a99 19bf cccc 4cbe cccc 4c3e 9a99 193f
000000e0: 0000 803f 3333 b33f 6666 e63f cdcc 0c40
000000f0: cdcc 0cc0 6666 e6bf 3333 b3bf 0000 80bf
00000100: 9a99 19bf cccc 4cbe cccc 4c3e 9a99 193f
00000110: 0000 803f 3333 b33f 6666 e63f cdcc 0c40
00000120: cdcc 0cc0 6666 e6bf 3333 b3bf 0000 80bf
00000130: 9a99 19bf cccc 4cbe cccc 4c3e 9a99 193f
00000140: 0000 803f 3333 b33f 6666 e63f cdcc 0c40
00000150: cdcc 0cc0 6666 e6bf 3333 b3bf 0000 80bf
00000160: 9a99 19bf cccc 4cbe cccc 4c3e 9a99 193f
00000170: 0000 803f 3333 b33f 6666 e63f cdcc 0c40
00000180: cdcc 0cc0 6666 e6bf 3333 b3bf 0000 80bf
00000190: 9a99 19bf cccc 4cbe cccc 4c3e 9a99 193f
000001a0: 0000 803f 3333 b33f 6666 e63f cdcc 0c40
000001b0: cdcc 0cc0 6666 e6bf 3333 b3bf 0000 80bf
000001c0: 9a99 19bf cccc 4cbe cccc 4c3e 9a99 193f
000001d0: 0000 803f 3333 b33f 6666 e63f cdcc 0c40
000001e0: cdcc 0cc0 6666 e6bf 3333 b3bf 0000 80bf
000001f0: 9a99 19bf cccc 4cbe cccc 4c3e 9a99 193f
00000200: 0000 803f 3333 b33f 6666 e63f cdcc 0c40
00000210: cdcc 0cc0 6666 e6bf 3333 b3bf 0000 80bf
00000220: 9a99 19bf cccc 4cbe cccc 4c3e 9a99 193f
00000230: 0000 803f 3333 b33f 6666 e63f cdcc 0c40
00000240: cdcc 0cc0 6666 e6bf 3333 b3bf 0000 80bf
00000250: 9a99 19bf cccc 4cbe cccc 4c3e 9a99 193f
00000260: 0000 803f 3333 b33f 6666 e63f cdcc 0c40
00000270: cdcc 0cc0 6666 e6bf 3333 b3bf 0000 80bf
00000280: 9a99 19bf cccc 4cbe cccc 4c3e 9a99 193f
00000290: 0000 803f 3333 b33f 6666 e63f cdcc 0c40
000002a0: cdcc 0cc0 6666 e6bf 3333 b3bf 0000 80bf
000002b0: 9a99 19bf cccc 4cbe cccc 4c3e 9a99 193f
000002c0: 0000 803f 3333 b33f 6666 e63f cdcc 0c40
000002d0: cdcc 0cc0 6666 e6bf 3333 b3bf 0000 80bf
000002e0: 9a99 19bf cccc 4cbe cccc 4c3e 9a99 193f
000002f0: 0000 803f 3333 b33f 6666 e63f cdcc 0c40
00000300: cdcc 0cc0 6666 e6bf 3333 b3bf 0000 80bf
00000310: 9a99 19bf cccc 4cbe cccc 4c3e 9a99 193f
00000320: 0000 803f 3333 b33f 6666 e63f cdcc 0c40
00000330: cdcc 0cc0 6666 e6bf 3333 b3bf 0000 80bf
00000340: 9a99 19bf cccc 4cbe cccc 4c3e 9a99 193f
00000350: 0000 803f 3333 b33f 6666 e63f cdcc 0c40
00000360: cdcc 0cc0 6666 e6bf 3333 b3bf 0000 80bf
00000370: 9a99 19bf cccc 4cbe cccc 4c3e 9a99 193f
00000380: 0000 803f 3333 b33f 6666 e63f cdcc 0c40
00000390: cdcc 0cc0 6666 e6bf 3333 b3bf 0000 80bf
000003a0: 9a99 19bf cccc 4cbe cccc 4c3e 9a99 193f
000003b0: 0000 803f 3333 b33f 6666 e63f cdcc 0c40
000003c0: cdcc 0cc0 6666 e6bf 3333 b3bf 0000 80bf
000003d0: 9a99 19bf cccc 4cbe cccc 4c3e 9a99 193f
000003e0: 0000 803f 3333 b33f 6666 e63f cdcc 0c40
000003f0: cdcc 0cc0 6666 e6bf 3333 b3bf 0000 80bf
-2.2 -1.8 -1.4 -1.0 -0.6 -0.19999999 0.19999999 0.6
1.0 1.4 1.8 2.2 -2.2 -1.8 -1.4 -1.0
-0.6 -0.19999999 0.19999999 0.6 1.0 1.4 1.8 2.2
-2.2 -1.8 -1.4 -1.0 -0.6 -0.19999999 0.19999999 0.6
1.0 1.4 1.8 2.2 -2.2 -1.8 -1.4 -1.0
-0.6 -0.19999999 0.19999999 0.6 1.0 1.4 1.8 2.2
-2.2 -1.8 -1.4 -1.0 -0.6 -0.19999999 0.19999999 0.6
1.0 1.4 1.8 2.2 -2.2 -1.8 -1.4 -1.0
-0.6 -0.19999999 0.19999999 0.6 1.0 1.4 1.8 2.2
-2.2 -1.8 -1.4 -1.0 -0.6 -0.19999999 0.19999999 0.6
1.0 1.4 1.8 2.2 -2.2 -1.8 -1.4 -1.0
-0.6 -0.19999999 0.19999999 0.6 1.0 1.4 1.8 2.2
-2.2 -1.8 -1.4 -1.0 -0.6 -0.19999999 0.19999999 0.6
1.0 1.4 1.8 2.2 -2.2 -1.8 -1.4 -1.0
-0.6 -0.19999999 0.19999999 0.6 1.0 1.4 1.8 2.2
-2.2 -1.8 -1.4 -1.0 -0.6 -0.19999999 0.19999999 0.6
1.0 1.4 1.8 2.2 -2.2 -1.8 -1.4 -1.0
-0.6 -0.19999999 0.19999999 0.6 1.0 1.4 1.8 2.2
-2.2 -1.8 -1.4 -1.0 -0.6 -0.19999999 0.19999999 0.6
1.0 1.4 1.8 2.2 -2.2 -1.8 -1.4 -1.0
-0.6 -0.19999999 0.19999999 0.6 1.0 1.4 1.8 2.2
-2.2 -1.8 -1.4 -1.0 -0.6 -0.19999999 0.19999999 0.6
1.0 1.4 1.8 2.2 -2.2 -1.8 -1.4 -1.0
-0.6 -0.19999999 0.19999999 0.6 1.0 1.4 1.8 2.2
-2.2 -1.8 -1.4 -1.0 -0.6 -0.19999999 0.19999999 0.6
1.0 1.4 1.8 2.2 -2.2 -1.8 -1.4 -1.0
-0.6 -0.19999999 0.19999999 0.6 1.0 1.4 1.8 2.2
-2.2 -1.8 -1.4 -1.0 -0.6 -0.19999999 0.19999999 0.6
1.0 1.4 1.8 2.2 -2.2 -1.8 -1.4 -1.0
-0.6 -0.19999999 0.19999999 0.6 1.0 1.4 1.8 2.2
-2.2 -1.8 -1.4 -1.0 -0.6 -0.19999999 0.19999999 0.6
1.0 1.4 1.8 2.2 -2.2 -1.8 -1.4 -1.0

act_fun.1.coef f4 [32, 16, 8]
00000000: bce5 443c ecac d93d 5629 eb3d 1080 ef3d
00000010: c5df 773d 6b7d e3bd 52a8 80bd 74b1 50bd
00000020: d0be 303c 48ac 9d3d 5be7 89bd bc3e a3bd
00000030: 6023 c53d 9c62 263e 6835 1e3e 75f4 f83d
00000040: 6413 1bbc d26b 0b3c 0072 dbbc dc64 fbbd
00000050: 5341 ce3d 0c80 2a3e 790d e83d 44ed df3d
00000060: 9804 273c fb58 d53d 1414 e23d c589 d13d
00000070: 1f37 143d 3d83 1abe a10c 95bd fddc f0bb
00000080: 50c8 bbbb e718 2dbd 6c3d b9bd ace9 11be
00000090: b745 ff3d aabd e43d afcf 203e 3ac9 f73d
000000a0: c0c6 e8bb 0558 cbbb db64 7cbd fde3 e9bd
000000b0: 5b2f 2d3e c470 a23d b353 2b3e 0a65 0e3e
000000c0: 485f bcbb 50ed 0d3d 77b8 d23d 8daa 3c3e
000000d0: 2d9e b0bb 5f1e 8dbd 6be7 21be 916f 9ebd
000000e0: 34af 1ebc 7594 543d 976c 3a3e 8e78 a03d
000000f0: 8519 553d 3252 29be b397 79bd d982 563c
00000100: 8445 be3b b367 c03d 48a1 193e 9ceb 163e
00000110: 208e 65bd 0fe9 9abd d7a4 20be 85d8 05be
00000120: 80f6 173c 8d75 ae3d d5e7 9b3d 2e81 2b3e
00000130: 75ae 353d 9eef e7bd f80d e4bd 87f4 80bc
00000140: d0b7 d039 b44f 3f3d 93dd a73d 1593 373e
00000150: 3115 0abd c3db b0bd 01c2 68bd 1656 01bd
00000160: 103c 113c 327b 923d 6e20 81bd 5487 d3bd
00000170: c148 153e d490 093e 7852 0f3e 19b6 e53d
00000180: b8e8 9dba 7061 553d 12e9 d13d 9881 ec3d
00000190: 85e6 6f3d f805 1ebe 91d4 b63c 5c28 0b3d
000001a0: c681 863c 4333 de3d 6ab1 813d eb6e 123e
000001b0: bfb6 82bd ff2c c7bd 2c12 e4bc f1dd 6b3d
000001c0: a0b7 0dbc 6375 16bc cbfd c5bd 1111 95bd
000001d0: d99d ce3d aa7f 1e3e 2c55 bf3d 8758 dc3d
000001e0: 9c3d 4239 1fcb 443d 2654 d63d ef77 323e
000001f0: e858 84bd e8b6 15be e8db 78bd 2e4e 13bd
00000200: b390 4abd 8e0e 0bbd 5f75 e03d a62b d53d
00000210: 38c9 863d 4ec5 8fbd 8281 b8bc 6124 833b
00000220: 0a09 d63d 7d96 b03d 131a 08be b99c 013b
00000230: 4bcf 0cbd 3738 253e b291 e33d fbf9 ee3d
00000240: c702 e23d 3acf ef3d 4ccc 13be b554 6b3c
00000250: 71c7 973d 18c7 153e 86ce ed3d d741 e53d
00000260: e3ea bfbc f552 ad3c 193d 2c3e 4308 5e3d
00000270: f116 363e b42d edbd bdff f7bd 5feb e1bd
00000280: 9cb0 f13d ff6a fb3d ba77 d6bd 304c a3bd
00000290: f063 4f3d 560a 003e 403d d83d 9d85 ed3d
000002a0: 74d7 f53d fd4b 1b3e c65c a4bd 9f56 60bd
000002b0: d704 9a3d 98ee d13d 0627 0f3e 25f3 083e
000002c0: 869c 17bd 9995 dabb 3653 083e 9248 123e
000002d0: e489 ed3d de15 e9bd ad04 ecbd 3cd4 58bc
000002e0: 8e8f e0ba f262 b23c d10a f73d a341 e23d
000002f0: 99cf cc3d fb6e aebd 67ce 87bd dd1f 7fbd
00000300: 52a5 acbd c139 38bc 2c58 153e 9251 e73d
00000310: 2d3e ed3d a1ae b0bd 4681 92bd e586 84bc
00000320: cd78 debc f919 8a3c 8e24 053e 8153 1e3e
00000330: 2ae8 843d 4fbc 87bd abaa e3bd 2734 90bd
00000340: 6fd4 35bd 5f60 65bd ee4d 3a3e 3c6a 4f3d
00000350: a9b3 cf3d 1266 20be f1e6 77bc af4d 8b3c
00000360: d9fc 073e 8714 1e3e db35 10be 5e56 cfbc
00000370: 9313 babc f05e 333e 0ab9 d03d d5a8 ee3d
00000380: 8435 54bc 9aec 4a3c 81aa 263e 6507 8b3d
00000390: bf7b 423e dafc 11be 20ce c83b 3202 923c
000003a0: 1b00 98bc 191d 21bd 7b9c a93d e6b8 af3d
000003b0: 4ace d9bb b9fa 64bd 0edb debd c27b acbd
000003c0: 7d1c d93d f1c1 b33d 841d 0fbe 9012 093d
000003d0: ccf6 d0ba 6fa1 223e e711 193e d6d6 033e
000003e0: 7113 1abd 5506 7fbd d64d 433e 7f2f ae3d
000003f0: 0951 0cbb 5978 9cbd d5ea 00be fa3c 6bbd
0.012017664 0.10628685 0.114824936 0.11694348 0.060516138 -0.11107906 -0.062821046 -0.050950482
0.010787681 0.07698876 -0.06733581 -0.0797095 0.09625888 0.16248554 0.1545006 0.121560015
-0.009465072 0.008509593 -0.026787758 -0.12275097 0.10071053 0.16650409 0.11330695 0.10933927
0.010193966 0.10417362 0.11038986 0.102313556 0.03618538 -0.15089126 -0.072777994 -0.0073505626
-0.005730666 -0.042260077 -0.090449184 -0.14249295 0.12464469 0.11168988 0.15704225 0.12098928
-0.007103771 -0.006205561 -0.06161962 -0.114204384 0.16912596 0.079316646 0.16731147 0.13905731
-0.005748663 0.034650147 0.1028909 0.18424435 -0.00538995 -0.068905585 -0.15810935 -0.07736123
-0.009685326 0.051899392 0.18205486 0.07835494 0.05202629 -0.16535261 -0.060935687 0.01309272
0.0058066268 0.09394779 0.1500293 0.14738315 -0.056043744 -0.07563984 -0.15687881 -0.13070877
0.009275079 0.08518515 0.07612578 0.16748497 0.04435583 -0.11325 -0.11135477 -0.0157416
0.00039809803 0.04670687 0.08196559 0.17927201 -0.033711616 -0.08635666 -0.05682564 -0.03157624
0.008864418 0.07152404 -0.063050136 -0.10328546 0.14578535 0.13434154 0.13996303 0.11216373
-0.0012047505 0.052094877 0.10249533 0.115481555 0.05856945 -0.15431964 0.022318156 0.033974037
0.016419303 0.10849621 0.06332667 0.14300124 -0.06382512 -0.09725379 -0.027840696 0.057584707
-0.008649737 -0.009183261 -0.09667548 -0.07278646 0.10088701 0.15478387 0.09342417 0.10759073
0.00018524233 0.048045274 0.10465269 0.17428564 -0.0646227 -0.14620554 -0.060756594 -0.03596323
-0.049454402 -0.033949427 0.10959887 0.10408716 0.06581348 -0.07020055 -0.022522692 0.0040021394
0.10450943 0.08622453 -0.13291197 0.0019777252 -0.034377377 0.16134726 0.111117736 0.11668774
0.11035686 0.11709447 -0.14433402 0.014363457 0.07411087 0.1462673 0.11611657 0.111941986
-0.023427432 0.021157721 0.16820182 0.054207098 0.17782189 -0.11580983 -0.12109325 -0.110312216
0.11801264 0.12276267 -0.10472055 -0.07973516 0.050632417 0.12503943 0.105585575 0.1159775
0.12003985 0.15165706 -0.08025508 -0.05477011 0.075204544 0.10250586 0.1397973 0.13374002
-0.037014507 -0.0066706655 0.13312992 0.14285496 0.11598566 -0.11381124 -0.11524329 -0.013234194
-0.0017132626 0.021775696 0.1206261 0.110476755 0.100005336 -0.085172616 -0.06631165 -0.062286247
-0.0842997 -0.011244238 0.14584416 0.11294855 0.11584125 -0.08627058 -0.07153563 -0.016177604
-0.027157212 0.016858088 0.13002226 0.15461542 0.06489594 -0.06627714 -0.11116537 -0.07041197
-0.044392046 -0.05600011 0.1819379 0.050638422 0.10141689 -0.15663937 -0.015130744 0.017004816
0.13280047 0.15437518 -0.14083044 -0.025309738 -0.022714412 0.17516685 0.101915434 0.11653296
-0.012952212 0.012385512 0.1627598 0.0678852 0.18992518 -0.14256611 0.0061280876 0.017823312
-0.018554738 -0.03933439 0.082817994 0.085801885 -0.006646906 -0.05590317 -0.10881625 -0.084220424
0.10601137 0.08777226 -0.13976103 0.03346497 -0.0015942692 0.15881895 0.14948235 0.12874922
-0.037616197 -0.062261898 0.19072661 0.08505153 -0.0021410605 -0.07640142 -0.12589581 -0.0574312

act_fun.1.mask f4 [32, 16]
00000000: 0000 803f 0000 803f 0000 803f 0000 803f
00000010: 0000 803f 0000 803f 0000 803f 0000 803f
00000020: 0000 803f 0000 803f 0000 803f 0000 803f
00000030: 0000 803f 0000 803f 0000 803f 0000 803f
00000040: 0000 803f 0000 803f 0000 803f 0000 803f
00000050: 0000 803f 0000 803f 0000 803f 0000 803f
00000060: 0000 803f 0000 803f 0000 803f 0000 803f
00000070: 0000 803f 0000 803f 0000 803f 0000 803f
00000080: 0000 803f 0000 803f 0000 803f 0000 803f
00000090: 0000 803f 0000 803f 0000 803f 0000 803f
000000a0: 0000 803f 0000 803f 0000 803f 0000 803f
000000b0: 0000 803f 0000 803f 0000 803f 0000 803f
000000c0: 0000 803f 0000 803f 0000 803f 0000 803f
000000d0: 0000 803f 0000 803f 0000 803f 0000 803f
000000e0: 0000 803f 0000 803f 0000 803f 0000 803f
000000f0: 0000 803f 0000 803f 0000 803f 0000 803f
00000100: 0000 803f 0000 803f 0000 803f 0000 803f
00000110: 0000 803f 0000 803f 0000 803f 0000 803f
00000120: 0000 803f 0000 803f 0000 803f 0000 803f
00000130: 0000 803f 0000 803f 0000 803f 0000 803f
00000140: 0000 803f 0000 803f 0000 803f 0000 803f
00000150: 0000 803f 0000 803f 0000 803f 0000 803f
00000160: 0000 803f 0000 803f 0000 803f 0000 803f
00000170: 0000 803f 0000 803f 0000 803f 0000 803f
00000180: 0000 803f 0000 803f 0000 803f 0000 803f
00000190: 0000 803f 0000 803f 0000 803f 0000 803f
000001a0: 0000 803f 0000 803f 0000 803f 0000 803f
000001b0: 0000 803f 0000 803f 0000 803f 0000 803f
000001c0: 0000 803f 0000 803f 0000 803f 0000 803f
000001d0: 0000 803f 0000 803f 0000 803f 0000 803f
000001e0: 0000 803f 0000 803f 0000 803f 0000 803f
000001f0: 0000 803f 0000 803f 0000 803f 0000 803f
00000200: 0000 803f 0000 803f 0000 803f 0000 803f
00000210: 0000 803f 0000 803f 0000 803f 0000 803f
00000220: 0000 803f 0000 803f 0000 803f 0000 803f
00000230: 0000 803f 0000 803f 0000 803f 0000 803f
00000240: 0000 803f 0000 803f 0000 803f 0000 803f
00000250: 0000 803f 0000 803f 0000 803f 0000 803f
00000260: 0000 803f 0000 803f 0000 803f 0000 803f
00000270: 0000 803f 0000 803f 0000 803f 0000 803f
00000280: 0000 803f 0000 803f 0000 803f 0000 803f
00000290: 0000 803f 0000 803f 0000 803f 0000 803f
000002a0: 0000 803f 0000 803f 0000 803f 0000 803f
000002b0: 0000 803f 0000 803f 0000 803f 0000 803f
000002c0: 0000 803f 0000 803f 0000 803f 0000 803f
000002d0: 0000 803f 0000 803f 0000 803f 0000 803f
000002e0: 0000 803f 0000 803f 0000 803f 0000 803f
000002f0: 0000 803f 0000 803f 0000 803f 0000 803f
00000300: 0000 803f 0000 803f 0000 803f 0000 803f
00000310: 0000 803f 0000 803f 0000 803f 0000 803f
00000320: 0000 803f 0000 803f 0000 803f 0000 803f
00000330: 0000 803f 0000 803f 0000 803f 0000 803f
00000340: 0000 803f 0000 803f 0000 803f 0000 803f
00000350: 0000 803f 0000 803f 0000 803f 0000 803f
00000360: 0000 803f 0000 803f 0000 803f 0000 803f
00000370: 0000 803f 0000 803f 0000 803f 0000 803f
00000380: 0000 803f 0000 803f 0000 803f 0000 803f
00000390: 0000 803f 0000 803f 0000 803f 0000 803f
000003a0: 0000 803f 0000 803f 0000 803f 0000 803f
000003b0: 0000 803f 0000 803f 0000 803f 0000 803f
000003c0: 0000 803f 0000 803f 0000 803f 0000 803f
000003d0: 0000 803f 0000 803f 0000 803f 0000 803f
000003e0: 0000 803f 0000 803f 0000 803f 0000 803f
000003f0: 0000 803f 0000 803f 0000 803f 0000 803f
1.0 1.0 1.0 1.0 1.0 1.0 1.0 1.0
1.0 1.0 1.0 1.0 1.0 1.0 1.0 1.0
1.0 1.0 1.0 1.0 1.0 1.0 1.0 1.0
1.0 1.0 1.0 1.0 1.0 1.0 1.0 1.0
1.0 1.0 1.0 1.0 1.0 1.0 1.0 1.0
1.0 1.0 1.0 1.0 1.0 1.0 1.0 1.0
1.0 1.0 1.0 1.0 1.0 1.0 1.0 1.0
1.0 1.0 1.0 1.0 1.0 1.0 1.0 1.0
1.0 1.0 1.0 1.0 1.0 1.0 1.0 1.0
1.0 1.0 1.0 1.0 1.0 1.0 1.0 1.0
1.0 1.0 1.0 1.0 1.0 1.0 1.0 1.0
1.0 1.0 1.0 1.0 1.0 1.0 1.0 1.0
1.0 1.0 1.0 1.0 1.0 1.0 1.0 1.0
1.0 1.0 1.0 1.0 1.0 1.0 1.0 1.0
1.0 1.0 1.0 1.0 1.0 1.0 1.0 1.0
1.0 1.0 1.0 1.0 1.0 1.0 1.0 1.0
1.0 1.0 1.0 1.0 1.0 1.0 1.0 1.0
1.0 1.0 1.0 1.0 1.0 1.0 1.0 1.0
1.0 1.0 1.0 1.0 1.0 1.0 1.0 1.0
1.0 1.0 1.0 1.0 1.0 1.0 1.0 1.0
1.0 1.0 1.0 1.0 1.0 1.0 1.0 1.0
1.0 1.0 1.0 1.0 1.0 1.0 1.0 1.0
1.0 1.0 1.0 1.0 1.0 1.0 1.0 1.0
1.0 1.0 1.0 1.0 1.0 1.0 1.0 1.0
1.0 1.0 1.0 1.0 1.0 1.0 1.0 1.0
1.0 1.0 1.0 1.0 1.0 1.0 1.0 1.0
1.0 1.0 1.0 1.0 1.0 1.0 1.0 1.0
1.0 1.0 1.0 1.0 1.0 1.0 1.0 1.0
1.0 1.0 1.0 1.0 1.0 1.0 1.0 1.0
1.0 1.0 1.0 1.0 1.0 1.0 1.0 1.0
1.0 1.0 1.0 1.0 1.0 1.0 1.0 1.0
1.0 1.0 1.0 1.0 1.0 1.0 1.0 1.0

act_fun.1.scale_base f4 [32, 16]
00000000: 5f92 e3bd ba86 123e 888c 9c3c d487 6ebd
00000010: 14af 1a3e cce1 733e 3ec5 aeba cb7a 83be
00000020: b4ea 79be 7c69 38be 08c5 74be 9bd5 353e
00000030: ec79 64be 2e70 82be 2f92 2c3e 767b 01bc
00000040: 0da4 29be 0dff 84bd 56e3 093e a265 36bc
00000050: 0de5 783e 08b0 0c3e 26d7 a03c f171 89be
00000060: 7500 893d bcab 5dbe 8a5c 60be 6b4a 7a3e
00000070: 28f6 0dbe c196 b83c 9e5d 43bc 114e aa3c
00000080: bc0e 883d baa2 2a3e bc70 833e 17ba 6dbe
00000090: 9ba0 9a3d 8cee 2b3e 90b7 c0bb 483e 4dbe
000000a0: 9d43 973b bba8 2dbe 84ce 4ebe f82a 1e3e
000000b0: 1f2f 77be 1c10 8ebe 3f4e 2f3e 985f 46bd
000000c0: 73f6 3f3e aeab 0cbe e0e2 79be 89b5 02bd
000000d0: 81e6 713d 329e 8cbe 8fe8 2b3e 5a8b 863e
000000e0: 1dc9 7e3e b64d 123b e3fc 5d3d 40a4 84be
000000f0: 440b 623e f0ba 97bd d410 8ebe 145e 95ba
00000100: e379 813e aef2 37bb 2c5a 543b 55df 813e
00000110: e03d 4ebe 37ce 5dbe 70f1 b73b 27dc 323e
00000120: 039d 3d3e 5a37 203e 847e fdbc bff6 d7bd
00000130: c97c 883c 2b0f bc3d 3e0f 13be d0a6 003e
00000140: 60fb 4dbd ee71 233d d35e 3cbe 55e8 253e
00000150: 4e7a 2f3c 193d 29bd 02e6 6d3e 224e 5b3e
00000160: 2ea5 743e f13e 183e 4a7b 5e3e 059c 47be
00000170: e640 11ba d6d5 4b3e c4cd 82bd c23a c73d
00000180: fc1a 82be 347a 2f3e da3e 693e fda0 00be
00000190: 1767 1d3e ba3d 483e 30d1 8fbe f746 0ebe
000001a0: 3eaa 31be 93fe 4bbe 5fc7 253b fd76 973e
000001b0: affd 91bd 4ff4 81bb 941e 92bc 08ba 9cbd
000001c0: f1b8 bdbd 5b38 83ba c59d 0f3e 99ce 23bd
000001d0: 4a09 c53d 76dd 423e dc56 41bc 82cb 613d
000001e0: 3adf b5bd 5b33 b8bd cc6d c4bd bbb6 103e
000001f0: 614f 4bbe b4c4 efbd 59c8 29bd 8a27 5fbe
00000200: 0989 89be de21 813e 3a5c 973c 8840 03be
00000210: ff40 0e3e 0b95 8f3e bda2 11bd 8b59 7abe
00000220: 4337 693d 4d77 91be fb44 b3bd 387f 933e
00000230: 2821 3f3d 3846 17be 5b67 613b 66f2 15bd
00000240: a5b0 783e e06e 51be 0b91 11be a9a6 c9bb
00000250: f200 26bd 1416 9fbd 6c9b 463e f483 453d
00000260: 7599 82bd b390 0e3d d2ee e2bc 0550 23be
00000270: 2434 2b3e 2177 f4bc 882b f0bd f019 74bd
00000280: 1c39 0fbc 8116 79be ef45 38be e15c c23c
00000290: 4928 b2bd cd15 663c 9f67 823e fe56 383e
000002a0: 4d60 f23d bf3f ad3d dc17 703e dee3 64be
000002b0: f9f6 793e 86c5 d2bd 9a98 81be 14d3 2a3e
000002c0: 32e6 42be 5531 1b3e d12b 8c3e 472c 02bd
000002d0: 0987 933e 7d70 4b3d bef7 4cbe 78fe 10be
000002e0: 2e61 1abe 48af 45be 837c febd 242b 903e
000002f0: 4413 56be 55fa 9d3b ad36 4e3e 4ac5 80bc
00000300: 7ae7 08bc ded1 453d 7bb8 3d3e 3b1c 3fbe
00000310: aa62 e53b 7614 8f3e c264 323d 1c47 6ebe
00000320: 31ab 193d 77ca 90bd 3995 62bd 45b9 953e
00000330: 59eb 07bd 033c 24be d033 653e 8e37 94bd
00000340: a099 1bbe c831 413d 8f17 953e 48f3 d3bc
00000350: 6b2b b63d a267 f13d a5d3 cabd 017b 61be
00000360: d55d 7fbd f34c 80be 7493 ebbd c191 bc3d
00000370: 1854 30be b5c6 543d e9d6 2b3e 3da0 c1bc
00000380: 2baa 9e3a 6317 bfbd c7bf 4cbd af9e 5c3e
00000390: f48e 31be 8d07 25be 2e99 a4bc f3c9 6e3e
000003a0: 9a02 793e a7b8 533e a492 5a3e 17da 71bc
000003b0: ce88 933e 05d3 063e 6a94 75bd 734a 2e3e
000003c0: 36c6 09be 1095 1c3e 8858 223e 40d0 71be
000003d0: 66dc 663d be2e 463b 2a65 56be 0259 aa3c
000003e0: 1567 1f3d fb28 f7bd 175a 21bd 9e45 9e3d
000003f0: 539f bc3c dcdd 03be 79db 823c b79a c5bd
-0.111119024 0.14309207 0.01910998 -0.058235005 0.1510585 0.23816603 -0.0013333929 -0.2567962
-0.24405938 -0.18008989 -0.23903286 0.17757265 -0.22312135 -0.2547621 0.1685264 -0.007902971
-0.16566487 -0.064939596 0.13465628 -0.01113263 0.24306126 0.13739026 0.01963384 -0.26844743
0.0668954 -0.21647543 -0.21910301 0.2444245 -0.13863432 0.022532823 -0.011924176 0.020789178
0.06643435 0.16663638 0.25671947 -0.23215519 0.07550164 0.16790217 -0.0058812574 -0.2004329
0.0046162144 -0.16958897 -0.20195967 0.15446079 -0.24139069 -0.27746665 0.17119692 -0.04843101
0.18746357 -0.13737366 -0.24402952 -0.031911407 0.059057716 -0.27464443 0.16787933 0.26278192
0.24881406 0.0022324151 0.05419625 -0.25906563 0.2207461 -0.074087024 -0.27747214 -0.0011395835
0.25288305 -0.0028068232 0.003240238 0.253657 -0.20140791 -0.21660696 0.0056134984 0.17466794
0.18516926 0.15646115 -0.030944116 -0.1054511 0.016661065 0.091825806 -0.14361283 0.12563634
-0.050288558 0.039903574 -0.18395548 0.16201909 0.010710312 -0.041318033 0.23232272 0.21416524
0.23891136 0.1486776 0.21726719 -0.1949311 -0.00055409817 0.1990579 -0.06386903 0.09728004
-0.25411212 0.1713646 0.22777882 -0.12561412 0.15371357 0.19554797 -0.28089285 -0.13894258
-0.17350098 -0.19921331 0.0025295836 0.29582968 -0.071284644 -0.0039658914 -0.017836846 -0.0765267
-0.092637904 -0.0010011302 0.14025028 -0.03999195 0.096209124 0.19029793 -0.011800494 0.05512572
-0.08880468 -0.0899417 -0.095912546 0.14132206 -0.198545 -0.1170744 -0.041450832 -0.21792427
-0.26862362 0.2522115 0.018476594 -0.12817585 0.13891982 0.28043398 -0.03555559 -0.2444822
0.056937467 -0.28411332 -0.08753391 0.28807998 0.04666248 -0.1477288 0.003439388 -0.036608122
0.24286135 -0.20452452 -0.14215486 -0.0061539006 -0.040528245 -0.07767883 0.19395226 0.048221543
-0.06376926 0.034805965 -0.027701769 -0.15948494 0.16719109 -0.029841961 -0.11727053 -0.05959505
-0.008741643 -0.24324991 -0.17995428 0.023725929 -0.0869909 0.014043284 0.25469682 0.18001935
0.11834774 0.08459424 0.23446602 -0.2235255 0.24410619 -0.10291581 -0.25311738 0.16682082
-0.19033125 0.15155537 0.2737718 -0.031780507 0.2881396 0.049667824 -0.20016381 -0.14159572
-0.15076134 -0.19305146 -0.124260925 0.28157914 -0.20905787 0.0048211017 0.20138045 -0.015719075
-0.00835597 0.048295848 0.18527405 -0.18663113 0.007000287 0.27945298 0.04355312 -0.23269314
0.037516776 -0.07069867 -0.05531809 0.29242912 -0.03318343 -0.16038518 0.22383046 -0.07237159
-0.15195322 0.047166616 0.29119536 -0.025872841 0.08895 0.117873445 -0.09903649 -0.22019579
-0.062345345 -0.25058708 -0.11502734 0.09207488 -0.17219579 0.051947314 0.167812 -0.023635978
0.0012105157 -0.093306325 -0.04998758 0.21544908 -0.17339689 -0.16116162 -0.020092573 0.23319225
0.24317399 0.20675908 0.21345001 -0.014761469 0.2881531 0.13166435 -0.05995599 0.17020588
-0.13454518 0.15291238 0.15854084 -0.23614597 0.056362532 0.0030240263 -0.20937029 0.020794395
0.038916666 -0.12068363 -0.039392557 0.07728122 0.02302519 -0.12877601 0.015973793 -0.0964865

act_fun.1.scale_sp f4 [32, 16]
00000000: 3300 9c3e e3bb 923e 885f 9b3e e034 983e
00000010: 6910 9b3e a763 943e e91e 9a3e 910a 8e3e
00000020: 2fbe 9b3e 3158 9b3e 00c2 993e 1271 9d3e
00000030: db5c 9a3e ba3e 8c3e 6f66 8e3e 31eb 993e
00000040: 419e 813e 90c4 9a3e de3d 9c3e 019d 8b3e
00000050: 6dd1 993e 4edb 993e ab4d 9a3e ebbb 833e
00000060: 6c3c 8f3e 2d36 9c3e 5845 9a3e 0a2f 963e
00000070: ed0b 933e 334c 713e 2184 983e 4b2f 893e
00000080: 71ef 903e 3955 983e a606 9b3e dc95 993e
00000090: 19c6 913e 2a00 9b3e 0042 913e e1e5 9c3e
000000a0: 0603 973e 9dd9 883e 6026 923e 17a2 9b3e
000000b0: 3e08 993e 115d 973e b9b7 963e 9503 9c3e
000000c0: e4f9 943e a73f 9a3e c1d8 9a3e db96 813e
000000d0: de00 9b3e c4e0 9c3e ae65 9a3e 1f60 7c3e
000000e0: 36ac 993e 36ed 873e ea98 8e3e 89c8 993e
000000f0: 49d1 9a3e d2c6 903e fda4 903e df1f 9b3e
00000100: f7f0 983e eb19 993e df9f 8a3e 5d4f 813e
00000110: 8c40 963e eb80 9b3e 7940 9a3e f3a2 783e
00000120: f5b5 9c3e 488c 9a3e a74b 7a3e ed83 903e
00000130: eb08 8b3e f579 793e e9e9 813e c216 973e
00000140: b141 803e 0613 9b3e 16a3 853e f6b7 8d3e
00000150: c55c 993e cc0a 903e 1f53 9a3e 0f99 9c3e
00000160: f6d6 993e 92be 893e 72fe 913e 70d9 983e
00000170: 893d 843e 406d 903e b392 993e 98c7 763e
00000180: f29d 653e 17db 533e 7a2d 843e f547 933e
00000190: 2a7c 9b3e e5fe 993e 5f3f 9a3e 1e05 943e
000001a0: 56d6 8b3e 29d2 603e f861 993e 1122 963e
000001b0: 559a 913e 914f 9a3e 05b5 993e 0911 993e
000001c0: eca5 963e ce01 983e f9f6 943e f90b 6f3e
000001d0: 48d6 983e 6e74 783e 724e 9a3e 651b 9c3e
000001e0: e72d 8b3e db19 833e 07c8 823e c913 7a3e
000001f0: 8bea 823e 9270 903e 635b 9a3e 1a03 9b3e
00000200: 0c94 9b3e f9e5 9c3e 5f4e 923e 42ec 753e
00000210: 50cd 9b3e 6341 913e 6c87 9b3e 11a7 9d3e
00000220: 157d 8b3e ec98 7c3e 1bda 9a3e ac54 9e3e
00000230: f8fd 983e 8d85 963e 6b8d 783e bf95 843e
00000240: d854 983e ba69 8a3e 39a3 9c3e bd17 9c3e
00000250: 947b 8e3e 6ebb 9c3e 3bc4 9b3e a211 923e
00000260: 224b 863e b948 5d3e 113a 833e 5b33 903e
00000270: 7e6c 9a3e 6f45 9f3e fd19 993e 12d2 9c3e
00000280: ffb5 843e 5d23 4c3e 3a9a 553e 8988 983e
00000290: 7a79 9c3e 2ac2 9c3e af49 923e 4c27 9c3e
000002a0: 2f17 763e dacc 9b3e 1534 813e 8730 9b3e
000002b0: d059 993e 5ba9 7a3e eda5 993e 65db 8e3e
000002c0: f346 9c3e 85e2 9b3e 2116 9a3e 3fa0 9a3e
000002d0: 1b38 993e 8a85 823e d5e3 9a3e 1a98 9d3e
000002e0: 4c8d 8b3e bce9 8a3e a2bd 983e 93b2 893e
000002f0: c547 9a3e 3886 6f3e 09f7 963e 2762 993e
00000300: 4fb7 983e 71b9 953e 1c7d 863e 4078 9b3e
00000310: f163 9a3e 07cc 9c3e 2919 8d3e e139 903e
00000320: 0967 963e afaf 903e 9e66 983e 73e4 9a3e
00000330: db19 973e 75a5 9a3e 5095 9c3e c266 8b3e
00000340: 3fd4 9a3e 1977 9d3e 3db5 973e 243b 923e
00000350: 9fb8 9d3e 1aac 833e e39b 7d3e 0908 8d3e
00000360: 35f1 993e e6af 5a3e 7c62 863e e9b1 8f3e
00000370: 6c31 983e 1023 9e3e 3ff0 793e ed20 9a3e
00000380: 1308 7d3e 8b08 673e 6d61 903e f9f7 9c3e
00000390: 4bd5 9d3e ef9a 9e3e 65bb 9c3e 6ee7 9e3e
000003a0: bd55 843e df33 993e db32 9b3e e455 993e
000003b0: f505 9b3e 24cd 993e 0266 7a3e bf35 9c3e
000003c0: e3db 923e 6179 983e 6bdf 9a3e db32 873e
000003d0: 8121 823e 64d0 9a3e 93e7 973e 0b68 9a3e
000003e0: 9abd 9a3e c330 993e cd35 613e 3109 9a3e
000003f0: b427 953e a068 973e 1d69 993e e30f 963e
0.30468902 0.2865897 0.30346322 0.2972784 0.30285957 0.2898228 0.30101708 0.27742437
0.30418536 0.30340722 0.30030823 0.30750328 0.30148968 0.27391607 0.27812526 0.3006225
0.2531605 0.3022809 0.3051595 0.27268222 0.30042592 0.3005013 0.3013738 0.25729308
0.27975786 0.30510083 0.3013103 0.29332763 0.28720036 0.23564224 0.29788306 0.26793894
0.2830768 0.2975252 0.3027851 0.29997146 0.2847145 0.30273563 0.28370667 0.30644134
0.29494494 0.26728526 0.28544903 0.30397102 0.298891 0.29563192 0.29437044 0.30471483
0.290969 0.30126688 0.30243495 0.25310406 0.302741 0.30640233 0.301557 0.24646042
0.300142 0.26548165 0.2785104 0.3003581 0.30237797 0.28276688 0.28250876 0.30297753
0.29871342 0.29902586 0.27075097 0.25255862 0.2934612 0.30371794 0.30127314 0.2428091
0.30607572 0.3018515 0.24442922 0.2822565 0.2715524 0.24362929 0.25373772 0.2950955
0.2505012 0.3028795 0.26100987 0.27679414 0.2995359 0.28133237 0.3014154 0.30585524
0.30046815 0.26903206 0.2851444 0.29853392 0.25828198 0.2820835 0.29994735 0.24099576
0.22423533 0.20689045 0.25815946 0.28765836 0.30368167 0.30077282 0.30126473 0.28910154
0.27311963 0.2195517 0.29957557 0.29322866 0.28438058 0.3013883 0.3002092 0.2989581
0.29423463 0.29688877 0.29094675 0.23344411 0.29850984 0.24263164 0.30137974 0.3048965
0.27183458 0.25605664 0.25543234 0.2442161 0.25569567 0.28210884 0.30147848 0.30275804
0.30386388 0.30644205 0.28575417 0.24015906 0.30430079 0.283702 0.30376756 0.30791524
0.27243868 0.2466771 0.30244526 0.30923975 0.29881263 0.29398766 0.24272697 0.25895497
0.2975223 0.27033788 0.3059328 0.3048686 0.27828658 0.30611748 0.3042315 0.28529078
0.26229197 0.21609773 0.2563024 0.2816418 0.30160898 0.3110766 0.2990264 0.3062902
0.25920102 0.19935365 0.20859614 0.29791668 0.3056143 0.30616885 0.2857184 0.3049873
0.24032281 0.30429727 0.25235048 0.3031046 0.29951334 0.24478666 0.30009404 0.2790176
0.3052288 0.30446258 0.30095008 0.30200383 0.29925618 0.25492507 0.30251947 0.30780107
0.27256238 0.2713145 0.29832178 0.26894054 0.3013288 0.23391044 0.29485348 0.29957697
0.29827353 0.29243043 0.26267326 0.3036518 0.30154374 0.3062441 0.27558258 0.28169158
0.29375485 0.28259036 0.2976579 0.30252418 0.29511914 0.3020436 0.30582666 0.27226835
0.30240056 0.30754927 0.2963046 0.28560746 0.30804917 0.2571724 0.24766497 0.27545193
0.3006684 0.21356162 0.26247013 0.28065422 0.29725206 0.30886126 0.24408053 0.30103245
0.24710111 0.22561853 0.2819933 0.30657938 0.30826792 0.3097758 0.3061172 0.31035942
0.25846663 0.29922387 0.30312237 0.29948342 0.30277982 0.30039322 0.24452975 0.30509755
0.28683385 0.29780105 0.3024858 0.26405987 0.25416186 0.30237114 0.29668865 0.30157503
0.3022278 0.29920015 0.2199318 0.30085137 0.29131854 0.2957201 0.29963008 0.29308996

act_fun.2.grid f4 [16, 12]
00000000: cdcc 0cc0 6666 e6bf 3333 b3bf 0000 80bf
00000010: 9a99 19bf cccc 4cbe cccc 4c3e 9a99 193f
00000020: 0000 803f 3333 b33f 6666 e63f cdcc 0c40
00000030: cdcc 0cc0 6666 e6bf 3333 b3bf 0000 80bf
00000040: 9a99 19bf cccc 4cbe cccc 4c3e 9a99 193f
00000050: 0000 803f 3333 b33f 6666 e63f cdcc 0c40
00000060: cdcc 0cc0 6666 e6bf 3333 b3bf 0000 80bf
00000070: 9a99 19bf cccc 4cbe cccc 4c3e 9a99 193f
00000080: 0000 803f 3333 b33f 6666 e63f cdcc 0c40
00000090: cdcc 0cc0 6666 e6bf 3333 b3bf 0000 80bf
000000a0: 9a99 19bf cccc 4cbe cccc 4c3e 9a99 193f
000000b0: 0000 803f 3333 b33f 6666 e63f cdcc 0c40
000000c0: cdcc 0cc0 6666 e6bf 3333 b3bf 0000 80bf
000000d0: 9a99 19bf cccc 4cbe cccc 4c3e 9a99 193f
000000e0: 0000 803f 3333 b33f 6666 e63f cdcc 0c40
000000f0: cdcc 0cc0 6666 e6bf 3333 b3bf 0000 80bf
00000100: 9a99 19bf cccc 4cbe cccc 4c3e 9a99 193f
00000110: 0000 803f 3333 b33f 6666 e63f cdcc 0c40
00000120: cdcc 0cc0 6666 e6bf 3333 b3bf 0000 80bf
00000130: 9a99 19bf cccc 4cbe cccc 4c3e 9a99 193f
00000140: 0000 803f 3333 b33f 6666 e63f cdcc 0c40
00000150: cdcc 0cc0 6666 e6bf 3333 b3bf 0000 80bf
00000160: 9a99 19bf cccc 4cbe cccc 4c3e 9a99 193f
00000170: 0000 803f 3333 b33f 6666 e63f cdcc 0c40
00000180: cdcc 0cc0 6666 e6bf 3333 b3bf 0000 80bf
00000190: 9a99 19bf cccc 4cbe cccc 4c3e 9a99 193f
000001a0: 0000 803f 3333 b33f 6666 e63f cdcc 0c40
000001b0: cdcc 0cc0 6666 e6bf 3333 b3bf 0000 80bf
000001c0: 9a99 19bf cccc 4cbe cccc 4c3e 9a99 193f
000001d0: 0000 803f 3333 b33f 6666 e63f cdcc 0c40
000001e0: cdcc 0cc0 6666 e6bf 3333 b3bf 0000 80bf
000001f0: 9a99 19bf cccc 4cbe cccc 4c3e 9a99 193f
00000200: 0000 803f 3333 b33f 6666 e63f cdcc 0c40
00000210: cdcc 0cc0 6666 e6bf 3333 b3bf 0000 80bf
00000220: 9a99 19bf cccc 4cbe cccc 4c3e 9a99 193f
00000230: 0000 803f 3333 b33f 6666 e63f cdcc 0c40
00000240: cdcc 0cc0 6666 e6bf 3333 b3bf 0000 80bf
00000250: 9a99 19bf cccc 4cbe cccc 4c3e 9a99 193f
00000260: 0000 803f 3333 b33f 6666 e63f cdcc 0c40
00000270: cdcc 0cc0 6666 e6bf 3333 b3bf 0000 80bf
00000280: 9a99 19bf cccc 4cbe cccc 4c3e 9a99 193f
00000290: 0000 803f 3333 b33f 6666 e63f cdcc 0c40
000002a0: cdcc 0cc0 6666 e6bf 3333 b3bf 0000 80bf
000002b0: 9a99 19bf cccc 4cbe cccc 4c3e 9a99 193f
000002c0: 0000 803f 3333 b33f 6666 e63f cdcc 0c40
000002d0: cdcc 0cc0 6666 e6bf 3333 b3bf 0000 80bf
000002e0: 9a99 19bf cccc 4cbe cccc 4c3e 9a99 193f
000002f0: 0000 803f 3333 b33f 6666 e63f cdcc 0c40
-2.2 -1.8 -1.4 -1.0 -0.6 -0.19999999 0.19999999 0.6
1.0 1.4 1.8 2.2 -2.2 -1.8 -1.4 -1.0
-0.6 -0.19999999 0.19999999 0.6 1.0 1.4 1.8 2.2
-2.2 -1.8 -1.4 -1.0 -0.6 -0.19999999 0.19999999 0.6
1.0 1.4 1.8 2.2 -2.2 -1.8 -1.4 -1.0
-0.6 -0.19999999 0.19999999 0.6 1.0 1.4 1.8 2.2
-2.2 -1.8 -1.4 -1.0 -0.6 -0.19999999 0.19999999 0.6
1.0 1.4 1.8 2.2 -2.2 -1.8 -1.4 -1.0
-0.6 -0.19999999 0.19999999 0.6 1.0 1.4 1.8 2.2
-2.2 -1.8 -1.4 -1.0 -0.6 -0.19999999 0.19999999 0.6
1.0 1.4 1.8 2.2 -2.2 -1.8 -1.4 -1.0
-0.6 -0.19999999 0.19999999 0.6 1.0 1.4 1.8 2.2
-2.2 -1.8 -1.4 -1.0 -0.6 -0.19999999 0.19999999 0.6
1.0 1.4 1.8 2.2 -2.2 -1.8 -1.4 -1.0
-0.6 -0.19999999 0.19999999 0.6 1.0 1.4 1.8 2.2
-2.2 -1.8 -1.4 -1.0 -0.6 -0.19999999 0.19999999 0.6
1.0 1.4 1.8 2.2 -2.2 -1.8 -1.4 -1.0
-0.6 -0.19999999 0.19999999 0.6 1.0 1.4 1.8 2.2
-2.2 -1.8 -1.4 -1.0 -0.6 -0.19999999 0.19999999 0.6
1.0 1.4 1.8 2.2 -2.2 -1.8 -1.4 -1.0
-0.6 -0.19999999 0.19999999 0.6 1.0 1.4 1.8 2.2
-2.2 -1.8 -1.4 -1.0 -0.6 -0.19999999 0.19999999 0.6
1.0 1.4 1.8 2.2 -2.2 -1.8 -1.4 -1.0
-0.6 -0.19999999 0.19999999 0.6 1.0 1.4 1.8 2.2

act_fun.2.coef f4 [16, 1, 8]
00000000: ad19 d73d aeba 243e 17df b13d 3505 083e
00000010: adcd e9bd a4c9 afbd 8bbf 14be 0699 aabd
00000020: 9571 5cbd a189 7cbd e57a 3dbe 598d a9bd
00000030: 3177 083e dfd0 ef3d fb59 c13d ecfb ad3d
00000040: 0c80 75bd 630e babd a813 17be db91 eebd
00000050: f90e 6b3d e7ad 2a3e a561 bc3d c202 b63d
00000060: 658a 043e b58d 3f3e 609c 853d 584b 0b3e
00000070: 9cce d2bd 16ef 54bd 2c21 9cbd fd3d 87bd
00000080: f848 83bd 5465 a1bd 550c 10bd 1207 d3bd
00000090: 2676 b03d 4a34 693d 36ac e53d 1372 943d
000000a0: e21b 84bd f202 e9bd f600 0cbe 682e ccbd
000000b0: c8b5 66bc 8052 293e 37c9 213e 72ab e63d
000000c0: 3d6b 9b3d b170 d13d 164a 103e ce0a e13d
000000d0: 6f92 abbc f535 07be ccbb 93bd 6f2c 86bd
000000e0: f8ec ca3d 2e33 193e e5a4 283e 187a 613d
000000f0: c8f5 6dbd ebe6 04be 59d3 bbbd aa7e 86bd
00000100: e9a5 773d 7a1e a73d cf0d 133e 4c84 d03d
00000110: 784f b7bd d9eb a8bd d374 25bd b6b3 32bd
00000120: fd34 013e a7a5 2f3e a85a 7b3d a7ec 143e
00000130: 3fe4 eebc 69e5 acbd d488 a6bd 1efc 8abd
00000140: ab51 aa3d e83d af3d 63d8 093e b5d6 943d
00000150: 95b8 13be 3051 abbd ff15 02be d7d5 a1bd
00000160: 4573 8cbd ac97 d4bd d331 07be 8478 07be
00000170: 3e20 d13d c9a4 893d 52ce 183e 660f d73d
00000180: 4d87 983d dbd5 963d e293 1f3e eb76 0c3e
00000190: 96ac e1bd 7569 ffbd 0620 03be 1749 9dbd
000001a0: d060 0b3e f625 1a3e de58 eb3d 50f3 e2b9
000001b0: 699b 4bbd 2534 09bd 16f8 15bd 90b7 0dbd
000001c0: 266d 5abd 1ce1 42bd a465 dcbd 90c7 d9bd
000001d0: 0763 a83d ae71 c73d 008c b73d 4c9b a93d
000001e0: 0be2 bc3d 207e 0c3e 534b 253e b7b6 ec3d
000001f0: 8d2f 0fbe 2b96 0bbe 98d4 a8bd de93 7bbd
0.10502944 0.16086838 0.08685129 0.13283236 -0.11416183 -0.08583382 -0.14526193 -0.08329968
-0.053819258 -0.06165469 -0.18503912 -0.08278913 0.13326718 0.11709761 0.094409905 0.08495316
-0.05993657 -0.09084775 -0.14753592 -0.116489135 0.057387326 0.16667901 0.09198312 0.08887245
0.12943418 0.187064 0.06523967 0.1360296 -0.10293314 -0.051985823 -0.076235145 -0.0660362
-0.06410402 -0.07880655 -0.03516801 -0.10304083 0.08616285 0.056934632 0.11214487 0.072483204
-0.06450631 -0.11377515 -0.13672242 -0.09969789 -0.014081426 0.16535378 0.15799414 0.11263169
0.075888135 0.10226572 0.14090762 0.10988389 -0.020943848 -0.13204177 -0.07213554 -0.06551444
0.099084795 0.1496093 0.16469152 0.05504808 -0.058095723 -0.12978713 -0.09171171 -0.06567128
0.06046096 0.0816011 0.14360736 0.101814836 -0.08950704 -0.08248109 -0.040394615 -0.043628417
0.1261787 0.17153035 0.061365753 0.145434 -0.02916157 -0.08442194 -0.08131567 -0.06786369
0.08316358 0.085567296 0.13461451 0.072675146 -0.14425881 -0.08365095 -0.12703703 -0.07902115
-0.068579234 -0.103804916 -0.132026 -0.13229567 0.10211228 0.067208834 0.14922455 0.10500984
0.074476816 0.073650084 0.15583757 0.13717239 -0.11019246 -0.12471286 -0.12805185 -0.076799564
0.1361115 0.15053543 0.114915594 -0.0004328736 -0.049708758 -0.033496995 -0.036613546 -0.034598887
-0.05332675 -0.047577962 -0.10761574 -0.10633767 0.08222013 0.097384796 0.0896225 0.08281574
0.09222802 0.13719988 0.16142015 0.115582876 -0.13982983 -0.13631503 -0.08243674 -0.061420314
