models_cerebelo/kan_model_mossy_fiber.pt (torch, 54306 bytes, 29 tensors)

node_bias_0 f4 [32]
000000 00 00 00 00 00 00 00 00 00 00 00 00 00 00 00 00
       0.0 0.0 0.0 0.0
000010 00 00 00 00 00 00 00 00 00 00 00 00 00 00 00 00
       0.0 0.0 0.0 0.0
000020 00 00 00 00 00 00 00 00 00 00 00 00 00 00 00 00
       0.0 0.0 0.0 0.0
000030 00 00 00 00 00 00 00 00 00 00 00 00 00 00 00 00
       0.0 0.0 0.0 0.0
000040 00 00 00 00 00 00 00 00 00 00 00 00 00 00 00 00
       0.0 0.0 0.0 0.0
000050 00 00 00 00 00 00 00 00 00 00 00 00 00 00 00 00
       0.0 0.0 0.0 0.0
000060 00 00 00 00 00 00 00 00 00 00 00 00 00 00 00 00
       0.0 0.0 0.0 0.0
000070 00 00 00 00 00 00 00 00 00 00 00 00 00 00 00 00
       0.0 0.0 0.0 0.0

node_scale_0 f4 [32]
000000 00 00 80 3f 00 00 80 3f 00 00 80 3f 00 00 80 3f
       1.0 1.0 1.0 1.0
000010 00 00 80 3f 00 00 80 3f 00 00 80 3f 00 00 80 3f
       1.0 1.0 1.0 1.0
000020 00 00 80 3f 00 00 80 3f 00 00 80 3f 00 00 80 3f
       1.0 1.0 1.0 1.0
000030 00 00 80 3f 00 00 80 3f 00 00 80 3f 00 00 80 3f
       1.0 1.0 1.0 1.0
000040 00 00 80 3f 00 00 80 3f 00 00 80 3f 00 00 80 3f
       1.0 1.0 1.0 1.0
000050 00 00 80 3f 00 00 80 3f 00 00 80 3f 00 00 80 3f
       1.0 1.0 1.0 1.0
000060 00 00 80 3f 00 00 80 3f 00 00 80 3f 00 00 80 3f
       1.0 1.0 1.0 1.0
000070 00 00 80 3f 00 00 80 3f 00 00 80 3f 00 00 80 3f
       1.0 1.0 1.0 1.0

subnode_bias_0 f4 [32]
000000 00 00 00 00 00 00 00 00 00 00 00 00 00 00 00 00
       0.0 0.0 0.0 0.0
000010 00 00 00 00 00 00 00 00 00 00 00 00 00 00 00 00
       0.0 0.0 0.0 0.0
000020 00 00 00 00 00 00 00 00 00 00 00 00 00 00 00 00
       0.0 0.0 0.0 0.0
000030 00 00 00 00 00 00 00 00 00 00 00 00 00 00 00 00
       0.0 0.0 0.0 0.0
000040 00 00 00 00 00 00 00 00 00 00 00 00 00 00 00 00
       0.0 0.0 0.0 0.0
000050 00 00 00 00 00 00 00 00 00 00 00 00 00 00 00 00
       0.0 0.0 0.0 0.0
000060 00 00 00 00 00 00 00 00 00 00 00 00 00 00 00 00
       0.0 0.0 0.0 0.0
000070 00 00 00 00 00 00 00 00 00 00 00 00 00 00 00 00
       0.0 0.0 0.0 0.0

subnode_scale_0 f4 [32]
000000 00 00 80 3f 00 00 80 3f 00 00 80 3f 00 00 80 3f
       1.0 1.0 1.0 1.0
000010 00 00 80 3f 00 00 80 3f 00 00 80 3f 00 00 80 3f
       1.0 1.0 1.0 1.0
000020 00 00 80 3f 00 00 80 3f 00 00 80 3f 00 00 80 3f
       1.0 1.0 1.0 1.0
000030 00 00 80 3f 00 00 80 3f 00 00 80 3f 00 00 80 3f
       1.0 1.0 1.0 1.0
000040 00 00 80 3f 00 00 80 3f 00 00 80 3f 00 00 80 3f
       1.0 1.0 1.0 1.0
000050 00 00 80 3f 00 00 80 3f 00 00 80 3f 00 00 80 3f
       1.0 1.0 1.0 1.0
000060 00 00 80 3f 00 00 80 3f 00 00 80 3f 00 00 80 3f
       1.0 1.0 1.0 1.0
000070 00 00 80 3f 00 00 80 3f 00 00 80 3f 00 00 80 3f
       1.0 1.0 1.0 1.0

node_bias_1 f4 [16]
000000 00 00 00 00 00 00 00 00 00 00 00 00 00 00 00 00
       0.0 0.0 0.0 0.0
000010 00 00 00 00 00 00 00 00 00 00 00 00 00 00 00 00
       0.0 0.0 0.0 0.0
000020 00 00 00 00 00 00 00 00 00 00 00 00 00 00 00 00
       0.0 0.0 0.0 0.0
000030 00 00 00 00 00 00 00 00 00 00 00 00 00 00 00 00
       0.0 0.0 0.0 0.0

node_scale_1 f4 [16]
000000 00 00 80 3f 00 00 80 3f 00 00 80 3f 00 00 80 3f
       1.0 1.0 1.0 1.0
000010 00 00 80 3f 00 00 80 3f 00 00 80 3f 00 00 80 3f
       1.0 1.0 1.0 1.0
000020 00 00 80 3f 00 00 80 3f 00 00 80 3f 00 00 80 3f
       1.0 1.0 1.0 1.0
000030 00 00 80 3f 00 00 80 3f 00 00 80 3f 00 00 80 3f
       1.0 1.0 1.0 1.0

subnode_bias_1 f4 [16]
000000 00 00 00 00 00 00 00 00 00 00 00 00 00 00 00 00
       0.0 0.0 0.0 0.0
000010 00 00 00 00 00 00 00 00 00 00 00 00 00 00 00 00
       0.0 0.0 0.0 0.0
000020 00 00 00 00 00 00 00 00 00 00 00 00 00 00 00 00
       0.0 0.0 0.0 0.0
000030 00 00 00 00 00 00 00 00 00 00 00 00 00 00 00 00
       0.0 0.0 0.0 0.0

subnode_scale_1 f4 [16]
000000 00 00 80 3f 00 00 80 3f 00 00 80 3f 00 00 80 3f
       1.0 1.0 1.0 1.0
000010 00 00 80 3f 00 00 80 3f 00 00 80 3f 00 00 80 3f
       1.0 1.0 1.0 1.0
000020 00 00 80 3f 00 00 80 3f 00 00 80 3f 00 00 80 3f
       1.0 1.0 1.0 1.0
000030 00 00 80 3f 00 00 80 3f 00 00 80 3f 00 00 80 3f
       1.0 1.0 1.0 1.0

act_fun.0.grid f4 [3, 12]
000000 cd cc 0c c0 66 66 e6 bf 33 33 b3 bf 00 00 80 bf
       -2.2 -1.8 -1.4 -1.0
000010 9a 99 19 bf cc cc 4c be cc cc 4c 3e 9a 99 19 3f
       -0.6 -0.19999999 0.19999999 0.6
000020 00 00 80 3f 33 33 b3 3f 66 66 e6 3f cd cc 0c 40
       1.0 1.4 1.8 2.2
000030 cd cc 0c c0 66 66 e6 bf 33 33 b3 bf 00 00 80 bf
       -2.2 -1.8 -1.4 -1.0
000040 9a 99 19 bf cc cc 4c be cc cc 4c 3e 9a 99 19 3f
       -0.6 -0.19999999 0.19999999 0.6
000050 00 00 80 3f 33 33 b3 3f 66 66 e6 3f cd cc 0c 40
       1.0 1.4 1.8 2.2
000060 cd cc 0c c0 66 66 e6 bf 33 33 b3 bf 00 00 80 bf
       -2.2 -1.8 -1.4 -1.0
000070 9a 99 19 bf cc cc 4c be cc cc 4c 3e 9a 99 19 3f
       -0.6 -0.19999999 0.19999999 0.6
000080 00 00 80 3f 33 33 b3 3f 66 66 e6 3f cd cc 0c 40
       1.0 1.4 1.8 2.2

act_fun.0.coef f4 [3, 32, 8]
000000 47 12 81 bd 86 c8 10 3e 70 ea 7b 3d 3d 68 24 3d
       -0.06302314 0.14138994 0.061502874 0.040138472
000010 d8 24 7f 3d 4d 76 13 bc 1f 75 a0 3b ad 11 2d 3d
       0.062290996 -0.009000373 0.0048967744 0.042253185
000020 2c 56 88 bc 28 a1 05 3e 3d a2 3a bd 89 82 91 3d
       -0.016642652 0.13049757 -0.04556488 0.07104976
000030 73 e3 33 bd 92 8a 89 3d c4 de d0 bd a7 d1 e5 bd
       -0.043918084 0.06715883 -0.10198739 -0.11221629
000040 e5 12 8e bd 3c 53 d9 3d d7 db 99 3c d1 35 04 3d
       -0.069371976 0.10611579 0.018781586 0.032277886
000050 c3 90 09 3d 03 4b 30 3d 35 ff 81 bc 64 6a 2f 3d
       0.03358532 0.043040287 -0.015868763 0.04282607
000060 07 cb 94 3d 87 84 88 bd 73 b6 b6 bd 6d 33 0f bd
       0.07265287 -0.066659026 -0.08921518 -0.034961153
000070 0e 40 0c bd 6c 0e fd 39 84 57 8a 3d 0b aa 77 3d
       -0.034240775 0.00048266666 0.067549735 0.0604649
000080 97 0f f7 3d e7 cc ca bd d5 12 89 bd a1 9d 78 bc
       0.120635204 -0.09902363 -0.06693045 -0.0151743
000090 f3 35 bf bd ea 8c 63 bd 77 44 d3 bc 24 50 01 bd
       -0.09336462 -0.055554308 -0.025789483 -0.03157057
0000a0 1e 27 fa 3d ba 8b e6 3d 83 71 aa bd ea 47 bb bd
       0.12214492 0.112571195 -0.08322432 -0.09144576
0000b0 10 ef 1d be 12 fa 22 bd 9e a4 df 3b 38 f4 1d 3d
       -0.15423226 -0.039789267 0.006825044 0.038562983
0000c0 a6 10 64 bd e5 cc b0 3d cf a3 eb 3c 25 b8 5d 3d
       -0.05567994 0.086328305 0.028764633 0.054130692
0000d0 c1 48 41 3d cc fc 22 bc 66 12 a3 bc e8 a4 1c bd
       0.047188524 -0.009947967 -0.019906234 -0.038243204
0000e0 bc a8 8a 3c 1d ce 18 3e 4a 9e 6e bd 31 8d 32 3d
       0.016926162 0.14922376 -0.058256425 0.043591682
0000f0 d5 09 4f bd 34 35 6b bd 10 95 d0 bd 49 29 4d bd
       -0.050546486 -0.057423785 -0.101846814 -0.0500882
000100 b4 c9 fa bc 72 3d f4 3d 53 a3 e5 3c ea e4 52 3c
       -0.030613758 0.11925782 0.02803198 0.01287196
000110 34 00 49 bb 9a 59 36 3d 48 4b 71 ba 57 21 d7 bc
       -0.0030670287 0.044519044 -0.0009204638 -0.026261015
000120 cf b4 fe 3c c6 f7 ef bd f2 7c 54 bc ce 58 94 3a
       0.031092076 -0.11717181 -0.012969242 0.001131797
000130 2d 2d 50 3c f7 41 57 3d c9 07 d3 3d 7b 68 ee 3c
       0.012706083 0.052553143 0.10304219 0.029102555
000140 30 5d 9f 3d b7 41 59 bd fc b1 ca bd 04 8f 8c 3c
       0.07781446 -0.053041186 -0.09897229 0.017158039
000150 54 57 6f bd 06 83 f9 3c 1b 3f 80 3d d4 21 5a 3d
       -0.058432892 0.030457985 0.062620364 0.053254917
000160 21 2f 26 bd 04 cb c9 3d 8f d4 a2 bb 66 db 94 3d
       -0.04057229 0.09853175 -0.0049691866 0.072684094
000170 eb 1f 20 3c f1 26 2b 3c 5e 13 0d b9 00 04 f1 bc
       0.009773235 0.010446296 -0.00013454023 -0.029420853
000180 a7 3a 48 bc fc 56 20 3e 6d 79 e7 bc 0a 90 11 3d
       -0.012221015 0.15658182 -0.028256143 0.035537757
000190 7e dd 12 3d f3 5f 14 bd 4e 1f 5c 3c 15 8b 3a 3d
       0.035855763 -0.036224317 0.013435198 0.045542795
0001a0 87 54 ad bc f1 de ea 3d f7 c4 43 bc db ad 81 3c
       -0.02115847 0.11468304 -0.011948816 0.015829971
0001b0 a0 78 d2 3b 00 73 14 3c 7c 32 11 bd 3b 67 9d bc
       0.006423071 0.009060621 -0.035448536 -0.019214263
0001c0 b9 f7 a6 3d 91 9e 25 bd 21 2f c8 3c 77 38 80 bd
       0.08152718 -0.040434424 0.024436535 -0.0626077
0001d0 eb 84 01 bd 44 cf 07 ba 63 95 01 bc 7a 94 31 bd
       -0.0316209 -0.00051807263 -0.007909152 -0.04335449
0001e0 0c fd f9 bd 48 d5 1f bd ec fe ca 3d 5e 19 e0 3c
       -0.12206468 -0.03902176 0.09911904 0.027355846
0001f0 17 bc a0 3d 61 fd b1 3d d4 57 7f bd c5 a1 db bd
       0.07848375 0.08690906 -0.06233962 -0.107242145
000200 8b 65 ae 3d 5b 10 51 bd df 0a 94 bc 22 03 0c bd
       0.085154615 -0.05104099 -0.01807159 -0.034182675
000210 4b 88 51 bd f7 e2 c4 bc 17 1b 8f 3d 3a f0 5c 3d
       -0.05115537 -0.024034007 0.06987589 0.053940035
000220 92 23 91 3d b4 62 18 bd cb 40 8d bd f6 a6 0e 3b
       0.070868626 -0.037203506 -0.06897124 0.0021766997
000230 96 78 45 3c 7f 1e 21 3c 6c a6 bc 3d c7 1a b8 3d
       0.012052676 0.009833931 0.0921143 0.089894824
000240 04 b6 98 3d e6 29 89 bd 64 48 8e bd 74 db 78 39
       0.07456592 -0.066974446 -0.06947401 0.00023732876
000250 05 36 6f bd 9b 89 d0 3b 55 c2 1f 3d 4c fd 51 3d
       -0.058401126 0.00636406 0.03900369 0.051266953
000260 da f6 a7 bc f6 4f e7 3d 6e 02 ed bb c3 2d 86 3d
       -0.02050345 0.11294548 -0.0072329557 0.06551697
000270 e7 7c f3 3c 65 ce b4 3d 81 bf 82 bc a0 f1 17 3d
       0.029722644 0.08828429 -0.015960457 0.037095666
000280 72 ce 9c 3d ad dd 84 bd fa 82 13 bc d7 4e 9a bd
       0.07656564 -0.06487594 -0.009003395 -0.07534569
000290 e8 2e d4 bc f1 8a 77 bc 5f 09 61 3d be a4 90 3d
       -0.025901273 -0.01510881 0.054940578 0.07062672
0002a0 42 51 d1 3d 28 63 51 bd 54 6c 71 bd 96 ef 9f bd
       0.10220577 -0.051119953 -0.0589412 -0.07809369
0002b0 f7 8b a3 bc b9 87 4e bd 82 35 69 3d 3a 86 89 3d
       -0.019964201 -0.050422404 0.056935795 0.06715055
0002c0 e9 dc 00 3c 7b ec 05 be 6d db 47 bc d9 ce f8 bc
       0.007865169 -0.13078491 -0.012198311 -0.03037207
0002d0 62 38 ac 3d 1d 8a 30 bd b5 fd 8d 3d bc 09 fc 3c
       0.08409192 -0.043100465 0.069331564 0.03076636
0002e0 f1 30 b1 3d f6 25 4f bc 82 86 a9 bd 43 b6 b5 3b
       0.08651913 -0.012643328 -0.082776085 0.005545409
0002f0 50 e4 51 bc db 11 55 bd 10 ff 6e 3d 59 29 cf 3c
       -0.012810782 -0.05201898 0.058348715 0.02528827
000300 c7 3a 51 bd 18 f2 bd 3d 61 20 11 3d e2 cb 82 3d
       -0.051081445 0.09274691 0.03543127 0.06386544
000310 e3 08 17 bc 11 7b 3f 3d 60 21 2c 3d 51 2b 87 3d
       -0.009218427 0.046748225 0.042024016 0.06600059
000320 e7 fb a1 bc b2 24 86 3d 68 55 42 bc 4c 25 2b ba
       -0.019773437 0.06549968 -0.011861183 -0.000652869
000330 e7 80 11 3c 79 95 14 bd 23 4a 77 bd a3 65 85 bd
       0.00888083 -0.03627536 -0.060373437 -0.06513526
000340 37 28 e6 3c 0b a4 00 be a3 6d 9b bc 3f af e0 bc
       0.028095348 -0.12562577 -0.018973177 -0.027427314
000350 5d 34 22 3d f7 af 4f 3c 01 5c 96 3d e5 6c 9d 3d
       0.03960072 0.012676231 0.07341767 0.076867856
000360 d7 f9 52 3d af f3 a0 bd d5 f6 28 bd 99 56 18 bd
       0.051507797 -0.07858979 -0.041251022 -0.03719196
000370 eb e3 26 3c e2 ac d1 3a 2e 78 9b 3d 97 3d ef 3d
       0.010186176 0.0015996958 0.07591282 0.11681669
000380 ed 63 79 3d ae 51 3a bd 6b 6b 5b bd 0d da 52 bd
       0.060886312 -0.045488052 -0.05356924 -0.05147748
000390 89 3f 5d 3c 69 d4 5f 3d 1e c8 2a 3d b5 16 7e 3d
       0.0135039175 0.05464593 0.041694753 0.062033374
0003a0 73 03 46 3d 13 8c 19 be a1 56 2e bd a9 62 16 3c
       0.048343133 -0.1499484 -0.042563085 0.009178796
0003b0 ca b8 c4 3c 55 24 40 3c d7 a8 aa 3d 9c cc bb 3d
       0.024013896 0.011727412 0.08332985 0.091698855
0003c0 c4 dc 86 3d 3a d3 9d bd a4 74 5c bd 02 06 09 bd
       0.065850765 -0.07706304 -0.053822175 -0.033452995
0003d0 49 7a ad bc 72 e0 5d 3d 67 03 a0 3d c4 5f 3b 3d
       -0.021176474 0.054169126 0.07813149 0.045745626
0003e0 73 e0 57 3d aa 4b de bd ac bf 6c bd 1f b7 66 bd
       0.052704286 -0.108542755 -0.05779998 -0.05632698
0003f0 42 72 49 bc 87 c6 1b bd 17 52 e7 bb e2 fd 0f 3d
       -0.012295308 -0.038031127 -0.0070593464 0.03515423

act_fun.0.mask f4 [3, 32]
000000 00 00 80 3f 00 00 80 3f 00 00 80 3f 00 00 80 3f
       1.0 1.0 1.0 1.0
000010 00 00 80 3f 00 00 80 3f 00 00 80 3f 00 00 80 3f
       1.0 1.0 1.0 1.0
000020 00 00 80 3f 00 00 80 3f 00 00 80 3f 00 00 80 3f
       1.0 1.0 1.0 1.0
000030 00 00 80 3f 00 00 80 3f 00 00 80 3f 00 00 80 3f
       1.0 1.0 1.0 1.0
000040 00 00 80 3f 00 00 80 3f 00 00 80 3f 00 00 80 3f
       1.0 1.0 1.0 1.0
000050 00 00 80 3f 00 00 80 3f 00 00 80 3f 00 00 80 3f
       1.0 1.0 1.0 1.0
000060 00 00 80 3f 00 00 80 3f 00 00 80 3f 00 00 80 3f
       1.0 1.0 1.0 1.0
000070 00 00 80 3f 00 00 80 3f 00 00 80 3f 00 00 80 3f
       1.0 1.0 1.0 1.0
000080 00 00 80 3f 00 00 80 3f 00 00 80 3f 00 00 80 3f
       1.0 1.0 1.0 1.0
000090 00 00 80 3f 00 00 80 3f 00 00 80 3f 00 00 80 3f
       1.0 1.0 1.0 1.0
0000a0 00 00 80 3f 00 00 80 3f 00 00 80 3f 00 00 80 3f
       1.0 1.0 1.0 1.0
0000b0 00 00 80 3f 00 00 80 3f 00 00 80 3f 00 00 80 3f
       1.0 1.0 1.0 1.0
0000c0 00 00 80 3f 00 00 80 3f 00 00 80 3f 00 00 80 3f
       1.0 1.0 1.0 1.0
0000d0 00 00 80 3f 00 00 80 3f 00 00 80 3f 00 00 80 3f
       1.0 1.0 1.0 1.0
0000e0 00 00 80 3f 00 00 80 3f 00 00 80 3f 00 00 80 3f
       1.0 1.0 1.0 1.0
0000f0 00 00 80 3f 00 00 80 3f 00 00 80 3f 00 00 80 3f
       1.0 1.0 1.0 1.0
000100 00 00 80 3f 00 00 80 3f 00 00 80 3f 00 00 80 3f
       1.0 1.0 1.0 1.0
000110 00 00 80 3f 00 00 80 3f 00 00 80 3f 00 00 80 3f
       1.0 1.0 1.0 1.0
000120 00 00 80 3f 00 00 80 3f 00 00 80 3f 00 00 80 3f
       1.0 1.0 1.0 1.0
000130 00 00 80 3f 00 00 80 3f 00 00 80 3f 00 00 80 3f
       1.0 1.0 1.0 1.0
000140 00 00 80 3f 00 00 80 3f 00 00 80 3f 00 00 80 3f
       1.0 1.0 1.0 1.0
000150 00 00 80 3f 00 00 80 3f 00 00 80 3f 00 00 80 3f
       1.0 1.0 1.0 1.0
000160 00 00 80 3f 00 00 80 3f 00 00 80 3f 00 00 80 3f
       1.0 1.0 1.0 1.0
000170 00 00 80 3f 00 00 80 3f 00 00 80 3f 00 00 80 3f
       1.0 1.0 1.0 1.0

act_fun.0.scale_base f4 [3, 32]
000000 26 e6 dc bd 8e 58 73 3e d1 18 59 be 5f d7 7f be
       -0.10786085 0.2376425 -0.21200873 -0.24984501
000010 d9 81 97 3e 8a 67 15 bf 49 6f 43 3d ed 17 df 3e
       0.29591253 -0.58361113 0.04771355 0.4357294
000020 b0 68 94 3d f5 cb 13 3e 93 e1 a2 be 2e 33 c5 bc
       0.0724653 0.14433272 -0.31812724 -0.024072256
000030 eb d1 46 3d ec fa e4 3d 0c f3 19 3e 04 13 08 3f
       0.048540037 0.11180672 0.15034121 0.53154016
000040 3d 94 ee be ee 78 5b 3d 3c eb 91 be 09 e7 ca be
       -0.46597472 0.053582124 -0.28499782 -0.3962939
000050 d4 24 92 bc 89 58 02 bf 20 c3 d4 3e c2 d0 73 3d
       -0.017839827 -0.50916344 0.4155512 0.05952526
000060 f5 02 73 be 07 7b 76 3e a6 31 04 bf f1 ea 3c be
       -0.23731597 0.24070369 -0.5163826 -0.18448998
000070 1d 02 a4 bd 0e a0 04 bf 5c 46 bf be f6 dd 9a bd
       -0.080082156 -0.51806724 -0.37358367 -0.07561867
000080 e9 0e 11 3f 1e 76 26 3f 1c 2d fe 3e c5 84 f2 be
       0.56663376 0.6502398 0.4964379 -0.4736692
000090 d5 c4 02 bf af 8f f6 3e 85 f6 a9 3e 60 b4 c0 3d
       -0.5108159 0.48156497 0.33195892 0.09409404
0000a0 d0 f7 52 3e 9a 4e 0e bf ba 2a a5 be 13 3c 2f 3f
       0.20602345 -0.55588686 -0.3225916 0.6845104
0000b0 bd c5 7e bc aa b4 b3 3d db 99 1c bf 77 70 89 be
       -0.015550074 0.08774693 -0.61172265 -0.26843616
0000c0 36 fc 11 be c1 2d f4 be 12 04 4b be 80 b2 b5 3e
       -0.14256367 -0.47691157 -0.19825771 0.35487747
0000d0 a4 e1 31 bf 80 65 71 3d c9 f3 ea be 5e 3f d5 be
       -0.69484925 0.05893469 -0.45889118 -0.41649908
0000e0 4d e8 b2 3e 7d 19 10 3f 73 57 89 be 60 04 b7 be
       0.34942856 0.5628889 -0.2682453 -0.35745525
0000f0 da 46 27 bf 4f 9b cf be 0e 16 23 bf 2b ce 84 be
       -0.65342486 -0.4054818 -0.6370553 -0.25938544
000100 1e 18 8e 3d 42 d2 f7 be db 04 ea 3e 3c be 9c 3e
       0.06938194 -0.484026 0.4570683 0.30613887
000110 c7 c4 05 bf c8 e8 8a be 18 7d 14 3e cc 5e 42 be
       -0.52253383 -0.27130723 0.14500844 -0.18981475
000120 4d c4 e5 bc 3b 24 20 be 6d bd d6 3e e5 78 75 be
       -0.028047705 -0.15638821 0.41941395 -0.23971899
000130 34 a9 e0 3e 64 df 42 3d 2d d6 85 3d cd 04 c9 3e
       0.43879092 0.047576323 0.065349914 0.39261475
000140 b7 66 1e be 7e a5 72 be 8e 2e 6e bd 4f 41 d1 3e
       -0.1546887 -0.23695943 -0.058149867 0.4087014
000150 d0 90 bf be 80 52 40 3e e4 48 eb be 62 64 57 3e
       -0.3741517 0.18781471 -0.4595405 0.21034387
000160 62 45 32 3e 18 e1 24 bd a0 2b 8a 3e bf b7 92 3d
       0.1740928 -0.04025373 0.26986408 0.07163953
000170 f3 27 85 3e aa 5e bb be d5 90 04 bd 25 d8 4d 3e
       0.2600704 -0.3659566 -0.032364685 0.20101984

act_fun.0.scale_sp f4 [3, 32]
000000 0c 02 20 3f b7 67 27 3f 66 ce 20 3f af 94 1c 3f
       0.62503123 0.6539263 0.6281494 0.61164373
000010 41 3d 25 3f 7c 96 34 3f 4e 78 1d 3f 32 73 26 3f
       0.6454659 0.7054212 0.61511695 0.65019524
000020 6c fb 25 3f b1 81 1b 3f f8 b5 1c 3f b2 7f 1c 3f
       0.64836764 0.6074477 0.6121516 0.6113235
000030 d3 5a 2d 3f 58 f8 25 3f a8 4f 1c 3f 44 69 35 3f
       0.6771671 0.6483207 0.61059046 0.7086375
000040 ba f6 1a 3f 3d dc 17 3f be 8c 1e 3f c5 f4 26 3f
       0.60532725 0.5932043 0.61933506 0.6521724
000050 be c6 1a 3f cf 60 20 3f ec 4d 28 3f d8 75 1d 3f
       0.60459507 0.6264772 0.657439 0.6150794
000060 68 a5 23 3f c4 45 29 3f 99 79 24 3f 0b 0b 1d 3f
       0.63924265 0.6612208 0.64248043 0.61344975
000070 48 dd 1c 3f 79 c6 21 3f 80 b6 1d 3f a0 5c 24 3f
       0.6127515 0.6319347 0.616066 0.64203835
000080 91 a5 31 3f 49 4d 28 3f 01 25 33 3f 40 61 37 3f
       0.6939326 0.6574293 0.6997834 0.71632767
000090 54 ce 37 3f 0b 2b 1c 3f 3b 66 2d 3f c0 d8 22 3f
       0.71799207 0.6100318 0.67734116 0.63611984
0000a0 99 c5 33 3f 94 e9 29 3f d5 5d 37 3f fe f1 28 3f
       0.70223385 0.66372037 0.7162755 0.6599425
0000b0 5e 6b 2b 3f c5 21 33 3f 23 c4 2a 3f 57 4f 23 3f
       0.66960704 0.69973403 0.6670553 0.6379294
0000c0 32 f2 36 3f 8a 60 25 3f 1b e8 36 3f 85 79 33 3f
       0.7146331 0.6460043 0.71447915 0.701073
0000d0 db 5e 37 3f 45 e2 2e 3f 23 c4 1f 3f db d3 37 3f
       0.7162911 0.6831401 0.62408656 0.7180764
0000e0 f9 03 30 3f 80 ac 2c 3f fa 31 26 3f 1a 40 27 3f
       0.6875606 0.67450714 0.6492001 0.65332186
0000f0 52 8e 2e 3f 57 db 2d 3f 2a b0 37 3f cc cb 23 3f
       0.68185914 0.6791281 0.7175318 0.63982844
000100 62 86 0e 3f bc 54 30 3f 4d ec 14 3f 41 4e 2b 3f
       0.556738 0.68879294 0.58173066 0.6691628
000110 76 bb 20 3f 90 4c 2e 3f 64 b4 0d 3f 70 6b 17 3f
       0.6278604 0.68085575 0.5535338 0.5914831
000120 62 8c 0b 3f e1 b2 2a 3f 07 4f 24 3f 67 ed 30 3f
       0.5451108 0.666792 0.64183086 0.6911225
000130 a6 17 0f 3f c0 b1 0c 3f 4e 0c 2a 3f 1e 64 2e 3f
       0.5589546 0.54958725 0.66425025 0.68121517
000140 09 a2 24 3f 0c fe 2d 3f e6 0a 2b 3f 57 c2 20 3f
       0.64309746 0.6796577 0.66813505 0.6279654
000150 de a8 36 3f 29 b4 15 3f 16 a9 2c 3f 8e d6 28 3f
       0.7135142 0.5847803 0.67445505 0.65952384
000160 e6 41 17 3f 41 6a 1d 3f 4f 21 25 3f a9 62 2c 3f
       0.5908493 0.61490256 0.6450395 0.67338043
000170 6c 36 34 3f 40 2c 26 3f 32 99 29 3f 64 0d 13 3f
       0.7039554 0.6491127 0.6624938 0.5744231

act_fun.1.grid f4 [32, 12]
000000 cd cc 0c c0 66 66 e6 bf 33 33 b3 bf 00 00 80 bf
       -2.2 -1.8 -1.4 -1.0
000010 9a 99 19 bf cc cc 4c be cc cc 4c 3e 9a 99 19 3f
       -0.6 -0.19999999 0.19999999 0.6
000020 00 00 80 3f 33 33 b3 3f 66 66 e6 3f cd cc 0c 40
       1.0 1.4 1.8 2.2
000030 cd cc 0c c0 66 66 e6 bf 33 33 b3 bf 00 00 80 bf
       -2.2 -1.8 -1.4 -1.0
000040 9a 99 19 bf cc cc 4c be cc cc 4c 3e 9a 99 19 3f
       -0.6 -0.19999999 0.19999999 0.6
000050 00 00 80 3f 33 33 b3 3f 66 66 e6 3f cd cc 0c 40
       1.0 1.4 1.8 2.2
000060 cd cc 0c c0 66 66 e6 bf 33 33 b3 bf 00 00 80 bf
       -2.2 -1.8 -1.4 -1.0
000070 9a 99 19 bf cc cc 4c be cc cc 4c 3e 9a 99 19 3f
       -0.6 -0.19999999 0.19999999 0.6
000080 00 00 80 3f 33 33 b3 3f 66 66 e6 3f cd cc 0c 40
       1.0 1.4 1.8 2.2
000090 cd cc 0c c0 66 66 e6 bf 33 33 b3 bf 00 00 80 bf
       -2.2 -1.8 -1.4 -1.0
0000a0 9a 99 19 bf cc cc 4c be cc cc 4c 3e 9a 99 19 3f
       -0.6 -0.19999999 0.19999999 0.6
0000b0 00 00 80 3f 33 33 b3 3f 66 66 e6 3f cd cc 0c 40
       1.0 1.4 1.8 2.2
0000c0 cd cc 0c c0 66 66 e6 bf 33 33 b3 bf 00 00 80 bf
       -2.2 -1.8 -1.4 -1.0
0000d0 9a 99 19 bf cc cc 4c be cc cc 4c 3e 9a 99 19 3f
       -0.6 -0.19999999 0.19999999 0.6
0000e0 00 00 80 3f 33 33 b3 3f 66 66 e6 3f cd cc 0c 40
       1.0 1.4 1.8 2.2
0000f0 cd cc 0c c0 66 66 e6 bf 33 33 b3 bf 00 00 80 bf
       -2.2 -1.8 -1.4 -1.0
000100 9a 99 19 bf cc cc 4c be cc cc 4c 3e 9a 99 19 3f
       -0.6 -0.19999999 0.19999999 0.6
000110 00 00 80 3f 33 33 b3 3f 66 66 e6 3f cd cc 0c 40
       1.0 1.4 1.8 2.2
000120 cd cc 0c c0 66 66 e6 bf 33 33 b3 bf 00 00 80 bf
       -2.2 -1.8 -1.4 -1.0
000130 9a 99 19 bf cc cc 4c be cc cc 4c 3e 9a 99 19 3f
       -0.6 -0.19999999 0.19999999 0.6
000140 00 00 80 3f 33 33 b3 3f 66 66 e6 3f cd cc 0c 40
       1.0 1.4 1.8 2.2
000150 cd cc 0c c0 66 66 e6 bf 33 33 b3 bf 00 00 80 bf
       -2.2 -1.8 -1.4 -1.0
000160 9a 99 19 bf cc cc 4c be cc cc 4c 3e 9a 99 19 3f
       -0.6 -0.19999999 0.19999999 0.6
000170 00 00 80 3f 33 33 b3 3f 66 66 e6 3f cd cc 0c 40
       1.0 1.4 1.8 2.2
000180 cd cc 0c c0 66 66 e6 bf 33 33 b3 bf 00 00 80 bf
       -2.2 -1.8 -1.4 -1.0
000190 9a 99 19 bf cc cc 4c be cc cc 4c 3e 9a 99 19 3f
       -0.6 -0.19999999 0.19999999 0.6
0001a0 00 00 80 3f 33 33 b3 3f 66 66 e6 3f cd cc 0c 40
       1.0 1.4 1.8 2.2
0001b0 cd cc 0c c0 66 66 e6 bf 33 33 b3 bf 00 00 80 bf
       -2.2 -1.8 -1.4 -1.0
0001c0 9a 99 19 bf cc cc 4c be cc cc 4c 3e 9a 99 19 3f
       -0.6 -0.19999999 0.19999999 0.6
0001d0 00 00 80 3f 33 33 b3 3f 66 66 e6 3f cd cc 0c 40
       1.0 1.4 1.8 2.2
0001e0 cd cc 0c c0 66 66 e6 bf 33 33 b3 bf 00 00 80 bf
       -2.2 -1.8 -1.4 -1.0
0001f0 9a 99 19 bf cc cc 4c be cc cc 4c 3e 9a 99 19 3f
       -0.6 -0.19999999 0.19999999 0.6
000200 00 00 80 3f 33 33 b3 3f 66 66 e6 3f cd cc 0c 40
       1.0 1.4 1.8 2.2
000210 cd cc 0c c0 66 66 e6 bf 33 33 b3 bf 00 00 80 bf
       -2.2 -1.8 -1.4 -1.0
000220 9a 99 19 bf cc cc 4c be cc cc 4c 3e 9a 99 19 3f
       -0.6 -0.19999999 0.19999999 0.6
000230 00 00 80 3f 33 33 b3 3f 66 66 e6 3f cd cc 0c 40
       1.0 1.4 1.8 2.2
000240 cd cc 0c c0 66 66 e6 bf 33 33 b3 bf 00 00 80 bf
       -2.2 -1.8 -1.4 -1.0
000250 9a 99 19 bf cc cc 4c be cc cc 4c 3e 9a 99 19 3f
       -0.6 -0.19999999 0.19999999 0.6
000260 00 00 80 3f 33 33 b3 3f 66 66 e6 3f cd cc 0c 40
       1.0 1.4 1.8 2.2
000270 cd cc 0c c0 66 66 e6 bf 33 33 b3 bf 00 00 80 bf
       -2.2 -1.8 -1.4 -1.0
000280 9a 99 19 bf cc cc 4c be cc cc 4c 3e 9a 99 19 3f
       -0.6 -0.19999999 0.19999999 0.6
000290 00 00 80 3f 33 33 b3 3f 66 66 e6 3f cd cc 0c 40
       1.0 1.4 1.8 2.2
0002a0 cd cc 0c c0 66 66 e6 bf 33 33 b3 bf 00 00 80 bf
       -2.2 -1.8 -1.4 -1.0
0002b0 9a 99 19 bf cc cc 4c be cc cc 4c 3e 9a 99 19 3f
       -0.6 -0.19999999 0.19999999 0.6
0002c0 00 00 80 3f 33 33 b3 3f 66 66 e6 3f cd cc 0c 40
       1.0 1.4 1.8 2.2
0002d0 cd cc 0c c0 66 66 e6 bf 33 33 b3 bf 00 00 80 bf
       -2.2 -1.8 -1.4 -1.0
0002e0 9a 99 19 bf cc cc 4c be cc cc 4c 3e 9a 99 19 3f
       -0.6 -0.19999999 0.19999999 0.6
0002f0 00 00 80 3f 33 33 b3 3f 66 66 e6 3f cd cc 0c 40
       1.0 1.4 1.8 2.2
000300 cd cc 0c c0 66 66 e6 bf 33 33 b3 bf 00 00 80 bf
       -2.2 -1.8 -1.4 -1.0
000310 9a 99 19 bf cc cc 4c be cc cc 4c 3e 9a 99 19 3f
       -0.6 -0.19999999 0.19999999 0.6
000320 00 00 80 3f 33 33 b3 3f 66 66 e6 3f cd cc 0c 40
       1.0 1.4 1.8 2.2
000330 cd cc 0c c0 66 66 e6 bf 33 33 b3 bf 00 00 80 bf
       -2.2 -1.8 -1.4 -1.0
000340 9a 99 19 bf cc cc 4c be cc cc 4c 3e 9a 99 19 3f
       -0.6 -0.19999999 0.19999999 0.6
000350 00 00 80 3f 33 33 b3 3f 66 66 e6 3f cd cc 0c 40
       1.0 1.4 1.8 2.2
000360 cd cc 0c c0 66 66 e6 bf 33 33 b3 bf 00 00 80 bf
       -2.2 -1.8 -1.4 -1.0
000370 9a 99 19 bf cc cc 4c be cc cc 4c 3e 9a 99 19 3f
       -0.6 -0.19999999 0.19999999 0.6
000380 00 00 80 3f 33 33 b3 3f 66 66 e6 3f cd cc 0c 40
       1.0 1.4 1.8 2.2
000390 cd cc 0c c0 66 66 e6 bf 33 33 b3 bf 00 00 80 bf
       -2.2 -1.8 -1.4 -1.0
0003a0 9a 99 19 bf cc cc 4c be cc cc 4c 3e 9a 99 19 3f
       -0.6 -0.19999999 0.19999999 0.6
0003b0 00 00 80 3f 33 33 b3 3f 66 66 e6 3f cd cc 0c 40
       1.0 1.4 1.8 2.2
0003c0 cd cc 0c c0 66 66 e6 bf 33 33 b3 bf 00 00 80 bf
       -2.2 -1.8 -1.4 -1.0
0003d0 9a 99 19 bf cc cc 4c be cc cc 4c 3e 9a 99 19 3f
       -0.6 -0.19999999 0.19999999 0.6
0003e0 00 00 80 3f 33 33 b3 3f 66 66 e6 3f cd cc 0c 40
       1.0 1.4 1.8 2.2
0003f0 cd cc 0c c0 66 66 e6 bf 33 33 b3 bf 00 00 80 bf
       -2.2 -1.8 -1.4 -1.0

act_fun.1.coef f4 [32, 16, 8]
000000 c0 e5 44 3c 9b 9b 95 3d 9f 40 fa 3d 79 a1 07 3e
       0.012017667 0.0730507 0.12219357 0.1324519
000010 7d 81 b0 bd 84 9c fe bd ba 19 ff bd c0 71 46 37
       -0.08618448 -0.12432197 -0.12456079 1.1828204e-05
000020 d0 be 30 3c 9b 2e 40 bc 96 59 20 be 31 57 bd bd
       0.010787681 -0.011729862 -0.15659174 -0.09245146
000030 6a ee a1 3d 59 43 27 3e 49 d4 16 3e c4 47 3c 3b
       0.07906802 0.16334285 0.14729418 0.00287293
000040 64 13 1b bc 91 12 94 bd 76 26 f4 bd a5 48 0f be
       -0.009465072 -0.07230104 -0.11921398 -0.13992555
000050 39 fd d4 3d 9e 69 30 3e 0e ea dd 3d 71 26 f3 bb
       0.10399861 0.1722779 0.10835658 -0.007420354
000060 98 04 27 3c 1e a2 a8 3d 6c 95 e1 3d b6 2a e0 3d
       0.010193966 0.082340464 0.11014828 0.109456465
000070 50 f6 7d bd b2 a4 21 be 8a 82 a0 bd c7 32 72 3c
       -0.06200248 -0.15785483 -0.07837398 0.014782614
000080 50 c8 bb bb ff 1c 3d bd 64 a6 d7 bd 7a e1 25 be
       -0.005730666 -0.04617023 -0.10529783 -0.16199294
000090 6a f3 fb 3d d2 e3 eb 3d 4a a0 1b 3e 7a bb 06 3c
       0.12302287 0.11518063 0.15197864 0.008223409
0000a0 c0 c6 e8 bb bc ac 65 bd 7f d0 c0 bd 3d cf 04 be
       -0.007103771 -0.056072935 -0.094147675 -0.1296968
0000b0 00 1f 2c 3e f5 4d a8 3d f0 9b 24 3e f7 10 6c 3c
       0.168087 0.08217994 0.1607511 0.014408342
0000c0 48 5f bc bb 3a 7b 1f 3c 06 8d d4 3d 5d b1 43 3e
       -0.005748663 0.009733969 0.103784606 0.19110627
0000d0 b7 f1 1f be 16 d9 a2 bd 47 dc 2d be ad 60 8e bc
       -0.1561955 -0.07951562 -0.1697856 -0.017380083
0000e0 34 af 1e bc 07 8a da 3c 94 5c 39 3e 0b 08 aa 3d
       -0.009685326 0.026677145 0.18101722 0.08302315
0000f0 db ef 1f 3b d8 9f 32 be 7c ab 03 be b8 2c 36 3b
       0.002440444 -0.17443788 -0.12858385 0.002779765
000100 84 45 be 3b b4 ba 9b 3d 70 94 19 3e 9b d9 1d 3e
       0.0058066268 0.0760397 0.1499803 0.15415041
000110 ca 43 11 be 12 de ae bd 36 b5 28 be 7f 35 76 bc
       -0.14186016 -0.0853845 -0.16475376 -0.015027403
000120 80 f6 17 3c c2 47 82 3d 79 d8 9d 3d bc 1c 33 3e
       0.009275079 0.06361343 0.077073045 0.1749143
000130 ab 19 f7 bd 7e 19 fc bd ef 1f 08 be f4 09 84 bb
       -0.12065443 -0.1230955 -0.13293432 -0.004029507
000140 d0 b7 d0 39 c7 05 b1 3c fb 34 b0 3d 1f 7f 40 3e
       0.00039809803 0.0216092 0.08603855 0.18798493
000150 06 67 12 be 83 3d d0 bd 6c 7b 0d be ca 65 dd bb
       -0.14297113 -0.101679824 -0.13816613 -0.006756519
000160 10 3c 11 3c fd ee b4 bb fd 99 2c be 1f aa 03 be
       0.008864418 -0.0055216537 -0.16855617 -0.12857865
000170 ae 32 0e 3e 2c 25 0a 3e d6 55 06 3e b6 37 d7 3a
       0.1388652 0.13490742 0.13118681 0.0016419801
000180 b8 e8 9d ba a7 11 ca 3c e0 9a dd 3d 60 0d 02 3e
       -0.0012047505 0.02466662 0.10820556 0.12700415
000190 0a ff 86 bd 5e e7 30 be 9d 87 9d bd 65 b5 89 3c
       -0.065916136 -0.1727576 -0.07691882 0.016810128
0001a0 c6 81 86 3c c2 08 0f 3d da b1 13 be 0b 97 8c bd
       0.016419303 0.03492046 -0.14423314 -0.06864747
0001b0 3c e0 a8 3d 27 3a f8 3d 4b 5b b7 3d 6e 06 01 3b
       0.08245894 0.12120467 0.089529596 0.001968767
0001c0 a0 b7 0d bc e2 00 91 bd 3d 5f 00 be f6 33 b8 bd
       -0.008649737 -0.070802465 -0.1253633 -0.08994286
0001d0 71 c1 af 3d e6 3f 1d 3e 2d 1f af 3d 3f dc 50 bc
       0.08581818 0.15356407 0.08550868 -0.012747823
0001e0 9c 3d 42 39 e4 47 bd 3c 6d b8 e1 3d 1f d5 3d 3e
       0.00018524233 0.02310557 0.110215046 0.1853833
0001f0 19 37 09 be 90 34 27 be 73 06 13 be 24 22 5f bb
       -0.13399924 -0.16328645 -0.14357929 -0.003404745
000200 52 27 de 3d d5 3b c7 3d c7 a8 f7 3d 07 46 f8 3d
       0.108473435 0.09728209 0.120927386 0.12122732
000210 07 1f 03 be 1f d8 73 bd 0d dd 79 bd bc 5b 6d bc
       -0.12804805 -0.05953228 -0.061001826 -0.014487203
000220 00 50 06 be 5c af 15 be d8 5e 17 be 7d 29 ba bd
       -0.13116455 -0.14617676 -0.14782274 -0.090899445
000230 57 c4 aa 3d 61 77 1d 3e ca d9 c2 3d 2e 99 13 3d
       0.0833823 0.1537757 0.09514196 0.036034755
000240 f1 47 e1 bd 7c 7b ba bd 5b db 29 be d4 de a7 bd
       -0.1100005 -0.09105584 -0.16587584 -0.08196798
000250 70 86 98 3d f8 ab 11 3e 09 2a d6 3d 98 f6 09 3d
       0.07447517 0.14225757 0.10457236 0.033682436
000260 01 94 0b 3e c3 ec 28 3e 03 d8 37 3e 72 04 75 3d
       0.13630678 0.16496567 0.17953496 0.059818693
000270 a7 bf a3 bc 3e 48 e2 bd e6 ac e3 bd 59 c2 2a bd
       -0.019988848 -0.11048935 -0.11116962 -0.04168925
000280 75 22 02 be 73 d4 fb bd dd b9 18 be 06 b6 d9 bd
       -0.12708457 -0.12296381 -0.14914651 -0.10630421
000290 53 eb 07 3e 3c 16 f4 3d 82 cf c3 3d 3e 41 1a 3d
       0.13273363 0.11918303 0.09561063 0.037659876
0002a0 c1 ef b0 bd 1e 1e 2d bd dc c8 2a be ec bb da bd
       -0.086394794 -0.04226505 -0.16678184 -0.106803745
0002b0 ef 09 bf 3d b0 3f c1 3d f4 92 01 3e b8 a8 3b 3d
       0.093280666 0.094359756 0.12653714 0.0458152
0002c0 42 93 04 3e 9c e8 0d 3e 2e 48 10 3e 7f fa 17 3e
       0.129468 0.13858265 0.14090034 0.1484165
0002d0 0a 69 cb bd 46 fb ed bd 26 cb f4 bd e4 1b 22 bd
       -0.09932144 -0.11620192 -0.1195281 -0.03957738
0002e0 8a 7a 01 3e 32 f6 0e 3e fb 41 02 3e 35 f3 ed 3d
       0.12644401 0.13961104 0.12720482 0.11618654
0002f0 c6 f1 a9 3a 29 b1 a9 bd 19 b4 9e bd a0 c0 14 bd
       0.0012965731 -0.08285744 -0.07749195 -0.036316514
000300 89 73 04 3e cf 51 23 3e b0 ee 21 3e b8 c0 f7 3d
       0.12934698 0.15949176 0.15813708 0.12097305
000310 e4 37 dc bd 34 d9 ae bd c3 72 a1 bd c4 25 21 bd
       -0.10752848 -0.08537522 -0.07883217 -0.039342657
000320 14 91 12 3e 86 58 2b 3e 13 d9 10 3e 3f 93 24 3e
       0.14313155 0.16732988 0.14145307 0.16071795
000330 cd 1a ea bd c0 59 89 bd 2d a3 03 be e6 e8 53 bd
       -0.11430893 -0.067065716 -0.12855215 -0.05173578
000340 be 3e c4 3d 77 16 93 3d 07 b0 4d 3e 22 19 74 3d
       0.095822796 0.07182019 0.2008668 0.05959428
000350 08 f7 5a bd 8a 6a 27 be 0c f3 d9 bd e4 af d0 bc
       -0.053458244 -0.16349235 -0.10642061 -0.025474496
000360 9b b4 ec bd 9f ac b3 bd 5e 96 31 be 43 c3 0f be
       -0.11557885 -0.08773159 -0.17342517 -0.1403933
000370 0d 9f a7 3d 6a 50 2a 3e 1c b2 af 3d c8 38 bf 3c
       0.081846334 0.16632238 0.085788935 0.023342505
000380 ab 1a ef 3d b4 09 06 3e 46 42 2e 3e b3 e7 9c 3d
       0.116750084 0.13089639 0.17017469 0.076613806
000390 65 41 56 bd f6 79 18 be bd a3 b6 bd ec b2 c7 bc
       -0.05230846 -0.14890274 -0.08917949 -0.024377309
0003a0 93 ce 9a bd 78 c5 20 be 21 02 88 bd e6 39 b1 bd
       -0.07558932 -0.15700328 -0.06641031 -0.086536214
0003b0 b0 62 bf 3d a6 41 fc 3d 85 28 52 3d 66 cd b1 b9
       0.09344995 0.12317209 0.051308174 -0.00033913105
0003c0 92 b1 03 be 9f b0 16 be 61 2c 25 be da 95 84 bd
       -0.12860706 -0.14715813 -0.1613021 -0.064738944
0003d0 a9 e8 6f 3d c2 b6 17 3e 6d 9b 08 3e f0 7c 3d 3d
       0.05857149 0.1481581 0.1334054 0.046261728
0003e0 83 b8 ea 3d 2c 26 b3 3d a6 ff 4a 3e a9 fb c3 3d
       0.11460974 0.08747515 0.19824085 0.09569485
0003f0 1c 98 33 be 0b 24 ac bd 0f ca 2a be c3 ea 37 bd
       -0.17538494 -0.08405312 -0.16678642 -0.04490162

act_fun.1.mask f4 [32, 16]
000000 00 00 80 3f 00 00 80 3f 00 00 80 3f 00 00 80 3f
       1.0 1.0 1.0 1.0
000010 00 00 80 3f 00 00 80 3f 00 00 80 3f 00 00 80 3f
       1.0 1.0 1.0 1.0
000020 00 00 80 3f 00 00 80 3f 00 00 80 3f 00 00 80 3f
       1.0 1.0 1.0 1.0
000030 00 00 80 3f 00 00 80 3f 00 00 80 3f 00 00 80 3f
       1.0 1.0 1.0 1.0
000040 00 00 80 3f 00 00 80 3f 00 00 80 3f 00 00 80 3f
       1.0 1.0 1.0 1.0
000050 00 00 80 3f 00 00 80 3f 00 00 80 3f 00 00 80 3f
       1.0 1.0 1.0 1.0
000060 00 00 80 3f 00 00 80 3f 00 00 80 3f 00 00 80 3f
       1.0 1.0 1.0 1.0
000070 00 00 80 3f 00 00 80 3f 00 00 80 3f 00 00 80 3f
       1.0 1.0 1.0 1.0
000080 00 00 80 3f 00 00 80 3f 00 00 80 3f 00 00 80 3f
       1.0 1.0 1.0 1.0
000090 00 00 80 3f 00 00 80 3f 00 00 80 3f 00 00 80 3f
       1.0 1.0 1.0 1.0
0000a0 00 00 80 3f 00 00 80 3f 00 00 80 3f 00 00 80 3f
       1.0 1.0 1.0 1.0
0000b0 00 00 80 3f 00 00 80 3f 00 00 80 3f 00 00 80 3f
       1.0 1.0 1.0 1.0
0000c0 00 00 80 3f 00 00 80 3f 00 00 80 3f 00 00 80 3f
       1.0 1.0 1.0 1.0
0000d0 00 00 80 3f 00 00 80 3f 00 00 80 3f 00 00 80 3f
       1.0 1.0 1.0 1.0
0000e0 00 00 80 3f 00 00 80 3f 00 00 80 3f 00 00 80 3f
       1.0 1.0 1.0 1.0
0000f0 00 00 80 3f 00 00 80 3f 00 00 80 3f 00 00 80 3f
       1.0 1.0 1.0 1.0
000100 00 00 80 3f 00 00 80 3f 00 00 80 3f 00 00 80 3f
       1.0 1.0 1.0 1.0
000110 00 00 80 3f 00 00 80 3f 00 00 80 3f 00 00 80 3f
       1.0 1.0 1.0 1.0
000120 00 00 80 3f 00 00 80 3f 00 00 80 3f 00 00 80 3f
       1.0 1.0 1.0 1.0
000130 00 00 80 3f 00 00 80 3f 00 00 80 3f 00 00 80 3f
       1.0 1.0 1.0 1.0
000140 00 00 80 3f 00 00 80 3f 00 00 80 3f 00 00 80 3f
       1.0 1.0 1.0 1.0
000150 00 00 80 3f 00 00 80 3f 00 00 80 3f 00 00 80 3f
       1.0 1.0 1.0 1.0
000160 00 00 80 3f 00 00 80 3f 00 00 80 3f 00 00 80 3f
       1.0 1.0 1.0 1.0
000170 00 00 80 3f 00 00 80 3f 00 00 80 3f 00 00 80 3f
       1.0 1.0 1.0 1.0
000180 00 00 80 3f 00 00 80 3f 00 00 80 3f 00 00 80 3f
       1.0 1.0 1.0 1.0
000190 00 00 80 3f 00 00 80 3f 00 00 80 3f 00 00 80 3f
       1.0 1.0 1.0 1.0
0001a0 00 00 80 3f 00 00 80 3f 00 00 80 3f 00 00 80 3f
       1.0 1.0 1.0 1.0
0001b0 00 00 80 3f 00 00 80 3f 00 00 80 3f 00 00 80 3f
       1.0 1.0 1.0 1.0
0001c0 00 00 80 3f 00 00 80 3f 00 00 80 3f 00 00 80 3f
       1.0 1.0 1.0 1.0
0001d0 00 00 80 3f 00 00 80 3f 00 00 80 3f 00 00 80 3f
       1.0 1.0 1.0 1.0
0001e0 00 00 80 3f 00 00 80 3f 00 00 80 3f 00 00 80 3f
       1.0 1.0 1.0 1.0
0001f0 00 00 80 3f 00 00 80 3f 00 00 80 3f 00 00 80 3f
       1.0 1.0 1.0 1.0
000200 00 00 80 3f 00 00 80 3f 00 00 80 3f 00 00 80 3f
       1.0 1.0 1.0 1.0
000210 00 00 80 3f 00 00 80 3f 00 00 80 3f 00 00 80 3f
       1.0 1.0 1.0 1.0
000220 00 00 80 3f 00 00 80 3f 00 00 80 3f 00 00 80 3f
       1.0 1.0 1.0 1.0
000230 00 00 80 3f 00 00 80 3f 00 00 80 3f 00 00 80 3f
       1.0 1.0 1.0 1.0
000240 00 00 80 3f 00 00 80 3f 00 00 80 3f 00 00 80 3f
       1.0 1.0 1.0 1.0
000250 00 00 80 3f 00 00 80 3f 00 00 80 3f 00 00 80 3f
       1.0 1.0 1.0 1.0
000260 00 00 80 3f 00 00 80 3f 00 00 80 3f 00 00 80 3f
       1.0 1.0 1.0 1.0
000270 00 00 80 3f 00 00 80 3f 00 00 80 3f 00 00 80 3f
       1.0 1.0 1.0 1.0
000280 00 00 80 3f 00 00 80 3f 00 00 80 3f 00 00 80 3f
       1.0 1.0 1.0 1.0
000290 00 00 80 3f 00 00 80 3f 00 00 80 3f 00 00 80 3f
       1.0 1.0 1.0 1.0
0002a0 00 00 80 3f 00 00 80 3f 00 00 80 3f 00 00 80 3f
       1.0 1.0 1.0 1.0
0002b0 00 00 80 3f 00 00 80 3f 00 00 80 3f 00 00 80 3f
       1.0 1.0 1.0 1.0
0002c0 00 00 80 3f 00 00 80 3f 00 00 80 3f 00 00 80 3f
       1.0 1.0 1.0 1.0
0002d0 00 00 80 3f 00 00 80 3f 00 00 80 3f 00 00 80 3f
       1.0 1.0 1.0 1.0
0002e0 00 00 80 3f 00 00 80 3f 00 00 80 3f 00 00 80 3f
       1.0 1.0 1.0 1.0
0002f0 00 00 80 3f 00 00 80 3f 00 00 80 3f 00 00 80 3f
       1.0 1.0 1.0 1.0
000300 00 00 80 3f 00 00 80 3f 00 00 80 3f 00 00 80 3f
       1.0 1.0 1.0 1.0
000310 00 00 80 3f 00 00 80 3f 00 00 80 3f 00 00 80 3f
       1.0 1.0 1.0 1.0
000320 00 00 80 3f 00 00 80 3f 00 00 80 3f 00 00 80 3f
       1.0 1.0 1.0 1.0
000330 00 00 80 3f 00 00 80 3f 00 00 80 3f 00 00 80 3f
       1.0 1.0 1.0 1.0
000340 00 00 80 3f 00 00 80 3f 00 00 80 3f 00 00 80 3f
       1.0 1.0 1.0 1.0
000350 00 00 80 3f 00 00 80 3f 00 00 80 3f 00 00 80 3f
       1.0 1.0 1.0 1.0
000360 00 00 80 3f 00 00 80 3f 00 00 80 3f 00 00 80 3f
       1.0 1.0 1.0 1.0
000370 00 00 80 3f 00 00 80 3f 00 00 80 3f 00 00 80 3f
       1.0 1.0 1.0 1.0
000380 00 00 80 3f 00 00 80 3f 00 00 80 3f 00 00 80 3f
       1.0 1.0 1.0 1.0
000390 00 00 80 3f 00 00 80 3f 00 00 80 3f 00 00 80 3f
       1.0 1.0 1.0 1.0
0003a0 00 00 80 3f 00 00 80 3f 00 00 80 3f 00 00 80 3f
       1.0 1.0 1.0 1.0
0003b0 00 00 80 3f 00 00 80 3f 00 00 80 3f 00 00 80 3f
       1.0 1.0 1.0 1.0
0003c0 00 00 80 3f 00 00 80 3f 00 00 80 3f 00 00 80 3f
       1.0 1.0 1.0 1.0
0003d0 00 00 80 3f 00 00 80 3f 00 00 80 3f 00 00 80 3f
       1.0 1.0 1.0 1.0
0003e0 00 00 80 3f 00 00 80 3f 00 00 80 3f 00 00 80 3f
       1.0 1.0 1.0 1.0
0003f0 00 00 80 3f 00 00 80 3f 00 00 80 3f 00 00 80 3f
       1.0 1.0 1.0 1.0

act_fun.1.scale_base f4 [32, 16]
000000 4d f0 fc bd 4d 45 15 3e a6 32 d3 3c 78 9f 85 bd
       -0.12350521 0.14577217 0.025780987 -0.06524557
000010 50 e6 1e 3e 3b 87 77 3e 4e 07 22 bc b8 fa 87 be
       0.15517545 0.2417268 -0.009889437 -0.2655847
000020 f7 eb 80 be ca 85 40 be 71 c8 81 be 85 a4 37 3e
       -0.25180027 -0.18801036 -0.25348237 0.17933853
000030 9a 3e 76 be f0 b9 0b bd 0b 57 2d 3e 8c 74 b8 bc
       -0.24047318 -0.03411287 0.16927736 -0.022516511
000040 29 e6 2f be 3a af 7c bd e6 9a 12 3e 47 3e 9f bc
       -0.17177643 -0.061690547 0.14316902 -0.019438876
000050 a5 3e 7f 3e f4 41 0d 3e e8 ff dd 3b 0a c5 8d be
       0.2492624 0.1379469 0.006774891 -0.2768939
000060 b4 b4 64 3d 3b 45 6c be e6 2b 78 be d5 bb 7d 3e
       0.055836394 -0.23073284 -0.24235496 0.24778683
000070 5c 7a 24 be 25 05 4d 3e 11 7c 1e bc 6e b2 b4 3b
       -0.16062301 0.20021494 -0.009673134 0.0055144345
000080 6f 83 78 3d 0d c1 24 3e 4a 3c 83 3e 90 25 6e be
       0.06067222 0.16089268 0.25631934 -0.23256516
000090 82 f7 92 3d a6 f5 27 3e f9 3e 10 bc 24 f4 52 be
       0.071761146 0.16402301 -0.008804076 -0.20600945
0000a0 9b 13 08 3b 5c 29 2f be 8a 1c 56 be b7 b4 10 3e
       0.002076364 -0.17105621 -0.20909324 0.14131437
0000b0 6e a8 7f be 5a 2e 82 bd e4 e4 23 3e 66 64 6c bd
       -0.24966595 -0.06356497 0.16005284 -0.057712935
0000c0 aa 1a 41 3e 72 6e 0e be 18 d7 7e be 84 cd de bc
       0.18857828 -0.13909319 -0.24886739 -0.027197607
0000d0 93 70 62 3d 04 1a 8d be f4 4c 30 3e a5 3f 88 3e
       0.05528314 -0.2755891 0.17216855 0.26611057
0000e0 7e 1a 81 3e 4b 4c f9 3b 43 34 87 3d 3b 8c 85 be
       0.25215524 0.007607972 0.06601765 -0.2608355
0000f0 08 ec 6d 3e 9a 4a 85 be 2e 6f 8e be 85 b0 13 3c
       0.2323457 -0.2603348 -0.27819198 0.0090142535
000100 15 51 88 3e 0e ec af bb cc 60 e8 bb 27 eb 82 3e
       0.2662436 -0.005368716 -0.007091617 0.25570032
000110 58 54 51 be 71 1f 62 be e2 6b 47 3c d1 70 3a 3e
       -0.20442331 -0.22082306 0.012171717 0.18207099
000120 c7 c5 43 3e bd 00 25 3e 80 18 18 bc 3a b1 db bd
       0.19118415 0.16113563 -0.009283185 -0.10727163
000130 66 54 fc 3c 46 c1 10 be e8 b8 12 be 92 9b 0c 3e
       0.030801963 -0.14136228 -0.14328349 0.1373122
000140 d4 f2 6f be 04 9a 46 3e e8 eb c7 bc 3c 0a 77 3c
       -0.23432475 0.1939469 -0.024404481 0.015078124
000150 7a 5a 30 3e 06 42 ef 3d 1e b6 ab 3d d9 88 b2 3d
       0.17222014 0.11682515 0.083843455 0.08717508
000160 7d 79 b2 3d 6f 61 2a bc 07 c5 70 3d 00 88 6a bc
       0.08714578 -0.010399207 0.05878165 -0.0143146515
000170 45 bc 19 be 0c 74 2b 3e 45 73 c1 3d 9d 04 82 bd
       -0.15013225 0.16743487 0.09445814 -0.06348536
000180 78 30 7c be 18 67 25 3e 41 0f 61 3e d4 57 fc bd
       -0.24627864 0.16152608 0.21978475 -0.123214394
000190 79 9f 11 3e ce 8b 3f 3e 97 58 90 be 13 28 10 be
       0.1422099 0.18705675 -0.2819259 -0.14077787
0001a0 67 4c 2f be 3b d7 49 be be b4 56 3a a3 e6 8a 3e
       -0.17118989 -0.1971101 0.0008190385 0.27129087
0001b0 36 17 96 bd 1d f0 4b 3e e5 a8 04 bd f7 e4 a6 bd
       -0.07328646 0.19915815 -0.032387633 -0.0814914
0001c0 66 2e 74 bd e8 0c 97 bd 0c 50 59 3d de a8 9f bc
       -0.05961456 -0.073755085 0.053054854 -0.019489702
0001d0 71 4b 5a 3d ee d6 1b 3e 84 cc 01 3d 68 31 99 3d
       0.053294603 0.15218708 0.031689182 0.074801266
0001e0 69 cd 65 bd 6d 53 80 bd c4 08 81 bd 28 01 99 3d
       -0.056104098 -0.06265912 -0.063005 0.07470924
0001f0 73 9f 30 be c7 3e 2e bb fb 51 a0 bd 47 d8 3b be
       -0.17248325 -0.0026587711 -0.078281365 -0.18344222
000200 5d ca 8b be 48 83 80 3e 03 74 a3 3c b1 c4 07 be
       -0.27302828 0.2510016 0.01995278 -0.13258626
000210 74 c6 0c 3e 69 f3 8f 3e 4e 9d 2d bd b2 6b 80 be
       0.13747579 0.28115395 -0.042386346 -0.25082165
000220 56 32 56 3d 29 32 94 be 84 35 cf bd c0 46 90 3e
       0.052294098 -0.2894452 -0.10117629 0.28178978
000230 16 b7 ff 3c 89 fe 6c 3d 16 8a 8f 39 42 cf 4f bd
       0.031215232 0.05785993 0.00027377967 -0.050734766
000240 f4 e5 84 3e d8 d0 59 be 5d 26 1d be e1 26 e8 3b
       0.2595669 -0.21271074 -0.15346666 0.007084713
000250 97 8a 50 bd 65 9f ab bd 52 8f 52 3e 5f 9b 77 3d
       -0.05091342 -0.083800115 0.20562485 0.060450908
000260 8a c1 55 bd 22 bb 41 3d 92 0d 35 bc 6e 3e 2b be
       -0.052186526 0.047297604 -0.011050599 -0.16723034
000270 a6 f0 41 3e 34 ac 7c be 35 93 fd bd c7 b3 2e bd
       0.18939456 -0.24675065 -0.12381593 -0.042651918
000280 66 d8 c1 ba 3e 58 78 be 7b 11 3a be 4e 92 ed 3c
       -0.0014789223 -0.24252412 -0.18170731 0.029000428
000290 bb 19 b6 bd f4 c6 93 bc 1c c4 82 3e 36 16 3a 3e
       -0.088916264 -0.018039204 0.25540245 0.18172535
0002a0 20 2d f3 3d a9 bb b8 3d c5 ec 7a 3e 9f ef 64 be
       0.11873841 0.09020168 0.24504383 -0.22357033
0002b0 93 00 81 3e ae 7e 87 be db e8 80 be e6 3d 34 3e
       0.2519575 -0.26463836 -0.25177655 0.17601737
0002c0 56 26 4b be 8a ec 1e 3e 45 72 8f 3e 7c 12 22 bd
       -0.19838843 0.1551992 0.28016868 -0.03956841
0002d0 34 de 96 3e 3e c9 54 3d 60 dd 54 be 95 83 17 be
       0.29466403 0.051949732 -0.20787573 -0.14796288
0002e0 85 53 22 be 15 03 4f be 4a 10 0e be 4e 33 92 3e
       -0.15852173 -0.2021602 -0.13873401 0.28554767
0002f0 7c 3a 65 be 2d 91 4a 3e fa 78 50 3e a0 e6 e7 bc
       -0.22385591 0.19781943 0.20358649 -0.028308213
000300 e2 29 80 3c 18 54 45 bd db de f4 3d 1b fe 45 bd
       0.015644971 -0.0481759 0.11956569 -0.048338037
000310 39 ff 5a bd fd 0b 66 3e ae 45 af 3d 6e bb 47 be
       -0.053466056 0.2246551 0.08558212 -0.19505093
000320 e9 76 a6 3d 02 f3 6c bb 9b 28 ad bb 06 a9 54 3e
       0.08128149 -0.0036155586 -0.0052843816 0.20767602
000330 3f 14 5e bd 19 43 cc bc 30 96 21 3e fa 84 b0 bc
       -0.054218527 -0.024934338 0.15779948 -0.021547783
000340 7e b9 f2 bd fb 1d 0b 3d 7e e2 8c 3e 3a 43 a8 bc
       -0.11851786 0.03396414 0.2751655 -0.020539869
000350 15 f1 8c 3d 8b b0 db 3d 62 07 cc bd 53 94 63 be
       0.0688192 0.10727032 -0.09962346 -0.2222455
000360 59 61 69 bd d0 f7 79 be dc ae e0 bd 08 fa 42 3d
       -0.056977604 -0.24410939 -0.10970852 0.04760173
000370 cc a1 29 be c3 19 79 3e c2 3e 18 3e a2 d6 ba bc
       -0.16565627 0.24326234 0.1486769 -0.022807423
000380 dd e6 5d 3c 14 82 cd bd 53 a4 97 bd 2b 40 62 3e
       0.013543812 -0.10034576 -0.07404389 0.2209479
000390 5c 89 3a be b9 11 2a be 60 7a 69 bc 17 09 74 3e
       -0.18216461 -0.16608323 -0.014250368 0.23831593
0003a0 e0 f5 7d 3e 35 80 5a 3e ca 94 63 3e a3 4b c9 bc
       0.24800825 0.2133797 0.22224727 -0.0245722
0003b0 43 e6 98 3e 3c b5 45 bd be f9 83 bd 59 91 40 3e
       0.29863176 -0.04826854 -0.06444119 0.18805446
0003c0 c9 c6 0a bd 7c 5d 02 3c 0b d0 15 3c 55 e4 de bd
       -0.033880983 0.007956859 0.00914384 -0.10883395
0003d0 ad 52 3d bd ac 5a f5 bd e7 76 a2 bd 41 6c ec 3d
       -0.046221424 -0.11980185 -0.07932835 0.11544085
0003e0 b6 db 13 3e 4c 2c 8b 3c 8b af c3 3d ef 7e bd bd
       0.14439282 0.016988896 0.095549665 -0.09252726
0003f0 8a 8c 22 3d ae bd 68 bd 45 ff 03 be ce 52 d4 bc
       0.03968481 -0.056821518 -0.12890346 -0.02591839

act_fun.1.scale_sp f4 [32, 16]
000000 1a 02 9a 3e ff 64 8b 3e ef 9f 9f 3e 0b f8 8f 3e
       0.30079728 0.2722549 0.31176707 0.2811893
000010 35 a2 9e 3e 99 db 9f 3e a7 e3 9c 3e b9 70 82 3e
       0.3098313 0.31222227 0.30642435 0.25476626
000020 0f 48 9e 3e 74 08 9e 3e 24 8e 9f 3e 9c 6e 9f 3e
       0.3091435 0.30865824 0.31163132 0.31139076
000030 7c 25 92 3e 24 fa 67 3e 56 45 88 3e d9 2b a0 3e
       0.28544223 0.22654015 0.266154 0.31283453
000040 5f ab 8d 3e 1d d6 9a 3e 3c 95 93 3e 73 f6 75 3e
       0.27669808 0.3024148 0.28824794 0.24019794
000050 84 d6 9e 3e 57 d2 84 3e 3b 55 9d 3e d1 e2 8e 3e
       0.31023037 0.25941727 0.30729088 0.27907422
000060 30 8e 98 3e 54 65 9e 3e fe 9e 88 3e 51 42 9e 3e
       0.2979598 0.30936682 0.266838 0.3090997
000070 06 99 84 3e 28 ca 71 3e c1 dd 84 3e 0f 3b 8e 3e
       0.25897998 0.23612273 0.25950435 0.27779433
000080 d7 fc 93 3e e1 fc 9b 3e 8e 79 9e 3e b1 eb 9b 3e
       0.2890384 0.3046637 0.30952114 0.30453256
000090 ae 67 96 3e 0a 8e 9f 3e b7 6f 98 3e d1 4d 9f 3e
       0.29375976 0.31163055 0.29772732 0.31114057
0000a0 0f 3c 94 3e 50 ce 88 3e 89 b9 9d 3e 7f 2a 91 3e
       0.2895207 0.26719904 0.30805615 0.28352734
0000b0 2d e9 9e 3e 35 c4 84 3e b1 9c 9d 3e 01 9d a0 3e
       0.31037274 0.25930944 0.3078361 0.31369784
0000c0 8a f7 86 3e a4 36 9b 3e 1a 56 9d 3e b8 98 5c 3e
       0.26360732 0.30315125 0.30729753 0.21542633
0000d0 af 5d 9c 3e d4 29 9f 3e 6b 72 9d 3e 06 c3 7d 3e
       0.30540225 0.310866 0.30751356 0.24781427
0000e0 4e cb 9b 3e 27 92 80 3e 83 66 8e 3e a2 b8 9c 3e
       0.30428547 0.25111505 0.27812585 0.30609614
0000f0 dd b5 9e 3e 22 55 4b 3e 60 e6 9c 3e 9c 45 a0 3e
       0.30998126 0.19856694 0.30644512 0.31303108
000100 77 e7 9d 3e bd d3 87 3e b4 5a 7a 3e 95 03 68 3e
       0.30840656 0.2652873 0.24448663 0.22657616
000110 00 79 9d 3e 47 ed 9e 3e c6 28 9d 3e bd e7 65 3e
       0.30756378 0.31040403 0.3069517 0.22451682
000120 90 da 7d 3e b5 63 87 3e 8c 8b 6d 3e 6f a6 8c 3e
       0.24790406 0.26443258 0.23197764 0.2747073
000130 ea 0b 99 3e b2 de 92 3e e9 82 86 3e 3d 92 9b 3e
       0.29891902 0.28685528 0.26271752 0.30385008
000140 65 b0 81 3e d3 91 5e 3e d0 1b 3f 3e e2 09 96 3e
       0.2532989 0.21735315 0.18662953 0.29304415
000150 61 26 7f 3e 40 1f 7b 3e 78 31 99 3e 7f 31 9e 3e
       0.24916984 0.2452364 0.29920554 0.30897138
000160 67 9a 91 3e ba b7 83 3e f7 3a 1e 3e 5c 56 73 3e
       0.28438112 0.2572611 0.15452181 0.23763412
000170 22 da 78 3e 1d 3f 53 3e 63 df 7a 3e e6 df 3d 3e
       0.24301961 0.20629545 0.24499278 0.18542442
000180 cf 21 53 3e ad 82 45 3e 59 2f 85 3e da f9 9b 3e
       0.20618366 0.1928813 0.26012686 0.3046406
000190 0d 88 9a 3e ed 88 99 3e 8b 02 9c 3e d4 da 9b 3e
       0.30181924 0.2998728 0.3047069 0.3044039
0001a0 03 e8 81 3e 47 60 5d 3e ec 3f 9c 3e 7f a2 8c 3e
       0.25372323 0.21618758 0.3051752 0.27467725
0001b0 8c 67 9a 3e 84 61 88 3e 02 7f 97 3e ad 11 9b 3e
       0.30157125 0.266369 0.29589087 0.30286923
0001c0 ec da 83 3e 79 5d 8f 3e 99 2e 95 3e da 5c 56 3e
       0.25752962 0.28001 0.29137114 0.20933858
0001d0 62 74 86 3e 84 06 59 3e ef 10 99 3e 2f 09 9e 3e
       0.26260668 0.21193892 0.29895732 0.30866382
0001e0 02 7f 96 3e 01 74 73 3e 07 b6 7a 3e 24 27 2e 3e
       0.29393774 0.2377472 0.244835 0.17007118
0001f0 25 ac 62 3e 36 b9 3d 3e 2e d6 87 3e d6 76 9c 3e
       0.2213598 0.18527684 0.26530594 0.30559415
000200 b1 63 a0 3e f6 a2 9e 3e cf 81 97 3e c9 5a 6f 3e
       0.31326059 0.30983704 0.29591224 0.23374476
000210 d3 cb 9c 3e c6 b2 91 3e 44 74 9e 3e 29 2c a1 3e
       0.30624256 0.28456706 0.3094808 0.31479004
000220 3b 28 8e 3e da 89 7e 3e c0 42 a0 3e 53 9a 9c 3e
       0.27765068 0.24857274 0.31300926 0.3058649
000230 1b 79 9f 3e fb bc 8f 3e cc 8a 69 3e db 9a 87 3e
       0.31147084 0.28073868 0.22806853 0.26485333
000240 fa 43 9f 3e 04 0e 90 3e 03 26 a0 3e 6f 1c 9e 3e
       0.3110655 0.28135693 0.31279 0.30881068
000250 31 0f 6a 3e 93 b9 98 3e d5 ea 9c 3e 9c bf 99 3e
       0.22857358 0.29829082 0.30647913 0.30029
000260 a8 1c 89 3e f3 4f 67 3e 03 72 8d 3e 2b e7 97 3e
       0.26779675 0.22589092 0.27626047 0.29668555
000270 48 59 a0 3e 7e 3c 56 3e 1e a8 9f 3e 00 9b a1 3e
       0.31318116 0.20921513 0.3118295 0.31563568
000280 9b 60 90 3e dc 16 58 3e a9 3f 57 3e 87 eb 92 3e
       0.28198704 0.2110247 0.21020378 0.28695318
000290 6d f4 9b 3e fc 3e 9f 3e eb 34 8b 3e 45 24 a0 3e
       0.3045992 0.3110274 0.2718881 0.3127767
0002a0 8f bd 84 3e 35 12 96 3e 13 db 88 3e b2 6e 9d 3e
       0.25925872 0.29310766 0.2672964 0.30748516
0002b0 bd 60 81 3e 79 24 8c 3e 9f 45 9a 3e 57 28 81 3e
       0.25269118 0.27371576 0.30131242 0.2522609
0002c0 68 1b a0 3e 6a f8 9e 3e 47 79 9e 3e 71 49 9e 3e
       0.3127091 0.310489 0.30951902 0.30915406
0002d0 5e ae 9d 3e 29 b2 84 3e 9b c0 9e 3e 79 5a a0 3e
       0.30797094 0.25917175 0.3100632 0.31319025
0002e0 d4 4c 91 3e db 89 99 3e 9d 31 9f 3e 59 67 82 3e
       0.28378928 0.29987988 0.3109254 0.25469473
0002f0 f1 c4 98 3e 5c 8b 8e 3e 3e ea 96 3e b3 da a0 3e
       0.29837754 0.27840698 0.29475588 0.31416854
000300 bd 82 8a 3e 1b 3f 96 3e ed ba 23 3e c7 79 99 3e
       0.2705287 0.2934502 0.15989275 0.2997572
000310 95 94 8f 3e 17 95 7d 3e c8 c6 8e 3e 7c cc 8a 3e
       0.28043047 0.24763905 0.27886033 0.27109134
000320 36 d4 94 3e 0e 0e 92 3e 2e d2 8b 3e 0f a1 8d 3e
       0.29068154 0.28526348 0.27308792 0.2766194
000330 8e 5d 99 3e ef 39 85 3e 96 17 9c 3e 7a b9 81 3e
       0.2995419 0.26020762 0.30486745 0.2533682
000340 49 c6 98 3e 7f 12 a1 3e f7 03 97 3e ea a4 93 3e
       0.2983878 0.31459424 0.29495212 0.28836757
000350 81 45 9e 3e e2 ff 83 3e 9f 80 79 3e 93 d8 8f 3e
       0.30912402 0.2578116 0.24365471 0.2809492
000360 37 d5 9b 3e 86 01 78 3e 37 0c 5d 3e f3 6d 92 3e
       0.30436108 0.24219331 0.21586691 0.2859951
000370 cb 84 9e 3e 2a ed 9b 3e 65 73 48 3e db aa 93 3e
       0.30960688 0.3045438 0.1957527 0.2884129
000380 cb 7e 8b 3e 25 a4 68 3e c4 e7 96 3e df e2 9f 3e
       0.27245173 0.22718866 0.29473698 0.31227776
000390 c3 c6 a0 3e b0 7e 9d 3e da d1 9f 3e 9d 57 a1 3e
       0.31401643 0.30760717 0.31214792 0.31512156
0003a0 0b 28 86 3e 2c d6 95 3e 5c be a0 3e a5 3a a0 3e
       0.26202425 0.29264963 0.31395233 0.31294742
0003b0 07 ad a0 3e f2 0b 97 3e 12 43 82 3e fe 0a a1 3e
       0.3138201 0.295013 0.25441796 0.314537
0003c0 fe 74 6c 3e 24 22 6a 3e dd b7 0c 3e 4e 05 87 3e
       0.23091504 0.22864586 0.13742013 0.26371235
0003d0 ea 9f 08 3e d9 29 80 3e 1b e2 91 3e 8a 88 99 3e
       0.13342252 0.25031927 0.28492817 0.29986984
0003e0 82 12 8a 3e ec d4 94 3e 44 e3 39 3e da d0 84 3e
       0.26967245 0.29068696 0.18153101 0.2594059
0003f0 48 2a 7e 3e ce 1b 8d 3e 97 cd 6e 3e 5d 53 47 3e
       0.24820817 0.27560276 0.23320614 0.19465394
