models_grid/purkinje_I20_T1000_W16_G8_K2.pt (torch, 38067 bytes, 29 tensors)

node_bias_0 f4 [16]
0.0 0.0 0.0 0.0 0.0 0.0 0.0 0.0
0.0 0.0 0.0 0.0 0.0 0.0 0.0 0.0
00000000: 0000 0000 0000 0000 0000 0000 0000 0000
00000010: 0000 0000 0000 0000 0000 0000 0000 0000
00000020: 0000 0000 0000 0000 0000 0000 0000 0000
00000030: 0000 0000 0000 0000 0000 0000 0000 0000

node_scale_0 f4 [16]
1.0 1.0 1.0 1.0 1.0 1.0 1.0 1.0
1.0 1.0 1.0 1.0 1.0 1.0 1.0 1.0
00000000: 0000 803f 0000 803f 0000 803f 0000 803f
00000010: 0000 803f 0000 803f 0000 803f 0000 803f
00000020: 0000 803f 0000 803f 0000 803f 0000 803f
00000030: 0000 803f 0000 803f 0000 803f 0000 803f

subnode_bias_0 f4 [16]
0.0 0.0 0.0 0.0 0.0 0.0 0.0 0.0
0.0 0.0 0.0 0.0 0.0 0.0 0.0 0.0
00000000: 0000 0000 0000 0000 0000 0000 0000 0000
00000010: 0000 0000 0000 0000 0000 0000 0000 0000
00000020: 0000 0000 0000 0000 0000 0000 0000 0000
00000030: 0000 0000 0000 0000 0000 0000 0000 0000

subnode_scale_0 f4 [16]
1.0 1.0 1.0 1.0 1.0 1.0 1.0 1.0
1.0 1.0 1.0 1.0 1.0 1.0 1.0 1.0
00000000: 0000 803f 0000 803f 0000 803f 0000 803f
00000010: 0000 803f 0000 803f 0000 803f 0000 803f
00000020: 0000 803f 0000 803f 0000 803f 0000 803f
00000030: 0000 803f 0000 803f 0000 803f 0000 803f

node_bias_1 f4 [16]
0.0 0.0 0.0 0.0 0.0 0.0 0.0 0.0
0.0 0.0 0.0 0.0 0.0 0.0 0.0 0.0
00000000: 0000 0000 0000 0000 0000 0000 0000 0000
00000010: 0000 0000 0000 0000 0000 0000 0000 0000
00000020: 0000 0000 0000 0000 0000 0000 0000 0000
00000030: 0000 0000 0000 0000 0000 0000 0000 0000

node_scale_1 f4 [16]
1.0 1.0 1.0 1.0 1.0 1.0 1.0 1.0
1.0 1.0 1.0 1.0 1.0 1.0 1.0 1.0
00000000: 0000 803f 0000 803f 0000 803f 0000 803f
00000010: 0000 803f 0000 803f 0000 803f 0000 803f
00000020: 0000 803f 0000 803f 0000 803f 0000 803f
00000030: 0000 803f 0000 803f 0000 803f 0000 803f

subnode_bias_1 f4 [16]
0.0 0.0 0.0 0.0 0.0 0.0 0.0 0.0
0.0 0.0 0.0 0.0 0.0 0.0 0.0 0.0
00000000: 0000 0000 0000 0000 0000 0000 0000 0000
00000010: 0000 0000 0000 0000 0000 0000 0000 0000
00000020: 0000 0000 0000 0000 0000 0000 0000 0000
00000030: 0000 0000 0000 0000 0000 0000 0000 0000

subnode_scale_1 f4 [16]
1.0 1.0 1.0 1.0 1.0 1.0 1.0 1.0
1.0 1.0 1.0 1.0 1.0 1.0 1.0 1.0
00000000: 0000 803f 0000 803f 0000 803f 0000 803f
00000010: 0000 803f 0000 803f 0000 803f 0000 803f
00000020: 0000 803f 0000 803f 0000 803f 0000 803f
00000030: 0000 803f 0000 803f 0000 803f 0000 803f

act_fun.0.grid f4 [4, 13]
-1.5 -1.25 -1.0 -0.75 -0.5 -0.25 0.0 0.25
0.5 0.75 1.0 1.25 1.5 -1.5 -1.25 -1.0
-0.75 -0.5 -0.25 0.0 0.25 0.5 0.75 1.0
1.25 1.5 -1.5 -1.25 -1.0 -0.75 -0.5 -0.25
0.0 0.25 0.5 0.75 1.0 1.25 1.5 -1.5
-1.25 -1.0 -0.75 -0.5 -0.25 0.0 0.25 0.5
0.75 1.0 1.25 1.5
00000000: 0000 c0bf 0000 a0bf 0000 80bf 0000 40bf
00000010: 0000 00bf 0000 80be 0000 0000 0000 803e
00000020: 0000 003f 0000 403f 0000 803f 0000 a03f
00000030: 0000 c03f 0000 c0bf 0000 a0bf 0000 80bf
00000040: 0000 40bf 0000 00bf 0000 80be 0000 0000
00000050: 0000 803e 0000 003f 0000 403f 0000 803f
00000060: 0000 a03f 0000 c03f 0000 c0bf 0000 a0bf
00000070: 0000 80bf 0000 40bf 0000 00bf 0000 80be
00000080: 0000 0000 0000 803e 0000 003f 0000 403f
00000090: 0000 803f 0000 a03f 0000 c03f 0000 c0bf
000000a0: 0000 a0bf 0000 80bf 0000 40bf 0000 00bf
000000b0: 0000 80be 0000 0000 0000 803e 0000 003f
000000c0: 0000 403f 0000 803f 0000 a03f 0000 c03f

act_fun.0.coef f4 [4, 16, 10]
-0.60005325 -0.3094039 -0.23478417 -0.26764026 -0.27839637 -0.24045211 -0.31707686 -0.2632975
-0.3058358 -0.41508844 0.72196335 0.17010443 0.25829497 0.2111528 0.24184379 0.22117689
0.21741167 0.25682047 0.17582418 0.53975725 0.48657456 0.23686159 0.18171698 0.1824956
0.1687059 0.09846153 0.08208875 -0.025138602 -0.06406247 -0.35807666 -0.48470086 -0.2766834
-0.23307219 -0.23429482 -0.19288501 -0.11917491 -0.0809504 0.045887116 0.081174925 0.539631
0.4237511 0.24825332 0.28698757 0.29392347 0.24796268 0.25014442 0.10958701 0.010784035
-0.09448908 -0.4388525 -0.75318897 -0.28225288 -0.23041981 -0.22693288 -0.22594357 -0.21348639
-0.2668158 -0.21371551 -0.25984076 -0.43587324 0.530693 0.079579085 0.06237928 0.09002701
0.11463029 0.16267008 0.19899371 0.2086493 0.26001957 0.37815273 0.5013721 0.14937808
0.2588223 0.185272 0.19039741 0.18509762 0.060703155 0.014167165 -0.17765427 -0.3486181
0.7607228 0.20695661 0.22342628 0.19120201 0.18779849 0.14877604 0.08865746 0.045467466
0.013724163 -0.36419567 -0.179591 -0.20982262 -0.18260676 -0.18903558 -0.19625553 -0.14899442
-0.109787256 -0.019591985 0.1073864 0.4272219 -0.5926232 -0.2423631 -0.29224786 -0.2586073
-0.21121922 -0.22348653 -0.12329782 -0.046167385 0.05342876 0.3155821 0.48410577 0.30393365
0.23360266 0.24466369 0.20978689 0.13899711 0.10307335 -0.05335278 -0.13230793 -0.36022246
0.4714694 0.30872387 0.2598763 0.2612658 0.24292342 0.1611357 0.10378807 -0.011098105
-0.0700544 -0.5039267 0.37194765 0.30228102 0.29177547 0.27088347 0.27808467 0.20686337
0.14623657 0.041171074 -0.10899588 -0.39820445 0.55080867 0.22471514 0.23495819 0.22187628
0.23754458 0.23011479 0.2393043 0.28507382 0.25017905 0.4831253 0.45782354 0.21938032
0.2519985 0.2015876 0.21294366 0.11008734 0.040650126 -0.09860244 -0.2046945 -0.37068638
0.03681151 -0.03137611 0.0050089825 0.0065968125 0.14603603 0.15539974 -0.030116072 0.010997554
-0.015308659 0.0008137785 0.032106552 -0.032256357 0.0039622625 -0.012453586 -0.107572876 -0.1367314
-0.022068143 0.048410222 -0.03121166 0.008247271 0.028801745 0.003979509 -0.0016989702 0.01611175
-0.2677458 -0.26312637 0.014925703 -0.014684459 -0.012013533 0.019988747 0.0013790084 0.010290622
-0.016680887 0.028800316 0.25409955 0.27298972 0.0023940504 -0.032495953 0.024298191 -0.014094751
-0.0032804047 -0.010684831 0.032709483 -0.009814272 -0.3221081 -0.30676875 -0.010563295 0.0027053198
-0.0023376904 0.018982481 0.0033733186 -0.026021868 0.004304277 0.020949863 0.19539079 0.18111122
-0.018522948 -0.015325008 -0.006343493 0.017487746 -0.0084327655 0.0021471796 -0.03548401 0.02278452
-0.11712988 -0.15471521 -0.0033949045 -0.01603393 0.006451849 -0.0121723 -0.05093059 0.03475532
-0.007463984 0.04410245 -0.13355048 -0.105838396 0.022145092 -0.04871144 0.032539383 -0.06156846
-0.024386976 0.012370156 -0.017930724 0.01359543 0.10139171 0.06545343 0.0154211605 0.010227026
0.025511833 -0.001639016 0.0009996564 0.0007959038 0.020296244 -0.02158459 0.28265828 0.3060537
00000000: 179d 19bf 306a 9ebe 436b 70be 2508 89be
00000010: f889 8ebe 1439 76be e657 a2be eece 86be
00000020: 8396 9cbe 7986 d4be 97d2 383f db2f 2e3e
00000030: 3d3f 843e 7138 583e e6a5 773e 327c 623e
00000040: 2aa1 5e3e f97d 833e 410b 343e 882d 0a3f
00000050: 4d20 f93e d88b 723e 0414 3a3e 20e0 3a3e
00000060: 3dc1 2c3e 33a6 c93d 261e a83d 78ef cdbc
00000070: 2f33 83bd d355 b7be b62a f8be 72a9 8dbe
00000080: 7aaa 6ebe fbea 6fbe a683 45be fa11 f4bd
00000090: 53c9 a5bd 21f4 3b3d 0a3f a63d 4225 0a3f
000000a0: e7f5 d83e 1e36 7e3e 09f0 923e 237d 963e
000000b0: eee9 7d3e ee12 803e 286f e03d 85af 303c
000000c0: 7e83 c1bd 46b1 e0be fed0 40bf 7383 90be
000000d0: 2cf3 6bbe 1861 68be c05d 67be 2d9c 5abe
000000e0: 159c 88be 3dd8 5abe d909 85be c72a dfbe
000000f0: 7fdb 073f 5cfa a23d 6a81 7f3d 1560 b83d
00000100: 49c3 ea3d fc92 263e 02c5 4b3e 29a8 553e
00000110: 4921 853e 3c9d c13e ec59 003f 91f6 183e
00000120: 5b84 843e f1b7 3d3e 8af7 423e 3b8a 3d3e
00000130: dfa3 783d 661d 683c 00eb 35be 127e b2be
00000140: bbbe 423f 6fec 533e dcc9 643e 76ca 433e
00000150: 3f4e 403e bf58 183e 0b92 b53d 183c 3a3d
00000160: 50db 603c db77 babe b4e6 37be bedb 56be
00000170: 44fd 3abe 8b92 41be 36f7 48be fe91 18be
00000180: 24d8 e0bd 5f7f a0bc 67ed db3d d4bc da3e
00000190: 27b6 17bf 082e 78be 83a1 95be 2d68 84be
000001a0: da49 58be a7d9 64be 9183 fcbd 031a 3dbd
000001b0: 1ed8 5a3d fa93 a13e b6dc f73e 319d 9b3e
000001c0: 8935 6f3e 1e89 7a3e 60d2 563e 4255 0e3e
000001d0: 1f18 d33d 7288 5abd bb7b 07be 146f b8be
000001e0: 7064 f13e 0e11 9e3e 820e 853e a2c4 853e
000001f0: ebc0 783e c200 253e d78e d43d d4d4 35bc
00000200: ae78 8fbd 5701 01bf ec6f be3e 94c4 9a3e
00000210: 9863 953e 3db1 8a3e 1d61 8e3e fed3 533e
00000220: 0abf 153e 00a3 283d 3b39 dfbd 74e1 cbbe
00000230: cc01 0d3f ba1b 663e e198 703e 8933 633e
00000240: e33e 733e 36a3 6b3e 300c 753e 32f5 913e
00000250: 7817 803e 335c f73e d967 ea3e 3ca5 603e
00000260: f305 813e fb6c 4e3e e70d 5a3e 7975 e13d
00000270: bf80 263d 13f0 c9bd 6f9b 51be 9bca bdbe
00000280: aac7 163d 3c84 00bd 6422 a43b 132a d83b
00000290: 788a 153e 1c21 1f3e fbb5 f6bc 162f 343c
000002a0: 2bd1 7abc c053 553a 2982 033d 3e1f 04bd
000002b0: ded5 813b 200a 4cbc 2b4f dcbd 5103 0cbe
000002c0: 40c8 b4bc cc49 463d 98af ffbc 901f 073c
000002d0: a3f1 eb3c 8b66 823b fbaf deba cafc 833c
000002e0: fa15 89be 80b8 86be f08a 743c 1697 70bc
000002f0: 69d4 44bc 71bf a33c d8bf b43a ff99 283c
00000300: 5ba6 88bc a4ee eb3c 5619 823e 4fc5 8b3e
00000310: 80e5 1c3b 7a1a 05bd 000d c73c aced 66bc
00000320: 0ffc 56bb 6e0f 2fbc 61fa 053d 0acc 20bc
00000330: 5aeb a4be cb10 9dbe ac11 2dbc bc4b 313b
00000340: f033 19bb 2681 9b3c e512 5d3b d02b d5bc
00000350: e40a 8d3b 0c9f ab3c 8614 483e 3875 393e
00000360: 70bd 97bc be15 7bbc 13dd cfbb 7642 8f3c
00000370: 9529 0abc b2b7 0c3b ae57 11bd 9aa6 ba3c
00000380: cae1 efbd aa6d 1ebe 0c7d 5ebb 9759 83bc
00000390: 086a d33b 546e 47bc 989c 50bd 985b 0e3d
000003a0: 7094 f4bb c5a4 343d 75c1 08be cdc1 d8bd
000003b0: a069 b53c a685 47bd 0448 053d 362f 7cbd
000003c0: 32c7 c7bc 32ac 4a3c 74e3 92bc 5ebf 5e3c
000003d0: 75a6 cf3d 730c 863d 09a9 7c3c 428f 273c
000003e0: 31fe d03c 40d4 d6ba e706 833a 33a4 503a
000003f0: 4f44 a63c 2bd2 b0bc 96b8 903e 12b3 9c3e

act_fun.0.mask f4 [4, 16]
1.0 1.0 1.0 1.0 1.0 1.0 1.0 1.0
1.0 1.0 1.0 1.0 1.0 1.0 1.0 1.0
1.0 1.0 1.0 1.0 1.0 1.0 1.0 1.0
1.0 1.0 1.0 1.0 1.0 1.0 1.0 1.0
1.0 1.0 1.0 1.0 1.0 1.0 1.0 1.0
1.0 1.0 1.0 1.0 1.0 1.0 1.0 1.0
1.0 1.0 1.0 1.0 1.0 1.0 1.0 1.0
1.0 1.0 1.0 1.0 1.0 1.0 1.0 1.0
00000000: 0000 803f 0000 803f 0000 803f 0000 803f
00000010: 0000 803f 0000 803f 0000 803f 0000 803f
00000020: 0000 803f 0000 803f 0000 803f 0000 803f
00000030: 0000 803f 0000 803f 0000 803f 0000 803f
00000040: 0000 803f 0000 803f 0000 803f 0000 803f
00000050: 0000 803f 0000 803f 0000 803f 0000 803f
00000060: 0000 803f 0000 803f 0000 803f 0000 803f
00000070: 0000 803f 0000 803f 0000 803f 0000 803f
00000080: 0000 803f 0000 803f 0000 803f 0000 803f
00000090: 0000 803f 0000 803f 0000 803f 0000 803f
000000a0: 0000 803f 0000 803f 0000 803f 0000 803f
000000b0: 0000 803f 0000 803f 0000 803f 0000 803f
000000c0: 0000 803f 0000 803f 0000 803f 0000 803f
000000d0: 0000 803f 0000 803f 0000 803f 0000 803f
000000e0: 0000 803f 0000 803f 0000 803f 0000 803f
000000f0: 0000 803f 0000 803f 0000 803f 0000 803f

act_fun.0.scale_base f4 [4, 16]
0.18264282 -0.120650284 0.17457348 -0.38106063 0.46519324 0.124411866 -0.14452885 0.43217722
0.15850583 -0.4952517 -0.13470256 0.30215466 0.42451867 0.4808216 -0.18251556 0.37184235
0.24858922 0.15462857 -0.115722954 0.48199427 0.101181865 -0.12900686 -0.0071088076 0.49152422
0.33582544 -0.03705311 0.49018276 0.21956772 -0.26620853 -0.4550345 0.2905693 0.46891636
-0.16350527 0.04405217 -0.27887774 0.1951346 -0.31793445 0.3840003 0.14263262 0.21442728
-0.1855699 0.35932377 0.5127457 0.05957169 -0.18755542 -0.329909 0.37587062 -0.060525537
0.48058498 0.65401626 -0.10065416 0.5168946 -0.052692004 0.60796916 0.5706002 -0.3477143
0.16015051 -0.26534986 -0.34866053 -0.08494812 -0.009384553 -0.07783251 -0.29645318 -0.43039638
00000000: b806 3b3e 7f17 f7bd 64c3 323e 611a c3be
00000010: cf2d ee3e a6cb fe3d 5fff 13be 5546 dd3e
00000020: 5a4f 223e a191 fdbe 78ef 09be 04b4 9a3e
00000030: 835a d93e 402e f63e 5ce5 3abe 1f62 be3e
00000040: 2c8e 7e3e f456 1e3e 2800 edbd f4c7 f63e
00000050: 7038 cf3d 601a 04be 00f1 e8bb 10a9 fb3e
00000060: 50f1 ab3e 00c5 17bd 3cf9 fa3e 5cd6 603e
00000070: 7c4c 88be 48fa e8be 80c5 943e ce15 f03e
00000080: ed6d 27be 0c70 343d 10c9 8ebe 5dd1 473e
00000090: 4ec8 a2be b09b c43e 490e 123e d392 5b3e
000000a0: 0906 3ebe 49f9 b73e 4d43 033f 7201 743d
000000b0: 870e 40be d5e9 a8be 1d72 c03e a0e9 77bd
000000c0: 3c0f f63e 9c6d 273f c523 cebd 3453 043f
000000d0: 92d3 57bd dea3 1b3f db12 123f 9c07 b2be
000000e0: 7ffe 233e f0db 87be a283 b2be 48f9 adbd
000000f0: abc1 19bc a766 9fbd b6c8 97be ea5c dcbe

act_fun.0.scale_sp f4 [4, 16]
1.0487623 1.1953808 0.96593314 0.9556358 0.888365 1.2193167 1.2110041 0.9912719
1.2248914 0.88465804 0.9553975 0.8817264 0.9592412 0.8598684 0.9932507 0.9369681
0.544954 0.4897172 0.7616056 0.73717105 0.81430274 0.66853106 0.49781168 0.5213141
0.477122 0.7875316 0.5250393 0.5027947 0.78873354 0.81411904 0.6465515 0.5318384
0.7834227 0.711544 0.7344295 0.78548974 0.5681194 0.6903099 0.6752232 0.39361307
0.7411904 0.5262969 0.6769279 0.48535493 0.7647102 0.5609456 0.6794877 0.6189976
0.6792678 0.5552455 0.48138273 0.30822617 0.5355248 0.57657534 0.6298329 0.3511653
0.6825243 0.53312695 0.42511684 0.35417432 0.52509964 0.4777895 0.6842378 0.50785303
00000000: d83d 863f 3d02 993f 6547 773f 8ca4 743f
00000010: e36b 633f 9212 9c3f 2f02 9b3f ffc3 7d3f
00000020: 3ec9 9c3f f378 623f ee94 743f d2b8 613f
00000030: d590 753f 5620 5c3f ae45 7e3f 24dd 6f3f
00000040: 1b82 0b3f 36bc fa3e 96f8 423f 3eb7 3c3f
00000050: 2576 503f da24 2b3f 2ce1 fe3e d774 053f
00000060: 5649 f43e ac9b 493f fa68 063f 27b7 003f
00000070: 71ea 493f 1b6a 503f 6684 253f 9026 083f
00000080: 648e 483f bf27 363f 9203 3c3f db15 493f
00000090: 4670 113f 26b8 303f 6ddb 2c3f a787 c93e
000000a0: a7be 3d3f 65bb 063f 264b 2d3f 7180 f83e
000000b0: 0cc4 433f 219a 0f3f e8f2 2d3f a076 1e3f
000000c0: 7fe4 2d3f 9224 0e3f cc77 f63e d2cf 9d3e
000000d0: 2718 093f 719a 133f bb3c 213f f0cb b33e
000000e0: eab9 2e3f 027b 083f eaa8 d93e 5656 b53e
000000f0: ee6c 063f d3a0 f43e 352a 2f3f a802 023f

act_fun.1.grid f4 [16, 13]
-1.5 -1.25 -1.0 -0.75 -0.5 -0.25 0.0 0.25
0.5 0.75 1.0 1.25 1.5 -1.5 -1.25 -1.0
-0.75 -0.5 -0.25 0.0 0.25 0.5 0.75 1.0
1.25 1.5 -1.5 -1.25 -1.0 -0.75 -0.5 -0.25
0.0 0.25 0.5 0.75 1.0 1.25 1.5 -1.5
-1.25 -1.0 -0.75 -0.5 -0.25 0.0 0.25 0.5
0.75 1.0 1.25 1.5 -1.5 -1.25 -1.0 -0.75
-0.5 -0.25 0.0 0.25 0.5 0.75 1.0 1.25
1.5 -1.5 -1.25 -1.0 -0.75 -0.5 -0.25 0.0
0.25 0.5 0.75 1.0 1.25 1.5 -1.5 -1.25
-1.0 -0.75 -0.5 -0.25 0.0 0.25 0.5 0.75
1.0 1.25 1.5 -1.5 -1.25 -1.0 -0.75 -0.5
-0.25 0.0 0.25 0.5 0.75 1.0 1.25 1.5
-1.5 -1.25 -1.0 -0.75 -0.5 -0.25 0.0 0.25
0.5 0.75 1.0 1.25 1.5 -1.5 -1.25 -1.0
-0.75 -0.5 -0.25 0.0 0.25 0.5 0.75 1.0
1.25 1.5 -1.5 -1.25 -1.0 -0.75 -0.5 -0.25
0.0 0.25 0.5 0.75 1.0 1.25 1.5 -1.5
-1.25 -1.0 -0.75 -0.5 -0.25 0.0 0.25 0.5
0.75 1.0 1.25 1.5 -1.5 -1.25 -1.0 -0.75
-0.5 -0.25 0.0 0.25 0.5 0.75 1.0 1.25
1.5 -1.5 -1.25 -1.0 -0.75 -0.5 -0.25 0.0
0.25 0.5 0.75 1.0 1.25 1.5 -1.5 -1.25
-1.0 -0.75 -0.5 -0.25 0.0 0.25 0.5 0.75
1.0 1.25 1.5 -1.5 -1.25 -1.0 -0.75 -0.5
-0.25 0.0 0.25 0.5 0.75 1.0 1.25 1.5
00000000: 0000 c0bf 0000 a0bf 0000 80bf 0000 40bf
00000010: 0000 00bf 0000 80be 0000 0000 0000 803e
00000020: 0000 003f 0000 403f 0000 803f 0000 a03f
00000030: 0000 c03f 0000 c0bf 0000 a0bf 0000 80bf
00000040: 0000 40bf 0000 00bf 0000 80be 0000 0000
00000050: 0000 803e 0000 003f 0000 403f 0000 803f
00000060: 0000 a03f 0000 c03f 0000 c0bf 0000 a0bf
00000070: 0000 80bf 0000 40bf 0000 00bf 0000 80be
00000080: 0000 0000 0000 803e 0000 003f 0000 403f
00000090: 0000 803f 0000 a03f 0000 c03f 0000 c0bf
000000a0: 0000 a0bf 0000 80bf 0000 40bf 0000 00bf
000000b0: 0000 80be 0000 0000 0000 803e 0000 003f
000000c0: 0000 403f 0000 803f 0000 a03f 0000 c03f
000000d0: 0000 c0bf 0000 a0bf 0000 80bf 0000 40bf
000000e0: 0000 00bf 0000 80be 0000 0000 0000 803e
000000f0: 0000 003f 0000 403f 0000 803f 0000 a03f
00000100: 0000 c03f 0000 c0bf 0000 a0bf 0000 80bf
00000110: 0000 40bf 0000 00bf 0000 80be 0000 0000
00000120: 0000 803e 0000 003f 0000 403f 0000 803f
00000130: 0000 a03f 0000 c03f 0000 c0bf 0000 a0bf
00000140: 0000 80bf 0000 40bf 0000 00bf 0000 80be
00000150: 0000 0000 0000 803e 0000 003f 0000 403f
00000160: 0000 803f 0000 a03f 0000 c03f 0000 c0bf
00000170: 0000 a0bf 0000 80bf 0000 40bf 0000 00bf
00000180: 0000 80be 0000 0000 0000 803e 0000 003f
00000190: 0000 403f 0000 803f 0000 a03f 0000 c03f
000001a0: 0000 c0bf 0000 a0bf 0000 80bf 0000 40bf
000001b0: 0000 00bf 0000 80be 0000 0000 0000 803e
000001c0: 0000 003f 0000 403f 0000 803f 0000 a03f
000001d0: 0000 c03f 0000 c0bf 0000 a0bf 0000 80bf
000001e0: 0000 40bf 0000 00bf 0000 80be 0000 0000
000001f0: 0000 803e 0000 003f 0000 403f 0000 803f
00000200: 0000 a03f 0000 c03f 0000 c0bf 0000 a0bf
00000210: 0000 80bf 0000 40bf 0000 00bf 0000 80be
00000220: 0000 0000 0000 803e 0000 003f 0000 403f
00000230: 0000 803f 0000 a03f 0000 c03f 0000 c0bf
00000240: 0000 a0bf 0000 80bf 0000 40bf 0000 00bf
00000250: 0000 80be 0000 0000 0000 803e 0000 003f
00000260: 0000 403f 0000 803f 0000 a03f 0000 c03f
00000270: 0000 c0bf 0000 a0bf 0000 80bf 0000 40bf
00000280: 0000 00bf 0000 80be 0000 0000 0000 803e
00000290: 0000 003f 0000 403f 0000 803f 0000 a03f
000002a0: 0000 c03f 0000 c0bf 0000 a0bf 0000 80bf
000002b0: 0000 40bf 0000 00bf 0000 80be 0000 0000
000002c0: 0000 803e 0000 003f 0000 403f 0000 803f
000002d0: 0000 a03f 0000 c03f 0000 c0bf 0000 a0bf
000002e0: 0000 80bf 0000 40bf 0000 00bf 0000 80be
000002f0: 0000 0000 0000 803e 0000 003f 0000 403f
00000300: 0000 803f 0000 a03f 0000 c03f 0000 c0bf
00000310: 0000 a0bf 0000 80bf 0000 40bf 0000 00bf
00000320: 0000 80be 0000 0000 0000 803e 0000 003f
00000330: 0000 403f 0000 803f 0000 a03f 0000 c03f

act_fun.1.coef f4 [16, 16, 10]
0.0133549 0.46314576 0.063796066 -0.24914272 0.04621222 0.20655404 0.07435574 0.016415764
0.018345252 0.015911607 -0.0455273 -0.38655174 -0.07033571 -0.30268952 0.12459119 0.21312635
0.17130458 0.01404855 -0.0076426584 0.00044390373 0.0034652508 -0.4848478 -0.06396094 -0.29200897
0.11567646 0.2508373 0.08914239 -0.02507114 0.038151182 -0.03451486 0.010954675 0.6596946
0.37651107 0.46201178 -0.22564717 -0.24365819 0.37414065 0.016432632 -0.02875522 -0.00073166005
0.11395051 -0.50607324 -0.06998749 -0.40533113 0.3131745 0.31623983 0.073920794 0.030740581
-0.06309264 0.08585233 0.034550086 -0.53715724 0.020805245 -0.35786778 0.092157386 0.28234664
0.01750281 0.021422787 -0.015552217 -0.021566834 -0.0092894025 0.686226 0.3208997 0.3669032
0.020950817 -0.34013823 -0.14253294 0.009733861 -0.031902015 0.052533284 0.061797947 0.59761256
0.35632998 0.39007452 -0.19037585 -0.20735691 -0.0010895894 0.011434626 -0.03082905 0.057330623
-0.070764 -0.09063174 -0.18482885 -0.4095538 0.3414479 0.23278224 0.14145254 -0.02818644
-0.0025740974 0.032401152 0.00747327 0.64357394 0.31684104 0.46502072 -0.25060692 -0.18872099
-0.04275059 -0.0063210744 0.038447745 -0.015595013 0.007664611 0.6147211 0.39897677 0.4402898
-0.20338942 -0.27351594 -0.022238536 0.01619364 -0.041363124 0.02941291 0.007541673 -0.009759243
-0.03876787 -0.3599327 0.110946804 0.24113947 0.01434255 -0.0038549448 0.014703885 -0.007028958
-0.007696203 0.65585935 0.3182699 0.37787256 -0.06132718 -0.22758153 -0.058477838 0.0041590505
0.0035570478 0.0059374236 -0.003491241 -0.4735942 -0.14645687 -0.3960482 0.26853478 0.33498004
0.09075733 0.01715064 0.008749893 -0.044578638 -0.03927633 0.6001231 -0.24352449 -0.2731438
0.17723992 0.1879216 0.010141469 -0.005377764 0.025857482 -0.005605912 -0.047264393 0.7156878
0.31278476 0.44272465 -0.14244351 -0.28532216 -0.024028383 -0.03343402 0.0071797026 -0.03742795
-0.086192735 0.068687044 -0.047757566 0.23365529 0.2463989 -0.023024501 -0.15018827 -0.32213828
0.17805462 -0.062443476 -0.025341712 0.062204897 -0.029137827 0.2533489 0.35623318 -0.02464379
-0.25203574 -0.64762914 -0.17127036 0.0123930285 -0.008433251 0.0053703203 0.0039052877 0.16715257
0.35842136 -0.07624718 -0.33415264 -0.09093126 -0.12927714 -0.019969238 -0.020384988 0.031816058
-0.003663456 -0.31504467 -0.35718998 0.081302784 0.55009776 1.0335722 0.32717568 0.004323257
-0.043056775 0.0058311224 0.028801898 0.17520085 0.34900323 -0.21590033 -0.33300796 0.032704853
-0.3288689 0.06049702 0.016032385 0.01730943 -0.009877124 0.18851349 0.37310866 -0.14864972
-0.31497696 -0.3331185 -0.19850057 0.033942137 0.008887404 -0.017053267 0.009412484 -0.1661971
-0.33576304 0.3139122 0.41991305 0.8654542 0.34124142 0.06838664 -0.056849886 0.022434492
-0.03270199 -0.1844245 -0.42275476 0.11920678 0.431347 0.8303435 0.36978492 -0.077171735
0.027107602 -0.0012641223 0.007339446 0.20291093 0.32737714 -0.18921359 -0.3732713 0.023025036
-0.18271908 0.0018236733 -0.009162877 -0.0009768931 0.014472062 -0.13975565 -0.3181919 0.12227558
00000000: 83ce 5a3c 7121 ed3e 83a7 823d 451f 7fbe
00000010: 0649 3d3d e782 533e d247 983d 5a7a 863c
00000020: c848 963c 0f59 823c d67a 3abd 1cea c5be
00000030: 2b0c 90bd 1ffa 9abe aa29 ff3d cb3d 5a3e
00000040: 786a 2f3e e42b 663c 446f fabb c0bb e839
00000050: 4319 633b f93d f8be f4fd 82bd 3382 95be
00000060: c8e7 ec3d bf6d 803e 4990 b63d fe61 cdbc
00000070: 6a44 1c3d 745f 0dbd 3d7b 333c bfe1 283f
00000080: 0fc6 c03e cf8c ec3e 0d10 67be 8881 79be
00000090: 5d8f bf3e ba9d 863c 1190 ebbc e0cc 3fba
000000a0: e35e e93d 048e 01bf 9a55 8fbd 9087 cfbe
000000b0: 6858 a03e 30ea a13e c963 973d acd3 fb3c
000000c0: b736 81bd 59d3 af3d 6484 0d3d 2383 09bf
000000d0: c36f aa3c 723a b7be 03bd bc3d bd8f 903e
000000e0: 0e62 8f3c d77e af3c bace 7ebc eeac b0bc
000000f0: 9432 18bc 82ac 2f3f f74c a43e bcda bb3e
00000100: 0ca1 ab3c 9926 aebe 28f4 11be c67a 1f3c
00000110: b0ab 02bd 242d 573d d81f 7d3d 23fd 183f
00000120: e270 b63e d9b7 c73e e3f1 42be 5f55 54be
00000130: 8ed0 8eba 4c58 3b3c 348d fcbc 84d3 6a3d
00000140: b7ec 90bd 229d b9bd c643 3dbe 09b1 d1be
00000150: 42d2 ae3e 785e 6e3e efd8 103e 40e7 e6bc
00000160: 30b2 28bb 12b7 043d 55e2 f43b 43c1 243f
00000170: fd38 a23e 3217 ee3e 8d4f 80be 1340 41be
00000180: 3e1b 2fbd 0421 cfbb 627b 1d3d 3a82 7fbc
00000190: 6b27 fb3b 5d5e 1d3f af46 cc3e aa6d e13e
000001a0: 5145 50be 480a 8cbe 972d b6bc 86a8 843c
000001b0: 616c 29bd 58f3 f03c 2320 f73b 3be5 1fbc
000001c0: 0fcb 1ebd 1949 b8be 1438 e33d 44ed 763e
000001d0: 04fd 6a3c 3ea3 7cbb 90e8 703c 2c53 e6bb
000001e0: 6e30 fcbb 66e6 273f 46f4 a23e 8378 c13e
000001f0: 3632 7bbd 220b 69be 7586 6fbd a548 883b
00000200: 5c1d 693b b88e c23b 4ecd 64bb f07a f2be
00000210: caf8 15be d4c6 cabe 647d 893e 8182 ab3e
00000220: fbde b93d 807f 8c3c b65b 0f3c 1798 36bd
00000230: 38e0 20bd aba1 193f 7c5e 79be 81d9 8bbe
00000240: 627e 353e 856e 403e 6728 263c f437 b0bb
00000250: 12d3 d33c ccb1 b7bb 4f98 41bd 5137 373f
00000260: 5325 a03e ceac e23e b6dc 11be bf15 92be
00000270: 2cd7 c4bc 1cf2 08bd b643 eb3b 0d4e 19bd
00000280: d185 b0bd cbab 8c3d 709d 43bd 5543 6f3e
00000290: fe4f 7c3e e19d bcbc f4ca 19be 4fef a4be
000002a0: f353 363e bbc4 7fbd 6c99 cfbc 90ca 7e3d
000002b0: 74b2 eebc f2b6 813e 3264 b63e c6e1 c9bc
000002c0: d40a 81be 06cb 25bf 7f61 2fbe 210c 4b3c
000002d0: 9e2b 0abc 83f9 af3b dbef 7f3b 0b2a 2b3e
000002e0: 0183 b73e 7b27 9cbd 0e16 abbe 2b3a babd
000002f0: 3a61 04be 8796 a3bc 6bfe a6bc 8e51 023d
00000300: 9816 70bb 894d a1be 9be1 b6be 1382 a63d
00000310: 35d3 0c3f 184c 843f 9283 a73e 1caa 8d3b
00000320: 4d5c 30bd 0013 bf3b f5f1 eb3c da67 333e
00000330: 8db0 b23e fa14 5dbe 0580 aabe 86f5 053d
00000340: 8161 a8be b9cb 773d 5956 833c 81cc 8d3c
00000350: a9d3 21bc ae09 413e 1908 bf3e a237 18be
00000360: a944 a1be 828e aabe bc43 4bbe e906 0b3d
00000370: 799c 113c 4bb3 8bbc d236 1a3c 932f 2abe
00000380: 22e9 abbe 1ab9 a03e d8fe d63e 688e 5d3f
00000390: 32b7 ae3e 4b0e 8c3d 6ddb 68bd 8ac8 b73c
000003a0: 86f2 05bd c7d9 3cbe 5073 d8be af22 f43d
000003b0: 84d9 dc3e 6491 543f 7354 bd3e 370c 9ebd
000003c0: c310 de3c e8b0 a5ba bc7f f03b e2c7 4f3e
000003d0: fa9d a73e 35c1 41be 6a1d bfbe 009f bc3c
000003e0: b61a 3bbe 5208 ef3a e41f 16bc 180b 80ba
000003f0: 3a1c 6d3c 1b1c 0fbe 0cea a2be 9f6b fa3d

act_fun.1.mask f4 [16, 16]
1.0 1.0 1.0 1.0 1.0 1.0 1.0 1.0
1.0 1.0 1.0 1.0 1.0 1.0 1.0 1.0
1.0 1.0 1.0 1.0 1.0 1.0 1.0 1.0
1.0 1.0 1.0 1.0 1.0 1.0 1.0 1.0
1.0 1.0 1.0 1.0 1.0 1.0 1.0 1.0
1.0 1.0 1.0 1.0 1.0 1.0 1.0 1.0
1.0 1.0 1.0 1.0 1.0 1.0 1.0 1.0
1.0 1.0 1.0 1.0 1.0 1.0 1.0 1.0
1.0 1.0 1.0 1.0 1.0 1.0 1.0 1.0
1.0 1.0 1.0 1.0 1.0 1.0 1.0 1.0
1.0 1.0 1.0 1.0 1.0 1.0 1.0 1.0
1.0 1.0 1.0 1.0 1.0 1.0 1.0 1.0
1.0 1.0 1.0 1.0 1.0 1.0 1.0 1.0
1.0 1.0 1.0 1.0 1.0 1.0 1.0 1.0
1.0 1.0 1.0 1.0 1.0 1.0 1.0 1.0
1.0 1.0 1.0 1.0 1.0 1.0 1.0 1.0
1.0 1.0 1.0 1.0 1.0 1.0 1.0 1.0
1.0 1.0 1.0 1.0 1.0 1.0 1.0 1.0
1.0 1.0 1.0 1.0 1.0 1.0 1.0 1.0
1.0 1.0 1.0 1.0 1.0 1.0 1.0 1.0
1.0 1.0 1.0 1.0 1.0 1.0 1.0 1.0
1.0 1.0 1.0 1.0 1.0 1.0 1.0 1.0
1.0 1.0 1.0 1.0 1.0 1.0 1.0 1.0
1.0 1.0 1.0 1.0 1.0 1.0 1.0 1.0
1.0 1.0 1.0 1.0 1.0 1.0 1.0 1.0
1.0 1.0 1.0 1.0 1.0 1.0 1.0 1.0
1.0 1.0 1.0 1.0 1.0 1.0 1.0 1.0
1.0 1.0 1.0 1.0 1.0 1.0 1.0 1.0
1.0 1.0 1.0 1.0 1.0 1.0 1.0 1.0
1.0 1.0 1.0 1.0 1.0 1.0 1.0 1.0
1.0 1.0 1.0 1.0 1.0 1.0 1.0 1.0
1.0 1.0 1.0 1.0 1.0 1.0 1.0 1.0
00000000: 0000 803f 0000 803f 0000 803f 0000 803f
00000010: 0000 803f 0000 803f 0000 803f 0000 803f
00000020: 0000 803f 0000 803f 0000 803f 0000 803f
00000030: 0000 803f 0000 803f 0000 803f 0000 803f
00000040: 0000 803f 0000 803f 0000 803f 0000 803f
00000050: 0000 803f 0000 803f 0000 803f 0000 803f
00000060: 0000 803f 0000 803f 0000 803f 0000 803f
00000070: 0000 803f 0000 803f 0000 803f 0000 803f
00000080: 0000 803f 0000 803f 0000 803f 0000 803f
00000090: 0000 803f 0000 803f 0000 803f 0000 803f
000000a0: 0000 803f 0000 803f 0000 803f 0000 803f
000000b0: 0000 803f 0000 803f 0000 803f 0000 803f
000000c0: 0000 803f 0000 803f 0000 803f 0000 803f
000000d0: 0000 803f 0000 803f 0000 803f 0000 803f
000000e0: 0000 803f 0000 803f 0000 803f 0000 803f
000000f0: 0000 803f 0000 803f 0000 803f 0000 803f
00000100: 0000 803f 0000 803f 0000 803f 0000 803f
00000110: 0000 803f 0000 803f 0000 803f 0000 803f
00000120: 0000 803f 0000 803f 0000 803f 0000 803f
00000130: 0000 803f 0000 803f 0000 803f 0000 803f
00000140: 0000 803f 0000 803f 0000 803f 0000 803f
00000150: 0000 803f 0000 803f 0000 803f 0000 803f
00000160: 0000 803f 0000 803f 0000 803f 0000 803f
00000170: 0000 803f 0000 803f 0000 803f 0000 803f
00000180: 0000 803f 0000 803f 0000 803f 0000 803f
00000190: 0000 803f 0000 803f 0000 803f 0000 803f
000001a0: 0000 803f 0000 803f 0000 803f 0000 803f
000001b0: 0000 803f 0000 803f 0000 803f 0000 803f
000001c0: 0000 803f 0000 803f 0000 803f 0000 803f
000001d0: 0000 803f 0000 803f 0000 803f 0000 803f
000001e0: 0000 803f 0000 803f 0000 803f 0000 803f
000001f0: 0000 803f 0000 803f 0000 803f 0000 803f
00000200: 0000 803f 0000 803f 0000 803f 0000 803f
00000210: 0000 803f 0000 803f 0000 803f 0000 803f
00000220: 0000 803f 0000 803f 0000 803f 0000 803f
00000230: 0000 803f 0000 803f 0000 803f 0000 803f
00000240: 0000 803f 0000 803f 0000 803f 0000 803f
00000250: 0000 803f 0000 803f 0000 803f 0000 803f
00000260: 0000 803f 0000 803f 0000 803f 0000 803f
00000270: 0000 803f 0000 803f 0000 803f 0000 803f
00000280: 0000 803f 0000 803f 0000 803f 0000 803f
00000290: 0000 803f 0000 803f 0000 803f 0000 803f
000002a0: 0000 803f 0000 803f 0000 803f 0000 803f
000002b0: 0000 803f 0000 803f 0000 803f 0000 803f
000002c0: 0000 803f 0000 803f 0000 803f 0000 803f
000002d0: 0000 803f 0000 803f 0000 803f 0000 803f
000002e0: 0000 803f 0000 803f 0000 803f 0000 803f
000002f0: 0000 803f 0000 803f 0000 803f 0000 803f
00000300: 0000 803f 0000 803f 0000 803f 0000 803f
00000310: 0000 803f 0000 803f 0000 803f 0000 803f
00000320: 0000 803f 0000 803f 0000 803f 0000 803f
00000330: 0000 803f 0000 803f 0000 803f 0000 803f
00000340: 0000 803f 0000 803f 0000 803f 0000 803f
00000350: 0000 803f 0000 803f 0000 803f 0000 803f
00000360: 0000 803f 0000 803f 0000 803f 0000 803f
00000370: 0000 803f 0000 803f 0000 803f 0000 803f
00000380: 0000 803f 0000 803f 0000 803f 0000 803f
00000390: 0000 803f 0000 803f 0000 803f 0000 803f
000003a0: 0000 803f 0000 803f 0000 803f 0000 803f
000003b0: 0000 803f 0000 803f 0000 803f 0000 803f
000003c0: 0000 803f 0000 803f 0000 803f 0000 803f
000003d0: 0000 803f 0000 803f 0000 803f 0000 803f
000003e0: 0000 803f 0000 803f 0000 803f 0000 803f
000003f0: 0000 803f 0000 803f 0000 803f 0000 803f

act_fun.1.scale_base f4 [16, 16]
0.05508122 -0.12349145 -0.12080716 -0.14461996 0.013352865 0.21296853 -0.2172465 -0.49729627
0.34616214 -0.21705616 -0.41113892 -0.054081142 -0.37460312 0.04222335 0.10353126 -0.06626223
-0.13732946 -0.32969692 -0.46973357 0.023938006 0.32568684 0.09074106 -0.03358089 0.1663892
-0.052049205 0.20489892 0.14658183 -0.17340076 0.21251006 -0.37362388 -0.18141688 -0.10372825
0.08168337 -0.14441201 -0.031354144 0.06459081 -0.00086768786 -0.045283437 -0.27867198 -0.30287308
-0.072989546 -0.17972986 -0.14386664 0.08581678 -0.07113705 -0.088687874 -0.074779205 -0.36980048
0.14069974 0.22745632 -0.21502915 -0.20580004 0.39960933 0.38752985 0.20503509 -0.20482224
0.2353342 -0.01865592 0.18053828 0.20216858 -0.1171924 -0.016363539 -0.12759164 -0.0618259
-0.08438137 0.28895012 -0.13931412 -0.27653325 -0.0032922742 0.0018169652 -0.15030563 -0.09943252
0.31490535 -0.28879172 -0.22147645 0.064910084 -0.08359972 0.118384026 0.12379187 0.07606673
0.037094567 0.011726156 0.13717434 -0.09777208 0.05765094 0.20348243 -0.25998434 -0.0681472
0.33335182 -0.29086068 -0.07905835 0.0077260155 -0.1664631 -0.060425915 0.32057172 -0.23495726
-0.313747 0.1831586 -0.15381218 0.28287923 0.17663999 0.14439587 0.086688206 0.32971537
0.29669836 0.13271149 0.014793874 0.1015129 -0.011711356 -0.3631744 -0.0038527786 0.225583
0.3375889 0.36257744 0.27807602 -0.33109325 0.30055448 0.29305172 -0.2509735 0.0074802274
0.12717575 -0.07682569 0.051608767 0.10577033 -0.13050564 0.15769193 0.13906567 -0.1436297
0.2000758 -0.18415406 -0.071448095 -0.015341305 0.24839869 0.32035008 -0.21034563 -0.09331155
0.28535423 0.060966473 -0.38556296 0.049434904 -0.023196556 -0.020796254 0.12824063 -0.033944365
0.017654547 -0.26222366 -0.19436052 0.081073776 -0.30542114 -0.035114624 0.29984587 0.116451524
0.03413787 -0.19247277 -0.17679676 0.021585587 0.0066881534 -0.41827297 -0.054696415 0.26085678
0.09117966 0.33103907 0.26277906 -0.26540223 0.0064316997 0.15307827 -0.21614017 -0.16489008
0.020521082 0.041407075 -0.124718696 0.094111025 -0.29382578 -0.21514921 0.41149917 -0.11656915
-0.0971243 0.027120493 -0.18807723 -0.053905014 0.20662075 -0.20409752 -0.2305572 -0.18854089
0.029918766 0.1611113 0.08646411 -0.1364567 -0.0816851 0.38689676 0.27343127 0.065149
0.032503124 -0.22215898 0.18152966 -0.06266351 0.21101487 -0.0044148443 -0.119190305 0.0033407442
0.14565125 -0.10293143 -0.049396068 -0.12707685 -0.0792162 -0.015032471 0.17652413 0.07647794
0.0477727 0.2732305 0.07225848 0.15473686 0.2544386 0.1979783 -0.12497522 -0.21974045
-0.024594694 -0.1713669 0.109404415 0.24309771 -0.17088778 0.013715956 0.25089315 -0.043963265
-0.45486858 -0.31606996 -0.3015555 0.32687214 -0.4194556 -0.24991564 0.24299951 0.49006116
-0.48993602 0.6022425 0.60753596 -0.072969556 0.13996361 -0.44534498 -0.26783755 0.17976795
0.17718437 -0.07138048 0.009241853 0.08589976 0.024019433 0.07459572 -0.16768996 0.15032378
0.4280112 -0.099194944 -0.18546812 0.19042529 -0.18224277 0.45323116 0.24457686 0.12567851
00000000: d89c 613d 16e9 fcbd bf69 f7bd 4117 14be
00000010: fac5 5a3c 6c14 5a3e de75 5ebe 9e9d febe
00000020: 2a3c b13e f843 5ebe cd80 d2be 3084 5dbd
00000030: fbcb bfbe 64f2 2c3d 3208 d43d 7eb4 87bd
00000040: 18a0 0cbe 09ce a8be eb80 f0be a319 c43c
00000050: 6dc0 a63e 73d6 b93d 1e8c 09bd ee61 2a3e
00000060: 8c31 55bd 06d1 513e 8c19 163e f88f 31be
00000070: 3d9c 593e a14b bfbe 59c5 39be 7a6f d4bd
00000080: 9c49 a73d bee0 13be 346d 00bd 3048 843d
00000090: 8c75 63ba 207b 39bd 18ae 8ebe 2e12 9bbe
000000a0: 8b7b 95bd 1b0b 38be c751 13be b5c0 af3d
000000b0: 4db0 91bd fda1 b5bd d725 99bd 7d56 bdbe
000000c0: 9813 103e 4fea 683e 9a30 5cbe 3fbd 52be
000000d0: 9899 cc3e 506a c63e b8f4 513e ecbc 51be
000000e0: 73fb 703e 4dd4 98bc 07df 383e 4805 4f3e
000000f0: 9202 f0bd d40c 86bc 62a7 02be 283d 7dbd
00000100: 24d0 acbd 45f1 933e 5ca8 0ebe c495 8dbe
00000110: 32c3 57bb 3c27 ee3a b8e9 19be 47a3 cbbd
00000120: 463b a13e 82dc 93be b9ca 62be 94ef 843d
00000130: 5436 abbd 5373 f23d 9886 fd3d e0c8 9b3d
00000140: 79f0 173d 101f 403c 6e77 0c3e ba3c c8bd
00000150: 6423 6c3d b35d 503e ab1c 85be c290 8bbd
00000160: 17ad aa3e b1eb 94be 58e9 a1bd 842a fd3b
00000170: 4e75 2abe 2a81 77bd fa21 a43e a398 70be
00000180: 72a3 a0be ee8d 3b3e f180 1dbe 8cd5 903e
00000190: 1de1 343e 83dc 133e 9689 b13d 74d0 a83e
000001a0: d9e8 973e 85e5 073e 0162 723c ffe5 cf3d
000001b0: fde0 3fbc fff1 b9be e67e 7cbb 3bff 663e
000001c0: 74d8 ac3e c0a3 b93e fb5f 8e3e 0e85 a9be
000001d0: 47e2 993e e00a 963e 997f 80be b21c f53b
000001e0: 5c3a 023e ca56 9dbd b763 533d 1d9e d83d
000001f0: 45a3 05be fe79 213e 3b67 0e3e aa13 13be
00000200: ace0 4c3e e292 3cbe 6153 92bd 195a 7bbc
00000210: 3a5c 7e3e ed04 a43e d864 57be 201a bfbd
00000220: f319 923e fbb7 793d 8268 c5be 417c 4a3d
00000230: b406 bebc e85c aabc 8351 033e 3f09 0bbd
00000240: 45a0 903c 2e42 86be 7206 47be 020a a63d
00000250: 2960 9cbe 5ad4 0fbd 6685 993e 237e ee3d
00000260: 27d4 0b3d 9517 45be 360a 35be 42d4 b03c
00000270: 4c28 db3b e027 d6be 5909 60bd 058f 853e
00000280: 67bc ba3d f47d a93e fa8a 863e cde2 87be
00000290: 02c1 d23b 8dc0 1c3e d953 5dbe f2d8 28be
000002a0: d41b a83c 779a 293d 846c ffbd 48bd c03d
000002b0: 5570 96be 1350 5cbe 05b0 d23e cebb eebd
000002c0: 1be9 c6bd cc2b de3c 5197 40be 81cb 5cbd
000002d0: 6494 533e f1fe 50be 3017 6cbe dd10 41be
000002e0: 3318 f53c 5cfa 243e 1814 b13d 4ebb 0bbe
000002f0: 854a a7bd 5517 c63e 2fff 8b3e d76c 853d
00000300: ff21 053d a57d 63be e9e2 393e ba55 80bd
00000310: 4814 583e 66aa 90bb 0c1a f4bd 63f0 5a3b
00000320: 9a25 153e b7cd d2bd 8853 4abd 6f20 02be
00000330: 1a3c a2bd c14a 76bc bec2 343e 77a0 9c3d
00000340: 4fad 433d dee4 8b3e 41fc 933d 5773 1e3e
00000350: c745 823e d3ba 4a3e 02f3 ffbd a403 61be
00000360: d07a c9bc ce7a 2fbe 6c0f e03d 9bee 783e
00000370: 35fd 2ebe e4b8 603c 1175 803e d312 34bd
00000380: 89e4 e8be ecd3 a1be 7c65 9abe c95b a73e
00000390: e2c2 d6be e3e9 7fbe ddd4 783e 4ce9 fa3e
000003a0: e5d8 fabe 912c 1a3f 7a87 1b3f 1071 95bd
000003b0: 9f52 0f3e 4204 e4be 0122 89be 1715 383e
000003c0: d26f 353e ee2f 92bd 246b 173c 37ec af3d
000003d0: 67c4 c43c a4c5 983d ebb6 2bbe 7aee 193e
000003e0: 4924 db3e b826 cbbd 5beb 3dbe d9fe 423e
000003f0: d99d 3abe ea0d e83e 5b72 7a3e deb1 003e

act_fun.1.scale_sp f4 [16, 16]
0.44881058 0.50695544 0.6520908 0.8394839 0.7178068 0.63893056 0.6951086 0.720206
0.5717467 0.73809433 0.81744146 0.66464895 0.65084195 0.6989617 0.5403947 0.7254035
0.4662011 0.6776681 0.66239065 0.8484185 0.6502296 0.6307809 0.6626866 0.7463731
0.6384873 0.74379903 0.7684248 0.6945624 0.625803 0.65601313 0.53411573 0.7828969
0.3054229 0.4175075 0.43573132 0.633183 0.53719306 0.48180652 0.6231516 0.46178204
0.57769084 0.65446717 0.73520035 0.49852517 0.59621835 0.65181184 0.29229772 0.69632316
0.5679038 0.6567524 0.5616403 0.72463673 0.4841965 0.7241799 0.63044304 0.66979957
0.4321081 0.63141483 0.716273 0.64660794 0.7404669 0.5532536 0.5337459 0.5611526
0.54973906 0.6337376 0.649391 0.6887215 0.58604175 0.5859265 0.6200432 0.7016125
0.57517815 0.72210443 0.6299506 0.6537183 0.63137937 0.62945867 0.56636864 0.68093246
0.5079755 0.568355 0.8438936 0.85592157 0.83475703 0.90439564 0.6994593 0.8929147
0.6864518 0.9394216 0.80594295 0.80976224 0.606807 0.6758253 0.75516635 0.84362674
0.23277852 0.3806773 0.42883888 0.49108374 0.62296736 0.49020112 0.6840553 0.5465693
0.56857014 0.50721306 0.6060472 0.50530034 0.5542017 0.6453824 0.4208477 0.714662
0.46981856 0.37617216 0.5281119 0.6195129 0.56890494 0.45713162 0.6560338 0.56402755
0.58568573 0.56263506 0.5880626 0.5747265 0.60635275 0.60016245 0.57776934 0.6335091
0.37642786 0.4927458 0.6746642 0.8790622 0.61711097 0.6791696 0.54522717 0.75931203
0.5539353 0.6639481 0.8503401 0.8174508 0.79284865 0.6306044 0.69455844 0.8147948
0.6460421 0.66256315 0.82413435 0.8702411 0.6262759 0.9169687 0.67476785 0.7474137
0.65509874 0.7597924 0.76580906 1.0022482 0.6483301 0.6650342 0.89751637 0.72447383
0.38259596 0.5103966 0.6018495 0.62757844 0.5426272 0.57080746 0.5946477 0.6363917
0.57725817 0.6873643 0.6295606 0.63962364 0.65994143 0.61898166 0.5586092 0.69567555
0.4157239 0.412192 0.50561833 0.49719316 0.5104888 0.43519816 0.5745887 0.5330726
0.52653396 0.5625275 0.5736108 0.48146084 0.592999 0.4994117 0.4730633 0.6378818
0.8015615 0.91106474 0.5713714 0.7920578 0.54595345 0.6705355 0.48960093 0.6540834
0.49147344 0.6224519 0.7132198 0.7056123 0.71963996 0.5808544 0.4897217 0.6991081
0.61059326 0.62012005 0.6889 0.7145261 0.5866782 0.65963054 0.63409054 0.7345672
0.5607367 0.6878626 0.6696272 0.7208801 0.6343843 0.60293216 0.7193185 0.6726781
0.4119982 0.53436655 0.5262693 0.6229445 0.6052382 0.57339036 0.6782226 0.57225204
0.5993971 0.62744343 0.6200269 0.53578687 0.67125344 0.6817005 0.41879544 0.5764625
0.40429002 0.37226325 0.49985325 0.5732509 0.5610766 0.43617362 0.65171003 0.565615
0.54009014 0.62095034 0.5751324 0.4862101 0.59495074 0.58878326 0.64680195 0.65493256
00000000: 80ca e53e d5c7 013f 6cef 263f 6be8 563f
00000010: 30c2 373f f490 233f a3f2 313f 6c5f 383f
00000020: fe5d 123f c0f3 3c3f d843 513f 6f26 2a3f
00000030: 949d 263f 27ef 323f 4f57 0a3f 0bb4 393f
00000040: e9b1 ee3e a87b 2d3f 6f92 293f f431 593f
00000050: 7275 263f db7a 213f d4a5 293f 4f12 3f3f
00000060: e773 233f 9d69 3e3f 7db7 443f d7ce 313f
00000070: a034 203f 7af0 273f cfbb 083f ee6b 483f
00000080: 6460 9c3e 8bc3 d53e 2d18 df3e 4818 223f
00000090: 7c85 093f 58af f63e dd86 1f3f b26e ec3e
000000a0: 8ce3 133f 298b 273f 1736 3c3f b13e ff3e
000000b0: c4a1 183f 24dd 263f 0ca8 953e 3c42 323f
000000c0: 2562 113f ed20 283f a9c7 0f3f cb81 393f
000000d0: 9be8 f73e db63 393f b764 213f fc77 2b3f
000000e0: 463d dd3e 67a4 213f ab5d 373f 1988 253f
000000f0: 3d8f 3d3f 07a2 0d3f 92a3 083f b2a7 0f3f
00000100: b3bb 0c3f a13c 223f 7d3e 263f 0d50 303f
00000110: d506 163f 47ff 153f 27bb 1e3f e09c 333f
00000120: e03e 133f d6db 383f 7144 213f 155a 273f
00000130: 14a2 213f 3424 213f 89fd 103f 9751 2e3f
00000140: af0a 023f b77f 113f 6909 583f ad1d 5b3f
00000150: a3b2 553f 7986 673f c40f 333f 0f96 643f
00000160: 4ebb 2f3f ef7d 703f 4752 4e3f 944c 4f3f
00000170: b457 1b3f e302 2d3f 9552 413f ecf7 573f
00000180: 7e5d 6e3e 23e8 c23e c590 db3e 546f fb3e
00000190: ca7a 1f3f a4fb fa3e 401e 2f3f f7eb 0b3f
000001a0: d08d 113f b7d8 013f e925 1b3f 5d5b 013f
000001b0: 2ae0 0d3f c837 253f 5a79 d73e 17f4 363f
000001c0: 0f8c f03e a399 c03e 5732 073f 6698 1e3f
000001d0: c1a3 113f 280d ea3e d5f1 273f 1c64 103f
000001e0: 80ef 153f da08 103f 458b 163f 4721 133f
000001f0: ef39 1b3f 3fa4 193f b1e8 133f a72d 223f
00000200: 27bb c03e 2d49 fc3e cbb6 2c3f 380a 613f
00000210: fcfa 1d3f 0fde 2d3f 0294 0b3f 4662 423f
00000220: b4ce 0d3f 81f8 293f e4af 593f 7544 513f
00000230: 21f8 4a3f 4a6f 213f 95ce 313f 6496 503f
00000240: 0463 253f bd9d 293f 78fa 523f 1fc8 5e3f
00000250: 9e53 203f 76be 6a3f 96bd 2c3f 8156 3f3f
00000260: 8db4 273f c181 423f 100c 443f ab49 803f
00000270: f6f8 253f ae3f 2a3f a2c3 653f 1e77 393f
00000280: 9ee3 c33e 5aa9 023f cf12 1a3f fba8 203f
00000290: 9ee9 0a3f 7020 123f d53a 183f 91ea 223f
000002a0: 31c7 133f 1bf7 2f3f e22a 213f 60be 233f
000002b0: ecf1 283f 9575 1e3f 0301 0f3f cb17 323f
000002c0: c3d9 d43e d40a d33e 3470 013f 1a90 fe3e
000002d0: 65af 023f 4bd2 de3e 3f18 133f 7277 083f
000002e0: eeca 063f cd01 103f 28d8 123f 0982 f63e
000002f0: c8ce 173f e4b2 ff3e 5a35 f23e 394c 233f
00000300: 2233 4d3f 8a3b 693f 6545 123f 4dc4 4a3f
00000310: 9bc3 0b3f 37a8 2b3f f9ac fa3e 0272 273f
00000320: 68a2 fb3e 0259 1f3f 9395 363f 02a3 343f
00000330: 533a 383f e0b2 143f cdbc fa3e c0f8 323f
00000340: d74f 1c3f 30c0 1e3f c05b 303f 2feb 363f
00000350: 8b30 163f 8cdd 283f c253 223f 990c 3c3f
00000360: 718c 0f3f c317 303f b06c 2b3f 998b 383f
00000370: 0267 223f c359 1a3f 4225 383f a234 2c3f
00000380: 6ef1 d23e 3fcc 083f 96b9 063f 4a79 1f3f
00000390: e4f0 1a3f b6c9 123f ff9f 2d3f 1c7f 123f
000003a0: 1772 193f 22a0 203f 15ba 1e3f 5429 093f
000003b0: 44d7 2b3f ed83 2e3f 5b6c d63e 0c93 133f
000003c0: 1aff ce3e 4a99 be3e c4ec ff3e 92c0 123f
000003d0: b7a2 0f3f 2652 df3e 78d6 263f 25cc 103f
000003e0: 5943 0a3f 9af6 1e3f e13b 133f 88f0 f83e
000003f0: b14e 183f 80ba 163f d094 253f a9a9 273f

act_fun.2.grid f4 [16, 13]
-1.5 -1.25 -1.0 -0.75 -0.5 -0.25 0.0 0.25
0.5 0.75 1.0 1.25 1.5 -1.5 -1.25 -1.0
-0.75 -0.5 -0.25 0.0 0.25 0.5 0.75 1.0
1.25 1.5 -1.5 -1.25 -1.0 -0.75 -0.5 -0.25
0.0 0.25 0.5 0.75 1.0 1.25 1.5 -1.5
-1.25 -1.0 -0.75 -0.5 -0.25 0.0 0.25 0.5
0.75 1.0 1.25 1.5 -1.5 -1.25 -1.0 -0.75
-0.5 -0.25 0.0 0.25 0.5 0.75 1.0 1.25
1.5 -1.5 -1.25 -1.0 -0.75 -0.5 -0.25 0.0
0.25 0.5 0.75 1.0 1.25 1.5 -1.5 -1.25
-1.0 -0.75 -0.5 -0.25 0.0 0.25 0.5 0.75
1.0 1.25 1.5 -1.5 -1.25 -1.0 -0.75 -0.5
-0.25 0.0 0.25 0.5 0.75 1.0 1.25 1.5
-1.5 -1.25 -1.0 -0.75 -0.5 -0.25 0.0 0.25
0.5 0.75 1.0 1.25 1.5 -1.5 -1.25 -1.0
-0.75 -0.5 -0.25 0.0 0.25 0.5 0.75 1.0
1.25 1.5 -1.5 -1.25 -1.0 -0.75 -0.5 -0.25
0.0 0.25 0.5 0.75 1.0 1.25 1.5 -1.5
-1.25 -1.0 -0.75 -0.5 -0.25 0.0 0.25 0.5
0.75 1.0 1.25 1.5 -1.5 -1.25 -1.0 -0.75
-0.5 -0.25 0.0 0.25 0.5 0.75 1.0 1.25
1.5 -1.5 -1.25 -1.0 -0.75 -0.5 -0.25 0.0
0.25 0.5 0.75 1.0 1.25 1.5 -1.5 -1.25
-1.0 -0.75 -0.5 -0.25 0.0 0.25 0.5 0.75
1.0 1.25 1.5 -1.5 -1.25 -1.0 -0.75 -0.5
-0.25 0.0 0.25 0.5 0.75 1.0 1.25 1.5
00000000: 0000 c0bf 0000 a0bf 0000 80bf 0000 40bf
00000010: 0000 00bf 0000 80be 0000 0000 0000 803e
00000020: 0000 003f 0000 403f 0000 803f 0000 a03f
00000030: 0000 c03f 0000 c0bf 0000 a0bf 0000 80bf
00000040: 0000 40bf 0000 00bf 0000 80be 0000 0000
00000050: 0000 803e 0000 003f 0000 403f 0000 803f
00000060: 0000 a03f 0000 c03f 0000 c0bf 0000 a0bf
00000070: 0000 80bf 0000 40bf 0000 00bf 0000 80be
00000080: 0000 0000 0000 803e 0000 003f 0000 403f
00000090: 0000 803f 0000 a03f 0000 c03f 0000 c0bf
000000a0: 0000 a0bf 0000 80bf 0000 40bf 0000 00bf
000000b0: 0000 80be 0000 0000 0000 803e 0000 003f
000000c0: 0000 403f 0000 803f 0000 a03f 0000 c03f
000000d0: 0000 c0bf 0000 a0bf 0000 80bf 0000 40bf
000000e0: 0000 00bf 0000 80be 0000 0000 0000 803e
000000f0: 0000 003f 0000 403f 0000 803f 0000 a03f
00000100: 0000 c03f 0000 c0bf 0000 a0bf 0000 80bf
00000110: 0000 40bf 0000 00bf 0000 80be 0000 0000
00000120: 0000 803e 0000 003f 0000 403f 0000 803f
00000130: 0000 a03f 0000 c03f 0000 c0bf 0000 a0bf
00000140: 0000 80bf 0000 40bf 0000 00bf 0000 80be
00000150: 0000 0000 0000 803e 0000 003f 0000 403f
00000160: 0000 803f 0000 a03f 0000 c03f 0000 c0bf
00000170: 0000 a0bf 0000 80bf 0000 40bf 0000 00bf
00000180: 0000 80be 0000 0000 0000 803e 0000 003f
00000190: 0000 403f 0000 803f 0000 a03f 0000 c03f
000001a0: 0000 c0bf 0000 a0bf 0000 80bf 0000 40bf
000001b0: 0000 00bf 0000 80be 0000 0000 0000 803e
000001c0: 0000 003f 0000 403f 0000 803f 0000 a03f
000001d0: 0000 c03f 0000 c0bf 0000 a0bf 0000 80bf
000001e0: 0000 40bf 0000 00bf 0000 80be 0000 0000
000001f0: 0000 803e 0000 003f 0000 403f 0000 803f
00000200: 0000 a03f 0000 c03f 0000 c0bf 0000 a0bf
00000210: 0000 80bf 0000 40bf 0000 00bf 0000 80be
00000220: 0000 0000 0000 803e 0000 003f 0000 403f
00000230: 0000 803f 0000 a03f 0000 c03f 0000 c0bf
00000240: 0000 a0bf 0000 80bf 0000 40bf 0000 00bf
00000250: 0000 80be 0000 0000 0000 803e 0000 003f
00000260: 0000 403f 0000 803f 0000 a03f 0000 c03f
00000270: 0000 c0bf 0000 a0bf 0000 80bf 0000 40bf
00000280: 0000 00bf 0000 80be 0000 0000 0000 803e
00000290: 0000 003f 0000 403f 0000 803f 0000 a03f
000002a0: 0000 c03f 0000 c0bf 0000 a0bf 0000 80bf
000002b0: 0000 40bf 0000 00bf 0000 80be 0000 0000
000002c0: 0000 803e 0000 003f 0000 403f 0000 803f
000002d0: 0000 a03f 0000 c03f 0000 c0bf 0000 a0bf
000002e0: 0000 80bf 0000 40bf 0000 00bf 0000 80be
000002f0: 0000 0000 0000 803e 0000 003f 0000 403f
00000300: 0000 803f 0000 a03f 0000 c03f 0000 c0bf
00000310: 0000 a0bf 0000 80bf 0000 40bf 0000 00bf
00000320: 0000 80be 0000 0000 0000 803e 0000 003f
00000330: 0000 403f 0000 803f 0000 a03f 0000 c03f

act_fun.2.coef f4 [16, 1, 10]
0.6734992 0.04855725 0.042340223 -0.30240726 -0.3557885 0.3672798 0.34168997 0.43498862
0.9250182 0.025855094 -1.061367 -1.0493368 -0.115940385 -0.15172818 -0.36669028 0.29791445
0.3397691 0.36046264 0.7368062 0.5282365 -0.5534456 -0.26145965 -0.30718672 -0.31137332
-0.38558298 0.43011394 0.2963407 0.42723584 0.7274786 1.0396259 0.9675727 0.78645873
0.6309752 0.4186748 0.4147109 -0.38518897 -0.26482382 -0.2644284 -0.2153535 -0.25190014
-0.23320381 -0.22253336 -0.18450779 -0.17339236 -0.17989503 0.3010167 0.17551324 0.06414708
-0.0190468 0.55583644 -0.72201955 -0.42954043 -0.24167225 -0.32228857 -0.35654727 0.34741277
0.3437053 0.32260796 0.23902729 0.072468884 0.21469648 0.37290907 0.27218089 0.34697714
-0.15729742 -0.18833145 -0.15030684 -0.1556425 -0.09265469 -0.27425668 0.7779304 0.5162726
0.5572162 0.32780293 0.39927715 -0.36443523 -0.29611343 -0.28194222 -0.23557058 -0.23781043
-0.31465128 -0.15469384 -0.18825957 -0.11747998 -0.1367583 -0.0016679203 0.28800443 -0.034063242
0.33501807 0.3445772 0.6159852 0.4153055 0.27002847 0.43107703 0.021784062 -0.38429677
-0.19290243 -0.31418094 -0.16731872 -0.21900876 0.68912077 0.23904416 0.25940695 0.3635473
0.4213236 -0.32949013 -0.2705888 -0.24444452 -0.25684822 -0.14708605 -0.2943019 -0.30484793
-0.23916663 -0.2661654 -0.27973068 0.37922737 0.3742575 0.58729446 0.72844756 1.0901971
0.10703665 0.18498972 0.22133815 0.24303934 0.4095122 -0.3266192 -0.2656041 -0.25582206
-0.2096995 -0.18891568 -0.5642362 -0.42030025 -0.25764638 -0.26411933 -0.21856937 0.030498983
0.0901579 0.24215001 0.08533347 0.07356973 -0.18899913 -0.63416916 0.053983446 -0.025501994
-0.2777388 -0.57788944 0.46984246 0.45667392 0.83985686 0.8927913 0.34007144 0.23463768
0.30538815 0.24480979 0.47876686 -0.2716242 -0.24156801 -0.18403384 -0.19880936 -0.19009382
00000000: 726a 2c3f f8e3 463d f16c 2d3d 20d5 9abe
00000010: e929 b6be 190c bc3e fdf1 ae3e d4b6 de3e
00000020: fecd 6c3f 10ce d33c e0da 87bf ab50 86bf
00000030: 2772 edbd a25e 1bbe d4be bbbe 3e88 983e
00000040: 37f6 ad3e 8f8e b83e 559f 3c3f 823a 073f
00000050: 9cae 0dbf 0ade 85be 9447 9dbe 536c 9fbe
00000060: 226b c5be e537 dc3e f8b9 973e a8be da3e
00000070: 0a3c 3a3f 7612 853f d8b2 773f 5c55 493f
00000080: 9787 213f 8b5c d63e fd54 d43e 7d37 c5be
00000090: fd96 87be 2963 87be a185 5cbe 0ef9 80be
000000a0: fbcc 6ebe c9df 63be 9cef 3cbe c48d 31be
000000b0: 6736 38be dc1e 9a3e beb9 333e 8b5f 833d
000000c0: 0908 9cbc 4c4b 0e3f 46d6 38bf b9ec dbbe
000000d0: ee78 77be 0203 a5be 5d8d b6be 16e0 b13e
000000e0: 24fa af3e df2c a53e 92c3 743e 916a 943d
000000f0: 65d9 5b3e f0ed be3e 4b5b 8b3e fda6 b13e
00000100: 9312 21be f6d9 40be 09ea 19be bf60 1fbe
00000110: bec1 bdbd 5f6b 8cbe 7226 473f 712a 043f
00000120: b9a5 0e3f c9d5 a73e 0e6e cc3e 4197 babe
00000130: 2e9c 97be bb5a 90be 6a39 71be 9484 73be
00000140: f919 a1be 1068 1ebe 1ec7 40be 5899 f0bd
00000150: 5e0a 0cbe 1e9e daba 5175 933e e685 0bbd
00000160: 7d87 ab3e 6c6c b03e 35b1 1d3f eca2 d43e
00000170: 2c41 8a3e 21b6 dc3e 7d74 b23c 8cc2 c4be
00000180: 3788 45be 53dc a0be 9955 2bbe d543 60be
00000190: 386a 303f fec7 743e fdd0 843e df22 ba3e
000001a0: bab7 d73e eeb2 a8be 9d8a 8abe aa4f 7abe
000001b0: 9c81 83be ba9d 16be bdae 96be 0715 9cbe
000001c0: 19e8 74be d546 88be dc38 8fbe 172a c23e
000001d0: ae9e bf3e ee58 163f 8a7b 3a3f 948b 8b3f
000001e0: 0836 db3d f26d 3d3e 78a6 623e 4edf 783e
000001f0: 95ab d13e a23a a7be 43fd 87be 1cfb 82be
00000200: 77bb 56be 1d73 41be c971 10bf 9831 d7be
00000210: 3aea 83be a63a 87be a6d0 5fbe 01d9 f93c
00000220: b4a4 b83d 2cf6 773e 50c3 ae3d baab 963d
00000230: fd88 41be e958 22bf bf1d 5d3d 8fe9 d0bc
00000240: c833 8ebe 90f0 13bf 318f f03e 2ad1 e93e
00000250: dc00 573f f88d 643f d81d ae3e dc44 703e
00000260: d65b 9c3e 6baf 7a3e ee20 f53e 5412 8bbe
00000270: 9b5d 77be 5e73 3cbe ae94 4bbe f4a7 42be

act_fun.2.mask f4 [16, 1]
1.0 1.0 1.0 1.0 1.0 1.0 1.0 1.0
1.0 1.0 1.0 1.0 1.0 1.0 1.0 1.0
00000000: 0000 803f 0000 803f 0000 803f 0000 803f
00000010: 0000 803f 0000 803f 0000 803f 0000 803f
00000020: 0000 803f 0000 803f 0000 803f 0000 803f
00000030: 0000 803f 0000 803f 0000 803f 0000 803f

act_fun.2.scale_base f4 [16, 1]
0.3109748 0.28114584 0.3951202 -0.3990181 0.5578204 0.3364372 -0.60808104 -0.40662462
0.5336835 -0.47614715 -0.40634057 0.34175748 -0.5607423 0.5508946 0.30385014 -0.55447865
00000000: 1738 9f3e 59f2 8f3e 324d ca3e 1a4c ccbe
00000010: 51cd 0e3f 7f41 ac3e 33ab 1bbf 1a31 d0be
00000020: 7b9f 083f 8fc9 f3be df0b d0be d6fa ae3e
00000030: cf8c 0fbf 6e07 0d3f 3f92 9b3e 50f2 0dbf

act_fun.2.scale_sp f4 [16, 1]
0.674726 0.6740498 0.73204595 0.8373388 0.71387935 0.69386995 0.65326977 0.72334194
0.61147547 0.7024918 0.749835 0.77459455 0.72816783 0.5314001 1.1130823 0.8352133
00000000: d8ba 2c3f 878e 2c3f 5d67 3b3f d65b 563f
00000010: ccc0 363f 76a1 313f b03c 273f f02c 393f
00000020: a889 1c3f 81d6 333f 30f5 3f3f d44b 463f
00000030: 3569 3a3f d609 083f 7b79 8e3f 8ad0 553f

symbolic_fun.0.mask f4 [16, 4]
0.0 0.0 0.0 0.0 0.0 0.0 0.0 0.0
0.0 0.0 0.0 0.0 0.0 0.0 0.0 0.0
0.0 0.0 0.0 0.0 0.0 0.0 0.0 0.0
0.0 0.0 0.0 0.0 0.0 0.0 0.0 0.0
0.0 0.0 0.0 0.0 0.0 0.0 0.0 0.0
0.0 0.0 0.0 0.0 0.0 0.0 0.0 0.0
0.0 0.0 0.0 0.0 0.0 0.0 0.0 0.0
0.0 0.0 0.0 0.0 0.0 0.0 0.0 0.0
00000000: 0000 0000 0000 0000 0000 0000 0000 0000
00000010: 0000 0000 0000 0000 0000 0000 0000 0000
00000020: 0000 0000 0000 0000 0000 0000 0000 0000
00000030: 0000 0000 0000 0000 0000 0000 0000 0000
00000040: 0000 0000 0000 0000 0000 0000 0000 0000
00000050: 0000 0000 0000 0000 0000 0000 0000 0000
00000060: 0000 0000 0000 0000 0000 0000 0000 0000
00000070: 0000 0000 0000 0000 0000 0000 0000 0000
00000080: 0000 0000 0000 0000 0000 0000 0000 0000
00000090: 0000 0000 0000 0000 0000 0000 0000 0000
000000a0: 0000 0000 0000 0000 0000 0000 0000 0000
000000b0: 0000 0000 0000 0000 0000 0000 0000 0000
000000c0: 0000 0000 0000 0000 0000 0000 0000 0000
000000d0: 0000 0000 0000 0000 0000 0000 0000 0000
000000e0: 0000 0000 0000 0000 0000 0000 0000 0000
000000f0: 0000 0000 0000 0000 0000 0000 0000 0000
