models_grid/purkinje_I20_T1000_W[16, 0]_G8_K3.pt (torch, 39990 bytes, 29 tensors)

node_bias_0 f4 [16]
0.0 0.0 0.0 0.0 0.0 0.0 0.0 0.0
0.0 0.0 0.0 0.0 0.0 0.0 0.0 0.0
00000000: 0000 0000 0000 0000 0000 0000 0000 0000
00000010: 0000 0000 0000 0000 0000 0000 0000 0000
00000020: 0000 0000 0000 0000 0000 0000 0000 0000
00000030: 0000 0000 0000 0000 0000 0000 0000 0000

node_scale_0 f4 [16]
1.0 1.0 1.0 1.0 1.0 1.0 1.0 1.0
1.0 1.0 1.0 1.0 1.0 1.0 1.0 1.0
00000000: 0000 803f 0000 803f 0000 803f 0000 803f
00000010: 0000 803f 0000 803f 0000 803f 0000 803f
00000020: 0000 803f 0000 803f 0000 803f 0000 803f
00000030: 0000 803f 0000 803f 0000 803f 0000 803f

subnode_bias_0 f4 [16]
0.0 0.0 0.0 0.0 0.0 0.0 0.0 0.0
0.0 0.0 0.0 0.0 0.0 0.0 0.0 0.0
00000000: 0000 0000 0000 0000 0000 0000 0000 0000
00000010: 0000 0000 0000 0000 0000 0000 0000 0000
00000020: 0000 0000 0000 0000 0000 0000 0000 0000
00000030: 0000 0000 0000 0000 0000 0000 0000 0000

subnode_scale_0 f4 [16]
1.0 1.0 1.0 1.0 1.0 1.0 1.0 1.0
1.0 1.0 1.0 1.0 1.0 1.0 1.0 1.0
00000000: 0000 803f 0000 803f 0000 803f 0000 803f
00000010: 0000 803f 0000 803f 0000 803f 0000 803f
00000020: 0000 803f 0000 803f 0000 803f 0000 803f
00000030: 0000 803f 0000 803f 0000 803f 0000 803f

node_bias_1 f4 [16]
0.0 0.0 0.0 0.0 0.0 0.0 0.0 0.0
0.0 0.0 0.0 0.0 0.0 0.0 0.0 0.0
00000000: 0000 0000 0000 0000 0000 0000 0000 0000
00000010: 0000 0000 0000 0000 0000 0000 0000 0000
00000020: 0000 0000 0000 0000 0000 0000 0000 0000
00000030: 0000 0000 0000 0000 0000 0000 0000 0000

node_scale_1 f4 [16]
1.0 1.0 1.0 1.0 1.0 1.0 1.0 1.0
1.0 1.0 1.0 1.0 1.0 1.0 1.0 1.0
00000000: 0000 803f 0000 803f 0000 803f 0000 803f
00000010: 0000 803f 0000 803f 0000 803f 0000 803f
00000020: 0000 803f 0000 803f 0000 803f 0000 803f
00000030: 0000 803f 0000 803f 0000 803f 0000 803f

subnode_bias_1 f4 [16]
0.0 0.0 0.0 0.0 0.0 0.0 0.0 0.0
0.0 0.0 0.0 0.0 0.0 0.0 0.0 0.0
00000000: 0000 0000 0000 0000 0000 0000 0000 0000
00000010: 0000 0000 0000 0000 0000 0000 0000 0000
00000020: 0000 0000 0000 0000 0000 0000 0000 0000
00000030: 0000 0000 0000 0000 0000 0000 0000 0000

subnode_scale_1 f4 [16]
1.0 1.0 1.0 1.0 1.0 1.0 1.0 1.0
1.0 1.0 1.0 1.0 1.0 1.0 1.0 1.0
00000000: 0000 803f 0000 803f 0000 803f 0000 803f
00000010: 0000 803f 0000 803f 0000 803f 0000 803f
00000020: 0000 803f 0000 803f 0000 803f 0000 803f
00000030: 0000 803f 0000 803f 0000 803f 0000 803f

act_fun.0.grid f4 [4, 15]
-1.75 -1.5 -1.25 -1.0 -0.75 -0.5 -0.25 0.0
0.25 0.5 0.75 1.0 1.25 1.5 1.75 -1.75
-1.5 -1.25 -1.0 -0.75 -0.5 -0.25 0.0 0.25
0.5 0.75 1.0 1.25 1.5 1.75 -1.75 -1.5
-1.25 -1.0 -0.75 -0.5 -0.25 0.0 0.25 0.5
0.75 1.0 1.25 1.5 1.75 -1.75 -1.5 -1.25
-1.0 -0.75 -0.5 -0.25 0.0 0.25 0.5 0.75
1.0 1.25 1.5 1.75
00000000: 0000 e0bf 0000 c0bf 0000 a0bf 0000 80bf
00000010: 0000 40bf 0000 00bf 0000 80be 0000 0000
00000020: 0000 803e 0000 003f 0000 403f 0000 803f
00000030: 0000 a03f 0000 c03f 0000 e03f 0000 e0bf
00000040: 0000 c0bf 0000 a0bf 0000 80bf 0000 40bf
00000050: 0000 00bf 0000 80be 0000 0000 0000 803e
00000060: 0000 003f 0000 403f 0000 803f 0000 a03f
00000070: 0000 c03f 0000 e03f 0000 e0bf 0000 c0bf
00000080: 0000 a0bf 0000 80bf 0000 40bf 0000 00bf
00000090: 0000 80be 0000 0000 0000 803e 0000 003f
000000a0: 0000 403f 0000 803f 0000 a03f 0000 c03f
000000b0: 0000 e03f 0000 e0bf 0000 c0bf 0000 a0bf
000000c0: 0000 80bf 0000 40bf 0000 00bf 0000 80be
000000d0: 0000 0000 0000 803e 0000 003f 0000 403f
000000e0: 0000 803f 0000 a03f 0000 c03f 0000 e03f

act_fun.0.coef f4 [4, 16, 11]
-0.7314115 -0.27377442 -0.3153224 -0.2548562 -0.30950254 -0.2571634 -0.2898962 -0.29589805
-0.27401546 -0.28328586 -0.5160085 0.7478035 0.28868926 0.2804924 0.31711602 0.26903015
0.30242005 0.2601739 0.30650517 0.23357704 0.30686083 0.5200022 0.7344123 0.2119545
0.21806154 0.1715824 0.1975809 0.13583837 0.086360455 -0.010831867 -0.116538025 -0.17307895
-0.44603777 -0.6501779 -0.27133814 -0.2782285 -0.2533271 -0.2689408 -0.21092145 -0.18487358
-0.11448398 -0.0027708474 0.12983607 0.43907472 0.6061868 0.27682537 0.26547596 0.31151927
0.2707868 0.27413425 0.23369658 0.08162324 -0.05309632 -0.21204169 -0.42455512 -0.7330941
-0.26752332 -0.3150487 -0.25512582 -0.26093334 -0.23061194 -0.26570916 -0.2511941 -0.23548608
-0.25418136 -0.52179116 0.9788638 0.19435325 0.19457002 0.15762834 0.1644214 0.1361888
0.16710167 0.19633217 0.25789624 0.24233529 0.4613867 0.5455315 0.22736236 0.18429837
0.22794439 0.13707447 0.17111832 0.06042016 -0.035653878 -0.17248134 -0.2498906 -0.43982527
-0.93605626 -0.19098333 -0.17754184 -0.16826826 -0.18072613 -0.16494662 -0.20629647 -0.16668807
-0.18763065 -0.20529035 -0.48602718 -0.5625944 -0.23487152 -0.22618973 -0.20534958 -0.22154312
-0.18264358 -0.12011244 -0.055903394 0.11045988 0.23299465 0.4431286 -0.626191 -0.29715008
-0.28082696 -0.32369193 -0.25992283 -0.26499283 -0.17962155 -0.07359722 0.0615631 0.19673164
0.43071076 0.6124981 0.28913355 0.29777008 0.25259137 0.27505675 0.19961269 0.1508267
0.056686673 -0.12961161 -0.22950783 -0.43221715 0.66699374 0.30089623 0.30113795 0.26219344
0.28529957 0.24106906 0.17086503 0.10568399 -0.01062994 -0.16766235 -0.4272057 0.61098075
0.28344256 0.3121479 0.2785328 0.29170018 0.2641012 0.20364365 0.09346514 -0.108558014
-0.20620035 -0.40212023 0.8152475 0.23707567 0.20303129 0.2125491 0.2187962 0.2344154
0.22451496 0.26455355 0.25696343 0.27230093 0.5598371 0.56575096 0.22934318 0.23650444
0.21094757 0.14973946 0.12948851 0.046626408 -0.036830567 -0.16507523 -0.23943558 -0.4242887
0.0047233775 0.009408696 -0.026051972 0.015697815 0.10192697 0.11495753 0.088073194 -0.010934549
0.002158342 -0.01063212 -0.0031145003 0.0027678069 0.0046271384 -0.02172578 -0.0026062937 -0.07538365
-0.053169385 -0.111149244 0.024136884 0.011567311 -0.01881047 -0.0052186246 0.007268129 0.024578527
-0.007238491 0.011217065 -0.11490247 -0.13612427 -0.11041206 0.0035554804 -0.02359718 0.010739223
0.004565941 0.0035139546 0.010259928 -0.009544785 0.008748405 0.2631284 0.2341546 0.26608545
-0.025628252 -0.0016591996 0.0076717664 0.0015824527 -0.0040788967 -0.013149324 0.014780497 0.02010127
-0.2425713 -0.23137131 -0.22586879 -0.0029376368 -0.002025906 0.012144154 0.0033836514 -0.0016287789
-0.012041951 -0.01814906 0.019485403 0.1668759 0.14950514 0.13593696 -0.01801599 -0.014510803
0.011053714 0.0037287155 0.0013104249 0.00049387105 -0.022142664 -0.011933701 -0.043454293 -0.09232406
-0.09191496 -0.009385336 -0.0040635727 -0.003106642 -0.000671205 -0.0055187643 -0.015808543 0.02022712
00000000: c93d 3bbf 292c 8cbe f071 a1be 837c 82be
00000010: 1e77 9ebe ecaa 83be 466d 94be f37f 97be
00000020: c14b 8cbe d80a 91be 2219 04bf 0d70 3f3f
00000030: 14cf 933e b39c 8f3e 085d a23e 52be 893e
00000040: cdd6 9a3e 8335 853e 3fee 9c3e d22e 6f3e
00000050: dd1c 9d3e dd1e 053f 7202 3c3f 9a0a 593e
00000060: 864b 5f3e 4cb3 2f3e a652 4a3e 3719 0b3e
00000070: c0dd b03d 2578 31bc 7dab eebd 9c3b 31be
00000080: 105f e4be 0f72 26bf d5ec 8abe f773 8ebe
00000090: 17b4 81be 9cb2 89be cbfb 57be 804f 3dbe
000000a0: 9476 eabd 1b97 35bb bff3 043e 67ce e03e
000000b0: 0f2f 1b3f 0ebc 8d3e 77ec 873e 747f 9f3e
000000c0: 91a4 8a3e 535b 8c3e 284e 6f3e 162a a73d
000000d0: 877b 59bd 7521 59be 4a5f d9be 0eac 3bbf
000000e0: d1f8 88be 104e a1be da9f 82be 0e99 85be
000000f0: 8925 6cbe 080b 88be 839c 80be 4323 71be
00000100: 0f24 82be 1b94 05bf d196 7a3f 8a04 473e
00000110: 5d3d 473e 5369 213e 155e 283e 1475 0b3e
00000120: b31c 2b3e 4d0b 493e fa0a 843e be26 783e
00000130: e13a ec3e f4a7 0b3f aed1 683e b6b8 3c3e
00000140: 416a 693e 405d 0c3e a439 2f3e 217b 773d
00000150: cd09 12bd f39e 30be 52e3 7fbe c730 e1be
00000160: 62a1 6fbf 2291 43be 87cd 35be 844e 2cbe
00000170: 4510 39be c4e7 28be 623f 53be 47b0 2abe
00000180: 4022 40be a237 52be 8ed8 f8be 3006 10bf
00000190: 2982 70be 489e 67be 2947 52be 33dc 62be
000001a0: eb06 3bbe 83fd f5bd f5fa 64bd ca38 e23d
000001b0: 2696 6e3e c0e1 e23e 0e4e 20bf 0e24 98be
000001c0: 8dc8 8fbe f3ba a5be 9b14 85be 24ad 87be
000001d0: b6ee 37be 24ba 96bd 9729 7c3d 0574 493e
000001e0: 1f86 dc3e adcc 1c3f 5009 943e 5275 983e
000001f0: a853 813e 3dd4 8c3e 4567 4c3e 5072 1a3e
00000200: 4930 683d e8b8 04be 1a04 6bbe 914b ddbe
00000210: 1ac0 2a3f 120f 9a3e c12e 9a3e 383e 863e
00000220: c912 923e cfda 763e 3ef7 2e3e d970 d83d
00000230: 3329 2ebc aeaf 2bbe b5ba dabe 3c69 1c3f
00000240: 621f 913e d9d1 9f3e da9b 8e3e ba59 953e
00000250: 4638 873e f687 503e a76a bf3d aa53 debd
00000260: 2f26 53be b4e2 cdbe 0fb4 503f f7c3 723e
00000270: 6fe7 4f3e 79a6 593e 1c0c 603e 970a 703e
00000280: 40e7 653e 9073 873e b690 833e 076b 8b3e
00000290: 7c51 0f3f 0ed5 103f f0d8 6a3e 382e 723e
000002a0: a402 583e 4d55 193e a398 043e 55fb 3e3d
000002b0: a6db 16bd 7b09 29be 9a2e 75be 5e3c d9be
000002c0: 90c6 9a3b ee26 1a3c f26a d5bc b498 803c
000002d0: 16bf d03d da6e eb3d b85f b43d d326 33bc
000002e0: f872 0d3b 5832 2ebc a51c 4cbb 1864 353b
000002f0: 409f 973b 43fa b1bc 5ace 2abb be62 9abd
00000300: 24c8 59bd 37a2 e3bd b7ba c53c d284 3d3c
00000310: 6a18 9abc ff00 abbb 7c29 ee3b e858 c93c
00000320: dd30 edbb c8c7 373c fc51 ebbd 2964 0bbe
00000330: b81f e2bd 1003 693b e04e c1bc 91f3 2f3c
00000340: e49d 953b 604a 663b 4219 283c bb61 1cbc
00000350: 7855 0f3c c4b8 863e 39c6 6f3e 5a3c 883e
00000360: 57f2 d1bc 8079 d9ba 7163 fb3b 4d6a cf3a
00000370: 44a8 85bb 4370 57bc e629 723c 6bab a43c
00000380: 9c64 78be 9aec 6cbe 264a 67be 5e85 40bb
00000390: 10c5 04bb 46f8 463c 40c0 5d3b c07c d5ba
000003a0: 9a4b 45bc 56ad 94bc da9f 9f3c 84e1 2a3e
000003b0: e017 193e 0f33 0b3e 4596 93bc b8be 6dbc
000003c0: a31a 353c 775d 743b 90c2 ab3a 2077 013a
000003d0: 8864 b5bc 9285 43bc 21fd 31bd 6614 bdbd
000003e0: e93d bcbd f4c4 19bc b827 85bb ce98 4bbb
000003f0: cef3 2fba c0d6 b4bb eb80 81bc 58b3 a53c

act_fun.0.mask f4 [4, 16]
1.0 1.0 1.0 1.0 1.0 1.0 1.0 1.0
1.0 1.0 1.0 1.0 1.0 1.0 1.0 1.0
1.0 1.0 1.0 1.0 1.0 1.0 1.0 1.0
1.0 1.0 1.0 1.0 1.0 1.0 1.0 1.0
1.0 1.0 1.0 1.0 1.0 1.0 1.0 1.0
1.0 1.0 1.0 1.0 1.0 1.0 1.0 1.0
1.0 1.0 1.0 1.0 1.0 1.0 1.0 1.0
1.0 1.0 1.0 1.0 1.0 1.0 1.0 1.0
00000000: 0000 803f 0000 803f 0000 803f 0000 803f
00000010: 0000 803f 0000 803f 0000 803f 0000 803f
00000020: 0000 803f 0000 803f 0000 803f 0000 803f
00000030: 0000 803f 0000 803f 0000 803f 0000 803f
00000040: 0000 803f 0000 803f 0000 803f 0000 803f
00000050: 0000 803f 0000 803f 0000 803f 0000 803f
00000060: 0000 803f 0000 803f 0000 803f 0000 803f
00000070: 0000 803f 0000 803f 0000 803f 0000 803f
00000080: 0000 803f 0000 803f 0000 803f 0000 803f
00000090: 0000 803f 0000 803f 0000 803f 0000 803f
000000a0: 0000 803f 0000 803f 0000 803f 0000 803f
000000b0: 0000 803f 0000 803f 0000 803f 0000 803f
000000c0: 0000 803f 0000 803f 0000 803f 0000 803f
000000d0: 0000 803f 0000 803f 0000 803f 0000 803f
000000e0: 0000 803f 0000 803f 0000 803f 0000 803f
000000f0: 0000 803f 0000 803f 0000 803f 0000 803f

act_fun.0.scale_base f4 [4, 16]
0.11370138 -0.11277477 0.38027355 -0.31515813 0.372965 0.115380235 -0.48455292 0.58845973
0.11440699 -0.39779055 -0.3923718 0.395681 0.2907983 0.39773118 -0.18333246 0.4294321
0.24858922 0.15462857 -0.115722954 0.48199427 0.101181865 -0.12900686 -0.0071088076 0.49152422
0.33582544 -0.03705311 0.49018276 0.21956772 -0.26620853 -0.4550345 0.2905693 0.46891636
-0.20503233 0.14835751 -0.31046465 0.026208911 -0.1887878 0.19553557 0.28590786 0.26505643
0.2399346 0.30410823 0.4706234 0.10281914 -0.052512135 -0.21716803 0.41279432 -0.02450726
0.47835767 0.65017766 -0.09730909 0.510176 -0.049647704 0.59970963 0.5709242 -0.3107106
0.14490281 -0.33531618 -0.34727672 -0.09253013 -0.011412114 -0.095516175 -0.28477278 -0.43414968
00000000: 45dc e83d 75f6 e6bd 37b3 c23e 685c a1be
00000010: 45f5 be3e 794c ec3d 5217 f8be 4ca5 163f
00000020: 364e ea3d 34ab cbbe f5e4 c8be b396 ca3e
00000030: 84e3 943e 6ca3 cb3e 81bb 3bbe 86de db3e
00000040: 2c8e 7e3e f456 1e3e 2800 edbd f4c7 f63e
00000050: 7038 cf3d 601a 04be 00f1 e8bb 10a9 fb3e
00000060: 50f1 ab3e 00c5 17bd 3cf9 fa3e 5cd6 603e
00000070: 7c4c 88be 48fa e8be 80c5 943e ce15 f03e
00000080: fff3 51be 08eb 173e 39f5 9ebe 12b4 d63c
00000090: 9751 41be 7a3a 483e 8462 923e 7ab5 873e
000000a0: 6ab1 753e 13b4 9b3e 8df5 f03e d792 d23d
000000b0: f716 57bd 4c61 5ebe c759 d33e 73c3 c8bc
000000c0: 4ceb f43e 0b72 263f fd49 c7bd e59a 023f
000000d0: 645b 4bbd 9286 193f 1728 123f 7615 9fbe
000000e0: 6761 143e 90ae abbe 41ce b1be 7080 bdbd
000000f0: e0f9 3abc fc9d c3bd bdcd 91be de48 debe

act_fun.0.scale_sp f4 [4, 16]
1.1081803 1.1507789 1.1876045 1.0409623 1.0059241 1.1086346 1.3963988 1.0627794
1.3186868 1.0388684 1.0118785 0.9908041 1.0822493 0.98616487 1.2360276 1.061611
0.4776001 0.46214154 0.6094358 0.71757936 0.722639 0.57437384 0.47746137 0.5415336
0.5114265 0.6109052 0.5824655 0.67238134 0.7591413 0.6094317 0.70726544 0.4957366
0.63342005 0.63570654 0.64707637 0.61071795 0.5131012 0.59723026 0.75576824 0.40232354
0.62874347 0.4465954 0.44885898 0.49859968 0.57976824 0.3719341 0.61030036 0.40333486
0.58276147 0.54301083 0.64924943 0.42018184 0.47918805 0.6243251 0.65344596 0.34069547
0.59967923 0.42073298 0.3571851 0.42400774 0.48441032 0.35360324 0.55786884 0.34932667
00000000: dad8 8d3f b94c 933f 6d03 983f 413e 853f
00000010: 1fc2 803f bde7 8d3f 32bd b23f 2809 883f
00000020: bbca a83f a4f9 843f 3c85 813f 56a5 7d3f
00000030: 2587 8a3f 4d75 7c3f 2736 9e3f dfe2 873f
00000040: 0088 f43e d19d ec3e fc03 1c3f 48b3 373f
00000050: dffe 383f 2a0a 133f d175 f43e f2a1 0a3f
00000060: d9ec 023f 4864 1c3f 761c 153f 2f21 2c3f
00000070: 1657 423f b703 1c3f 590f 353f 30d1 fd3e
00000080: d127 223f aabd 223f cca6 253f 0358 1c3f
00000090: 9a5a 033f 15e4 183f 077a 413f 5afd cd3e
000000a0: 55f5 203f 27a8 e43e d8d0 e53e 7548 ff3e
000000b0: b16b 143f 256e be3e a53c 1c3f e881 ce3e
000000c0: db2f 153f c202 0b3f 3635 263f 1322 d73e
000000d0: 2358 f53e c5d3 1f3f 3c48 273f a36f ae3e
000000e0: 9484 193f 506a d73e f7e0 b63e 8b17 d93e
000000f0: a104 f83e 7c0b b53e 7ed0 0e3f f2da b23e

act_fun.1.grid f4 [16, 15]
-1.75 -1.5 -1.25 -1.0 -0.75 -0.5 -0.25 0.0
0.25 0.5 0.75 1.0 1.25 1.5 1.75 -1.75
-1.5 -1.25 -1.0 -0.75 -0.5 -0.25 0.0 0.25
0.5 0.75 1.0 1.25 1.5 1.75 -1.75 -1.5
-1.25 -1.0 -0.75 -0.5 -0.25 0.0 0.25 0.5
0.75 1.0 1.25 1.5 1.75 -1.75 -1.5 -1.25
-1.0 -0.75 -0.5 -0.25 0.0 0.25 0.5 0.75
1.0 1.25 1.5 1.75 -1.75 -1.5 -1.25 -1.0
-0.75 -0.5 -0.25 0.0 0.25 0.5 0.75 1.0
1.25 1.5 1.75 -1.75 -1.5 -1.25 -1.0 -0.75
-0.5 -0.25 0.0 0.25 0.5 0.75 1.0 1.25
1.5 1.75 -1.75 -1.5 -1.25 -1.0 -0.75 -0.5
-0.25 0.0 0.25 0.5 0.75 1.0 1.25 1.5
1.75 -1.75 -1.5 -1.25 -1.0 -0.75 -0.5 -0.25
0.0 0.25 0.5 0.75 1.0 1.25 1.5 1.75
-1.75 -1.5 -1.25 -1.0 -0.75 -0.5 -0.25 0.0
0.25 0.5 0.75 1.0 1.25 1.5 1.75 -1.75
-1.5 -1.25 -1.0 -0.75 -0.5 -0.25 0.0 0.25
0.5 0.75 1.0 1.25 1.5 1.75 -1.75 -1.5
-1.25 -1.0 -0.75 -0.5 -0.25 0.0 0.25 0.5
0.75 1.0 1.25 1.5 1.75 -1.75 -1.5 -1.25
-1.0 -0.75 -0.5 -0.25 0.0 0.25 0.5 0.75
1.0 1.25 1.5 1.75 -1.75 -1.5 -1.25 -1.0
-0.75 -0.5 -0.25 0.0 0.25 0.5 0.75 1.0
1.25 1.5 1.75 -1.75 -1.5 -1.25 -1.0 -0.75
-0.5 -0.25 0.0 0.25 0.5 0.75 1.0 1.25
1.5 1.75 -1.75 -1.5 -1.25 -1.0 -0.75 -0.5
-0.25 0.0 0.25 0.5 0.75 1.0 1.25 1.5
1.75 -1.75 -1.5 -1.25 -1.0 -0.75 -0.5 -0.25
0.0 0.25 0.5 0.75 1.0 1.25 1.5 1.75
00000000: 0000 e0bf 0000 c0bf 0000 a0bf 0000 80bf
00000010: 0000 40bf 0000 00bf 0000 80be 0000 0000
00000020: 0000 803e 0000 003f 0000 403f 0000 803f
00000030: 0000 a03f 0000 c03f 0000 e03f 0000 e0bf
00000040: 0000 c0bf 0000 a0bf 0000 80bf 0000 40bf
00000050: 0000 00bf 0000 80be 0000 0000 0000 803e
00000060: 0000 003f 0000 403f 0000 803f 0000 a03f
00000070: 0000 c03f 0000 e03f 0000 e0bf 0000 c0bf
00000080: 0000 a0bf 0000 80bf 0000 40bf 0000 00bf
00000090: 0000 80be 0000 0000 0000 803e 0000 003f
000000a0: 0000 403f 0000 803f 0000 a03f 0000 c03f
000000b0: 0000 e03f 0000 e0bf 0000 c0bf 0000 a0bf
000000c0: 0000 80bf 0000 40bf 0000 00bf 0000 80be
000000d0: 0000 0000 0000 803e 0000 003f 0000 403f
000000e0: 0000 803f 0000 a03f 0000 c03f 0000 e03f
000000f0: 0000 e0bf 0000 c0bf 0000 a0bf 0000 80bf
00000100: 0000 40bf 0000 00bf 0000 80be 0000 0000
00000110: 0000 803e 0000 003f 0000 403f 0000 803f
00000120: 0000 a03f 0000 c03f 0000 e03f 0000 e0bf
00000130: 0000 c0bf 0000 a0bf 0000 80bf 0000 40bf
00000140: 0000 00bf 0000 80be 0000 0000 0000 803e
00000150: 0000 003f 0000 403f 0000 803f 0000 a03f
00000160: 0000 c03f 0000 e03f 0000 e0bf 0000 c0bf
00000170: 0000 a0bf 0000 80bf 0000 40bf 0000 00bf
00000180: 0000 80be 0000 0000 0000 803e 0000 003f
00000190: 0000 403f 0000 803f 0000 a03f 0000 c03f
000001a0: 0000 e03f 0000 e0bf 0000 c0bf 0000 a0bf
000001b0: 0000 80bf 0000 40bf 0000 00bf 0000 80be
000001c0: 0000 0000 0000 803e 0000 003f 0000 403f
000001d0: 0000 803f 0000 a03f 0000 c03f 0000 e03f
000001e0: 0000 e0bf 0000 c0bf 0000 a0bf 0000 80bf
000001f0: 0000 40bf 0000 00bf 0000 80be 0000 0000
00000200: 0000 803e 0000 003f 0000 403f 0000 803f
00000210: 0000 a03f 0000 c03f 0000 e03f 0000 e0bf
00000220: 0000 c0bf 0000 a0bf 0000 80bf 0000 40bf
00000230: 0000 00bf 0000 80be 0000 0000 0000 803e
00000240: 0000 003f 0000 403f 0000 803f 0000 a03f
00000250: 0000 c03f 0000 e03f 0000 e0bf 0000 c0bf
00000260: 0000 a0bf 0000 80bf 0000 40bf 0000 00bf
00000270: 0000 80be 0000 0000 0000 803e 0000 003f
00000280: 0000 403f 0000 803f 0000 a03f 0000 c03f
00000290: 0000 e03f 0000 e0bf 0000 c0bf 0000 a0bf
000002a0: 0000 80bf 0000 40bf 0000 00bf 0000 80be
000002b0: 0000 0000 0000 803e 0000 003f 0000 403f
000002c0: 0000 803f 0000 a03f 0000 c03f 0000 e03f
000002d0: 0000 e0bf 0000 c0bf 0000 a0bf 0000 80bf
000002e0: 0000 40bf 0000 00bf 0000 80be 0000 0000
000002f0: 0000 803e 0000 003f 0000 403f 0000 803f
00000300: 0000 a03f 0000 c03f 0000 e03f 0000 e0bf
00000310: 0000 c0bf 0000 a0bf 0000 80bf 0000 40bf
00000320: 0000 00bf 0000 80be 0000 0000 0000 803e
00000330: 0000 003f 0000 403f 0000 803f 0000 a03f
00000340: 0000 c03f 0000 e03f 0000 e0bf 0000 c0bf
00000350: 0000 a0bf 0000 80bf 0000 40bf 0000 00bf
00000360: 0000 80be 0000 0000 0000 803e 0000 003f
00000370: 0000 403f 0000 803f 0000 a03f 0000 c03f
00000380: 0000 e03f 0000 e0bf 0000 c0bf 0000 a0bf
00000390: 0000 80bf 0000 40bf 0000 00bf 0000 80be
000003a0: 0000 0000 0000 803e 0000 003f 0000 403f
000003b0: 0000 803f 0000 a03f 0000 c03f 0000 e03f

act_fun.1.coef f4 [16, 16, 11]
0.0007653477 -0.048817277 0.15498596 -0.19057567 -0.29934737 0.26453647 0.4287052 -0.020032058
0.023045162 0.019082224 0.0033965164 -0.0074140485 -0.030276982 -0.14706555 0.091617316 0.14408973
-0.19351433 -0.15356365 0.07435377 0.0006376412 -0.005334759 -0.00089486456 0.006662827 0.034829635
-0.060110223 -0.32645392 -0.29337752 0.33517227 0.39915195 0.028407695 0.01499877 -0.00058490224
-0.0017502264 0.0051018354 0.026153494 -0.04716093 -0.34472284 -0.44948217 0.41397768 0.47222397
0.07509343 -0.012151007 -0.01823784 -0.0033582416 0.0115098655 -0.0159829 -0.1632253 -0.25349283
-0.4644672 0.37986135 0.31053725 0.04632645 -0.028509924 0.022174906 0.008089353 0.003893936
0.01766931 -0.023320384 -0.2857387 -0.35269153 0.38837457 0.3974118 0.028092312 0.015954096
-0.029509187 -0.009274513 -0.005812252 0.054611947 0.3701754 0.35948572 0.3661607 -0.44148502
-0.37235445 -0.020897746 -0.027521431 0.020354286 0.007998107 0.010268025 0.08016103 0.36639035
0.3870361 0.3169574 -0.3825987 -0.41852874 -0.015455483 -0.026041333 0.02420127 0.008740966
-0.012007505 -0.046137474 -0.069721796 -0.33826002 -0.4138708 0.3326505 0.3233361 0.06026237
-0.033064164 0.028093766 0.010170265 0.001459958 0.061790906 0.36918446 0.4237715 0.36636373
-0.42893898 -0.3701511 -0.070489675 0.028860487 0.009917475 2.7771108e-05 -0.0038715852 0.031070117
0.38380843 0.3595589 0.29442692 -0.30175045 -0.4963526 -0.029807078 -0.020923182 -0.0039442796
0.00084969215 0.0026566815 0.017667962 0.02516371 -0.29158977 -0.37247792 0.32089508 0.46795395
0.034670558 0.010423698 0.0031853449 -0.00014030747 -0.003556299 0.048579194 0.3584115 0.36041918
0.3759096 -0.2951604 -0.39259174 -0.048241846 0.006409963 0.0052963714 0.00088795077 -0.004519848
-0.027329165 0.0057225265 -0.2636295 -0.26833317 0.38104883 0.31755272 0.032523576 0.031554006
-0.031966332 -0.011174916 -0.0052179303 -0.03973963 -0.24356714 0.11924812 0.093370005 -0.20509993
-0.12882112 -0.03402462 0.011160137 0.011786891 0.002447004 -0.006709285 0.04626272 0.39545575
0.38065746 0.40167034 -0.41708946 -0.33961356 -0.04923011 -0.012706753 -0.018420419 -0.0043563014
-0.007842407 -0.018427556 0.029035551 0.042298328 0.37304685 0.2126953 -0.23215666 -0.22491664
0.34658253 -0.08031891 -0.00086806924 0.0023410805 0.019743588 0.029274119 0.060590692 0.011388803
-0.24414362 0.10670899 0.14707696 -0.4470115 0.019686066 0.008962769 -0.0016233404 -0.003936948
0.008182342 0.09178426 0.27848518 0.30568314 -0.3754767 -0.3471835 0.23489228 0.019020807
-0.0035776903 -0.0019614664 0.0022005215 0.027452564 0.08194809 0.410847 0.44389474 -0.53016824
-0.34325784 0.18334715 0.016642338 0.0015786953 -0.01133018 -0.033401117 0.0332577 0.107621424
0.2624192 0.33125398 -0.43226942 -0.26642147 0.10697773 -0.035126016 0.01226355 0.005359195
0.02267046 0.003984375 0.08654383 0.32094207 0.31871894 -0.38013887 -0.263522 0.27852622
0.03490374 0.006565711 -0.0010565631 -0.0047961585 -0.0042563803 -0.102653675 -0.23078133 -0.4187926
0.3935784 0.419522 0.5756802 0.16677377 0.011190879 -0.007017903 -0.024547096 0.0019601313
00000000: 9da1 483a a0f4 47bd a4b4 1e3e 4526 43be
00000010: 0f44 99be 5371 873e 3f7f db3e 451a a4bc
00000020: 35c9 bc3c 5352 9c3c 1798 5e3b 8cf1 f2bb
00000030: 6f07 f8bc 5a98 16be dca1 bb3d 428c 133e
00000040: 9f28 46be ca3f 1dbe ca46 983d 6027 273a
00000050: 34cf aebb 5895 6aba d853 da3b 85a9 0e3d
00000060: 2336 76bd f824 a7be 9435 96be b39b ab3e
00000070: a55d cc3e 41b7 e83c 67bd 753c 2054 19ba
00000080: da67 e5ba 4c2d a73b da3f d63c d22b 41bd
00000090: 837f b0be 8722 e6be e2f4 d33e 57c7 f13e
000000a0: 96ca 993d 0415 47bc 8667 95bc f215 5cbb
000000b0: e093 3c3c 92ee 82bc 8824 27be d0c9 81be
000000c0: a5ce edbe 307d c23e bdfe 9e3e cec0 3d3d
000000d0: a58d e9bc 26a8 b53c 3589 043c 6831 7f3b
000000e0: 3bbf 903c 640a bfbc 584c 92be fc93 b4be
000000f0: 08d9 c63e 8f79 cb3e d921 e63c 2ab2 823c
00000100: 40bd f1bc 21f4 17bc b474 bebb c7b0 5f3d
00000110: a187 bd3e 830e b83e 6a79 bb3e 530a e2be
00000120: 3ea5 bebe c031 abbc a074 e1bc 08be a63c
00000130: 7e0a 033c 383b 283c 772b a43d 8497 bb3e
00000140: 9829 c63e 3e48 a23e fae3 c3be 6649 d6be
00000150: ff38 7dbc a254 d5bc be41 c63c 4536 0f3c
00000160: 20bb 44bc a6fa 3cbd 4dca 8ebd 6b30 adbe
00000170: e0e6 d3be 2b51 aa3e 4f8c a53e add5 763d
00000180: 4a6e 07bd e624 e63c 2fa1 263c 105c bf3a
00000190: 7618 7d3d bf05 bd3e 94f8 d83e 0794 bb3e
000001a0: e49d dbbe 7284 bdbe e45c 90bd d46c ec3c
000001b0: e87c 223c 00f6 e837 6cba 7dbb c286 fe3c
000001c0: 8a82 c43e 1b18 b83e 20bf 963e 097f 9abe
000001d0: ee21 febe f92d f4bc 1867 abbc 043f 81bb
000001e0: e0bd 5e3a b81b 2e3b 67bc 903c 2024 ce3c
000001f0: 414b 95be 6db5 bebe 5c4c a43e a997 ef3e
00000200: b702 0e3d 29c8 2a3c 38c1 503b 801f 13b9
00000210: cc10 69bb fafa 463d b681 b73e dd88 b83e
00000220: 3977 c03e 441f 97be c901 c9be 3e99 45bd
00000230: ab0a d23b 2f8d ad3b 5ec5 683a 3c1b 94bb
00000240: 6ae1 dfbc 0884 bb3b 72fa 86be f762 89be
00000250: d518 c33e 4596 a23e 7137 053d c63e 013d
00000260: 21ef 02bd ff16 37bc 2cfb aabb 06c6 22bd
00000270: aa69 79be 5c38 f43d c638 bf3d b705 52be
00000280: afe9 03be 665d 0bbd 02d9 363c ce1d 413c
00000290: ea5d 203b 90d9 dbbb fa7d 3d3d 2d79 ca3e
000002a0: 89e5 c23e bca7 cd3e c08c d5be d4e1 adbe
000002b0: 83a5 49bd fc2f 50bc 6be6 96bc 4ebf 8ebb
000002c0: 707d 00bc 63f5 96bc f7db ed3c 0341 2d3d
000002d0: ffff be3e cccc 593e 7aba 6dbe 8c50 66be
000002e0: 4473 b13e 3e7e a4bd 248f 63ba d06c 193b
000002f0: 4ebd a13c 47d0 ef3c f22d 783d 1a98 3a3c
00000300: c900 7abe 3e8a da3d 589b 163e b1de e4be
00000310: ac44 a13c 94d8 123c 44c6 d4ba 8301 81bb
00000320: 3b0f 063c 63f9 bb3d 9c95 8e3e 8082 9c3e
00000330: 7b3e c0be 09c2 b1be 9a87 703e 86d1 9b3c
00000340: af77 6abb f28b 00bb a036 103b 33e4 e03c
00000350: 66d4 a73d 8a5a d23e 2c46 e33e 1bb9 07bf
00000360: 7ebf afbe 5bbf 3b3e 8355 883c 39ec ce3a
00000370: 38a2 39bc 9ccf 08bd 3a39 083d 9f68 dc3d
00000380: cf5b 863e 1f9a a93e 6b52 ddbe 6568 88be
00000390: 2417 db3d 4ce0 0fbd 0fed 483c 309c af3b
000003a0: 67b7 b93c 5c8f 823b e43d b13d 8552 a43e
000003b0: 212f a33e 90a1 c2be 5bec 86be fd9a 8e3e
000003c0: 39f7 0e3d 2d25 d73b 607c 8aba 1829 9dbb
000003d0: 1b79 8bbb 173c d2bd f151 6cbe fc6b d6be
000003e0: 1c83 c93e 96cb d63e c75f 133f bec6 2a3e
000003f0: f359 373c 70f6 e5bb fe16 c9bc 8c75 003b

act_fun.1.mask f4 [16, 16]
1.0 1.0 1.0 1.0 1.0 1.0 1.0 1.0
1.0 1.0 1.0 1.0 1.0 1.0 1.0 1.0
1.0 1.0 1.0 1.0 1.0 1.0 1.0 1.0
1.0 1.0 1.0 1.0 1.0 1.0 1.0 1.0
1.0 1.0 1.0 1.0 1.0 1.0 1.0 1.0
1.0 1.0 1.0 1.0 1.0 1.0 1.0 1.0
1.0 1.0 1.0 1.0 1.0 1.0 1.0 1.0
1.0 1.0 1.0 1.0 1.0 1.0 1.0 1.0
1.0 1.0 1.0 1.0 1.0 1.0 1.0 1.0
1.0 1.0 1.0 1.0 1.0 1.0 1.0 1.0
1.0 1.0 1.0 1.0 1.0 1.0 1.0 1.0
1.0 1.0 1.0 1.0 1.0 1.0 1.0 1.0
1.0 1.0 1.0 1.0 1.0 1.0 1.0 1.0
1.0 1.0 1.0 1.0 1.0 1.0 1.0 1.0
1.0 1.0 1.0 1.0 1.0 1.0 1.0 1.0
1.0 1.0 1.0 1.0 1.0 1.0 1.0 1.0
1.0 1.0 1.0 1.0 1.0 1.0 1.0 1.0
1.0 1.0 1.0 1.0 1.0 1.0 1.0 1.0
1.0 1.0 1.0 1.0 1.0 1.0 1.0 1.0
1.0 1.0 1.0 1.0 1.0 1.0 1.0 1.0
1.0 1.0 1.0 1.0 1.0 1.0 1.0 1.0
1.0 1.0 1.0 1.0 1.0 1.0 1.0 1.0
1.0 1.0 1.0 1.0 1.0 1.0 1.0 1.0
1.0 1.0 1.0 1.0 1.0 1.0 1.0 1.0
1.0 1.0 1.0 1.0 1.0 1.0 1.0 1.0
1.0 1.0 1.0 1.0 1.0 1.0 1.0 1.0
1.0 1.0 1.0 1.0 1.0 1.0 1.0 1.0
1.0 1.0 1.0 1.0 1.0 1.0 1.0 1.0
1.0 1.0 1.0 1.0 1.0 1.0 1.0 1.0
1.0 1.0 1.0 1.0 1.0 1.0 1.0 1.0
1.0 1.0 1.0 1.0 1.0 1.0 1.0 1.0
1.0 1.0 1.0 1.0 1.0 1.0 1.0 1.0
00000000: 0000 803f 0000 803f 0000 803f 0000 803f
00000010: 0000 803f 0000 803f 0000 803f 0000 803f
00000020: 0000 803f 0000 803f 0000 803f 0000 803f
00000030: 0000 803f 0000 803f 0000 803f 0000 803f
00000040: 0000 803f 0000 803f 0000 803f 0000 803f
00000050: 0000 803f 0000 803f 0000 803f 0000 803f
00000060: 0000 803f 0000 803f 0000 803f 0000 803f
00000070: 0000 803f 0000 803f 0000 803f 0000 803f
00000080: 0000 803f 0000 803f 0000 803f 0000 803f
00000090: 0000 803f 0000 803f 0000 803f 0000 803f
000000a0: 0000 803f 0000 803f 0000 803f 0000 803f
000000b0: 0000 803f 0000 803f 0000 803f 0000 803f
000000c0: 0000 803f 0000 803f 0000 803f 0000 803f
000000d0: 0000 803f 0000 803f 0000 803f 0000 803f
000000e0: 0000 803f 0000 803f 0000 803f 0000 803f
000000f0: 0000 803f 0000 803f 0000 803f 0000 803f
00000100: 0000 803f 0000 803f 0000 803f 0000 803f
00000110: 0000 803f 0000 803f 0000 803f 0000 803f
00000120: 0000 803f 0000 803f 0000 803f 0000 803f
00000130: 0000 803f 0000 803f 0000 803f 0000 803f
00000140: 0000 803f 0000 803f 0000 803f 0000 803f
00000150: 0000 803f 0000 803f 0000 803f 0000 803f
00000160: 0000 803f 0000 803f 0000 803f 0000 803f
00000170: 0000 803f 0000 803f 0000 803f 0000 803f
00000180: 0000 803f 0000 803f 0000 803f 0000 803f
00000190: 0000 803f 0000 803f 0000 803f 0000 803f
000001a0: 0000 803f 0000 803f 0000 803f 0000 803f
000001b0: 0000 803f 0000 803f 0000 803f 0000 803f
000001c0: 0000 803f 0000 803f 0000 803f 0000 803f
000001d0: 0000 803f 0000 803f 0000 803f 0000 803f
000001e0: 0000 803f 0000 803f 0000 803f 0000 803f
000001f0: 0000 803f 0000 803f 0000 803f 0000 803f
00000200: 0000 803f 0000 803f 0000 803f 0000 803f
00000210: 0000 803f 0000 803f 0000 803f 0000 803f
00000220: 0000 803f 0000 803f 0000 803f 0000 803f
00000230: 0000 803f 0000 803f 0000 803f 0000 803f
00000240: 0000 803f 0000 803f 0000 803f 0000 803f
00000250: 0000 803f 0000 803f 0000 803f 0000 803f
00000260: 0000 803f 0000 803f 0000 803f 0000 803f
00000270: 0000 803f 0000 803f 0000 803f 0000 803f
00000280: 0000 803f 0000 803f 0000 803f 0000 803f
00000290: 0000 803f 0000 803f 0000 803f 0000 803f
000002a0: 0000 803f 0000 803f 0000 803f 0000 803f
000002b0: 0000 803f 0000 803f 0000 803f 0000 803f
000002c0: 0000 803f 0000 803f 0000 803f 0000 803f
000002d0: 0000 803f 0000 803f 0000 803f 0000 803f
000002e0: 0000 803f 0000 803f 0000 803f 0000 803f
000002f0: 0000 803f 0000 803f 0000 803f 0000 803f
00000300: 0000 803f 0000 803f 0000 803f 0000 803f
00000310: 0000 803f 0000 803f 0000 803f 0000 803f
00000320: 0000 803f 0000 803f 0000 803f 0000 803f
00000330: 0000 803f 0000 803f 0000 803f 0000 803f
00000340: 0000 803f 0000 803f 0000 803f 0000 803f
00000350: 0000 803f 0000 803f 0000 803f 0000 803f
00000360: 0000 803f 0000 803f 0000 803f 0000 803f
00000370: 0000 803f 0000 803f 0000 803f 0000 803f
00000380: 0000 803f 0000 803f 0000 803f 0000 803f
00000390: 0000 803f 0000 803f 0000 803f 0000 803f
000003a0: 0000 803f 0000 803f 0000 803f 0000 803f
000003b0: 0000 803f 0000 803f 0000 803f 0000 803f
000003c0: 0000 803f 0000 803f 0000 803f 0000 803f
000003d0: 0000 803f 0000 803f 0000 803f 0000 803f
000003e0: 0000 803f 0000 803f 0000 803f 0000 803f
000003f0: 0000 803f 0000 803f 0000 803f 0000 803f

act_fun.1.scale_base f4 [16, 16]
0.0992315 -0.26179808 -0.027162446 0.28271708 0.008853143 0.22921343 -0.2886084 -0.4770257
0.34133533 -0.33360696 -0.55609006 -0.0038263923 -0.3919251 0.015542933 -0.09316378 -0.07852966
-0.13362497 -0.18917355 -0.4966593 -0.08775606 0.3187563 0.055063147 0.06179155 0.13424818
-0.058990993 0.2585709 0.28334656 -0.21386276 0.24014853 -0.37007752 0.11390093 -0.086242415
0.08420633 -0.06117318 -0.027634647 0.17160365 0.118342325 -0.008213266 -0.23145443 -0.29563692
-0.016935783 -0.17560053 -0.15967824 0.116118774 -0.20805296 -0.12340166 0.022626473 -0.42992017
0.15938054 0.12643683 -0.15796287 0.065011434 0.39588958 0.41523376 0.046494823 -0.28521186
0.23102427 -0.162065 0.011930842 0.29815593 -0.16044444 0.058969516 -0.36673254 -0.09050622
-0.15095326 0.46403646 -0.15820429 -0.21255563 -0.003156756 -0.044157922 -0.009358481 -0.014728142
0.31288818 -0.22787623 -0.074986584 -0.040737428 0.015502315 0.07579041 0.23269893 0.14440617
0.054195926 -0.088034816 0.14085297 0.26598185 0.0529869 0.21051475 -0.39570156 0.007082424
0.32942376 -0.3830106 -0.2983718 0.039873395 -0.19679628 -0.094357274 -0.0728723 -0.25888664
-0.36564115 0.3174239 -0.22572467 0.21220362 0.15185533 0.06277857 0.20150504 0.3384905
0.27326253 0.21307915 0.1873076 -0.008025589 0.03736316 -0.36155084 0.2501507 0.25707674
0.30836728 0.3821224 0.31181812 -0.10598081 0.32744807 0.32486764 -0.24350181 -0.0010209882
0.15457553 -0.08599634 -0.008033169 0.14650553 -0.19764802 0.12915379 0.17902091 -0.21336436
0.32283503 -0.31269965 0.10393987 0.5229716 0.30155215 0.4536701 -0.262834 -0.32399866
0.34507748 -0.19912714 -0.50785506 0.21566835 -0.16800891 -0.005379989 0.016131872 -0.18350361
0.11059738 -0.32524735 -0.08820694 0.09047975 -0.2785628 0.09046983 0.033717927 -0.039041787
0.063122645 -0.30490455 -0.38624227 0.24111046 -0.15780337 -0.3307074 -0.13182925 0.1504846
0.08328505 -0.08778924 0.23787616 0.0033782213 -0.004374805 0.12041003 -0.25299177 -0.17947653
0.019203419 -0.01365969 -0.17349216 0.13053375 -0.29956168 -0.1251165 0.051839855 -0.10180032
-0.13376223 0.26866055 -0.17642188 -0.00047700873 0.23208691 -0.19559473 -0.21216674 -0.17111519
0.05849843 0.18291093 0.11467402 -0.13360147 -0.11388623 0.3343212 0.33128056 0.01509953
-0.03535304 0.118337825 0.13435201 -0.11221899 0.2032096 -0.055176813 0.09046607 0.10572382
0.12309753 -0.009850251 0.103299916 -0.2608564 0.044129338 -0.087608464 0.35779524 0.17353189
-0.01627143 0.3968314 0.053071484 0.2720098 0.28226855 0.15418303 0.017154433 -0.12949345
-0.012853474 -0.10677489 0.2721163 0.14923036 -0.056952383 0.0021942074 0.3475292 0.038640082
-0.6225076 0.100087844 -0.39552155 -0.49715763 -0.4464256 -0.41045558 0.27582017 0.5314124
-0.50799763 0.66720366 0.63853395 -0.18353286 0.18747227 -0.43993515 0.058935028 0.261128
0.15826261 0.09003029 0.06448578 0.2464028 0.04358851 0.12644124 -0.17760415 0.1310802
0.44680485 -0.11191719 -0.21993408 0.23586784 -0.25453305 0.4168543 0.30029193 0.03937177
00000000: e239 cb3d 660a 86be c783 debc 4bc0 903e
00000010: c60c 113c edb6 6a3e 7bc4 93be b63c f4be
00000020: 81c3 ae3e 88ce aabe eb5b 0ebf 36c4 7abb
00000030: 68aa c8be c9a7 7e3c a7cc bebd 29d4 a0bd
00000040: fcd4 08be b6b6 41be 214a febe 73b9 b3bd
00000050: 0734 a33e e589 613d 2319 7d3d 5b78 093e
00000060: 8aa0 71bd 6863 843e cd12 913e d7fe 5abe
00000070: 7fe9 753e cd7a bdbe e444 e93d dd9f b0bd
00000080: 5e74 ac3d ba90 7abd 0e62 e2bc deb8 2f3e
00000090: 765d f23d ef90 06bc 6402 6dbe b95d 97be
000000a0: e9bc 8abc a0d0 33be b182 23be aecf ed3d
000000b0: d60b 55be 02ba fcbd 275b b93c 7f1e dcbe
000000c0: a734 233e a878 013e 05c1 21be b724 853d
000000d0: 0ab2 ca3e 8599 d43e 5b71 3e3d 4a07 92be
000000e0: a091 6c3e 5ef4 25be 9479 433c e5a7 983e
000000f0: 8c4b 24be 058a 713d 5ec4 bbbe 535b b9bd
00000100: 7e93 1abe 3096 ed3e 4e00 22be 2fa8 59be
00000110: 94e1 4ebb f0de 34bd 5054 19bc 4e4e 71bc
00000120: e132 a03e 6358 69be 9192 99bd 4adc 26bd
00000130: 6cfd 7d3c 0138 9b3d a148 6e3e 36df 133e
00000140: 8cfc 5d3d 994b b4bd c33b 103e c62e 883e
00000150: cb08 593d 2e91 573e 6599 cabe ae13 e83b
00000160: 3baa a83e f719 c4be 30c4 98be 4952 233d
00000170: f784 49be 633e c1bd 133e 95bd ca8c 84be
00000180: 5135 bbbe 6385 a23e 5e24 67be e84b 593e
00000190: f77f 1b3e 0d92 803d 5657 4e3e a04e ad3e
000001a0: 11e9 8b3e 6c31 5a3e 90cd 3f3e c37d 03bc
000001b0: 1d0a 193d 311d b9be c113 803e 909f 833e
000001c0: 51e2 9d3e 8ca5 c33e a0a6 9f3e 780c d9bd
000001d0: 46a7 a73e 0d55 a63e 8a58 79be aed2 85ba
000001e0: 0c49 1e3e d91e b0bd 8e9d 03bc 8c05 163e
000001f0: 3e64 4abe e440 043e 4251 373e 307c 5abe
00000200: a24a a53e 2b1a a0be 6dde d43d 77e1 053f
00000210: 0b65 9a3e 7347 e83e 2e92 86be 27e3 a5be
00000220: ffad b03e fce7 4bbe ca02 02bf 2ad8 5c3e
00000230: 870a 2cbe 9e4a b0bb fd26 843c 5fe8 3bbe
00000240: e180 e23d d286 a6be d7a5 b4bd 724d b93d
00000250: c99f 8ebe 3f48 b93d cf1b 0a3d 48ea 1fbd
00000260: 7246 813d 731c 9cbe 8cc1 c5be a9e5 763e
00000270: 3597 21be 7b52 a9be 3ffe 06be a318 1a3e
00000280: 5a91 aa3d d8ca b3bd cf95 733e 2665 5d3b
00000290: 865a 8fbb 8999 f63d 2388 81be b2c8 37be
000002a0: 7d50 9d3c e4cc 5fbc eea7 31be a4aa 053e
000002b0: 2660 99be 8a1e 00be 0756 543d b07c d0bd
000002c0: f7f8 08be e08d 893e f0a7 34be 0717 fab9
000002d0: 31a8 6d3e fc49 48be 3d42 59be d238 2fbe
000002e0: 0d9c 6f3d 014d 3b3e 36da ea3d d3ce 08be
000002f0: 2f3d e9bd 262c ab3e 9b9d a93e 0564 773c
00000300: 59ce 10bd 1a5b f23d 9393 093e 12d3 e5bd
00000310: 2d16 503e 1501 62bd 4646 b93d bb85 d83d
00000320: 8f1a fc3d f262 21bc e88e d33d f88e 85be
00000330: f7c0 343d 116c b3bd f030 b73e 58b2 313e
00000340: a94b 85bc 7c2d cb3e 7c61 593d de44 8b3e
00000350: 8185 903e 28e2 1d3e 7487 8c3c ee99 04be
00000360: 6197 52bc cbac dabd d452 8b3e d8cf 183e
00000370: e746 69bd b1cc 0f3b 59ef b13e 1045 1e3d
00000380: a85c 1fbf dbfa cc3d cd81 cabe 728b febe
00000390: e591 e4be 3c27 d2be 4d38 8d3e a50a 083f
000003a0: 220c 02bf dccd 2a3f f676 233f 0af0 3bbe
000003b0: bbf8 3f3e 2e3f e1be db65 713d 92b2 853e
000003c0: 980f 223e cd61 b83d 1f11 843d 0451 7c3e
000003d0: de89 323d d079 013e dddd 35be e339 063e
000003e0: 9bc3 e43e d734 e5bd 6636 61be 5787 713e
000003f0: 2852 82be ed6d d53e ddbf 993e 4b44 213d

act_fun.1.scale_sp f4 [16, 16]
0.58735883 0.39529806 0.73028356 0.7726131 0.6920299 0.74322134 0.7618846 0.7328384
0.6177068 0.81763524 0.73981136 0.715551 0.71936435 0.67102873 0.40341723 0.7460318
0.625167 0.5009619 0.82654566 0.8036297 0.70396376 0.7729013 0.7419849 0.8184662
0.6720823 0.8462445 0.6558316 0.7390458 0.652867 0.62264526 0.33831015 0.78983843
0.38262868 0.5448921 0.67930126 0.8781472 0.6602638 0.8131008 0.7315756 0.72610575
0.6890578 0.86467105 0.7700609 0.82839805 0.72257143 0.7493867 0.2760042 0.7613728
0.63970685 0.4404459 0.7823319 0.7165292 0.6709807 0.72116977 0.658568 0.72687083
0.6070114 0.79153705 0.7506891 0.771708 0.7259475 0.6588227 0.34724927 0.73126227
0.6361718 0.6606882 0.6308923 0.6248684 0.5785226 0.575803 0.60564953 0.6880842
0.5667833 0.7010617 0.63904095 0.6611877 0.6124102 0.60594213 0.38201308 0.66044754
0.5837779 0.52436304 0.7688871 0.81134784 0.70959514 0.76857394 0.7582326 0.70331895
0.62476265 0.8440709 0.5798503 0.6771942 0.5977727 0.61119705 0.21864393 0.779678
0.45027208 0.91394883 0.7286594 0.9255706 0.65637314 0.642441 0.71231616 0.65490055
0.62284523 0.7497584 0.6006477 0.55471206 0.64098555 0.62087363 0.7389835 0.68647164
0.57833993 0.61436474 0.57719564 0.64629805 0.57207596 0.5439729 0.64871454 0.67874146
0.5683787 0.62651527 0.6264921 0.6021819 0.6384643 0.6040533 0.391895 0.67726326
0.66320837 0.32816952 1.0043677 1.0198519 0.78557813 0.9794004 0.7366871 0.9307039
0.7331464 0.9394063 0.6907112 0.78302133 0.7286335 0.68310153 0.16436495 0.7797997
0.45928255 0.56653404 0.63148284 0.60489357 0.5662222 0.60964495 0.66228324 0.66426533
0.59884214 0.66734606 0.6977431 0.65412366 0.6500828 0.6226024 0.42423102 0.684194
0.57458544 0.66625595 0.648748 0.6278838 0.57248557 0.62471735 0.66078836 0.6919
0.6033903 0.7156306 0.6614813 0.66796565 0.6610823 0.6349166 0.48240787 0.7058973
0.5568255 0.59433836 0.65254444 0.64841944 0.5967885 0.5847796 0.6388836 0.6694361
0.58177423 0.67381054 0.6716687 0.65367055 0.6672292 0.5716541 0.33603272 0.6660741
0.6565495 0.42910877 0.7642999 0.6681795 0.63613504 0.65984124 0.63523823 0.7763506
0.62149036 0.7028684 0.6845886 0.7270421 0.69497263 0.65669346 0.28756383 0.714499
0.5051138 0.5907313 0.6267893 0.59604025 0.5650687 0.57981116 0.6217137 0.69274265
0.5347855 0.6613654 0.6421095 0.6020932 0.608169 0.58379877 0.4164104 0.6291219
0.4821314 0.59281814 0.79371446 0.87050027 0.70453525 0.60116714 0.66129977 0.7003081
0.7501337 0.7493367 0.657205 0.6894532 0.6260073 0.6837412 0.24255647 0.67682695
0.5304788 0.5247457 0.6062036 0.65384406 0.5934921 0.572741 0.6684747 0.67316
0.5529323 0.71818054 0.643826 0.60313684 0.63338584 0.62415314 0.54387754 0.6812556
00000000: 265d 163f 8264 ca3e ddf3 3a3f f9c9 453f
00000010: df28 313f c143 3e3f df0a 433f 4c9b 3b3f
00000020: 0822 1e3f 8b50 513f 4764 3d3f 5a2e 373f
00000030: 4328 383f 8ac8 2b3f b48c ce3e f1fb 3e3f
00000040: f20a 203f 0a3f 003f 7f98 533f adba 4d3f
00000050: f836 343f dcdc 453f b9f2 3d3f 0087 513f
00000060: 960d 2c3f 7ba3 583f 94e4 273f 1b32 3d3f
00000070: 4b22 273f ae65 1f3f fd36 ad3e da32 4a3f
00000080: e8e7 c33e 0c7e 0b3f b0e6 2d3f 41ce 603f
00000090: 0c07 293f 6027 503f 8a48 3b3f 11e2 393f
000000a0: 1866 303f 155b 5d3f b622 453f e511 543f
000000b0: 71fa 383f cfd7 3f3f 6c50 8d3e 54e9 423f
000000c0: d4c3 233f 2082 e13e e746 483f 756e 373f
000000d0: 64c5 2b3f 959e 383f ea97 283f 3514 3a3f
000000e0: 1965 1b3f 2ca2 4a3f 292d 403f a88e 453f
000000f0: b2d7 393f 9ba8 283f a8ca b13e 0134 3b3f
00000100: 28dc 223f dd22 293f 2882 213f 60f7 1f3f
00000110: 0f1a 143f d367 133f d90b 1b3f 4926 303f
00000120: b618 113f c878 333f 3098 233f 9943 293f
00000130: eac6 1c3f 061f 1b3f 3897 c33e 1713 293f
00000140: 7872 153f a83c 063f c9d5 443f 7eb4 4f3f
00000150: 07a8 353f 43c1 443f 881b 423f b60c 343f
00000160: 72f0 1f3f 0815 583f 1271 143f 995c 2d3f
00000170: a207 193f 6977 1c3f 32e4 5f3e fa98 473f
00000180: 108a e63e 8df8 693f 6c89 3a3f 32f2 6c3f
00000190: 1208 283f 0377 243f 5a5a 363f 90a7 273f
000001a0: c972 1f3f 2bf0 3f3f 0cc4 193f 9c01 0e3f
000001b0: a117 243f 93f1 1e3f 062e 3d3f 9bbc 2f3f
000001c0: 160e 143f 0247 1d3f 18c3 133f ca73 253f
000001d0: 9273 123f cf41 0b3f 2812 263f 00c2 2d3f
000001e0: 4481 113f 4e63 203f c961 203f 9828 1a3f
000001f0: 6572 233f 3da3 1a3f 76a6 c83e 2061 2d3f
00000200: 06c8 293f d605 a83e 1f8f 803f 828a 823f
00000210: a61b 493f fcb9 7a3f 8797 3c3f 9c42 6e3f
00000220: 7caf 3b3f ee7c 703f 73d2 303f 1674 483f
00000230: ba87 3a3f bedf 2e3f 494f 283e f4a0 473f
00000240: 1527 eb3e 6008 113f dca8 213f 4eda 1a3f
00000250: f0f3 103f b111 1c3f 658b 293f 4b0d 2a3f
00000260: b84d 193f 31d7 2a3f 4b9f 323f a674 273f
00000270: d46b 263f df62 1f3f cf34 d93e 5727 2f3f
00000280: 0818 133f c08f 2a3f 5914 263f febc 203f
00000290: 6a8e 123f 7aed 1f3f 6d29 293f 5c20 313f
000002a0: c977 1a3f 9133 373f d756 293f ccff 2a3f
000002b0: b13c 293f e589 223f 2afe f63e afb5 343f
000002c0: 1e8c 0e3f 8f26 183f 270d 273f d1fe 253f
000002d0: 22c7 183f 1eb4 153f e08d 233f 2a60 2b3f
000002e0: 28ef 143f d97e 2c3f 7bf2 2b3f f456 273f
000002f0: 88cf 2a3f ec57 123f 7b0c ac3e d583 2a3f
00000300: a113 283f 25b4 db3e 29a9 433f d00d 2b3f
00000310: bfd9 223f 5beb 283f f99e 223f eabe 463f
00000320: fe19 1f3f 2fef 333f 3341 2f3f 6e1f 3a3f
00000330: bae9 313f 101d 283f 913b 933e 68e9 363f
00000340: 234f 013f 2b3a 173f 4375 203f 1896 183f
00000350: 58a8 103f 816e 143f a128 1f3f 9557 313f
00000360: b4e7 083f 3e4f 293f 4a61 243f c822 1a3f
00000370: f7b0 1b3f d673 153f be33 d53e 220e 213f
00000380: edd9 f63e eec2 173f df30 4b3f 1bd9 5e3f
00000390: 6c5c 343f 17e6 193f f14a 293f 6447 333f
000003a0: c308 403f 88d4 3f3f 963e 283f 0180 303f
000003b0: 0442 203f aa09 2f3f b960 783e 8844 2d3f
000003c0: 75cd 073f bc55 063f 2930 1b3f 5362 273f
000003d0: 19ef 173f 279f 123f 2821 2b3f 3754 2c3f
000003e0: f98c 0d3f aeda 373f c8d1 243f 2d67 1a3f
000003f0: 9325 223f 80c8 1f3f 8f3b 0b3f c466 2e3f

act_fun.2.grid f4 [16, 15]
-1.75 -1.5 -1.25 -1.0 -0.75 -0.5 -0.25 0.0
0.25 0.5 0.75 1.0 1.25 1.5 1.75 -1.75
-1.5 -1.25 -1.0 -0.75 -0.5 -0.25 0.0 0.25
0.5 0.75 1.0 1.25 1.5 1.75 -1.75 -1.5
-1.25 -1.0 -0.75 -0.5 -0.25 0.0 0.25 0.5
0.75 1.0 1.25 1.5 1.75 -1.75 -1.5 -1.25
-1.0 -0.75 -0.5 -0.25 0.0 0.25 0.5 0.75
1.0 1.25 1.5 1.75 -1.75 -1.5 -1.25 -1.0
-0.75 -0.5 -0.25 0.0 0.25 0.5 0.75 1.0
1.25 1.5 1.75 -1.75 -1.5 -1.25 -1.0 -0.75
-0.5 -0.25 0.0 0.25 0.5 0.75 1.0 1.25
1.5 1.75 -1.75 -1.5 -1.25 -1.0 -0.75 -0.5
-0.25 0.0 0.25 0.5 0.75 1.0 1.25 1.5
1.75 -1.75 -1.5 -1.25 -1.0 -0.75 -0.5 -0.25
0.0 0.25 0.5 0.75 1.0 1.25 1.5 1.75
-1.75 -1.5 -1.25 -1.0 -0.75 -0.5 -0.25 0.0
0.25 0.5 0.75 1.0 1.25 1.5 1.75 -1.75
-1.5 -1.25 -1.0 -0.75 -0.5 -0.25 0.0 0.25
0.5 0.75 1.0 1.25 1.5 1.75 -1.75 -1.5
-1.25 -1.0 -0.75 -0.5 -0.25 0.0 0.25 0.5
0.75 1.0 1.25 1.5 1.75 -1.75 -1.5 -1.25
-1.0 -0.75 -0.5 -0.25 0.0 0.25 0.5 0.75
1.0 1.25 1.5 1.75 -1.75 -1.5 -1.25 -1.0
-0.75 -0.5 -0.25 0.0 0.25 0.5 0.75 1.0
1.25 1.5 1.75 -1.75 -1.5 -1.25 -1.0 -0.75
-0.5 -0.25 0.0 0.25 0.5 0.75 1.0 1.25
1.5 1.75 -1.75 -1.5 -1.25 -1.0 -0.75 -0.5
-0.25 0.0 0.25 0.5 0.75 1.0 1.25 1.5
1.75 -1.75 -1.5 -1.25 -1.0 -0.75 -0.5 -0.25
0.0 0.25 0.5 0.75 1.0 1.25 1.5 1.75
00000000: 0000 e0bf 0000 c0bf 0000 a0bf 0000 80bf
00000010: 0000 40bf 0000 00bf 0000 80be 0000 0000
00000020: 0000 803e 0000 003f 0000 403f 0000 803f
00000030: 0000 a03f 0000 c03f 0000 e03f 0000 e0bf
00000040: 0000 c0bf 0000 a0bf 0000 80bf 0000 40bf
00000050: 0000 00bf 0000 80be 0000 0000 0000 803e
00000060: 0000 003f 0000 403f 0000 803f 0000 a03f
00000070: 0000 c03f 0000 e03f 0000 e0bf 0000 c0bf
00000080: 0000 a0bf 0000 80bf 0000 40bf 0000 00bf
00000090: 0000 80be 0000 0000 0000 803e 0000 003f
000000a0: 0000 403f 0000 803f 0000 a03f 0000 c03f
000000b0: 0000 e03f 0000 e0bf 0000 c0bf 0000 a0bf
000000c0: 0000 80bf 0000 40bf 0000 00bf 0000 80be
000000d0: 0000 0000 0000 803e 0000 003f 0000 403f
000000e0: 0000 803f 0000 a03f 0000 c03f 0000 e03f
000000f0: 0000 e0bf 0000 c0bf 0000 a0bf 0000 80bf
00000100: 0000 40bf 0000 00bf 0000 80be 0000 0000
00000110: 0000 803e 0000 003f 0000 403f 0000 803f
00000120: 0000 a03f 0000 c03f 0000 e03f 0000 e0bf
00000130: 0000 c0bf 0000 a0bf 0000 80bf 0000 40bf
00000140: 0000 00bf 0000 80be 0000 0000 0000 803e
00000150: 0000 003f 0000 403f 0000 803f 0000 a03f
00000160: 0000 c03f 0000 e03f 0000 e0bf 0000 c0bf
00000170: 0000 a0bf 0000 80bf 0000 40bf 0000 00bf
00000180: 0000 80be 0000 0000 0000 803e 0000 003f
00000190: 0000 403f 0000 803f 0000 a03f 0000 c03f
000001a0: 0000 e03f 0000 e0bf 0000 c0bf 0000 a0bf
000001b0: 0000 80bf 0000 40bf 0000 00bf 0000 80be
000001c0: 0000 0000 0000 803e 0000 003f 0000 403f
000001d0: 0000 803f 0000 a03f 0000 c03f 0000 e03f
000001e0: 0000 e0bf 0000 c0bf 0000 a0bf 0000 80bf
000001f0: 0000 40bf 0000 00bf 0000 80be 0000 0000
00000200: 0000 803e 0000 003f 0000 403f 0000 803f
00000210: 0000 a03f 0000 c03f 0000 e03f 0000 e0bf
00000220: 0000 c0bf 0000 a0bf 0000 80bf 0000 40bf
00000230: 0000 00bf 0000 80be 0000 0000 0000 803e
00000240: 0000 003f 0000 403f 0000 803f 0000 a03f
00000250: 0000 c03f 0000 e03f 0000 e0bf 0000 c0bf
00000260: 0000 a0bf 0000 80bf 0000 40bf 0000 00bf
00000270: 0000 80be 0000 0000 0000 803e 0000 003f
00000280: 0000 403f 0000 803f 0000 a03f 0000 c03f
00000290: 0000 e03f 0000 e0bf 0000 c0bf 0000 a0bf
000002a0: 0000 80bf 0000 40bf 0000 00bf 0000 80be
000002b0: 0000 0000 0000 803e 0000 003f 0000 403f
000002c0: 0000 803f 0000 a03f 0000 c03f 0000 e03f
000002d0: 0000 e0bf 0000 c0bf 0000 a0bf 0000 80bf
000002e0: 0000 40bf 0000 00bf 0000 80be 0000 0000
000002f0: 0000 803e 0000 003f 0000 403f 0000 803f
00000300: 0000 a03f 0000 c03f 0000 e03f 0000 e0bf
00000310: 0000 c0bf 0000 a0bf 0000 80bf 0000 40bf
00000320: 0000 00bf 0000 80be 0000 0000 0000 803e
00000330: 0000 003f 0000 403f 0000 803f 0000 a03f
00000340: 0000 c03f 0000 e03f 0000 e0bf 0000 c0bf
00000350: 0000 a0bf 0000 80bf 0000 40bf 0000 00bf
00000360: 0000 80be 0000 0000 0000 803e 0000 003f
00000370: 0000 403f 0000 803f 0000 a03f 0000 c03f
00000380: 0000 e03f 0000 e0bf 0000 c0bf 0000 a0bf
00000390: 0000 80bf 0000 40bf 0000 00bf 0000 80be
000003a0: 0000 0000 0000 803e 0000 003f 0000 403f
000003b0: 0000 803f 0000 a03f 0000 c03f 0000 e03f

act_fun.2.coef f4 [16, 1, 11]
-0.66199005 -0.42539465 -0.082782336 -0.15565388 -0.32316163 0.36092475 0.37267902 0.4541519
0.9644471 1.0647838 0.9367667 1.2572811 0.50066036 0.51600236 0.52008885 -0.2833475
-0.2916668 0.26853845 0.29698813 0.3853352 0.8703433 1.1167256 -0.30236638 -0.21577209
-0.26336843 -0.26266158 -0.295165 -0.29326743 0.45621872 0.33226103 0.50326174 0.71268463
0.8562389 -0.26412216 -0.23121989 -0.19232844 -0.23103346 -0.17972039 -0.21438769 0.0762815
0.48185015 0.39008185 0.35480088 0.4187105 -0.27578586 -0.24110697 -0.22936969 -0.19071348
-0.18299206 -0.24828604 0.32763404 0.28844652 0.07671803 0.23042932 0.43393743 -0.31685808
-0.23724514 -0.21572301 -0.27033198 -0.28818282 -0.30183384 0.43912232 0.3829851 0.38601527
0.19719552 0.11266949 0.16962263 0.21886326 0.23931393 0.28805488 0.37975955 0.20465054
-0.4730982 -0.27801514 -0.24432798 -0.18679082 -0.17157012 0.82393074 0.70016044 0.6259644
0.325913 0.4476277 -0.04172801 -0.33694834 -0.24637328 -0.27617586 -0.20789218 -0.19619513
-0.27216592 -0.24349336 -0.17072359 -0.19535525 -0.1428134 -0.21149287 0.18162473 0.39829302
0.19789334 0.3671338 0.36916956 0.18273577 0.23959155 0.2825452 0.32940614 0.5435634
-0.12746741 -0.39229977 -0.23841618 -0.22376858 -0.18277338 -0.17360488 0.7485647 0.49267486
0.24420136 0.26884487 0.35763416 0.4209687 -0.32658365 -0.2798355 -0.29201868 -0.20763192
-0.20262824 -0.26788512 -0.20884563 -0.26554123 -0.24865659 -0.30351287 0.40925628 0.40196437
0.54103446 0.7779765 0.8741073 0.96924233 0.17708217 0.18738906 0.2728354 0.25525126
0.34316015 0.31093642 -0.4000234 -0.26225656 -0.26656273 -0.22171436 -0.1886886 -0.4166723
-0.29135054 -0.27420774 -0.26090205 -0.23640405 -0.047553413 0.09959159 0.12809645 0.13599244
0.16422254 0.54418933 0.131468 1.353838 0.45307934 0.36223057 0.409008 -0.3444462
0.09564383 0.2680016 0.31893367 1.2203326 0.0920224 0.46728188 0.33934003 0.37209785
0.2806321 0.35052598 0.38443676 -0.3702959 -0.24437526 -0.19545391 -0.21116905 -0.17815846
00000000: 2e78 29bf 54cd d9be c989 a9bd bb63 1fbe
00000010: 7175 a5be 21cb b83e c9cf be3e 9986 e83e
00000020: 01e6 763f d64a 883f f1cf 6f3f 96ee a03f
00000030: 472b 003f bb18 043f 8b24 053f ec12 91be
00000040: 5a55 95be df7d 893e d40e 983e a84a c53e
00000050: d2ce 5e3f ddf0 8e3f c4cf 9abe 5cf3 5cbe
00000060: 3ad8 86be 947b 86be de1f 97be 2627 96be
00000070: 8095 e93e 1e1e aa3e c3d5 003f 8072 363f
00000080: 7932 5b3f 053b 87be e8c4 6cbe bff1 44be
00000090: 0994 6cbe 9f08 38be 7288 5bbe 7a39 9c3d
000000a0: 10b5 f63e cfb8 c73e 76a8 b53e 3961 d63e
000000b0: ce33 8dbe bfe4 76be e3df 6abe 654a 43be
000000c0: 4562 3bbe b23e 7ebe a6bf a73e 43af 933e
000000d0: 581e 9d3d aaf5 6b3e 0c2d de3e 393b a2be
000000e0: 64f0 72be 7ee6 5cbe f468 8abe b38c 93be
000000f0: f789 9abe a4d4 e03e 9f16 c43e cba3 c53e
00000100: 9fed 493e 43bf e63d 8eb1 2d3e b11d 603e
00000110: b60e 753e ee7b 933e d86f c23e e98f 513e
00000120: ed39 f2be 0058 8ebe 1d31 7abe 1846 3fbe
00000130: 14b0 2fbe 20ed 523f b73d 333f 343f 203f
00000140: 12de a63e 752f e53e fdea 2abd 7e84 acbe
00000150: 4749 7cbe ec66 8dbe b0e1 54be 60e7 48be
00000160: 5559 8bbe 5356 79be 2ad2 2ebe 350b 48be
00000170: ad3d 12be 9691 58be d5fb 393e 10ed cb3e
00000180: 8da4 4a3e f6f8 bb3e cb03 bd3e 161f 3b3e
00000190: 7d57 753e c4a9 903e eca7 a83e f926 0b3f
000001a0: d186 02be 84db c8be 5f23 74be 9723 65be
000001b0: f228 3bbe 7ac5 31be f0a1 3f3f e13f fc3e
000001c0: ec0f 7a3e 09a6 893e d31b b73e 3689 d73e
000001d0: f935 a7be 9946 8fbe 7983 95be 769d 54be
000001e0: c77d 4fbe 3d28 89be a1db 55be 05f5 87be
000001f0: d59f 7ebe 0a66 9bbe 0a8a d13e 46ce cd3e
00000200: 3c81 0a3f 7829 473f 7fc5 5f3f 4420 783f
00000210: 0755 353e ebe2 3f3e 15b1 8b3e 4bb0 823e
00000220: b0b2 af3e 0f33 9f3e decf ccbe 7e46 86be
00000230: e97a 88be 1709 63be 9637 41be 1256 d5be
00000240: e62b 95be f564 8cbe f494 85be e713 72be
00000250: 5ec7 42bd adf6 cb3d b72b 033e 9a41 0b3e
00000260: f429 283e fe4f 0b3f 8c9f 063e 904a ad3f
00000270: 04fa e73e 4976 b93e 7f69 d13e 415b b0be
00000280: eae0 c33d 8137 893e 464b a33e dc33 9c3f
00000290: 3d76 bc3d 923f ef3e fabd ad3e 9c83 be3e
000002a0: 03af 8f3e 2478 b33e e5d4 c43e 6d97 bdbe
000002b0: 823d 7abe 1225 48be b33c 58be 2c6f 36be

act_fun.2.mask f4 [16, 1]
1.0 1.0 1.0 1.0 1.0 1.0 1.0 1.0
1.0 1.0 1.0 1.0 1.0 1.0 1.0 1.0
00000000: 0000 803f 0000 803f 0000 803f 0000 803f
00000010: 0000 803f 0000 803f 0000 803f 0000 803f
00000020: 0000 803f 0000 803f 0000 803f 0000 803f
00000030: 0000 803f 0000 803f 0000 803f 0000 803f

act_fun.2.scale_base f4 [16, 1]
0.24064706 0.21032397 0.41232756 0.38288996 0.58311474 0.35009134 -0.6210033 -0.41661182
0.5547248 -0.500173 -0.39817792 0.34649482 -0.560927 0.58824855 0.06401111 -0.54962397
00000000: 2f6c 763e 2b5f 573e 991c d33e 270a c43e
00000010: 0247 153f 2c3f b33e 13fa 1ebf 254e d5be
00000020: 7202 0e3f 560b 00bf fadd cbbe c567 b13e
00000030: e998 0fbf 7597 163f 4218 833d 28b4 0cbf

act_fun.2.scale_sp f4 [16, 1]
0.68938065 0.7268907 0.750512 0.7865781 0.7517845 0.7149988 0.73555607 0.7466675
0.69872475 0.7937938 0.73792434 0.79324156 0.7606604 0.5840915 0.641906 0.83138305
00000000: 407b 303f 8215 3a3f 8e21 403f 2f5d 493f
00000010: f374 403f 290a 373f 674d 3c3f 9a25 3f3f
00000020: a0df 323f 1236 4b3f 9ce8 3c3f e111 4b3f
00000030: a4ba 423f 0587 153f f453 243f 85d5 543f
