models_grid/purkinje_I20_T1000_W[16, 0]_G16_K2.pt (torch, 50269 bytes, 29 tensors)

node_bias_0 f4 [16]
000000 00 00 00 00 00 00 00 00 00 00 00 00 00 00 00 00
       0.0 0.0 0.0 0.0
000010 00 00 00 00 00 00 00 00 00 00 00 00 00 00 00 00
       0.0 0.0 0.0 0.0
000020 00 00 00 00 00 00 00 00 00 00 00 00 00 00 00 00
       0.0 0.0 0.0 0.0
000030 00 00 00 00 00 00 00 00 00 00 00 00 00 00 00 00
       0.0 0.0 0.0 0.0

node_scale_0 f4 [16]
000000 00 00 80 3f 00 00 80 3f 00 00 80 3f 00 00 80 3f
       1.0 1.0 1.0 1.0
000010 00 00 80 3f 00 00 80 3f 00 00 80 3f 00 00 80 3f
       1.0 1.0 1.0 1.0
000020 00 00 80 3f 00 00 80 3f 00 00 80 3f 00 00 80 3f
       1.0 1.0 1.0 1.0
000030 00 00 80 3f 00 00 80 3f 00 00 80 3f 00 00 80 3f
       1.0 1.0 1.0 1.0

subnode_bias_0 f4 [16]
000000 00 00 00 00 00 00 00 00 00 00 00 00 00 00 00 00
       0.0 0.0 0.0 0.0
000010 00 00 00 00 00 00 00 00 00 00 00 00 00 00 00 00
       0.0 0.0 0.0 0.0
000020 00 00 00 00 00 00 00 00 00 00 00 00 00 00 00 00
       0.0 0.0 0.0 0.0
000030 00 00 00 00 00 00 00 00 00 00 00 00 00 00 00 00
       0.0 0.0 0.0 0.0

subnode_scale_0 f4 [16]
000000 00 00 80 3f 00 00 80 3f 00 00 80 3f 00 00 80 3f
       1.0 1.0 1.0 1.0
000010 00 00 80 3f 00 00 80 3f 00 00 80 3f 00 00 80 3f
       1.0 1.0 1.0 1.0
000020 00 00 80 3f 00 00 80 3f 00 00 80 3f 00 00 80 3f
       1.0 1.0 1.0 1.0
000030 00 00 80 3f 00 00 80 3f 00 00 80 3f 00 00 80 3f
       1.0 1.0 1.0 1.0

node_bias_1 f4 [16]
000000 00 00 00 00 00 00 00 00 00 00 00 00 00 00 00 00
       0.0 0.0 0.0 0.0
000010 00 00 00 00 00 00 00 00 00 00 00 00 00 00 00 00
       0.0 0.0 0.0 0.0
000020 00 00 00 00 00 00 00 00 00 00 00 00 00 00 00 00
       0.0 0.0 0.0 0.0
000030 00 00 00 00 00 00 00 00 00 00 00 00 00 00 00 00
       0.0 0.0 0.0 0.0

node_scale_1 f4 [16]
000000 00 00 80 3f 00 00 80 3f 00 00 80 3f 00 00 80 3f
       1.0 1.0 1.0 1.0
000010 00 00 80 3f 00 00 80 3f 00 00 80 3f 00 00 80 3f
       1.0 1.0 1.0 1.0
000020 00 00 80 3f 00 00 80 3f 00 00 80 3f 00 00 80 3f
       1.0 1.0 1.0 1.0
000030 00 00 80 3f 00 00 80 3f 00 00 80 3f 00 00 80 3f
       1.0 1.0 1.0 1.0

subnode_bias_1 f4 [16]
000000 00 00 00 00 00 00 00 00 00 00 00 00 00 00 00 00
       0.0 0.0 0.0 0.0
000010 00 00 00 00 00 00 00 00 00 00 00 00 00 00 00 00
       0.0 0.0 0.0 0.0
000020 00 00 00 00 00 00 00 00 00 00 00 00 00 00 00 00
       0.0 0.0 0.0 0.0
000030 00 00 00 00 00 00 00 00 00 00 00 00 00 00 00 00
       0.0 0.0 0.0 0.0

subnode_scale_1 f4 [16]
000000 00 00 80 3f 00 00 80 3f 00 00 80 3f 00 00 80 3f
       1.0 1.0 1.0 1.0
000010 00 00 80 3f 00 00 80 3f 00 00 80 3f 00 00 80 3f
       1.0 1.0 1.0 1.0
000020 00 00 80 3f 00 00 80 3f 00 00 80 3f 00 00 80 3f
       1.0 1.0 1.0 1.0
000030 00 00 80 3f 00 00 80 3f 00 00 80 3f 00 00 80 3f
       1.0 1.0 1.0 1.0

act_fun.0.grid f4 [4, 21]
000000 00 00 a0 bf 00 00 90 bf 00 00 80 bf 00 00 60 bf
       -1.25 -1.125 -1.0 -0.875
000010 00 00 40 bf 00 00 20 bf 00 00 00 bf 00 00 c0 be
       -0.75 -0.625 -0.5 -0.375
000020 00 00 80 be 00 00 00 be 00 00 00 00 00 00 00 3e
       -0.25 -0.125 0.0 0.125
000030 00 00 80 3e 00 00 c0 3e 00 00 00 3f 00 00 20 3f
       0.25 0.375 0.5 0.625
000040 00 00 40 3f 00 00 60 3f 00 00 80 3f 00 00 90 3f
       0.75 0.875 1.0 1.125
000050 00 00 a0 3f 00 00 a0 bf 00 00 90 bf 00 00 80 bf
       1.25 -1.25 -1.125 -1.0
000060 00 00 60 bf 00 00 40 bf 00 00 20 bf 00 00 00 bf
       -0.875 -0.75 -0.625 -0.5
000070 00 00 c0 be 00 00 80 be 00 00 00 be 00 00 00 00
       -0.375 -0.25 -0.125 0.0
000080 00 00 00 3e 00 00 80 3e 00 00 c0 3e 00 00 00 3f
       0.125 0.25 0.375 0.5
000090 00 00 20 3f 00 00 40 3f 00 00 60 3f 00 00 80 3f
       0.625 0.75 0.875 1.0
0000a0 00 00 90 3f 00 00 a0 3f 00 00 a0 bf 00 00 90 bf
       1.125 1.25 -1.25 -1.125
0000b0 00 00 80 bf 00 00 60 bf 00 00 40 bf 00 00 20 bf
       -1.0 -0.875 -0.75 -0.625
0000c0 00 00 00 bf 00 00 c0 be 00 00 80 be 00 00 00 be
       -0.5 -0.375 -0.25 -0.125
0000d0 00 00 00 00 00 00 00 3e 00 00 80 3e 00 00 c0 3e
       0.0 0.125 0.25 0.375
0000e0 00 00 00 3f 00 00 20 3f 00 00 40 3f 00 00 60 3f
       0.5 0.625 0.75 0.875
0000f0 00 00 80 3f 00 00 90 3f 00 00 a0 3f 00 00 a0 bf
       1.0 1.125 1.25 -1.25
000100 00 00 90 bf 00 00 80 bf 00 00 60 bf 00 00 40 bf
       -1.125 -1.0 -0.875 -0.75
000110 00 00 20 bf 00 00 00 bf 00 00 c0 be 00 00 80 be
       -0.625 -0.5 -0.375 -0.25
000120 00 00 00 be 00 00 00 00 00 00 00 3e 00 00 80 3e
       -0.125 0.0 0.125 0.25
000130 00 00 c0 3e 00 00 00 3f 00 00 20 3f 00 00 40 3f
       0.375 0.5 0.625 0.75
000140 00 00 60 3f 00 00 80 3f 00 00 90 3f 00 00 a0 3f
       0.875 1.0 1.125 1.25

act_fun.0.coef f4 [4, 16, 18]
000000 39 70 9f be b5 82 63 be 4a 78 43 be 13 cf 51 be
       -0.31140307 -0.2221783 -0.19088855 -0.20489149
000010 b6 94 51 be 78 d2 31 be 9c 8b 4b be d8 79 1e be
       -0.20466885 -0.17365444 -0.19877476 -0.15476167
000020 56 d3 20 be a3 40 e4 bd 00 3c c4 bd 0f d0 84 bd
       -0.15705618 -0.11145141 -0.095817566 -0.064849965
000030 5c 35 14 bd 34 25 62 bc 93 f6 ce 3b 94 c6 24 3c
       -0.0361837 -0.013802815 0.006316015 0.01005711
000040 8e fc d0 3c 10 5d 13 3e c1 52 b0 3e 3b a6 31 3e
       0.025511052 0.1439097 0.34438136 0.17348568
000050 c6 72 99 3e 0f 07 53 3e d2 3a 94 3e 47 a8 62 3e
       0.29970378 0.20608161 0.28951126 0.22134505
000060 b4 5f 8f 3e 5f 03 73 3e b4 1c 81 3e 63 7c 82 3e
       0.28002703 0.23731755 0.2521721 0.25485525
000070 72 1b 5e 3e a9 1f 53 3e bd 7c 0a 3e 6e d8 f6 3d
       0.21690157 0.20617546 0.13524146 0.120529994
000080 86 49 e5 3c 9e 30 04 3d f9 8b f1 bd 05 74 bf bd
       0.02798916 0.032272927 -0.11794276 -0.09348301
000090 84 1e 74 3e c1 88 45 3e a2 d7 22 3e 79 94 41 3e
       0.23839766 0.19290449 0.1590257 0.18904294
0000a0 e8 ae 50 3e 03 33 42 3e 61 96 38 3e 59 f8 20 3e
       0.20379221 0.18964772 0.18026115 0.15719737
0000b0 43 1f 09 3e 9f a7 e3 3d 55 46 9f 3d 7c 04 3b 3d
       0.13390832 0.111159556 0.07777087 0.045658574
0000c0 53 7b fd 3c 82 2e 38 bc 31 03 82 bd 57 e8 19 be
       0.030942595 -0.011241557 -0.06348265 -0.15030037
0000d0 8d b4 27 be bc 9b 68 be 83 7b a6 3e 1f 86 4e 3e
       -0.16377468 -0.22715658 0.32516107 0.2016835
0000e0 19 e6 5f 3e d4 f0 5c 3e 83 c3 78 3e 20 88 82 3e
       0.21865119 0.21576244 0.24293332 0.2549448
0000f0 89 13 6a 3e cc 09 6b 3e 6b a4 4d 3e 14 88 3e 3e
       0.22859015 0.22952956 0.20082252 0.18606597
000100 d0 42 2e 3e 52 cc 0a 3e 14 12 e4 3d f8 24 a4 3d
       0.17017674 0.13554505 0.11136261 0.08014864
000110 6e 14 69 3d dd 55 c1 3c 46 da e8 bb d3 37 0c be
       0.05690425 0.023600513 -0.0071060983 -0.1369317
000120 a3 83 99 be aa c3 07 be 0a 4b 37 be 29 f9 f5 bd
       -0.29983243 -0.13258234 -0.17899719 -0.12010414
000130 1b 4e 58 be 32 f8 07 be 41 72 67 be a9 0c 00 be
       -0.21123545 -0.13278273 -0.22602178 -0.1250483
000140 23 49 26 be 5a 69 ce bd d8 9e 9d bd 0e 61 3c bd
       -0.16238837 -0.10078688 -0.07696313 -0.045990996
000150 c0 cb 17 bd 82 6f 80 bc d5 24 a2 3d 87 41 bf bd
       -0.037059546 -0.015678171 0.079171814 -0.0933867
000160 a5 91 a0 3c 12 a2 ea 3d 70 33 9d be 0d 47 73 be
       0.019600699 0.11456694 -0.30703306 -0.23757572
000170 36 60 43 be d0 7e 5e be 41 80 48 be fa 31 56 be
       -0.1907967 -0.21728063 -0.19580175 -0.20917502
000180 07 db 51 be 59 cc 46 be 7b 2d 3f be 94 21 43 be
       -0.20493709 -0.1941389 -0.18669693 -0.19055778
000190 17 46 22 be 4d 05 07 be bf 14 b9 bd 63 e1 07 bd
       -0.1584705 -0.13185616 -0.0903716 -0.03317393
0001a0 49 ac 12 bd 19 1c cb 3c 04 92 11 3d 4b 7c 66 3e
       -0.035808835 0.024793671 0.035539642 0.22508352
0001b0 70 7d 84 3e 5f ae 5f 3e ce ff 37 3e 27 7f 68 3e
       0.2587695 0.21843861 0.17968675 0.22704755
0001c0 d1 2a 53 3e 4d 5e 54 3e 66 7b 3b 3e 4b 1b 2c 3e
       0.20621802 0.20739098 0.18308792 0.16807286
0001d0 21 5f 05 3e f5 b1 a9 3d be 1d 86 3d d3 7a 98 3c
       0.1302457 0.08285896 0.065486416 0.018613255
0001e0 5f 57 d6 bb d2 1d 8b bd 9e f7 fb bd bb 89 46 be
       -0.006541177 -0.06792797 -0.123030886 -0.19388478
0001f0 e1 e1 4e be 10 c2 77 be 9b e5 a1 be d3 28 29 be
       -0.20203353 -0.24195123 -0.31620488 -0.1651948
000200 da 79 20 be 10 52 20 be a2 b3 d2 bd 24 26 c4 bd
       -0.15671483 -0.15656304 -0.102881685 -0.09577587
000210 bf 07 dd bd 6b 0d cb bd 99 b9 c5 bd ce ab 94 bd
       -0.10792493 -0.09914669 -0.096545406 -0.07259332
000220 5c 79 8e bd b1 93 49 bd 6c f0 2c bd e0 9f 83 bc
       -0.06956741 -0.049213115 -0.04222147 -0.016067445
000230 c4 f3 d3 3a cc b1 de 3c 8b c8 3a 3d 93 3c fb 3d
       0.001617067 0.02718439 0.04560141 0.12267413
000240 ea 8c bf 3e 53 cf 1b 3e 58 a5 29 3e 1f 6c 2b 3e
       0.37412196 0.15215807 0.1656698 0.16740464
000250 86 34 5d be c6 7e 86 be ea 83 85 be d4 47 4f be
       -0.21602067 -0.26268595 -0.26077205 -0.20242244
000260 52 b1 6b be 22 6c 23 be 2f 9c 1c be 03 2f b3 bd
       -0.23016861 -0.15959218 -0.15293954 -0.08749201
000270 aa b8 b5 bc 9f b0 9d bd 3e 6f af bc a7 43 3f bc
       -0.022182781 -0.076997034 -0.02141535 -0.011673844
000280 34 9d 0a 3e d9 e3 51 3e d9 76 24 3e a5 0c a8 3c
       0.1353653 0.20497073 0.16060962 0.020513842
000290 01 30 c7 3c 55 d2 dc 3c dd c3 28 3d be 38 41 3d
       0.024314882 0.026955763 0.041202415 0.047173254
0002a0 9d bf 3f 3d 13 34 90 3d 27 58 ba 3d 57 d1 ee 3d
       0.046813596 0.07041182 0.09098845 0.11661022
0002b0 ac 68 1c 3e 0d 88 35 3e 7f 44 38 3e a5 e0 49 3e
       0.15274304 0.1772768 0.17994879 0.19714601
0002c0 cf cf 43 3e 46 55 45 3e 16 34 45 3e c3 4e 6d 3e
       0.19122241 0.1927081 0.1925815 0.23174576
0002d0 48 91 98 be 74 d2 19 be 97 50 28 be 9a bb 2b be
       -0.2979834 -0.15021688 -0.16436993 -0.16770783
0002e0 21 63 4b be bf 7c 62 be e8 bd 34 be f0 20 2d be
       -0.19862033 -0.221179 -0.17650568 -0.16907096
0002f0 1c 4a 0d be a8 88 02 be b6 13 d9 bd 1a 48 94 bd
       -0.13797802 -0.12747443 -0.10599463 -0.07240315
000300 7e a0 54 bd f1 f6 ba bc 63 bf 75 3b 28 58 57 3d
       -0.05191087 -0.022822829 0.0037498109 0.052574307
000310 91 e5 a1 3d 9a 22 47 3e 5a e6 e2 be 94 ce 1d be
       0.079051144 0.19446793 -0.4431637 -0.15410835
000320 56 9b 57 be 5a 87 47 be 99 db 6a be ce 98 5b be
       -0.2105535 -0.19485226 -0.22935332 -0.21445009
000330 db 95 5e be f7 96 66 be 3b ef 6b be 79 b0 7b be
       -0.21736853 -0.22518526 -0.23040478 -0.24579038
000340 22 fa 75 be f3 36 79 be 16 9e 71 be dc db 84 be
       -0.240212 -0.24337368 -0.23595461 -0.2594899
000350 63 2c 80 be 60 e0 92 be 3d 20 8a be 94 40 a6 be
       -0.25033864 -0.2868681 -0.2697772 -0.32471144
000360 a9 67 ae 3e 43 a5 7d 3e 47 5c 41 3e 58 ca 78 3e
       0.3406346 0.24770074 0.18882857 0.24295938
000370 e0 6e 64 3e 33 a1 7d 3e c1 0b 57 3e bb c7 67 3e
       0.2230792 0.24768524 0.21000578 0.22634785
000380 72 b6 38 3e 8e 96 30 3e d4 0e 11 3e c5 61 e9 3d
       0.18038347 0.17244932 0.14165813 0.11395601
000390 52 49 c3 3d 26 cd 2e 3d 7e 18 fa 3c ec bf 48 bd
       0.09535469 0.042676114 0.030529257 -0.049011156
0003a0 03 8b 32 bd b1 cd 59 be 3c 89 a3 3e 8a c9 56 3e
       -0.043589603 -0.21269871 0.3194064 0.20975319
0003b0 c5 f4 49 3e 32 d8 4e 3e 95 37 4c 3e 96 2f 3d 3e
       0.19722278 0.2019966 0.19943078 0.18475184
0003c0 80 a0 39 3e aa d8 2b 3e e2 7f 19 3e 1b 20 07 3e
       0.18127632 0.1678187 0.1499019 0.13195841
0003d0 77 f7 e0 3d 0f 4d cb 3d 19 5a a0 3d 1e a6 6b 3d
       0.109847 0.09926807 0.07829685 0.05753147
0003e0 a3 e5 00 3d ef 8a bc 3c ca 25 02 3d de d7 d8 bd
       0.031469 0.023015467 0.03177432 -0.105880484
0003f0 76 a0 d9 3e 3f aa 41 3e 85 e8 5b 3e c6 2d 25 3e
       0.42505234 0.189126 0.21475418 0.16130742

act_fun.0.mask f4 [4, 16]
000000 00 00 80 3f 00 00 80 3f 00 00 80 3f 00 00 80 3f
       1.0 1.0 1.0 1.0
000010 00 00 80 3f 00 00 80 3f 00 00 80 3f 00 00 80 3f
       1.0 1.0 1.0 1.0
000020 00 00 80 3f 00 00 80 3f 00 00 80 3f 00 00 80 3f
       1.0 1.0 1.0 1.0
000030 00 00 80 3f 00 00 80 3f 00 00 80 3f 00 00 80 3f
       1.0 1.0 1.0 1.0
000040 00 00 80 3f 00 00 80 3f 00 00 80 3f 00 00 80 3f
       1.0 1.0 1.0 1.0
000050 00 00 80 3f 00 00 80 3f 00 00 80 3f 00 00 80 3f
       1.0 1.0 1.0 1.0
000060 00 00 80 3f 00 00 80 3f 00 00 80 3f 00 00 80 3f
       1.0 1.0 1.0 1.0
000070 00 00 80 3f 00 00 80 3f 00 00 80 3f 00 00 80 3f
       1.0 1.0 1.0 1.0
000080 00 00 80 3f 00 00 80 3f 00 00 80 3f 00 00 80 3f
       1.0 1.0 1.0 1.0
000090 00 00 80 3f 00 00 80 3f 00 00 80 3f 00 00 80 3f
       1.0 1.0 1.0 1.0
0000a0 00 00 80 3f 00 00 80 3f 00 00 80 3f 00 00 80 3f
       1.0 1.0 1.0 1.0
0000b0 00 00 80 3f 00 00 80 3f 00 00 80 3f 00 00 80 3f
       1.0 1.0 1.0 1.0
0000c0 00 00 80 3f 00 00 80 3f 00 00 80 3f 00 00 80 3f
       1.0 1.0 1.0 1.0
0000d0 00 00 80 3f 00 00 80 3f 00 00 80 3f 00 00 80 3f
       1.0 1.0 1.0 1.0
0000e0 00 00 80 3f 00 00 80 3f 00 00 80 3f 00 00 80 3f
       1.0 1.0 1.0 1.0
0000f0 00 00 80 3f 00 00 80 3f 00 00 80 3f 00 00 80 3f
       1.0 1.0 1.0 1.0

act_fun.0.scale_base f4 [4, 16]
000000 37 19 ed bd a5 7f e3 3e 9c 62 b9 3e 5f d9 6a 3e
       -0.11577075 0.44433323 0.36208045 0.22934483
000010 1c 0f 8f be 71 3a 64 be 11 79 de 3e 9c 93 64 bd
       -0.27941215 -0.22287919 0.4345174 -0.055804834
000020 45 3e 0e bf 82 ef 14 be af b2 38 be 89 3e 00 3e
       -0.55563766 -0.1454449 -0.18036912 0.12523855
000030 be cf 38 3e 3b 5c d9 3d 9e 62 e9 be 35 38 15 3e
       0.18047997 0.10613295 -0.4558305 0.14572223
000040 b0 bb 7d be 68 2a ad 3e 98 88 7d 3e 82 83 8c 3e
       -0.24778628 0.33821416 0.24759138 0.27444082
000050 a0 bd e8 3e e4 7e 7b 3e 98 d1 ff be 64 31 01 3e
       0.45457172 0.24560124 -0.49964595 0.12616497
000060 da a9 af be f0 be 88 3d 00 20 af 3b fe e7 fd 3e
       -0.34309274 0.066770434 0.005344391 0.49591058
000070 ac e7 ae be a2 d1 fa be ac 41 09 be 08 03 a5 3d
       -0.34161127 -0.48988062 -0.13403958 0.08057219
000080 e8 7e d8 3e 01 17 9c 3e 26 5e 9a 3e 8f eb 56 3d
       0.42284322 0.304863 0.30149955 0.05247074
000090 3e e9 ab bd 15 70 06 bd 92 aa 9d be fd ae 9f 3e
       -0.08394097 -0.032821734 -0.30794197 0.31188193
0000a0 b2 bc cd be 4c 73 a5 3e 40 21 f4 3e ed bc e2 3e
       -0.40183026 0.32314527 0.47681618 0.44284764
0000b0 f2 4a 0a bf ec d5 ae 3e 9a 62 92 be 2a e0 e2 3b
       -0.5402061 0.34147584 -0.28590852 0.006923695
0000c0 87 9f ce 3e b9 44 75 3e 3c 3c eb bd b7 df e2 3e
       0.40356085 0.23951997 -0.11486098 0.44311306
0000d0 5d a9 ba be 5a 64 06 3f 6b f9 1f 3f 19 d7 86 bd
       -0.3645734 0.52496874 0.62489957 -0.06583995
0000e0 89 7a 23 3d c9 77 06 be d6 c3 4a be c2 c1 af be
       0.03991178 -0.13131632 -0.19801268 -0.34327513
0000f0 01 19 10 bd 6b 7b f3 be 36 4a 80 be 79 52 9c 3d
       -0.035180096 -0.47555098 -0.25056618 0.07632918

act_fun.0.scale_sp f4 [4, 16]
000000 8c a7 42 3f 32 3c 4b 3f b1 37 4f 3f a2 97 4d 3f
       0.76036906 0.79388726 0.80944353 0.803095
000010 35 43 56 3f 64 27 47 3f 6c a0 4c 3f 6d e5 36 3f
       0.836963 0.7779448 0.79932284 0.71443826
000020 03 8a 75 3f 60 fb 45 3f 7e 46 57 3f 60 c4 59 3f
       0.95913714 0.7733669 0.8409194 0.8506527
000030 ac 12 45 3f 4f 9a 42 3f b1 d1 6c 3f cb 4b 70 3f
       0.76981616 0.76016706 0.92507464 0.9386565
000040 3c 11 0a 3f 76 3b 32 3f 05 9c 05 3f c6 5b 25 3f
       0.5393255 0.6962198 0.5219119 0.6459316
000050 30 17 ed 3e 5e c0 13 3f 2f 43 f4 3e 42 88 07 3f
       0.46306753 0.57715404 0.47707507 0.5294229
000060 d9 20 02 3f f9 7b 18 3f 8a 5f fe 3e e0 18 24 3f
       0.5083137 0.5956417 0.49682266 0.64100456
000070 21 38 19 3f 66 ef 23 3f 60 13 0e 3f 6e d8 0a 3f
       0.5985127 0.6403717 0.55498314 0.54236495
000080 c7 85 3f 3f 41 f5 13 3f 2a d6 0b 3f 51 e5 11 3f
       0.74813503 0.577961 0.54623663 0.56990534
000090 cd 7d 31 3f 5d ff 41 3f d0 22 0a 3f f8 fe 2c 3f
       0.6933258 0.7578028 0.5395937 0.6757655
0000a0 69 d0 2f 3f 87 ff 2a 3f c1 ad 2c 3f 1d 71 26 3f
       0.68677384 0.66796154 0.6745263 0.6501635
0000b0 79 54 64 3f 1d f0 84 3f 9a 3a 14 3f 02 d7 4f 3f
       0.89191395 1.0385777 0.5790192 0.8118745
0000c0 6b cd 0a 3f f9 c8 c9 3e ef 61 d1 3e 4c f7 07 3f
       0.5421969 0.39411142 0.4089503 0.5311172
0000d0 b3 5a e4 3e 54 47 19 3f 8a d0 da 3e b8 0f 14 3f
       0.44600448 0.59874463 0.42737228 0.57836485
0000e0 ca f0 10 3f a2 f6 26 3f 6e 32 f0 3e a5 99 11 3f
       0.56617415 0.6522008 0.46913475 0.5687507
0000f0 6c be e8 3e cb 26 e9 3e 59 6e 05 3f 54 89 cf 3e
       0.4545778 0.4553741 0.521215 0.4053446

act_fun.1.grid f4 [16, 21]
000000 00 00 a0 bf 00 00 90 bf 00 00 80 bf 00 00 60 bf
       -1.25 -1.125 -1.0 -0.875
000010 00 00 40 bf 00 00 20 bf 00 00 00 bf 00 00 c0 be
       -0.75 -0.625 -0.5 -0.375
000020 00 00 80 be 00 00 00 be 00 00 00 00 00 00 00 3e
       -0.25 -0.125 0.0 0.125
000030 00 00 80 3e 00 00 c0 3e 00 00 00 3f 00 00 20 3f
       0.25 0.375 0.5 0.625
000040 00 00 40 3f 00 00 60 3f 00 00 80 3f 00 00 90 3f
       0.75 0.875 1.0 1.125
000050 00 00 a0 3f 00 00 a0 bf 00 00 90 bf 00 00 80 bf
       1.25 -1.25 -1.125 -1.0
000060 00 00 60 bf 00 00 40 bf 00 00 20 bf 00 00 00 bf
       -0.875 -0.75 -0.625 -0.5
000070 00 00 c0 be 00 00 80 be 00 00 00 be 00 00 00 00
       -0.375 -0.25 -0.125 0.0
000080 00 00 00 3e 00 00 80 3e 00 00 c0 3e 00 00 00 3f
       0.125 0.25 0.375 0.5
000090 00 00 20 3f 00 00 40 3f 00 00 60 3f 00 00 80 3f
       0.625 0.75 0.875 1.0
0000a0 00 00 90 3f 00 00 a0 3f 00 00 a0 bf 00 00 90 bf
       1.125 1.25 -1.25 -1.125
0000b0 00 00 80 bf 00 00 60 bf 00 00 40 bf 00 00 20 bf
       -1.0 -0.875 -0.75 -0.625
0000c0 00 00 00 bf 00 00 c0 be 00 00 80 be 00 00 00 be
       -0.5 -0.375 -0.25 -0.125
0000d0 00 00 00 00 00 00 00 3e 00 00 80 3e 00 00 c0 3e
       0.0 0.125 0.25 0.375
0000e0 00 00 00 3f 00 00 20 3f 00 00 40 3f 00 00 60 3f
       0.5 0.625 0.75 0.875
0000f0 00 00 80 3f 00 00 90 3f 00 00 a0 3f 00 00 a0 bf
       1.0 1.125 1.25 -1.25
000100 00 00 90 bf 00 00 80 bf 00 00 60 bf 00 00 40 bf
       -1.125 -1.0 -0.875 -0.75
000110 00 00 20 bf 00 00 00 bf 00 00 c0 be 00 00 80 be
       -0.625 -0.5 -0.375 -0.25
000120 00 00 00 be 00 00 00 00 00 00 00 3e 00 00 80 3e
       -0.125 0.0 0.125 0.25
000130 00 00 c0 3e 00 00 00 3f 00 00 20 3f 00 00 40 3f
       0.375 0.5 0.625 0.75
000140 00 00 60 3f 00 00 80 3f 00 00 90 3f 00 00 a0 3f
       0.875 1.0 1.125 1.25
000150 00 00 a0 bf 00 00 90 bf 00 00 80 bf 00 00 60 bf
       -1.25 -1.125 -1.0 -0.875
000160 00 00 40 bf 00 00 20 bf 00 00 00 bf 00 00 c0 be
       -0.75 -0.625 -0.5 -0.375
000170 00 00 80 be 00 00 00 be 00 00 00 00 00 00 00 3e
       -0.25 -0.125 0.0 0.125
000180 00 00 80 3e 00 00 c0 3e 00 00 00 3f 00 00 20 3f
       0.25 0.375 0.5 0.625
000190 00 00 40 3f 00 00 60 3f 00 00 80 3f 00 00 90 3f
       0.75 0.875 1.0 1.125
0001a0 00 00 a0 3f 00 00 a0 bf 00 00 90 bf 00 00 80 bf
       1.25 -1.25 -1.125 -1.0
0001b0 00 00 60 bf 00 00 40 bf 00 00 20 bf 00 00 00 bf
       -0.875 -0.75 -0.625 -0.5
0001c0 00 00 c0 be 00 00 80 be 00 00 00 be 00 00 00 00
       -0.375 -0.25 -0.125 0.0
0001d0 00 00 00 3e 00 00 80 3e 00 00 c0 3e 00 00 00 3f
       0.125 0.25 0.375 0.5
0001e0 00 00 20 3f 00 00 40 3f 00 00 60 3f 00 00 80 3f
       0.625 0.75 0.875 1.0
0001f0 00 00 90 3f 00 00 a0 3f 00 00 a0 bf 00 00 90 bf
       1.125 1.25 -1.25 -1.125
000200 00 00 80 bf 00 00 60 bf 00 00 40 bf 00 00 20 bf
       -1.0 -0.875 -0.75 -0.625
000210 00 00 00 bf 00 00 c0 be 00 00 80 be 00 00 00 be
       -0.5 -0.375 -0.25 -0.125
000220 00 00 00 00 00 00 00 3e 00 00 80 3e 00 00 c0 3e
       0.0 0.125 0.25 0.375
000230 00 00 00 3f 00 00 20 3f 00 00 40 3f 00 00 60 3f
       0.5 0.625 0.75 0.875
000240 00 00 80 3f 00 00 90 3f 00 00 a0 3f 00 00 a0 bf
       1.0 1.125 1.25 -1.25
000250 00 00 90 bf 00 00 80 bf 00 00 60 bf 00 00 40 bf
       -1.125 -1.0 -0.875 -0.75
000260 00 00 20 bf 00 00 00 bf 00 00 c0 be 00 00 80 be
       -0.625 -0.5 -0.375 -0.25
000270 00 00 00 be 00 00 00 00 00 00 00 3e 00 00 80 3e
       -0.125 0.0 0.125 0.25
000280 00 00 c0 3e 00 00 00 3f 00 00 20 3f 00 00 40 3f
       0.375 0.5 0.625 0.75
000290 00 00 60 3f 00 00 80 3f 00 00 90 3f 00 00 a0 3f
       0.875 1.0 1.125 1.25
0002a0 00 00 a0 bf 00 00 90 bf 00 00 80 bf 00 00 60 bf
       -1.25 -1.125 -1.0 -0.875
0002b0 00 00 40 bf 00 00 20 bf 00 00 00 bf 00 00 c0 be
       -0.75 -0.625 -0.5 -0.375
0002c0 00 00 80 be 00 00 00 be 00 00 00 00 00 00 00 3e
       -0.25 -0.125 0.0 0.125
0002d0 00 00 80 3e 00 00 c0 3e 00 00 00 3f 00 00 20 3f
       0.25 0.375 0.5 0.625
0002e0 00 00 40 3f 00 00 60 3f 00 00 80 3f 00 00 90 3f
       0.75 0.875 1.0 1.125
0002f0 00 00 a0 3f 00 00 a0 bf 00 00 90 bf 00 00 80 bf
       1.25 -1.25 -1.125 -1.0
000300 00 00 60 bf 00 00 40 bf 00 00 20 bf 00 00 00 bf
       -0.875 -0.75 -0.625 -0.5
000310 00 00 c0 be 00 00 80 be 00 00 00 be 00 00 00 00
       -0.375 -0.25 -0.125 0.0
000320 00 00 00 3e 00 00 80 3e 00 00 c0 3e 00 00 00 3f
       0.125 0.25 0.375 0.5
000330 00 00 20 3f 00 00 40 3f 00 00 60 3f 00 00 80 3f
       0.625 0.75 0.875 1.0
000340 00 00 90 3f 00 00 a0 3f 00 00 a0 bf 00 00 90 bf
       1.125 1.25 -1.25 -1.125
000350 00 00 80 bf 00 00 60 bf 00 00 40 bf 00 00 20 bf
       -1.0 -0.875 -0.75 -0.625
000360 00 00 00 bf 00 00 c0 be 00 00 80 be 00 00 00 be
       -0.5 -0.375 -0.25 -0.125
000370 00 00 00 00 00 00 00 3e 00 00 80 3e 00 00 c0 3e
       0.0 0.125 0.25 0.375
000380 00 00 00 3f 00 00 20 3f 00 00 40 3f 00 00 60 3f
       0.5 0.625 0.75 0.875
000390 00 00 80 3f 00 00 90 3f 00 00 a0 3f 00 00 a0 bf
       1.0 1.125 1.25 -1.25
0003a0 00 00 90 bf 00 00 80 bf 00 00 60 bf 00 00 40 bf
       -1.125 -1.0 -0.875 -0.75
0003b0 00 00 20 bf 00 00 00 bf 00 00 c0 be 00 00 80 be
       -0.625 -0.5 -0.375 -0.25
0003c0 00 00 00 be 00 00 00 00 00 00 00 3e 00 00 80 3e
       -0.125 0.0 0.125 0.25
0003d0 00 00 c0 3e 00 00 00 3f 00 00 20 3f 00 00 40 3f
       0.375 0.5 0.625 0.75
0003e0 00 00 60 3f 00 00 80 3f 00 00 90 3f 00 00 a0 3f
       0.875 1.0 1.125 1.25
0003f0 00 00 a0 bf 00 00 90 bf 00 00 80 bf 00 00 60 bf
       -1.25 -1.125 -1.0 -0.875

act_fun.1.coef f4 [16, 16, 18]
000000 4e 7d a5 3b e5 50 8d bc 24 58 d9 3a d2 a2 c1 ba
       0.005050338 -0.017250488 0.0016582054 -0.0014773256
000010 df 8c a5 bb d8 d8 22 be 1b d2 c7 bd b2 43 b1 3e
       -0.0050521935 -0.15903032 -0.09756871 0.3462196
000020 36 34 81 3e 29 b3 5f be 8e 76 07 be 4a fb 8d bb
       0.25235146 -0.21845688 -0.13228819 -0.0043329345
000030 90 44 19 ba 93 a5 43 bc 36 c4 76 39 06 8e 8c 3c
       -0.00058467034 -0.011941331 0.00023533482 0.017157566
000040 56 64 bb bc f2 1a 76 3c b6 79 d3 3c 44 83 13 bd
       -0.022874992 0.015021073 0.025814872 -0.036013857
000050 30 4c 48 3d 45 9e 3c bd 82 fa f2 3c 25 97 1f 3e
       0.048900783 -0.046049375 0.029660467 0.15585001
000060 57 6b 55 3e a6 80 6a be 4a 53 3a be 7c 5c 73 3e
       0.20841728 -0.22900638 -0.18195835 0.23765749
000070 e6 fa 89 3e bc f1 e7 3c 12 f4 f0 bc 96 6e 19 3d
       0.26949233 0.02831351 -0.029413257 0.03745898
000080 39 1e 26 bd 65 6c ff 3c 32 a8 15 bd 63 6f 62 3d
       -0.040556166 0.031179616 -0.036537357 0.055282008
000090 e0 52 a8 bb ad 02 a3 3b 02 b4 16 3b a1 20 3a bc
       -0.0051368326 0.004974684 0.0022995477 -0.011360318
0000a0 99 8d 84 3c bd df 1e be 62 70 07 be ce 4b a0 3e
       0.0161808 -0.15515037 -0.13226464 0.31307834
0000b0 f1 73 a6 3e 3e cd 9f be 8a 96 ce be 9c 34 ff 3c
       0.3251033 -0.31211275 -0.40349227 0.031153016
0000c0 8a f4 ca bc cf be 1c 3c 28 50 93 bc cc c8 9d 3b
       -0.024774808 0.009566977 -0.017982557 0.0048151966
0000d0 f0 e1 e2 bb 6a c1 9a bb 03 4c 93 bc d5 b2 04 3c
       -0.0069239065 -0.004722764 -0.017980581 0.0080992775
0000e0 2e 3a 9d 3b 7e a9 bc bb 52 d9 19 bb bf df 3c be
       0.0047981953 -0.0057575097 -0.002347548 -0.18444727
0000f0 f0 4d 39 be aa d0 b3 3e 98 6f 78 3e 73 fc 5c be
       -0.18096137 0.35120136 0.2426132 -0.21580677
000100 2d 3f 02 be 6c 8b ae bc 2d 25 59 3b 3d 5b 50 bc
       -0.12719412 -0.021306716 0.003313373 -0.012717065
000110 70 55 69 3c 63 22 11 bc 0a 5a 86 3b 37 45 0f bc
       0.014241561 -0.008858296 0.004100089 -0.008744529
000120 64 2a 83 3d c8 3d 3f bd 94 b2 e5 3c 6c 20 be bc
       0.0640457 -0.04668978 0.028039254 -0.02320882
000130 3a aa 08 3c 6a 78 d9 3d a3 72 15 3e 53 a3 6f be
       0.008341366 0.1061867 0.14594512 -0.23402147
000140 e0 3e 4e be 9e ed 6f 3e 3d 81 d7 3d d8 37 0c bb
       -0.20141172 0.23430488 0.10522697 -0.002139559
000150 de 32 87 bc 4d 14 d8 3c dc e6 1b bd 4d 53 10 3d
       -0.016503748 0.026376868 -0.03806196 0.03523569
000160 de fe a0 bc 55 8f ae 3c 74 a2 91 3b 62 b7 37 bc
       -0.01965278 0.02130858 0.0044444147 -0.011213155
000170 59 67 d9 bb 1c 91 b2 3c 42 d8 c5 bc 8c 90 eb 3d
       -0.0066346345 0.02179771 -0.024150971 0.115021795
000180 a5 57 8c 3d c7 b1 51 be ea 9e 87 be b3 40 e8 3d
       0.06852654 -0.20477973 -0.2648843 0.113404654
000190 72 64 ed 3d b7 82 9c bb ac 7b c1 bb 18 70 62 3c
       0.11591424 -0.0047763246 -0.0059046354 0.013820671
0001a0 c0 42 04 bb b1 57 38 bc 2c a8 49 3c 21 45 ef bc
       -0.0020181388 -0.011251376 0.012308162 -0.029207768
0001b0 8b 61 c8 3c c4 e4 0e bd 2b c5 b0 3c 15 1a 18 bd
       0.024460575 -0.034886137 0.021578392 -0.03713425
0001c0 c3 65 ad 3c 43 72 34 3e 42 d7 8a 3e ce f6 2c be
       0.021166688 0.17621712 0.27117354 -0.16891024
0001d0 47 f6 03 be 6d d3 b3 3e 09 e2 9b 3e 81 40 94 3c
       -0.12886916 0.35122243 0.3044589 0.018097164
0001e0 5c 98 80 bc be 5e 11 3c 4a e0 d9 bc b3 f5 14 3c
       -0.01569765 0.008872686 -0.026596207 0.009091782
0001f0 e0 e4 18 3a 5c d8 57 3c 6c 7a bb 3c f8 65 e4 bc
       0.0005832445 0.013174143 0.022885524 -0.027880654
000200 35 7b 93 3c 91 85 96 bc dc 30 e2 3c 33 a4 26 be
       0.018003086 -0.018374236 0.027611189 -0.16273575
000210 d5 f7 f6 bd a0 e4 a5 3e 84 8c 86 3e d2 39 32 be
       -0.12058989 0.3240099 0.2627908 -0.17404869
000220 27 9e 69 be c6 c0 af 3c 26 15 0f bc 5a ca 16 bc
       -0.22814237 0.021454226 -0.0087330695 -0.009203518
000230 80 0e 52 3b 35 3f 46 3c 88 c0 57 3b d0 f8 3a 3c
       0.00320521 0.012100031 0.0032921154 0.011411861
000240 cd f5 d6 bb fe 27 0f bc cc 7a 0e 3c 91 8d c4 bc
       -0.0065600635 -0.008737562 0.008696269 -0.023993285
000250 c3 b0 3e 3c 48 7b 17 3e 8a a8 9d 3d 24 8c 9a be
       0.011638823 0.14793122 0.07698162 -0.30185044
000260 2a 4e 82 be c1 0c 15 3e c1 dd 10 3e 6c 25 80 bb
       -0.2545026 0.14555646 0.14147092 -0.003910711
000270 a3 d5 3f bc 73 2c aa 3c a0 6b 82 bc e6 f2 bd 3b
       -0.01170865 0.020773148 -0.01592046 0.005796778
000280 de cb 95 bb 48 69 5a bc c3 74 25 3b fc c8 e9 3b
       -0.004571422 -0.013330765 0.0025246597 0.007134555
000290 89 d4 7f 3a 60 bf 2c bb a6 83 75 bb 6f 6b f0 bd
       0.0009759148 -0.0026359186 -0.0037462502 -0.11739241
0002a0 bc 13 cd bd e2 b3 93 3e 00 6f 56 3e fb cb da bd
       -0.1001353 0.28848177 0.2094078 -0.106834374
0002b0 0b c3 85 bc ac 90 83 ba 40 c2 0f 3c 98 a7 d9 3b
       -0.016328355 -0.0010037622 0.00877434 0.006642293
0002c0 88 15 80 ba e5 60 8d 3c ce 2c 73 bc 6e 9f 44 3c
       -0.0009772042 0.017258117 -0.014842225 0.012000902
0002d0 f4 ad df 3c 07 6a 37 bc 4e a2 b5 3c 4d af b9 bc
       0.027304627 -0.0111947125 0.02217212 -0.022666598
0002e0 00 ed 86 3b a9 1b 2f 3e b1 4a 95 3d dd a9 38 be
       0.004117608 0.17100395 0.07289637 -0.18033548
0002f0 7c cf 68 be b4 8a 31 3e 76 23 d7 3d 9d 32 c2 3c
       -0.22735399 0.17338067 0.105048105 0.023705775
000300 88 2d ba bc dc 45 60 3c 4e dd 8e bb 0b 17 0f bc
       -0.02272679 0.013688531 -0.0043598777 -0.008733521
000310 89 f7 6e 3c d6 7f 38 bc a1 2a 61 3c 87 2a c9 bc
       0.014585384 -0.011260947 0.013743074 -0.024556411
000320 a3 1b 0a 3c 68 1a 85 bc 1e 7a 5f 3c f9 4f 1b 3e
       0.008429441 -0.016247943 0.013639955 0.15167226
000330 3d a4 71 3e fa fe 7c be 9d ef 91 bd ae af 45 3e
       0.23597808 -0.24706641 -0.07125781 0.19305298
000340 74 e2 61 3e 1f 40 92 3c 20 9e aa ba d9 63 91 3c
       0.22059041 0.017852841 -0.0013017096 0.017747806
000350 69 08 bb bc 3c 37 04 3d 83 7c 7f bc bb 02 dc 3c
       -0.022831159 0.032279238 -0.015593651 0.02685677
000360 41 fc b7 bb 1c a8 b1 ba d8 b8 10 3c f6 cd 2e 3b
       -0.005614788 -0.0013554129 0.008833133 0.0026673055
000370 d4 8e 0a bc ab fe 48 3e da fd 8f 3e 96 8d 6f be
       -0.008456904 0.19628398 0.2812336 -0.23393854
000380 04 7e 81 be b0 d9 87 3e b5 ac a9 3e cc fd f8 bb
       -0.25291455 0.2653327 0.33139578 -0.0075986143
000390 d8 f5 3b bb 45 09 d5 bb 90 09 23 3c 68 0b 8c bc
       -0.002868047 -0.006501349 0.00995101 -0.017095283
0003a0 ac 51 07 3b 1e 98 b9 3b 52 13 5c 3c b1 3f 85 3b
       0.0020648045 0.0056638857 0.013432341 0.0040664305
0003b0 e0 47 74 bc 9e 86 e3 3c 37 c5 8e bc b3 44 ce bd
       -0.014909714 0.027774151 -0.017428024 -0.10071697
0003c0 a9 fc 29 be 64 b4 a6 3e fd 48 9a 3e 70 5e 8e be
       -0.16600288 0.32559502 0.3013381 -0.27806425
0003d0 ae c0 ca bd 4d 60 e7 bc b6 80 b7 3c c2 f7 19 bc
       -0.09900032 -0.028244162 0.022400241 -0.009397449
0003e0 24 8e ca bb c7 59 a1 3c 1e 8c 86 bc e4 b9 70 3c
       -0.0061814953 0.01969613 -0.016424235 0.014692757
0003f0 36 94 5b bc cc 74 29 b9 84 85 92 3b 5e 6f 40 bc
       -0.013402035 -0.00016160606 0.0044714827 -0.011745302

act_fun.1.mask f4 [16, 16]
000000 00 00 80 3f 00 00 80 3f 00 00 80 3f 00 00 80 3f
       1.0 1.0 1.0 1.0
000010 00 00 80 3f 00 00 80 3f 00 00 80 3f 00 00 80 3f
       1.0 1.0 1.0 1.0
000020 00 00 80 3f 00 00 80 3f 00 00 80 3f 00 00 80 3f
       1.0 1.0 1.0 1.0
000030 00 00 80 3f 00 00 80 3f 00 00 80 3f 00 00 80 3f
       1.0 1.0 1.0 1.0
000040 00 00 80 3f 00 00 80 3f 00 00 80 3f 00 00 80 3f
       1.0 1.0 1.0 1.0
000050 00 00 80 3f 00 00 80 3f 00 00 80 3f 00 00 80 3f
       1.0 1.0 1.0 1.0
000060 00 00 80 3f 00 00 80 3f 00 00 80 3f 00 00 80 3f
       1.0 1.0 1.0 1.0
000070 00 00 80 3f 00 00 80 3f 00 00 80 3f 00 00 80 3f
       1.0 1.0 1.0 1.0
000080 00 00 80 3f 00 00 80 3f 00 00 80 3f 00 00 80 3f
       1.0 1.0 1.0 1.0
000090 00 00 80 3f 00 00 80 3f 00 00 80 3f 00 00 80 3f
       1.0 1.0 1.0 1.0
0000a0 00 00 80 3f 00 00 80 3f 00 00 80 3f 00 00 80 3f
       1.0 1.0 1.0 1.0
0000b0 00 00 80 3f 00 00 80 3f 00 00 80 3f 00 00 80 3f
       1.0 1.0 1.0 1.0
0000c0 00 00 80 3f 00 00 80 3f 00 00 80 3f 00 00 80 3f
       1.0 1.0 1.0 1.0
0000d0 00 00 80 3f 00 00 80 3f 00 00 80 3f 00 00 80 3f
       1.0 1.0 1.0 1.0
0000e0 00 00 80 3f 00 00 80 3f 00 00 80 3f 00 00 80 3f
       1.0 1.0 1.0 1.0
0000f0 00 00 80 3f 00 00 80 3f 00 00 80 3f 00 00 80 3f
       1.0 1.0 1.0 1.0
000100 00 00 80 3f 00 00 80 3f 00 00 80 3f 00 00 80 3f
       1.0 1.0 1.0 1.0
000110 00 00 80 3f 00 00 80 3f 00 00 80 3f 00 00 80 3f
       1.0 1.0 1.0 1.0
000120 00 00 80 3f 00 00 80 3f 00 00 80 3f 00 00 80 3f
       1.0 1.0 1.0 1.0
000130 00 00 80 3f 00 00 80 3f 00 00 80 3f 00 00 80 3f
       1.0 1.0 1.0 1.0
000140 00 00 80 3f 00 00 80 3f 00 00 80 3f 00 00 80 3f
       1.0 1.0 1.0 1.0
000150 00 00 80 3f 00 00 80 3f 00 00 80 3f 00 00 80 3f
       1.0 1.0 1.0 1.0
000160 00 00 80 3f 00 00 80 3f 00 00 80 3f 00 00 80 3f
       1.0 1.0 1.0 1.0
000170 00 00 80 3f 00 00 80 3f 00 00 80 3f 00 00 80 3f
       1.0 1.0 1.0 1.0
000180 00 00 80 3f 00 00 80 3f 00 00 80 3f 00 00 80 3f
       1.0 1.0 1.0 1.0
000190 00 00 80 3f 00 00 80 3f 00 00 80 3f 00 00 80 3f
       1.0 1.0 1.0 1.0
0001a0 00 00 80 3f 00 00 80 3f 00 00 80 3f 00 00 80 3f
       1.0 1.0 1.0 1.0
0001b0 00 00 80 3f 00 00 80 3f 00 00 80 3f 00 00 80 3f
       1.0 1.0 1.0 1.0
0001c0 00 00 80 3f 00 00 80 3f 00 00 80 3f 00 00 80 3f
       1.0 1.0 1.0 1.0
0001d0 00 00 80 3f 00 00 80 3f 00 00 80 3f 00 00 80 3f
       1.0 1.0 1.0 1.0
0001e0 00 00 80 3f 00 00 80 3f 00 00 80 3f 00 00 80 3f
       1.0 1.0 1.0 1.0
0001f0 00 00 80 3f 00 00 80 3f 00 00 80 3f 00 00 80 3f
       1.0 1.0 1.0 1.0
000200 00 00 80 3f 00 00 80 3f 00 00 80 3f 00 00 80 3f
       1.0 1.0 1.0 1.0
000210 00 00 80 3f 00 00 80 3f 00 00 80 3f 00 00 80 3f
       1.0 1.0 1.0 1.0
000220 00 00 80 3f 00 00 80 3f 00 00 80 3f 00 00 80 3f
       1.0 1.0 1.0 1.0
000230 00 00 80 3f 00 00 80 3f 00 00 80 3f 00 00 80 3f
       1.0 1.0 1.0 1.0
000240 00 00 80 3f 00 00 80 3f 00 00 80 3f 00 00 80 3f
       1.0 1.0 1.0 1.0
000250 00 00 80 3f 00 00 80 3f 00 00 80 3f 00 00 80 3f
       1.0 1.0 1.0 1.0
000260 00 00 80 3f 00 00 80 3f 00 00 80 3f 00 00 80 3f
       1.0 1.0 1.0 1.0
000270 00 00 80 3f 00 00 80 3f 00 00 80 3f 00 00 80 3f
       1.0 1.0 1.0 1.0
000280 00 00 80 3f 00 00 80 3f 00 00 80 3f 00 00 80 3f
       1.0 1.0 1.0 1.0
000290 00 00 80 3f 00 00 80 3f 00 00 80 3f 00 00 80 3f
       1.0 1.0 1.0 1.0
0002a0 00 00 80 3f 00 00 80 3f 00 00 80 3f 00 00 80 3f
       1.0 1.0 1.0 1.0
0002b0 00 00 80 3f 00 00 80 3f 00 00 80 3f 00 00 80 3f
       1.0 1.0 1.0 1.0
0002c0 00 00 80 3f 00 00 80 3f 00 00 80 3f 00 00 80 3f
       1.0 1.0 1.0 1.0
0002d0 00 00 80 3f 00 00 80 3f 00 00 80 3f 00 00 80 3f
       1.0 1.0 1.0 1.0
0002e0 00 00 80 3f 00 00 80 3f 00 00 80 3f 00 00 80 3f
       1.0 1.0 1.0 1.0
0002f0 00 00 80 3f 00 00 80 3f 00 00 80 3f 00 00 80 3f
       1.0 1.0 1.0 1.0
000300 00 00 80 3f 00 00 80 3f 00 00 80 3f 00 00 80 3f
       1.0 1.0 1.0 1.0
000310 00 00 80 3f 00 00 80 3f 00 00 80 3f 00 00 80 3f
       1.0 1.0 1.0 1.0
000320 00 00 80 3f 00 00 80 3f 00 00 80 3f 00 00 80 3f
       1.0 1.0 1.0 1.0
000330 00 00 80 3f 00 00 80 3f 00 00 80 3f 00 00 80 3f
       1.0 1.0 1.0 1.0
000340 00 00 80 3f 00 00 80 3f 00 00 80 3f 00 00 80 3f
       1.0 1.0 1.0 1.0
000350 00 00 80 3f 00 00 80 3f 00 00 80 3f 00 00 80 3f
       1.0 1.0 1.0 1.0
000360 00 00 80 3f 00 00 80 3f 00 00 80 3f 00 00 80 3f
       1.0 1.0 1.0 1.0
000370 00 00 80 3f 00 00 80 3f 00 00 80 3f 00 00 80 3f
       1.0 1.0 1.0 1.0
000380 00 00 80 3f 00 00 80 3f 00 00 80 3f 00 00 80 3f
       1.0 1.0 1.0 1.0
000390 00 00 80 3f 00 00 80 3f 00 00 80 3f 00 00 80 3f
       1.0 1.0 1.0 1.0
0003a0 00 00 80 3f 00 00 80 3f 00 00 80 3f 00 00 80 3f
       1.0 1.0 1.0 1.0
0003b0 00 00 80 3f 00 00 80 3f 00 00 80 3f 00 00 80 3f
       1.0 1.0 1.0 1.0
0003c0 00 00 80 3f 00 00 80 3f 00 00 80 3f 00 00 80 3f
       1.0 1.0 1.0 1.0
0003d0 00 00 80 3f 00 00 80 3f 00 00 80 3f 00 00 80 3f
       1.0 1.0 1.0 1.0
0003e0 00 00 80 3f 00 00 80 3f 00 00 80 3f 00 00 80 3f
       1.0 1.0 1.0 1.0
0003f0 00 00 80 3f 00 00 80 3f 00 00 80 3f 00 00 80 3f
       1.0 1.0 1.0 1.0

act_fun.1.scale_base f4 [16, 16]
000000 68 31 a8 bc 93 d7 63 3e 21 7d 6e be 76 e1 c5 be
       -0.020531371 0.22250204 -0.2328992 -0.38648576
000010 da d7 6b 3e 7d 1e f8 3d 80 f4 5b be 03 68 8c be
       0.2303156 0.1211519 -0.21479988 -0.27423105
000020 22 31 84 bc c3 61 6a 3a f3 f4 a0 3d 40 38 cf bd
       -0.01613671 0.0008940959 0.0785922 -0.10118151
000030 c5 67 a0 3d c4 a4 f3 bd a8 23 92 be d8 d9 89 3e
       0.078322925 -0.11896661 -0.2854283 0.26924014
000040 d2 13 3c 3e 3a 13 92 3e 5b b1 70 be eb 8d 79 bd
       0.18366936 0.28530294 -0.23505156 -0.06092636
000050 d8 ac e1 bd 8d 57 ba 3e d5 99 db 3c c0 9b 29 3e
       -0.110192955 0.3639492 0.026806751 0.1656332
000060 20 1e cd 3c 0b 9a 71 bc a6 6b ab 3e 4a 97 f9 bb
       0.025038779 -0.014746199 0.33480567 -0.007616912
000070 71 89 8c 3e 39 e3 18 3d 16 63 9a bd 52 76 b2 3d
       0.2744861 0.03732607 -0.075384304 0.08713974
000080 d6 4c 2a be 7a f7 40 3e a0 83 7f be e5 11 a6 bd
       -0.16630873 0.18844405 -0.24952555 -0.08108882
000090 57 6a d3 3d be bb 73 3e 8b 33 bd 3e dc 5a 7f be
       0.10323017 0.23802087 0.36953387 -0.24937004
0000a0 1f 37 bf bc 2d fc fc bd 9a b9 ce bb 92 19 95 3d
       -0.023341713 -0.12352786 -0.0063087465 0.07280268
0000b0 f9 36 d2 3d ec bd 07 be c7 bd 53 be c7 cf 9c 3d
       0.102643915 -0.13256043 -0.20677863 0.07656818
0000c0 41 c9 de bb de 9f 05 be e1 f2 49 be 4c 04 1c 3e
       -0.0067988937 -0.13049266 -0.19721557 0.15236014
0000d0 b5 04 a2 bc ce 4e cd 3e 37 64 39 bd d7 24 31 be
       -0.019777635 0.40099186 -0.045261588 -0.1729921
0000e0 29 4d c5 3e 0a 32 4d bd 0f 13 cc 3e 95 a5 a8 3e
       0.3853543 -0.05009655 0.3985829 0.3293883
0000f0 35 e7 c7 3e e3 1c cb 3d e0 24 00 3d 6a 95 97 3c
       0.39043584 0.09917619 0.031285167 0.018503863
000100 3f 77 c9 bd d3 9d 14 be 5b 50 89 bd 70 1b 87 3d
       -0.098371975 -0.1451333 -0.0670478 0.0659703
000110 72 ed 97 3c d9 ec aa be a1 ab cf bd 57 d6 86 bc
       0.01854584 -0.33383825 -0.101401575 -0.016459627
000120 6e 68 8d 3c 24 03 89 3b 59 6c 2b 3e 25 e1 9a be
       0.01726171 0.0041812826 0.1674055 -0.30249897
000130 a0 3e fa bc 78 15 8e 3e b4 4a 37 bd 92 1e c0 be
       -0.03054744 0.27750754 -0.044748977 -0.37523323
000140 ee 98 31 3d 96 57 3c be 55 d0 4b bd 5f 3c 6a be
       0.043358736 -0.18392786 -0.049759228 -0.22874592
000150 dd 2d 87 3e 82 80 b4 3e 57 67 9d 3d a5 1b 43 3e
       0.26402178 0.35254294 0.07685726 0.19053514
000160 4f f5 84 3e 8e e6 79 be 94 bc 37 3e 73 95 b3 3e
       0.25968406 -0.24404356 0.1794303 0.35074958
000170 86 97 78 3e f5 6a 85 be 01 e5 ca 3d ec 8e 30 3e
       0.24276552 -0.26058164 0.0990696 0.1724202
000180 50 26 73 be 49 22 11 be fb ad b6 bd 9d 8d a7 bd
       -0.23745084 -0.14173235 -0.08919903 -0.081813075
000190 34 fd d1 3c 9b 38 45 3e e6 f2 34 3d ef 16 72 bd
       0.025633432 0.19259875 0.04417696 -0.059103902
0001a0 51 82 70 3d a2 fb 1f ba 0e d7 17 bd f4 ab be 3e
       0.05871803 -0.0006102865 -0.037070327 0.37240565
0001b0 bf 74 ce 3e 10 6f f8 3d b9 c1 95 3d ce 75 15 3e
       0.40323445 0.121305585 0.0731234 0.1459572
0001c0 27 9f 03 3b 52 d1 f2 3d 89 75 18 3c af 84 1a be
       0.0020083876 0.11856331 0.009305366 -0.15089677
0001d0 c6 4f f0 3d a7 50 6a be e5 b7 79 3c 10 d5 27 3d
       0.117339656 -0.22882329 0.015241598 0.040974677
0001e0 89 9d a1 be 54 7b c4 bd 2b 5f 31 be 4e 0f 15 be
       -0.31565502 -0.095938355 -0.1732146 -0.1455662
0001f0 95 5c 9c be 8e 6d 32 3e f3 ca 84 3e f2 c8 b7 be
       -0.30539384 0.17424604 0.25936088 -0.35895497
000200 a3 dc de 3d 00 dd 61 be 64 24 5a 3e a4 21 67 bd
       0.10881927 -0.22056961 0.21302944 -0.056428567
000210 76 0a 4e be a8 5e 0a 3e e8 c2 ad be 46 b9 1c 3e
       -0.20121178 0.13512671 -0.33937764 0.15305051
000220 ae fe ab be 6e 31 6c 3e 64 e2 05 3e eb 8f 9b be
       -0.33592743 0.23065731 0.13074642 -0.30383238
000230 f8 46 d1 be 87 42 11 be f2 be 74 3e c5 12 f6 be
       -0.40874457 -0.14185534 0.23900965 -0.48061195
000240 6a 33 91 3e b8 da 04 3e 7e 03 8d 3e 97 36 ba 3e
       0.28359538 0.1297406 0.27541727 0.36369774
000250 ba 75 a3 be 35 22 cb bd 7d 27 25 be 70 05 d2 3e
       -0.31925756 -0.09918634 -0.16128345 0.41019773
000260 30 e5 8f 3d b6 74 61 bd ce 6d 64 be bc 08 8c be
       0.07026136 -0.055042945 -0.22307512 -0.27350414
000270 86 f8 9f bd 7d 1c d5 3e 34 e6 ce 3d 0c d9 25 3b
       -0.07811074 0.41623297 0.101025015 0.0025306372
000280 40 9d 87 3e 87 5d 16 be 79 63 9d 3e 28 5f 98 3e
       0.2648716 -0.14684115 0.30739954 0.29760098
000290 6c 6a 66 bd e5 c5 ab be eb eb ac bd a0 df da bd
       -0.056253836 -0.3354942 -0.08443435 -0.10687184
0002a0 f1 42 ef bd 42 de 89 bd 77 8c 86 3d e0 70 84 be
       -0.1168269 -0.067318454 0.0656976 -0.25867367
0002b0 df a6 a1 be 42 eb 8b 3e 79 5e fe bc 29 83 fc 3c
       -0.31572625 0.27327925 -0.031050907 0.03082426
0002c0 63 81 40 be fe 31 b6 3e c6 cd 03 bf 04 23 ed be
       -0.18799357 0.35585016 -0.5148586 -0.46315777
0002d0 e0 6d b9 3e ad a8 83 3e b7 3c 95 3e 1d df 18 be
       0.3621664 0.25714627 0.29147884 -0.14928861
0002e0 c0 8e 9a 3e ea 21 95 be 33 9b 12 be 73 61 84 3e
       0.30187035 -0.29127437 -0.14317016 0.25855598
0002f0 e9 c4 a7 3e ea a1 bb be a2 2d 1a be f1 25 8f 3e
       0.32767418 -0.36646968 -0.1505647 0.27958634
000300 87 5b 8b 3e b4 a8 1e bc 76 3a f3 3d 5f 86 38 bd
       0.27218267 -0.009683777 0.11876385 -0.04505002
000310 5e ba 38 3d 3e 32 2e bc b2 9d 59 3e 87 44 17 3e
       0.04509961 -0.010632096 0.21251562 0.14772235
000320 7b ff 2f 3d a3 4c fd 3d 92 b9 f5 bd b8 b4 26 bd
       0.042968255 0.12368133 -0.11998285 -0.04069969
000330 11 78 ed 3e 52 86 b7 bc 06 19 29 be 04 ce 8f 3e
       0.46380666 -0.022402916 -0.16513452 0.28086865
000340 89 09 01 3e 96 ab dc 3c f7 58 bb bd 16 50 9e bc
       0.12601294 0.026937287 -0.09147828 -0.019325297
000350 94 9c e5 bc 9d 71 aa 3d 0a 35 c8 bd d1 3a 5c 3e
       -0.028028764 0.08322451 -0.097757414 0.21506812
000360 83 b5 64 3d 39 d6 6d bd 93 08 5a bb 61 30 fe 3d
       0.055837166 -0.058065627 -0.003326927 0.12411571
000370 ef 2a 99 3e 5d f1 a4 bc 03 1e 0f be 13 4e 14 3d
       0.29915568 -0.020134622 -0.13976292 0.03620727
000380 cf f5 52 3e 60 87 93 3d 23 63 99 3e 8b 31 55 be
       0.20601581 0.07203555 0.29958448 -0.2081968
000390 e1 5c 91 3d bb 3f 80 bd 77 94 c8 be 0b c3 a6 3e
       0.07097793 -0.062621556 -0.3917577 0.3257068
0003a0 b2 21 34 3d 79 6a ba 3e e0 88 b7 be d0 c2 5a be
       0.043977447 0.36409357 -0.35846615 -0.21363378
0003b0 cb 34 62 be 5b 1e da bb 5f 00 36 3e 5a 1a 8f be
       -0.22090451 -0.0066564507 0.17773579 -0.27949792
0003c0 27 88 c8 bd 41 a9 8a 3d 55 87 36 3d 03 ed 11 3e
       -0.09791594 0.06770564 0.044562656 0.14250569
0003d0 38 24 c2 3e 70 30 99 3e b3 23 0b 3e 39 ea 2b be
       0.37918258 0.29919767 0.13587837 -0.16788568
0003e0 65 9f e5 3e 5b 19 1f be b1 25 33 3e f0 22 fa bb
       0.4484817 -0.15537016 0.17494847 -0.0076335594
0003f0 da 5e 1f 3e 4a 66 ca be 54 6e 2e bd af 2a 82 3e
       0.15563527 -0.39531165 -0.042585686 0.2542319

act_fun.1.scale_sp f4 [16, 16]
000000 d0 59 28 3f 9b 6e 19 3f cf a6 21 3f 22 f6 35 3f
       0.65762043 0.59934396 0.63145155 0.71078694
000010 2b 45 0f 3f 99 b6 16 3f 00 d0 2b 3f f7 a3 1a 3f
       0.55964917 0.5887237 0.6711426 0.6040644
000020 1b 94 14 3f 56 b6 1a 3f 0a 38 00 3f ba 43 19 3f
       0.5803849 0.6043447 0.5008551 0.5986897
000030 85 5e 1d 3f b9 4b 2b 3f 53 00 00 3f 4b 82 0c 3f
       0.6147235 0.6691242 0.50000495 0.5488631
000040 26 f0 27 3f b1 56 0e 3f ef 5c 1e 3f 3c 54 21 3f
       0.6560081 0.5560103 0.61860555 0.63019156
000050 04 46 04 3f b7 99 07 3f 4d 9f 29 3f 36 43 19 3f
       0.51669335 0.52968925 0.662587 0.5986818
000060 03 f1 0b 3f b1 42 00 3f 71 03 e4 3e 71 6f 22 3f
       0.5466463 0.50101763 0.44533876 0.63451296
000070 6f dd 19 3f 29 bc 28 3f 93 0b 12 3f af a4 0f 3f
       0.60103506 0.6591211 0.5704891 0.5611066
000080 ba 52 12 3f 15 3f de 3e b4 66 18 3f 70 39 0e 3f
       0.5715748 0.43407503 0.5953171 0.5555639
000090 97 66 e5 3e e4 57 a1 3e 06 1d 18 3f de ba 13 3f
       0.44804832 0.31512368 0.59419286 0.5770701
0000a0 c9 2c cf 3e a6 1f c1 3e 26 d1 b7 3e 94 70 12 3f
       0.40463856 0.37719458 0.35901755 0.5720303
0000b0 0c f1 0f 3f a0 d4 0f 3f 44 26 6a 3e 3b b7 fd 3e
       0.56227183 0.56183815 0.2286616 0.49553856
0000c0 be 3c 09 3f 3c e7 e4 3e b1 6e 12 3f a3 94 0e 3f
       0.5360831 0.44707668 0.5720015 0.5569555
0000d0 33 e2 ed 3e a3 3d ad 3e 12 8b 1d 3f 53 8e 15 3f
       0.4646164 0.33836088 0.6154033 0.58420295
0000e0 ee 6b c9 3e c5 ed b6 3e e8 4f b8 3e 84 c4 0a 3f
       0.39340156 0.3572828 0.35998464 0.5420611
0000f0 9f 17 09 3f 32 2c 0d 3f 61 c1 8d 3e 1a 8d 04 3f
       0.5355167 0.5514556 0.276866 0.51777804
000100 85 ea 0f 3f d5 a2 04 3f e9 c2 14 3f c6 84 0c 3f
       0.56217223 0.5181096 0.5810991 0.54890096
000110 c2 04 ed 3e 25 9b af 3e 89 e7 21 3f c3 18 10 3f
       0.46292692 0.34298053 0.6324392 0.56287783
000120 a4 1a c8 3e fc 52 ca 3e 8c 88 b9 3e 77 3d 1e 3f
       0.39082825 0.39516437 0.3623699 0.6181254
000130 9f 5c 10 3f e7 1e 14 3f 42 b5 d4 3e cd 85 08 3f
       0.5639133 0.57859653 0.4154454 0.53329164
000140 5a e5 11 3f 2b c4 01 3f 58 6d 1a 3f fa f8 0b 3f
       0.5699059 0.50689954 0.60323095 0.54676783
000150 17 8b d2 3e 85 ac a9 3e 54 9f 20 3f 73 21 0e 3f
       0.41121742 0.33139434 0.62743115 0.5551979
000160 49 ce e6 3e 9f d3 f9 3e 17 06 c3 3e 84 7a 19 3f
       0.45079258 0.48794267 0.38090584 0.5995257
000170 38 16 0e 3f e4 12 0a 3f c8 31 ea 3e 1f b7 01 3f
       0.55502653 0.53935075 0.45741105 0.50670046
000180 d2 cb 11 3f 44 39 f1 3e 3e e8 1a 3f 45 ca 0f 3f
       0.5695163 0.47114003 0.60510623 0.56168014
000190 b4 8a f0 3e 1e a4 b9 3e 9f 19 1f 3f ec 60 0f 3f
       0.46980822 0.36258024 0.6214847 0.56007266
0001a0 6b 7a d0 3e 59 90 b8 3e ff b6 bf 3e 8a fa 18 3f
       0.40718397 0.3604763 0.37444302 0.5975729
0001b0 3e 43 10 3f ba e0 16 3f 6b 7f e1 3e a2 e2 08 3f
       0.56352603 0.58936656 0.44042525 0.53470814
0001c0 7f 38 19 3f 8a e5 ee 3e df bd 05 3f da 1a 18 3f
       0.5985183 0.466595 0.52242845 0.5941597
0001d0 87 7d c6 3e f8 15 8b 3e de 5a 12 3f d0 08 10 3f
       0.38767645 0.27165198 0.571699 0.56263447
0001e0 8f 17 92 3e bc 85 5c 3e ad 6c dc 3e 77 b3 06 3f
       0.285336 0.2153539 0.43051663 0.5261759
0001f0 b8 8f 09 3f bc e1 db 3e 6a 61 ab 3e 61 93 04 3f
       0.5373492 0.4294566 0.3347276 0.5178738
000200 59 e8 94 3f a9 ee 95 3f 9d 68 42 3f 80 57 85 3f
       1.1633407 1.1713458 0.7594088 1.0417328
000210 1c c9 78 3f ce 0f 99 3f 84 84 67 3f 7f 5e 80 3f
       0.9718187 1.1957948 0.9043658 1.0028838
000220 d9 6c 8c 3f 49 63 89 3f 9b 8f 5d 3f c8 bf 61 3f
       1.0970718 1.0733424 0.8654725 0.8818326
000230 a3 1c 66 3f de 26 8d 3f 2a c7 99 3f be f3 5e 3f
       0.89887446 1.1027486 1.2013905 0.8709067
000240 ab 1d f6 3e 65 a2 c3 3e 57 d4 10 3f b6 d5 e4 3e
       0.4806951 0.38209835 0.56574005 0.44694299
000250 fa 37 8a 3e 40 4f a1 3e 1f 44 11 3f b1 0f 0a 3f
       0.26995832 0.31505775 0.5674457 0.53930193
000260 92 aa c8 3e 62 d2 9e 3e db e7 bf 3e f9 21 e7 3e
       0.39192635 0.31019884 0.3748158 0.45143107
000270 e8 3a 18 3f e1 3f ee 3e 20 a2 aa 3e 42 4e 08 3f
       0.59464884 0.4653311 0.33326817 0.5324441
000280 b0 89 1f 3f 6b 01 d1 3e fa 93 03 3f 74 d4 1a 3f
       0.6231947 0.40821394 0.5139767 0.6048043
000290 5e 51 d8 3e 25 47 f0 3d 4e 31 17 3f cc 06 1c 3f
       0.42249578 0.1173232 0.5905961 0.6094787
0002a0 89 76 eb 3e 2a 60 b1 3e 20 16 c1 3e 50 93 0b 3f
       0.45988873 0.3464368 0.37712193 0.54521656
0002b0 de 65 16 3f ca 50 0f 3f 10 1c 8a 3e 9c 1c eb 3e
       0.58749187 0.5598265 0.26974535 0.45920265
0002c0 fa fb 33 3f 47 34 02 3f 5d f8 18 3f 48 cb 23 3f
       0.7030636 0.5086102 0.5975397 0.6398206
0002d0 65 cc 0f 3f e3 77 03 3f 28 d9 2e 3f c3 b5 29 3f
       0.56171256 0.5135481 0.68300104 0.6629297
0002e0 f0 4e 02 3f 60 0e 0e 3f 6d 29 d5 3e 08 a9 09 3f
       0.509017 0.55490685 0.41633168 0.53773546
0002f0 12 d9 1e 3f 1e e2 32 3f 6e 57 13 3f f7 60 12 3f
       0.62049973 0.6987628 0.5755528 0.57179207
000300 ed 56 25 3f f0 d0 f6 3e 58 4d 2d 3f ad 3b 26 3f
       0.64585763 0.48206282 0.6769614 0.6493481
000310 88 48 04 3f 48 28 d1 3e 16 aa 18 3f f4 04 25 3f
       0.51673174 0.40851045 0.5963453 0.6446068
000320 33 61 07 3f 23 d8 15 3f e1 68 e2 3e c1 88 0e 3f
       0.5288269 0.58532923 0.4422064 0.5567742
000330 2b ff 09 3f 37 3c 1f 3f 75 43 1a 3f ad 22 f7 3e
       0.5390498 0.62201256 0.6025918 0.48268643
000340 b1 94 0a 3f 0c bd d4 3e 4d ac 0e 3f 30 56 0a 3f
       0.54133135 0.4155048 0.5573166 0.5403776
000350 6e 3e da 3e ca c1 a7 3e dc 89 1c 3f 2f 32 11 3f
       0.42625755 0.32765037 0.61147857 0.567172
000360 a4 31 a4 3e ce c7 a5 3e df ff a3 3e 6e ab 07 3f
       0.32069123 0.32379 0.32031152 0.52995956
000370 1a de 07 3f f0 62 0c 3f f0 b5 11 3e 59 83 f6 3e
       0.53073275 0.54838467 0.1422956 0.48147085
000380 8f 43 72 3f c7 6c 8d 3f 25 19 38 3f 68 1b 4f 3f
       0.94634336 1.1048821 0.7191337 0.80901194
000390 43 a9 45 3f aa a6 7c 3f ef 0c 5a 3f 6d 5c 71 3f
       0.772114 0.9869181 0.85175985 0.94281656
0003a0 cf 14 72 3f 82 0b 53 3f a1 25 51 3f 0c c6 55 3f
       0.94563 0.82439435 0.8169804 0.8350532
0003b0 64 2e 5b 3f b1 1e 5b 3f e1 7f 56 3f bc fc 4f 3f
       0.8561766 0.85593706 0.8378888 0.8124502
0003c0 61 1d c3 3e 0f b3 f3 3e 7f ba d0 3e 1d f4 e0 3e
       0.38108352 0.47597548 0.40767285 0.43936244
0003d0 80 f7 90 3e 4d be b7 3e e2 50 0f 3f d8 1c 84 3e
       0.28313828 0.35887375 0.5598279 0.25803256
0003e0 8a 62 cd 3e d8 ec a0 3e 4a 59 bb 3e ae 30 f2 3e
       0.40114242 0.31430697 0.3659156 0.47302765
0003f0 01 a9 0b 3f 89 e5 92 3e c6 dd 95 3e d0 e3 e8 3e
       0.54554754 0.28690746 0.29270762 0.45486307
