models_grid/purkinje_I20_T1000_W[12, 0]_G16_K2.pt (torch, 35869 bytes, 29 tensors)

node_bias_0 f4 [12]
0	0x00000000	0.0
1	0x00000000	0.0
2	0x00000000	0.0
3	0x00000000	0.0
4	0x00000000	0.0
5	0x00000000	0.0
6	0x00000000	0.0
7	0x00000000	0.0
8	0x00000000	0.0
9	0x00000000	0.0
10	0x00000000	0.0
11	0x00000000	0.0

node_scale_0 f4 [12]
0	0x3f800000	1.0
1	0x3f800000	1.0
2	0x3f800000	1.0
3	0x3f800000	1.0
4	0x3f800000	1.0
5	0x3f800000	1.0
6	0x3f800000	1.0
7	0x3f800000	1.0
8	0x3f800000	1.0
9	0x3f800000	1.0
10	0x3f800000	1.0
11	0x3f800000	1.0

subnode_bias_0 f4 [12]
0	0x00000000	0.0
1	0x00000000	0.0
2	0x00000000	0.0
3	0x00000000	0.0
4	0x00000000	0.0
5	0x00000000	0.0
6	0x00000000	0.0
7	0x00000000	0.0
8	0x00000000	0.0
9	0x00000000	0.0
10	0x00000000	0.0
11	0x00000000	0.0

subnode_scale_0 f4 [12]
0	0x3f800000	1.0
1	0x3f800000	1.0
2	0x3f800000	1.0
3	0x3f800000	1.0
4	0x3f800000	1.0
5	0x3f800000	1.0
6	0x3f800000	1.0
7	0x3f800000	1.0
8	0x3f800000	1.0
9	0x3f800000	1.0
10	0x3f800000	1.0
11	0x3f800000	1.0

node_bias_1 f4 [12]
0	0x00000000	0.0
1	0x00000000	0.0
2	0x00000000	0.0
3	0x00000000	0.0
4	0x00000000	0.0
5	0x00000000	0.0
6	0x00000000	0.0
7	0x00000000	0.0
8	0x00000000	0.0
9	0x00000000	0.0
10	0x00000000	0.0
11	0x00000000	0.0

node_scale_1 f4 [12]
0	0x3f800000	1.0
1	0x3f800000	1.0
2	0x3f800000	1.0
3	0x3f800000	1.0
4	0x3f800000	1.0
5	0x3f800000	1.0
6	0x3f800000	1.0
7	0x3f800000	1.0
8	0x3f800000	1.0
9	0x3f800000	1.0
10	0x3f800000	1.0
11	0x3f800000	1.0

subnode_bias_1 f4 [12]
0	0x00000000	0.0
1	0x00000000	0.0
2	0x00000000	0.0
3	0x00000000	0.0
4	0x00000000	0.0
5	0x00000000	0.0
6	0x00000000	0.0
7	0x00000000	0.0
8	0x00000000	0.0
9	0x00000000	0.0
10	0x00000000	0.0
11	0x00000000	0.0

subnode_scale_1 f4 [12]
0	0x3f800000	1.0
1	0x3f800000	1.0
2	0x3f800000	1.0
3	0x3f800000	1.0
4	0x3f800000	1.0
5	0x3f800000	1.0
6	0x3f800000	1.0
7	0x3f800000	1.0
8	0x3f800000	1.0
9	0x3f800000	1.0
10	0x3f800000	1.0
11	0x3f800000	1.0

act_fun.0.grid f4 [4, 21]
0	0xbfa00000	-1.25
1	0xbf900000	-1.125
2	0xbf800000	-1.0
3	0xbf600000	-0.875
4	0xbf400000	-0.75
5	0xbf200000	-0.625
6	0xbf000000	-0.5
7	0xbec00000	-0.375
8	0xbe800000	-0.25
9	0xbe000000	-0.125
10	0x00000000	0.0
11	0x3e000000	0.125
12	0x3e800000	0.25
13	0x3ec00000	0.375
14	0x3f000000	0.5
15	0x3f200000	0.625
16	0x3f400000	0.75
17	0x3f600000	0.875
18	0x3f800000	1.0
19	0x3f900000	1.125
20	0x3fa00000	1.25
21	0xbfa00000	-1.25
22	0xbf900000	-1.125
23	0xbf800000	-1.0
24	0xbf600000	-0.875
25	0xbf400000	-0.75
26	0xbf200000	-0.625
27	0xbf000000	-0.5
28	0xbec00000	-0.375
29	0xbe800000	-0.25
30	0xbe000000	-0.125
31	0x00000000	0.0
32	0x3e000000	0.125
33	0x3e800000	0.25
34	0x3ec00000	0.375
35	0x3f000000	0.5
36	0x3f200000	0.625
37	0x3f400000	0.75
38	0x3f600000	0.875
39	0x3f800000	1.0
40	0x3f900000	1.125
41	0x3fa00000	1.25
42	0xbfa00000	-1.25
43	0xbf900000	-1.125
44	0xbf800000	-1.0
45	0xbf600000	-0.875
46	0xbf400000	-0.75
47	0xbf200000	-0.625
48	0xbf000000	-0.5
49	0xbec00000	-0.375
50	0xbe800000	-0.25
51	0xbe000000	-0.125
52	0x00000000	0.0
53	0x3e000000	0.125
54	0x3e800000	0.25
55	0x3ec00000	0.375
56	0x3f000000	0.5
57	0x3f200000	0.625
58	0x3f400000	0.75
59	0x3f600000	0.875
60	0x3f800000	1.0
61	0x3f900000	1.125
62	0x3fa00000	1.25
63	0xbfa00000	-1.25
64	0xbf900000	-1.125
65	0xbf800000	-1.0
66	0xbf600000	-0.875
67	0xbf400000	-0.75
68	0xbf200000	-0.625
69	0xbf000000	-0.5
70	0xbec00000	-0.375
71	0xbe800000	-0.25
72	0xbe000000	-0.125
73	0x00000000	0.0
74	0x3e000000	0.125
75	0x3e800000	0.25
76	0x3ec00000	0.375
77	0x3f000000	0.5
78	0x3f200000	0.625
79	0x3f400000	0.75
80	0x3f600000	0.875
81	0x3f800000	1.0
82	0x3f900000	1.125
83	0x3fa00000	1.25

act_fun.0.coef f4 [4, 12, 18]
0	0x3ebf5f7a	0.3737753
1	0x3e333f1b	0.17504542
2	0x3e39cd0b	0.18144624
3	0x3e3be513	0.18349104
4	0x3e2d794d	0.16940804
5	0x3e3f14dc	0.18660301
6	0x3e517091	0.20453097
7	0x3e4cbb53	0.19993334
8	0x3e3b401d	0.18286176
9	0x3e2c9f17	0.16857563
10	0x3e1322c3	0.1436873
11	0x3dfbd60b	0.12296685
12	0x3da57620	0.08079171
13	0x3d3cc987	0.04609063
14	0x3cad1d6d	0.021132195
15	0xbd388166	-0.04504528
16	0xbdc5b60c	-0.09653863
17	0xbe5721ed	-0.21009035
18	0x3ebd77a6	0.37005347
19	0x3e4d5361	0.20051338
20	0x3e6c4534	0.23073274
21	0x3e48a5f9	0.19594564
22	0x3e50f8a3	0.20407347
23	0x3e4ed302	0.2019768
24	0x3e566e4f	0.20940517
25	0x3e34a06a	0.17639318
26	0x3e2d701f	0.16937302
27	0x3e19cc68	0.15019381
28	0x3e1618da	0.14657918
29	0x3d7eb427	0.062183525
30	0x3cc3d23b	0.023903957
31	0x3d49b6b1	0.049246494
32	0xbcc2269a	-0.023700047
33	0xbd4e65aa	-0.050389923
34	0xbdc8950a	-0.09794052
35	0xbea40203	-0.32032785
36	0x3edf8b20	0.4366083
37	0x3e481df1	0.19542672
38	0x3e51aee3	0.2047687
39	0x3e4d5a64	0.20054013
40	0x3e3f5cca	0.1868774
41	0x3e409974	0.18808538
42	0x3e5a16ff	0.21297835
43	0x3e60786a	0.21920934
44	0x3e322e13	0.17400388
45	0x3e2259ff	0.15854643
46	0x3e014e2e	0.1262748
47	0x3ddc4887	0.10756021
48	0x3d93d8cd	0.07219086
49	0x3d3994de	0.045307986
50	0x3c851ba3	0.01624853
51	0xbc941f74	-0.018081404
52	0xbbc7767c	-0.0060871225
53	0xbe203560	-0.15645361
54	0x3eb910c9	0.3614562
55	0x3e22c4f6	0.15895447
56	0x3e0e2a45	0.13883312
57	0x3e30b91d	0.17258115
58	0x3e1531a8	0.14569724
59	0x3e51a930	0.20474696
60	0x3e03a24d	0.12854882
61	0x3df63d92	0.12023462
62	0x3e4314f8	0.19050968
63	0x3e5dcd75	0.21660407
64	0x3e5b68b5	0.21426661
65	0x3e796c1b	0.24357645
66	0x3e6e336e	0.23261806
67	0x3e8003ab	0.25002798
68	0x3e8b1f89	0.27172497
69	0x3e916003	0.28393564
70	0x3e876d32	0.26450497
71	0x3eb1086e	0.34576744
72	0x3ec31928	0.3810513
73	0x3e716858	0.2357496
74	0x3e98ccb7	0.29843685
75	0x3e84b17e	0.25916666
76	0x3e9b0485	0.30276886
77	0x3e8d04b8	0.27542663
78	0x3ea3c169	0.31983498
79	0x3e95ed67	0.29282686
80	0x3e857bc7	0.26070997
81	0x3e72b6ad	0.23702498
82	0x3e41a1fd	0.1890945
83	0x3e26f2d4	0.16303569
84	0x3ddb430d	0.10706148
85	0x3db509f4	0.08839789
86	0x3d05cd68	0.032666594
87	0xbb6f0b05	-0.0036475074
88	0xbd38904b	-0.045059483
89	0xbe55e19b	-0.20886843
90	0x3ecce690	0.40019655
91	0x3e669dbb	0.22521107
92	0x3e5e36c8	0.21700585
93	0x3e5eb49e	0.21748587
94	0x3e60ee86	0.2196599
95	0x3e685398	0.22688138
96	0x3e7815c2	0.2422705
97	0x3e89d401	0.2691956
98	0x3e7f4be7	0.24931298
99	0x3e9892e0	0.29799557
100	0x3e6ff76d	0.23434229
101	0x3e524fc0	0.20538235
102	0x3e1d05cb	0.15334241
103	0x3e003d27	0.12523328
104	0x3d9013f9	0.070350595
105	0xbc3bcb80	-0.011462092
106	0x3c39a0e1	0.01132986
107	0xbe614467	-0.2199875
108	0x3ef93f14	0.48680937
109	0x3e2c2828	0.16812193
110	0x3e745170	0.23859191
111	0x3e4e50e9	0.20148052
112	0x3e77cb10	0.24198556
113	0x3e5c365d	0.21505113
114	0x3c793dc4	0.01521248
115	0xbe904287	-0.28175756
116	0xbeb05a3f	-0.34443852
117	0xbe8d42e4	-0.27590096
118	0xbe924db3	-0.28574905
119	0xbe685f53	-0.22692613
120	0xbe4c5f1e	-0.1995816
121	0xbe279064	-0.16363674
122	0xbe02dfe7	-0.12780724
123	0xbda24f71	-0.079253085
124	0xbd2688eb	-0.04065792
125	0x3d332574	0.04373689
126	0x3ebbc888	0.3667643
127	0x3e27f43f	0.16401766
128	0x3e164a8c	0.14676875
129	0x3e214cc4	0.1575194
130	0x3e0cd02e	0.13751289
131	0x3e03a83a	0.12857142
132	0x3e1d8b27	0.15385114
133	0x3e030405	0.12794502
134	0x3dd4925d	0.10379479
135	0x3dab69d3	0.08369794
136	0x3db4054d	0.087900735
137	0x3d533711	0.051566187
138	0x3d15c380	0.036563396
139	0x3c1e54ab	0.009663741
140	0xbc49dc93	-0.012320655
141	0xbcef78e4	-0.02923245
142	0xbd75bc88	-0.05999425
143	0xbe3454dc	-0.17610496
144	0xbeebad9b	-0.46030888
145	0xbe183e11	-0.14867426
146	0xbe2c6f83	-0.16839413
147	0xbe4e2c49	-0.20134081
148	0xbe2d2768	-0.16909564
149	0xbe5fcac0	-0.21854687
150	0xbe18b8e0	-0.14914274
151	0xbe32e770	-0.17471099
152	0xbe51f293	-0.20502691
153	0xbe5ce8c0	-0.21573162
154	0xbe66c069	-0.22534336
155	0xbe67b122	-0.22626165
156	0xbe809d41	-0.25119975
157	0xbe78b334	-0.2428711
158	0xbe907e16	-0.28221196
159	0xbe8d9a58	-0.27656817
160	0xbea9e436	-0.33181924
161	0xbeb18cbd	-0.34677687
162	0xbed3603e	-0.41284364
163	0xbe057623	-0.13033347
164	0xbe516264	-0.2044769
165	0xbe17f33f	-0.14838885
166	0xbe3ce308	-0.1844598
167	0xbe20b450	-0.15693784
168	0xbdfcbd24	-0.12340763
169	0xbdc13a1c	-0.094349116
170	0xbdb4f822	-0.0883639
171	0xbd9945fa	-0.0748405
172	0xbd6dd01d	-0.0580598
173	0xbd29eddc	-0.041486606
174	0xbc96eeef	-0.01842448
175	0xbab8d41e	-0.0014101302
176	0x3cafbe62	0.021453086
177	0x3d1e69ec	0.038675234
178	0x3d060f4c	0.032729432
179	0x3e43649b	0.19081347
180	0xbea126e2	-0.31474978
181	0xbe2d112e	-0.16901085
182	0xbddad124	-0.10684422
183	0xbe14bd8e	-0.14525434
184	0xbdba33e6	-0.0909193
185	0xbdd05970	-0.10173309
186	0xbd8ce263	-0.06879117
187	0xbd7243e3	-0.059146773
188	0xbd643fff	-0.055725094
189	0xbcea43de	-0.028596815
190	0x3a5af0b9	0.00083519105
191	0xbc131753	-0.008977729
192	0x3c4a9371	0.012364254
193	0x3cd6ecc6	0.02623595
194	0x3d43548b	0.04768805
195	0x3db054d6	0.08609931
196	0x3d609c46	0.054836534
197	0x3e4719a0	0.19443369
198	0xbec532e8	-0.385154
199	0xbdff6b0d	-0.1247159
200	0xbe1c10c7	-0.15240775
201	0xbe02f047	-0.12786971
202	0xbdf09c1e	-0.11748527
203	0xbdc39f69	-0.095518894
204	0xbe0dee4e	-0.13860437
205	0xbe082944	-0.13296992
206	0xbdff0dcd	-0.12453804
207	0xbdc935d1	-0.09824718
208	0xbda98bb6	-0.08278601
209	0xbd86d545	-0.06583647
210	0xbcb4ed2f	-0.022085754
211	0xbbe1b55e	-0.0068880757
212	0x3cc7ee96	0.024405759
213	0x3d17707c	0.036972508
214	0x3d083d0a	0.033261336
215	0x3e2c4dbc	0.16826528
216	0x3d7e86f8	0.062140435
217	0xbd627a49	-0.0552924
218	0x3d30d526	0.043172024
219	0xbcf86102	-0.030319694
220	0x3c9ea532	0.01936588
221	0xbc043f6e	-0.008071763
222	0x3c12069a	0.008912707
223	0xbc3fd994	-0.0117095895
224	0xbdb7ba21	-0.08971048
225	0xbd831963	-0.064013265
226	0xbc9b281a	-0.01894002
227	0x3cf78df8	0.030219063
228	0xbca1ea49	-0.019765036
229	0x3ce8114b	0.028328558
230	0xbce91d5e	-0.028456386
231	0x3cfb9aee	0.030713525
232	0xbd06c0a0	-0.032898545
233	0x3cc45492	0.023966108
234	0xbc1c6bd4	-0.009547193
235	0x3b12d1f9	0.0022402985
236	0x3c22d5c6	0.009938663
237	0xbbc658e1	-0.0060530757
238	0xbb00e43b	-0.0019667286
239	0x3b257985	0.0025249433
240	0x3bbf4580	0.0058371425
241	0xbc381818	-0.011236213
242	0xbe3f01a9	-0.18652977
243	0xbe3acbb7	-0.18241774
244	0x3b947f47	0.004531774
245	0xbcab38ed	-0.020901168
246	0x3bca03b0	0.0061649904
247	0x3c0ada4e	0.008474899
248	0xbc75f0ca	-0.015011022
249	0xbb2ed4ec	-0.0026677204
250	0xbc22f9b6	-0.009947231
251	0x3c5d49ec	0.013506394
252	0xbb2ea8ca	-0.00266509
253	0x3aaa235a	0.0012980506
254	0x3c253c02	0.010085108
255	0xbb84dd24	-0.0040546823

act_fun.0.mask f4 [4, 12]
0	0x3f800000	1.0
1	0x3f800000	1.0
2	0x3f800000	1.0
3	0x3f800000	1.0
4	0x3f800000	1.0
5	0x3f800000	1.0
6	0x3f800000	1.0
7	0x3f800000	1.0
8	0x3f800000	1.0
9	0x3f800000	1.0
10	0x3f800000	1.0
11	0x3f800000	1.0
12	0x3f800000	1.0
13	0x3f800000	1.0
14	0x3f800000	1.0
15	0x3f800000	1.0
16	0x3f800000	1.0
17	0x3f800000	1.0
18	0x3f800000	1.0
19	0x3f800000	1.0
20	0x3f800000	1.0
21	0x3f800000	1.0
22	0x3f800000	1.0
23	0x3f800000	1.0
24	0x3f800000	1.0
25	0x3f800000	1.0
26	0x3f800000	1.0
27	0x3f800000	1.0
28	0x3f800000	1.0
29	0x3f800000	1.0
30	0x3f800000	1.0
31	0x3f800000	1.0
32	0x3f800000	1.0
33	0x3f800000	1.0
34	0x3f800000	1.0
35	0x3f800000	1.0
36	0x3f800000	1.0
37	0x3f800000	1.0
38	0x3f800000	1.0
39	0x3f800000	1.0
40	0x3f800000	1.0
41	0x3f800000	1.0
42	0x3f800000	1.0
43	0x3f800000	1.0
44	0x3f800000	1.0
45	0x3f800000	1.0
46	0x3f800000	1.0
47	0x3f800000	1.0

act_fun.0.scale_base f4 [4, 12]
0	0x3e9d7c98	0.3075912
1	0x3eff3973	0.49848518
2	0x3e577c20	0.21043444
3	0xbe3158f0	-0.17319083
4	0x3ed5bc25	0.41745105
5	0x3ecb5e93	0.39720592
6	0xbec3b1aa	-0.38221484
7	0x3e33133f	0.1748781
8	0x3e5088f2	0.2036474
9	0xbe025b8f	-0.1273024
10	0xbd950419	-0.07276172
11	0xbe1e7baf	-0.15476869
12	0xbeb3245c	-0.34988678
13	0xbe1c3d60	-0.15257788
14	0x3e2c4ab0	0.16825366
15	0x3ebbef20	0.36705875
16	0x3d1b9110	0.03798014
17	0xbef7e92a	-0.48420078
18	0x3e8794b0	0.26480627
19	0xbe1aec68	-0.15129244
20	0x3ee49f00	0.44652557
21	0xbef75e20	-0.48314
22	0xbdef94f8	-0.116983354
23	0x3ec688a4	0.38776124
24	0x3e0fa0f4	0.14026242
25	0xbe9c6218	-0.3054359
26	0xbf0314ba	-0.512035
27	0xbd492dda	-0.049115993
28	0x3de1483a	0.11000104
29	0xbef4fa1a	-0.47847062
30	0xbeca4450	-0.39505243
31	0xbd8852fd	-0.06656454
32	0x3c5572b2	0.013027834
33	0x3ec76be9	0.38949516
34	0xbec3621c	-0.3816079
35	0x3d79c959	0.060983036
36	0xbea8bede	-0.3295812
37	0xbd7a2af9	-0.06107614
38	0xbed2e436	-0.41189736
39	0x3dea1a03	0.114307426
40	0xbe66001d	-0.2246098
41	0xbe8588b8	-0.2608087
42	0xbe127125	-0.14300974
43	0xbef0d360	-0.47036266
44	0x3f0c9f81	0.54930884
45	0xbd9f3f3a	-0.077757314
46	0xbe29e3de	-0.1659083
47	0x3ef368eb	0.47540984

act_fun.0.scale_sp f4 [4, 12]
0	0x3f6c21d0	0.92239094
1	0x3f5eeea4	0.87082887
2	0x3f6fac9c	0.93622756
3	0x3f5ce36e	0.8628453
4	0x3f649402	0.8928834
5	0x3f656b82	0.8961717
6	0x3f7c09bd	0.9845236
7	0x3f6fe4d3	0.93708533
8	0x3f668349	0.90044075
9	0x3f654a8e	0.89566886
10	0x3f3a8c59	0.72870404
11	0x3f67dcd6	0.90571344
12	0x3efb7538	0.49112868
13	0x3f2a1d8f	0.6645135
14	0x3f16975b	0.588247
15	0x3eebfc81	0.46091083
16	0x3f2a9388	0.66631365
17	0x3f24bff3	0.6435539
18	0x3f0b4d91	0.5441523
19	0x3ef4878b	0.4775966
20	0x3f25c56b	0.6475436
21	0x3ef482d7	0.47756073
22	0x3f17f4f3	0.5935814
23	0x3f06f351	0.5271502
24	0x3f319efa	0.69383204
25	0x3ed797d5	0.42108026
26	0x3f4dc8dd	0.8038462
27	0x3f3ac3d1	0.7295504
28	0x3f0481ca	0.5176054
29	0x3f081407	0.5315556
30	0x3f2bdb72	0.6713172
31	0x3f33ac3f	0.701847
32	0x3fbae0d3	1.4599861
33	0x3f4cafed	0.7995594
34	0x3f7d7c41	0.9901772
35	0x3f317c2b	0.6933009
36	0x3edbf26b	0.42958388
37	0x3ef20c7b	0.47275147
38	0x3f046c2a	0.51727545
39	0x3f1ab15e	0.6042689
40	0x3ec8e4e2	0.39237124
41	0x3ec8090e	0.39069408
42	0x3f10446c	0.56354403
43	0x3ef85e4c	0.48509443
44	0x3f0c6f29	0.54857117
45	0x3f0de95a	0.5543419
46	0x3f0077e8	0.5018296
47	0x3e932831	0.287416

act_fun.1.grid f4 [12, 21]
0	0xbfa00000	-1.25
1	0xbf900000	-1.125
2	0xbf800000	-1.0
3	0xbf600000	-0.875
4	0xbf400000	-0.75
5	0xbf200000	-0.625
6	0xbf000000	-0.5
7	0xbec00000	-0.375
8	0xbe800000	-0.25
9	0xbe000000	-0.125
10	0x00000000	0.0
11	0x3e000000	0.125
12	0x3e800000	0.25
13	0x3ec00000	0.375
14	0x3f000000	0.5
15	0x3f200000	0.625
16	0x3f400000	0.75
17	0x3f600000	0.875
18	0x3f800000	1.0
19	0x3f900000	1.125
20	0x3fa00000	1.25
21	0xbfa00000	-1.25
22	0xbf900000	-1.125
23	0xbf800000	-1.0
24	0xbf600000	-0.875
25	0xbf400000	-0.75
26	0xbf200000	-0.625
27	0xbf000000	-0.5
28	0xbec00000	-0.375
29	0xbe800000	-0.25
30	0xbe000000	-0.125
31	0x00000000	0.0
32	0x3e000000	0.125
33	0x3e800000	0.25
34	0x3ec00000	0.375
35	0x3f000000	0.5
36	0x3f200000	0.625
37	0x3f400000	0.75
38	0x3f600000	0.875
39	0x3f800000	1.0
40	0x3f900000	1.125
41	0x3fa00000	1.25
42	0xbfa00000	-1.25
43	0xbf900000	-1.125
44	0xbf800000	-1.0
45	0xbf600000	-0.875
46	0xbf400000	-0.75
47	0xbf200000	-0.625
48	0xbf000000	-0.5
49	0xbec00000	-0.375
50	0xbe800000	-0.25
51	0xbe000000	-0.125
52	0x00000000	0.0
53	0x3e000000	0.125
54	0x3e800000	0.25
55	0x3ec00000	0.375
56	0x3f000000	0.5
57	0x3f200000	0.625
58	0x3f400000	0.75
59	0x3f600000	0.875
60	0x3f800000	1.0
61	0x3f900000	1.125
62	0x3fa00000	1.25
63	0xbfa00000	-1.25
64	0xbf900000	-1.125
65	0xbf800000	-1.0
66	0xbf600000	-0.875
67	0xbf400000	-0.75
68	0xbf200000	-0.625
69	0xbf000000	-0.5
70	0xbec00000	-0.375
71	0xbe800000	-0.25
72	0xbe000000	-0.125
73	0x00000000	0.0
74	0x3e000000	0.125
75	0x3e800000	0.25
76	0x3ec00000	0.375
77	0x3f000000	0.5
78	0x3f200000	0.625
79	0x3f400000	0.75
80	0x3f600000	0.875
81	0x3f800000	1.0
82	0x3f900000	1.125
83	0x3fa00000	1.25
84	0xbfa00000	-1.25
85	0xbf900000	-1.125
86	0xbf800000	-1.0
87	0xbf600000	-0.875
88	0xbf400000	-0.75
89	0xbf200000	-0.625
90	0xbf000000	-0.5
91	0xbec00000	-0.375
92	0xbe800000	-0.25
93	0xbe000000	-0.125
94	0x00000000	0.0
95	0x3e000000	0.125
96	0x3e800000	0.25
97	0x3ec00000	0.375
98	0x3f000000	0.5
99	0x3f200000	0.625
100	0x3f400000	0.75
101	0x3f600000	0.875
102	0x3f800000	1.0
103	0x3f900000	1.125
104	0x3fa00000	1.25
105	0xbfa00000	-1.25
106	0xbf900000	-1.125
107	0xbf800000	-1.0
108	0xbf600000	-0.875
109	0xbf400000	-0.75
110	0xbf200000	-0.625
111	0xbf000000	-0.5
112	0xbec00000	-0.375
113	0xbe800000	-0.25
114	0xbe000000	-0.125
115	0x00000000	0.0
116	0x3e000000	0.125
117	0x3e800000	0.25
118	0x3ec00000	0.375
119	0x3f000000	0.5
120	0x3f200000	0.625
121	0x3f400000	0.75
122	0x3f600000	0.875
123	0x3f800000	1.0
124	0x3f900000	1.125
125	0x3fa00000	1.25
126	0xbfa00000	-1.25
127	0xbf900000	-1.125
128	0xbf800000	-1.0
129	0xbf600000	-0.875
130	0xbf400000	-0.75
131	0xbf200000	-0.625
132	0xbf000000	-0.5
133	0xbec00000	-0.375
134	0xbe800000	-0.25
135	0xbe000000	-0.125
136	0x00000000	0.0
137	0x3e000000	0.125
138	0x3e800000	0.25
139	0x3ec00000	0.375
140	0x3f000000	0.5
141	0x3f200000	0.625
142	0x3f400000	0.75
143	0x3f600000	0.875
144	0x3f800000	1.0
145	0x3f900000	1.125
146	0x3fa00000	1.25
147	0xbfa00000	-1.25
148	0xbf900000	-1.125
149	0xbf800000	-1.0
150	0xbf600000	-0.875
151	0xbf400000	-0.75
152	0xbf200000	-0.625
153	0xbf000000	-0.5
154	0xbec00000	-0.375
155	0xbe800000	-0.25
156	0xbe000000	-0.125
157	0x00000000	0.0
158	0x3e000000	0.125
159	0x3e800000	0.25
160	0x3ec00000	0.375
161	0x3f000000	0.5
162	0x3f200000	0.625
163	0x3f400000	0.75
164	0x3f600000	0.875
165	0x3f800000	1.0
166	0x3f900000	1.125
167	0x3fa00000	1.25
168	0xbfa00000	-1.25
169	0xbf900000	-1.125
170	0xbf800000	-1.0
171	0xbf600000	-0.875
172	0xbf400000	-0.75
173	0xbf200000	-0.625
174	0xbf000000	-0.5
175	0xbec00000	-0.375
176	0xbe800000	-0.25
177	0xbe000000	-0.125
178	0x00000000	0.0
179	0x3e000000	0.125
180	0x3e800000	0.25
181	0x3ec00000	0.375
182	0x3f000000	0.5
183	0x3f200000	0.625
184	0x3f400000	0.75
185	0x3f600000	0.875
186	0x3f800000	1.0
187	0x3f900000	1.125
188	0x3fa00000	1.25
189	0xbfa00000	-1.25
190	0xbf900000	-1.125
191	0xbf800000	-1.0
192	0xbf600000	-0.875
193	0xbf400000	-0.75
194	0xbf200000	-0.625
195	0xbf000000	-0.5
196	0xbec00000	-0.375
197	0xbe800000	-0.25
198	0xbe000000	-0.125
199	0x00000000	0.0
200	0x3e000000	0.125
201	0x3e800000	0.25
202	0x3ec00000	0.375
203	0x3f000000	0.5
204	0x3f200000	0.625
205	0x3f400000	0.75
206	0x3f600000	0.875
207	0x3f800000	1.0
208	0x3f900000	1.125
209	0x3fa00000	1.25
210	0xbfa00000	-1.25
211	0xbf900000	-1.125
212	0xbf800000	-1.0
213	0xbf600000	-0.875
214	0xbf400000	-0.75
215	0xbf200000	-0.625
216	0xbf000000	-0.5
217	0xbec00000	-0.375
218	0xbe800000	-0.25
219	0xbe000000	-0.125
220	0x00000000	0.0
221	0x3e000000	0.125
222	0x3e800000	0.25
223	0x3ec00000	0.375
224	0x3f000000	0.5
225	0x3f200000	0.625
226	0x3f400000	0.75
227	0x3f600000	0.875
228	0x3f800000	1.0
229	0x3f900000	1.125
230	0x3fa00000	1.25
231	0xbfa00000	-1.25
232	0xbf900000	-1.125
233	0xbf800000	-1.0
234	0xbf600000	-0.875
235	0xbf400000	-0.75
236	0xbf200000	-0.625
237	0xbf000000	-0.5
238	0xbec00000	-0.375
239	0xbe800000	-0.25
240	0xbe000000	-0.125
241	0x00000000	0.0
242	0x3e000000	0.125
243	0x3e800000	0.25
244	0x3ec00000	0.375
245	0x3f000000	0.5
246	0x3f200000	0.625
247	0x3f400000	0.75
248	0x3f600000	0.875
249	0x3f800000	1.0
250	0x3f900000	1.125
251	0x3fa00000	1.25

act_fun.1.coef f4 [12, 12, 18]
0	0x3cf6c6f6	0.030124169
1	0xbd0cd00f	-0.034378108
2	0x3cffda7d	0.031232113
3	0xbd31e605	-0.043432254
4	0x3cd2c8e1	0.025730552
5	0xbc52aa94	-0.012858052
6	0x3c71efec	0.0147666745
7	0xbdb82944	-0.08992246
8	0xbdf31a87	-0.11870294
9	0x3d2df03f	0.042465445
10	0xbdd1af92	-0.102385655
11	0x3eac5312	0.33657128
12	0xbd9b3840	-0.07579088
13	0xbe277d3d	-0.16356368
14	0xbdffa15b	-0.12481948
15	0x3d1afdd8	0.03783974
16	0xbd28ca4c	-0.04120855
17	0x3ccd2adc	0.025044851
18	0xbc88938a	-0.016671915
19	0x3cd8044b	0.026369235
20	0xbd274df8	-0.04084584
21	0x3cfb0f1e	0.030646857
22	0xbcebbc68	-0.028776363
23	0x3d03cf16	0.032179914
24	0xbc646fb4	-0.013942648
25	0x3e273d7b	0.16332047
26	0x3e260835	0.16214068
27	0xbcc2bbaa	-0.023771126
28	0x3c3d1a0f	0.011541857
29	0x3c8b1a16	0.016980212
30	0x3b17a26c	0.0023137582
31	0xbd548e3e	-0.051893465
32	0x398664c5	0.0002563355
33	0xbd11eda3	-0.03562702
34	0x3d0e2f29	0.034712944
35	0xbd2959c7	-0.041345384
36	0xbc7dfa52	-0.015501576
37	0x3c1ebfc2	0.009689273
38	0x3b93234c	0.0044902917
39	0xbb987380	-0.0046524405
40	0x3cb267fc	0.0217781
41	0xbc36672c	-0.0111329965
42	0x3c46a49b	0.012124206
43	0xbdc82929	-0.09773476
44	0xbe2818d0	-0.16415715
45	0x3e84ae03	0.2591401
46	0x3ec8d958	0.3922832
47	0x3ed4f1da	0.41590768
48	0xbe7e15f6	-0.24813065
49	0xbe1d9223	-0.15387778
50	0xbe05a9df	-0.13053082
51	0x3bdf47d9	0.006813985
52	0xbc1f9632	-0.009740399
53	0x3c34b513	0.0110295
54	0xbd0959d8	-0.033532947
55	0x3c92314c	0.017845772
56	0x3a62fb98	0.0008658706
57	0xbc3014ec	-0.010747176
58	0x3aaf6697	0.0013382015
59	0xbc8f3d52	-0.017485294
60	0x3a4569a8	0.00075306976
61	0x3d12e3a6	0.035861634
62	0xbcc2b728	-0.023768976
63	0xbe058fbc	-0.13043112
64	0x3df6a302	0.1204281
65	0xbe10cd2e	-0.1414077
66	0x3d903ae8	0.070424855
67	0x3e12fab8	0.14353454
68	0x3d8de141	0.069277294
69	0x3b8e9489	0.004351203
70	0xbb250194	-0.0025177943
71	0x3a3e2378	0.000725321
72	0xbca8617e	-0.0205543
73	0x3cca1d97	0.024672313
74	0xbbd34820	-0.006447807
75	0x3cc30005	0.02380372
76	0xbcdf5534	-0.027262308
77	0x3c0d13f2	0.008610712
78	0x3adc4490	0.0016805101
79	0xbdf833b7	-0.12119239
80	0xbe106850	-0.14102292
81	0x3e129847	0.14315902
82	0x3ed426aa	0.41435748
83	0x3eb8813a	0.36036092
84	0xbe58a2df	-0.2115588
85	0xbdd697e5	-0.1047819
86	0x3d4d0e9f	0.050062772
87	0x3b9c37a5	0.0047673755
88	0xbc4ee857	-0.012628636
89	0x3bb03a68	0.0053780563
90	0xbcdceec0	-0.026969314
91	0x3d1e49fc	0.038644776
92	0xbcfdce32	-0.03098211
93	0x3cc65b20	0.024213374
94	0xbccf9c2c	-0.025343023
95	0x3d0ccf67	0.03437748
96	0xbc8fc53a	-0.0175501
97	0x3e17ad5c	0.14812225
98	0x3dfee8c0	0.12446737
99	0xbcae7f44	-0.02130092
100	0x3d85bbc2	0.065299526
101	0xbe83b99d	-0.2572755
102	0x3ddbf26d	0.107395984
103	0x3da65957	0.08122509
104	0x3dc8bd68	0.098017514
105	0xbcb44d3e	-0.022009488
106	0x3c9c59f4	0.019085862
107	0xbc5dad43	-0.013530078
108	0xbd62a9fa	-0.055337884
109	0x3d17c814	0.037056044
110	0xbd28287b	-0.04105423
111	0x3cfae8fc	0.030628674
112	0xbcc84e98	-0.024451539
113	0x3c891d28	0.016737536
114	0xba858270	-0.0010185968
115	0xbe0a6646	-0.13515577
116	0xbd886d02	-0.066614166
117	0x3ea41103	0.3204423
118	0x3ed193d2	0.4093309
119	0x3ec33fdc	0.38134658
120	0xbe87de29	-0.26536682
121	0xbe25018f	-0.16113876
122	0xbd3f0549	-0.0466359
123	0xbd0e210a	-0.034699477
124	0x3cab899d	0.020939643
125	0xbd09e39b	-0.033664327
126	0xbb82342c	-0.0039735045
127	0x3bc22919	0.0059253094
128	0xbbd179fe	-0.0063927164
129	0x3ab72f48	0.0013975883
130	0x3bba6d02	0.0056892643
131	0x3ae39c98	0.0017365394
132	0xba5f6620	-0.0008521993
133	0x3e7c3e2f	0.24633096
134	0x3e774d11	0.24150492
135	0xbdb909bd	-0.090350606
136	0xbdce78aa	-0.100816086
137	0xbef16fc7	-0.47155592
138	0x3efe1afd	0.49629965
139	0x3e7a74be	0.24458596
140	0x3dca997d	0.09892557
141	0xbc8a332c	-0.016870104
142	0x3d05551b	0.032551866
143	0xbcca5761	-0.024699869
144	0xbcf4bea7	-0.029876066
145	0x3d09adf3	0.033613157
146	0xbcdbf146	-0.026848447
147	0x3c3d3fac	0.011550825
148	0xbbef4fc4	-0.00730321
149	0xbb7a6900	-0.0038209558
150	0x3bf0a0d3	0.0073433905
151	0xbdc7f05a	-0.0976264
152	0xbe201d7b	-0.15636246
153	0x3e8e379e	0.27776808
154	0x3ec49260	0.38392925
155	0x3ec26e58	0.3797481
156	0xbe5f3c96	-0.21800455
157	0xbe2d0771	-0.1689737
158	0xbddd4a3f	-0.10805177
159	0x3c3d6a7a	0.0115610305
160	0x3aa4b9cc	0.0012567579
161	0xbc63e888	-0.01391042
162	0xba7e620e	-0.00097039423
163	0x3b4ca1be	0.0031224336
164	0xbc9eb88a	-0.019375104
165	0x3cedd960	0.029034317
166	0xbcb14202	-0.02163792
167	0x3c81c650	0.015841633
168	0xbc51d5be	-0.012807308
169	0xbdd0e7a2	-0.102004305
170	0xbe0551c9	-0.1301948
171	0x3e0396e7	0.12850533
172	0x3e9ee3ce	0.31033176
173	0x3ea223fa	0.31668073
174	0xbe2b3a17	-0.16721378
175	0xbe0b26dd	-0.13589044
176	0xbd94aeba	-0.07259889
177	0xbc27227e	-0.010201095
178	0xbb265ff0	-0.0025386773
179	0x3c90a5d4	0.017657198
180	0x3d08c41e	0.033390157
181	0xbd0aaaa5	-0.033854146
182	0x3d0f6f1d	0.035018075
183	0xbc9ae54d	-0.018908167
184	0x3c31fc3e	0.010863362
185	0xbc309bea	-0.01077936
186	0x3b4acf40	0.0030946285
187	0xbdb08422	-0.08618952
188	0xbdbf4615	-0.09339539
189	0x3cc4b067	0.024009896
190	0xba809fee	-0.0009813288
191	0x3e41ec39	0.18937768
192	0xbd9c840e	-0.07642375
193	0xbd9b0323	-0.07568958
194	0xbab830f6	-0.0014052677
195	0x3bf21adb	0.0073884553
196	0xbbc49a71	-0.005999856
197	0x3cac613c	0.021042459
198	0xbacaa9e3	-0.0015462007
199	0xbb8c513f	-0.004282146
200	0xbc338ce3	-0.010958883
201	0x39189d98	0.00014554558
202	0x3bfdb6d9	0.0077427444
203	0x3b688fcb	0.0035486098
204	0xbbcdedb6	-0.006284441
205	0x3e69342a	0.22773805
206	0x3e7187b1	0.23586918
207	0xbda26e0b	-0.07931145
208	0x3dbae296	0.09125249
209	0xbf0189ec	-0.5060108
210	0x3e8af497	0.27139732
211	0x3e2ddaaf	0.16977952
212	0x3d99bae8	0.07506353
213	0xbb0f6608	-0.0021880884
214	0xbc10b918	-0.008833192
215	0x3ce09bc0	0.027418017
216	0x3b2972ac	0.0025855703
217	0x3d0c8ffa	0.034316994
218	0x3d26eee6	0.040755175
219	0x3ca829c2	0.020527724
220	0x3cfd22c9	0.030900376
221	0x3edaedd8	0.42759585
222	0xbbbadcc2	-0.005702586
223	0xbe416896	-0.18887553
224	0xbb83a9c5	-0.004018041
225	0x3d762056	0.06008943
226	0xbd12dc45	-0.035854597
227	0xbe6603b5	-0.22462352
228	0x3ed90d39	0.423929
229	0xbe957fe2	-0.2919913
230	0xbe1781d9	-0.14795627
231	0xbd4d0fe2	-0.050063975
232	0xbc365ff8	-0.011131279
233	0xbbed902c	-0.0072498526
234	0x3b9a8875	0.004715974
235	0x3d60910b	0.054825824
236	0x3e611a32	0.21982649
237	0x3e7857e6	0.2425228
238	0x3dea92cb	0.1145378
239	0xbf174160	-0.5908413
240	0x3e083fae	0.13305542
241	0x3e606093	0.2191184
242	0xbd05714e	-0.03257876
243	0xbcd5ddfd	-0.026106829
244	0x3cceb4b4	0.02523265
245	0xbe51d802	-0.20492557
246	0x3eb24fb9	0.3482645
247	0xbe301217	-0.171944
248	0x3cdbaab1	0.02681479
249	0x3c930028	0.01794441
250	0xbcabafb1	-0.0209578
251	0x3c66b003	0.01408005
252	0xbd00cc68	-0.031444937
253	0xbd15d6c1	-0.03658176
254	0xbdb45576	-0.08805363
255	0xbcda3631	-0.026637169

act_fun.1.mask f4 [12, 12]
0	0x3f800000	1.0
1	0x3f800000	1.0
2	0x3f800000	1.0
3	0x3f800000	1.0
4	0x3f800000	1.0
5	0x3f800000	1.0
6	0x3f800000	1.0
7	0x3f800000	1.0
8	0x3f800000	1.0
9	0x3f800000	1.0
10	0x3f800000	1.0
11	0x3f800000	1.0
12	0x3f800000	1.0
13	0x3f800000	1.0
14	0x3f800000	1.0
15	0x3f800000	1.0
16	0x3f800000	1.0
17	0x3f800000	1.0
18	0x3f800000	1.0
19	0x3f800000	1.0
20	0x3f800000	1.0
21	0x3f800000	1.0
22	0x3f800000	1.0
23	0x3f800000	1.0
24	0x3f800000	1.0
25	0x3f800000	1.0
26	0x3f800000	1.0
27	0x3f800000	1.0
28	0x3f800000	1.0
29	0x3f800000	1.0
30	0x3f800000	1.0
31	0x3f800000	1.0
32	0x3f800000	1.0
33	0x3f800000	1.0
34	0x3f800000	1.0
35	0x3f800000	1.0
36	0x3f800000	1.0
37	0x3f800000	1.0
38	0x3f800000	1.0
39	0x3f800000	1.0
40	0x3f800000	1.0
41	0x3f800000	1.0
42	0x3f800000	1.0
43	0x3f800000	1.0
44	0x3f800000	1.0
45	0x3f800000	1.0
46	0x3f800000	1.0
47	0x3f800000	1.0
48	0x3f800000	1.0
49	0x3f800000	1.0
50	0x3f800000	1.0
51	0x3f800000	1.0
52	0x3f800000	1.0
53	0x3f800000	1.0
54	0x3f800000	1.0
55	0x3f800000	1.0
56	0x3f800000	1.0
57	0x3f800000	1.0
58	0x3f800000	1.0
59	0x3f800000	1.0
60	0x3f800000	1.0
61	0x3f800000	1.0
62	0x3f800000	1.0
63	0x3f800000	1.0
64	0x3f800000	1.0
65	0x3f800000	1.0
66	0x3f800000	1.0
67	0x3f800000	1.0
68	0x3f800000	1.0
69	0x3f800000	1.0
70	0x3f800000	1.0
71	0x3f800000	1.0
72	0x3f800000	1.0
73	0x3f800000	1.0
74	0x3f800000	1.0
75	0x3f800000	1.0
76	0x3f800000	1.0
77	0x3f800000	1.0
78	0x3f800000	1.0
79	0x3f800000	1.0
80	0x3f800000	1.0
81	0x3f800000	1.0
82	0x3f800000	1.0
83	0x3f800000	1.0
84	0x3f800000	1.0
85	0x3f800000	1.0
86	0x3f800000	1.0
87	0x3f800000	1.0
88	0x3f800000	1.0
89	0x3f800000	1.0
90	0x3f800000	1.0
91	0x3f800000	1.0
92	0x3f800000	1.0
93	0x3f800000	1.0
94	0x3f800000	1.0
95	0x3f800000	1.0
96	0x3f800000	1.0
97	0x3f800000	1.0
98	0x3f800000	1.0
99	0x3f800000	1.0
100	0x3f800000	1.0
101	0x3f800000	1.0
102	0x3f800000	1.0
103	0x3f800000	1.0
104	0x3f800000	1.0
105	0x3f800000	1.0
106	0x3f800000	1.0
107	0x3f800000	1.0
108	0x3f800000	1.0
109	0x3f800000	1.0
110	0x3f800000	1.0
111	0x3f800000	1.0
112	0x3f800000	1.0
113	0x3f800000	1.0
114	0x3f800000	1.0
115	0x3f800000	1.0
116	0x3f800000	1.0
117	0x3f800000	1.0
118	0x3f800000	1.0
119	0x3f800000	1.0
120	0x3f800000	1.0
121	0x3f800000	1.0
122	0x3f800000	1.0
123	0x3f800000	1.0
124	0x3f800000	1.0
125	0x3f800000	1.0
126	0x3f800000	1.0
127	0x3f800000	1.0
128	0x3f800000	1.0
129	0x3f800000	1.0
130	0x3f800000	1.0
131	0x3f800000	1.0
132	0x3f800000	1.0
133	0x3f800000	1.0
134	0x3f800000	1.0
135	0x3f800000	1.0
136	0x3f800000	1.0
137	0x3f800000	1.0
138	0x3f800000	1.0
139	0x3f800000	1.0
140	0x3f800000	1.0
141	0x3f800000	1.0
142	0x3f800000	1.0
143	0x3f800000	1.0

act_fun.1.scale_base f4 [12, 12]
0	0x3dc42169	0.09576685
1	0xbe6349aa	-0.2219607
2	0xbc0c15c2	-0.008550109
3	0x3e869c02	0.262909
4	0xbe854381	-0.26028064
5	0x3e97be6d	0.2963747
6	0xbe2b7df4	-0.16747266
7	0x3e7c0ec0	0.24615002
8	0xbadfec73	-0.0017084017
9	0xbd836128	-0.064150155
10	0xbea9d847	-0.3317282
11	0xbd9223da	-0.071357444
12	0xbd4410d4	-0.04786761
13	0xbe6b1376	-0.22956643
14	0xbda735c5	-0.081645526
15	0x3ea72e1f	0.32652375
16	0xbe30c5a4	-0.17262894
17	0x3dde5ea1	0.10857893
18	0xbe812189	-0.25220898
19	0x3e5f60ab	0.2181422
20	0x3e0aaa16	0.13541445
21	0x3de23990	0.110461354
22	0xbd564125	-0.05230822
23	0x3b114aee	0.0022169906
24	0xbe77cb91	-0.24198748
25	0xbcd03ac9	-0.025418656
26	0xbe023c2e	-0.12718269
27	0x3deca8df	0.11555647
28	0xbe3ea87c	-0.18618959
29	0xbd2322f1	-0.039828245
30	0x3db9585a	0.09050055
31	0x3e940644	0.2891103
32	0xbdd5e4d1	-0.10444034
33	0xbc549389	-0.012974628
34	0x3d8e07c2	0.069350734
35	0x3e1b313a	0.15155497
36	0x3eb77691	0.35832646
37	0x3e56e623	0.20986228
38	0xbe194e61	-0.14971305
39	0x3bc2b5af	0.0059420685
40	0x3e81e616	0.25370854
41	0xbe6150b4	-0.22003442
42	0x3d85b402	0.065284744
43	0x3e5111a6	0.20416889
44	0xbcf3abf3	-0.029745078
45	0x3e3b17ed	0.18270846
46	0xbd750cbf	-0.05982661
47	0xbd418c3f	-0.04725289
48	0xbe72860c	-0.23683947
49	0xbe93cffa	-0.2886961
50	0xbe9724da	-0.29520303
51	0x3eb3c320	0.35109806
52	0x3e5a5f2a	0.21325365
53	0xbe1d4660	-0.15358877
54	0xbe14c694	-0.14528877
55	0x3ef393e3	0.47573766
56	0xbe276a01	-0.16349031
57	0x3e87b5fe	0.26506037
58	0xbe47e807	-0.19522105
59	0x3c312092	0.010810988
60	0xbe896bc2	-0.26840025
61	0xbe55fb0c	-0.20896548
62	0x3e3db762	0.18526986
63	0x3dc12134	0.09430161
64	0xbe9c2e25	-0.30503955
65	0x3e7510b7	0.23932157
66	0xbe0b7d1a	-0.13621941
67	0x3edb7da4	0.42869294
68	0x3e4dcba6	0.20097217
69	0x3df8f2a2	0.121556535
70	0x3e42d289	0.19025625
71	0xbdb92762	-0.09040715
72	0xbdbcd385	-0.09220032
73	0xbedc9795	-0.43084398
74	0x3ebf007a	0.3730505
75	0xbdb9643d	-0.09052322
76	0x3e71e2ca	0.2362167
77	0xbe9a2128	-0.3010342
78	0x3ead6f87	0.3387415
79	0xbdf5d6ac	-0.12003836
80	0x3e469af8	0.19395053
81	0x3eda2238	0.42604232
82	0xbdc50d22	-0.096216455
83	0xbe3c5ffd	-0.18395992
84	0xbdc4bb99	-0.09606094
85	0xbebac607	-0.36479208
86	0xbe0f6061	-0.1400161
87	0x3dc5003f	0.096191876
88	0xbe998144	-0.29981434
89	0x3e8c69ea	0.27424556
90	0xbd82394b	-0.06358584
91	0x3ea3b756	0.31975812
92	0xbdb684de	-0.08912061
93	0xbe8d1ea8	-0.2756245
94	0xbe2f99a1	-0.17148449
95	0x3e283b8a	0.16428962
96	0xbe349db2	-0.17638281
97	0x3ed2162b	0.41032538
98	0xbd20b307	-0.039233234
99	0x3d002db6	0.031293593
100	0x3d9dc81a	0.07704182
101	0x3e6aacda	0.229175
102	0xbec3bd76	-0.38230485
103	0x3ee51b16	0.44747227
104	0xbe7526cb	-0.2394058
105	0xbe0f52dd	-0.13996454
106	0x3cbc5964	0.022991844
107	0x3eb1d8de	0.3473577
108	0x3ddb90e7	0.10720997
109	0x3e2a553f	0.16634081
110	0xbea21faa	-0.31664783
111	0xbea8070b	-0.32817873
112	0x3dd06bbd	0.101767994
113	0xbc490df5	-0.012271394
114	0xbd143327	-0.036181595
115	0xbf1351de	-0.57546794
116	0xbdc83505	-0.09775738
117	0x3cd4da87	0.025983108
118	0x3e68d886	0.22738847
119	0xbeb64fdb	-0.356078
120	0xbe0a79f8	-0.1352309
121	0xbdb29e75	-0.087216295
122	0xbe890c21	-0.26767066
123	0xbe006255	-0.1253751
124	0x3e54793a	0.2074937
125	0x3ea4ca38	0.3218553
126	0xbe1a8cb5	-0.15092738
127	0xbe9d7be6	-0.3075859
128	0xbd530477	-0.05151793
129	0x3e4f2ec4	0.20232683
130	0xbe5fe9d8	-0.21866548
131	0xbd8b629b	-0.06805917
132	0x3e35d5a7	0.17757283
133	0x3ec7a363	0.38991842
134	0xbe2aecbf	-0.16691874
135	0x3e090358	0.13380182
136	0xbe971268	-0.2950623
137	0xbe08d24a	-0.13361469
138	0x3e14d6d0	0.1453507
139	0x3df9cbbf	0.121970646
140	0x3c10a4a1	0.008828313
141	0x3ddf0309	0.10889251
142	0xba9805a8	-0.0011598365
143	0x3e6e555a	0.23274747

act_fun.1.scale_sp f4 [12, 12]
0	0x3ee0a416	0.43875188
1	0x3ec114a3	0.37711057
2	0x3f2c16e3	0.6722242
3	0x3ed7804f	0.4209008
4	0x3f1ec7dd	0.6202372
5	0x3edb3439	0.4281328
6	0x3f2a71de	0.6658
7	0x3f341a1b	0.70352334
8	0x3f2147e3	0.63000315
9	0x3f116014	0.5678723
10	0x3ea5234b	0.3225349
11	0x3f27e5cc	0.6558502
12	0x3f1250b6	0.57154405
13	0x3f1c326d	0.61014444
14	0x3f3ac27d	0.72953016
15	0x3f5d06d3	0.8633854
16	0x3f4384d4	0.76374555
17	0x3f2fbce5	0.68647605
18	0x3f3d4875	0.73938686
19	0x3f3f920e	0.74832237
20	0x3f355c5b	0.7084405
21	0x3f270ce1	0.65254027
22	0x3f4010ef	0.7502584
23	0x3f2f91ec	0.68582034
24	0x3ec95550	0.393229
25	0x3ecca13a	0.39966756
26	0x3f387832	0.72058403
27	0x3ea8fdbf	0.33006093
28	0x3f2f3337	0.6843752
29	0x3ebaea97	0.36507103
30	0x3f406eba	0.75168955
31	0x3f4249bc	0.7589376
32	0x3f218f76	0.6310953
33	0x3f293217	0.66092056
34	0x3e825422	0.25454813
35	0x3f20420e	0.6260079
36	0x3f0a7610	0.540864
37	0x3f1d7ed3	0.61521643
38	0x3f148aea	0.58024466
39	0x3eb593ad	0.3546423
40	0x3eda5d06	0.42649096
41	0x3f1f8c7d	0.62323743
42	0x3f2c1d70	0.6723242
43	0x3f778ba3	0.96697444
44	0x3f278ce5	0.65449363
45	0x3f147f4d	0.58006746
46	0x3ee4d0c7	0.44690534
47	0x3f35c0e1	0.70997435
48	0x3f033959	0.5125938
49	0x3ec591d2	0.38587815
50	0x3f403c32	0.7509185
51	0x3f223e62	0.6337644
52	0x3f435ffb	0.7631833
53	0x3f183620	0.5945759
54	0x3f3be7c4	0.7340052
55	0x3f433a33	0.7626068
56	0x3f36aeee	0.7136067
57	0x3f259b04	0.6468966
58	0x3f37a975	0.71742946
59	0x3f24cd1a	0.6437546
60	0x3f047da7	0.5175423
61	0x3eb863b4	0.36013567
62	0x3f349529	0.705401
63	0x3f114476	0.5674509
64	0x3f462994	0.77407193
65	0x3ef55f4f	0.47924277
66	0x3f30af92	0.690179
67	0x3f428ef7	0.759994
68	0x3f2a745d	0.66583806
69	0x3f1e06c6	0.61729085
70	0x3f002531	0.5005675
71	0x3f2a37fe	0.6649169
72	0x3f70042b	0.9375636
73	0x3f2ec846	0.68274343
74	0x3f7e575b	0.99352044
75	0x3f8760b9	1.0576392
76	0x3f817c3b	1.0116037
77	0x3f8cf6ea	1.1012852
78	0x3f4b63e8	0.7944932
79	0x3f95616f	1.1670359
80	0x3f5e9301	0.8694306
81	0x3f82c779	1.0217124
82	0x3f75d7a1	0.9603215
83	0x3f723c83	0.94623584
84	0x3ecdaca6	0.40170783
85	0x3eecc2f0	0.46242476
86	0x3f22baed	0.63566476
87	0x3e3a2769	0.18179096
88	0x3f1cebbf	0.6129722
89	0x3ebd11dc	0.36927688
90	0x3f306812	0.689088
91	0x3f35f848	0.7108197
92	0x3f2ba0ee	0.67042434
93	0x3f274883	0.6534502
94	0x3e8b4696	0.2720229
95	0x3f1c8989	0.6114736
96	0x3f2983f2	0.6621696
97	0x3ee2975a	0.44256097
98	0x3f17aec9	0.59251076
99	0x3f46eb7d	0.77703077
100	0x3f22ff0b	0.63670415
101	0x3f385faa	0.7202097
102	0x3f337661	0.70102507
103	0x3f78de53	0.9721424
104	0x3f28f7e9	0.6600328
105	0x3f0482ad	0.51761895
106	0x3f883a4d	1.0642792
107	0x3f23ebce	0.64031684
108	0x3f2aae4e	0.6667222
109	0x3f25b3bb	0.6472737
110	0x3f3f7396	0.74785745
111	0x3ea56fa0	0.32311726
112	0x3f5ad526	0.8548149
113	0x3f141d19	0.578569
114	0x3f3fa3a7	0.7485909
115	0x3f52e4e3	0.82380503
116	0x3f3fa85f	0.7486629
117	0x3f3e1e63	0.74265116
118	0x3f1605e8	0.5860276
119	0x3f241125	0.6408866
120	0x3f41d4e3	0.75715464
121	0x3f239685	0.6390155
122	0x3f414162	0.7549039
123	0x3ed2784f	0.41107413
124	0x3f39fa87	0.726479
125	0x3f0a9bae	0.541438
126	0x3f3750b8	0.7160754
127	0x3f56a30a	0.8384253
128	0x3f3b1009	0.7307134
129	0x3f3a3a6b	0.7274539
130	0x3f1a1a88	0.60196733
131	0x3f2b2e29	0.6686731
132	0x3ea96c09	0.33090237
133	0x3ea78669	0.32719734
134	0x3f3b7c0f	0.73236173
135	0x3ed61f96	0.41820973
136	0x3f01fa52	0.50772583
137	0x3e73b6a4	0.2380014
138	0x3f36b8a9	0.7137552
139	0x3f39a24b	0.72513264
140	0x3f10f690	0.56626225
141	0x3f2bb082	0.67066205
142	0x3e9392a8	0.28822827
143	0x3f110a36	0.56656206

act_fun.2.grid f4 [12, 21]
0	0xbfa00000	-1.25
1	0xbf900000	-1.125
2	0xbf800000	-1.0
3	0xbf600000	-0.875
4	0xbf400000	-0.75
5	0xbf200000	-0.625
6	0xbf000000	-0.5
7	0xbec00000	-0.375
8	0xbe800000	-0.25
9	0xbe000000	-0.125
10	0x00000000	0.0
11	0x3e000000	0.125
12	0x3e800000	0.25
13	0x3ec00000	0.375
14	0x3f000000	0.5
15	0x3f200000	0.625
16	0x3f400000	0.75
17	0x3f600000	0.875
18	0x3f800000	1.0
19	0x3f900000	1.125
20	0x3fa00000	1.25
21	0xbfa00000	-1.25
22	0xbf900000	-1.125
23	0xbf800000	-1.0
24	0xbf600000	-0.875
25	0xbf400000	-0.75
26	0xbf200000	-0.625
27	0xbf000000	-0.5
28	0xbec00000	-0.375
29	0xbe800000	-0.25
30	0xbe000000	-0.125
31	0x00000000	0.0
32	0x3e000000	0.125
33	0x3e800000	0.25
34	0x3ec00000	0.375
35	0x3f000000	0.5
36	0x3f200000	0.625
37	0x3f400000	0.75
38	0x3f600000	0.875
39	0x3f800000	1.0
40	0x3f900000	1.125
41	0x3fa00000	1.25
42	0xbfa00000	-1.25
43	0xbf900000	-1.125
44	0xbf800000	-1.0
45	0xbf600000	-0.875
46	0xbf400000	-0.75
47	0xbf200000	-0.625
48	0xbf000000	-0.5
49	0xbec00000	-0.375
50	0xbe800000	-0.25
51	0xbe000000	-0.125
52	0x00000000	0.0
53	0x3e000000	0.125
54	0x3e800000	0.25
55	0x3ec00000	0.375
56	0x3f000000	0.5
57	0x3f200000	0.625
58	0x3f400000	0.75
59	0x3f600000	0.875
60	0x3f800000	1.0
61	0x3f900000	1.125
62	0x3fa00000	1.25
63	0xbfa00000	-1.25
64	0xbf900000	-1.125
65	0xbf800000	-1.0
66	0xbf600000	-0.875
67	0xbf400000	-0.75
68	0xbf200000	-0.625
69	0xbf000000	-0.5
70	0xbec00000	-0.375
71	0xbe800000	-0.25
72	0xbe000000	-0.125
73	0x00000000	0.0
74	0x3e000000	0.125
75	0x3e800000	0.25
76	0x3ec00000	0.375
77	0x3f000000	0.5
78	0x3f200000	0.625
79	0x3f400000	0.75
80	0x3f600000	0.875
81	0x3f800000	1.0
82	0x3f900000	1.125
83	0x3fa00000	1.25
84	0xbfa00000	-1.25
85	0xbf900000	-1.125
86	0xbf800000	-1.0
87	0xbf600000	-0.875
88	0xbf400000	-0.75
89	0xbf200000	-0.625
90	0xbf000000	-0.5
91	0xbec00000	-0.375
92	0xbe800000	-0.25
93	0xbe000000	-0.125
94	0x00000000	0.0
95	0x3e000000	0.125
96	0x3e800000	0.25
97	0x3ec00000	0.375
98	0x3f000000	0.5
99	0x3f200000	0.625
100	0x3f400000	0.75
101	0x3f600000	0.875
102	0x3f800000	1.0
103	0x3f900000	1.125
104	0x3fa00000	1.25
105	0xbfa00000	-1.25
106	0xbf900000	-1.125
107	0xbf800000	-1.0
108	0xbf600000	-0.875
109	0xbf400000	-0.75
110	0xbf200000	-0.625
111	0xbf000000	-0.5
112	0xbec00000	-0.375
113	0xbe800000	-0.25
114	0xbe000000	-0.125
115	0x00000000	0.0
116	0x3e000000	0.125
117	0x3e800000	0.25
118	0x3ec00000	0.375
119	0x3f000000	0.5
120	0x3f200000	0.625
121	0x3f400000	0.75
122	0x3f600000	0.875
123	0x3f800000	1.0
124	0x3f900000	1.125
125	0x3fa00000	1.25
126	0xbfa00000	-1.25
127	0xbf900000	-1.125
128	0xbf800000	-1.0
129	0xbf600000	-0.875
130	0xbf400000	-0.75
131	0xbf200000	-0.625
132	0xbf000000	-0.5
133	0xbec00000	-0.375
134	0xbe800000	-0.25
135	0xbe000000	-0.125
136	0x00000000	0.0
137	0x3e000000	0.125
138	0x3e800000	0.25
139	0x3ec00000	0.375
140	0x3f000000	0.5
141	0x3f200000	0.625
142	0x3f400000	0.75
143	0x3f600000	0.875
144	0x3f800000	1.0
145	0x3f900000	1.125
146	0x3fa00000	1.25
147	0xbfa00000	-1.25
148	0xbf900000	-1.125
149	0xbf800000	-1.0
150	0xbf600000	-0.875
151	0xbf400000	-0.75
152	0xbf200000	-0.625
153	0xbf000000	-0.5
154	0xbec00000	-0.375
155	0xbe800000	-0.25
156	0xbe000000	-0.125
157	0x00000000	0.0
158	0x3e000000	0.125
159	0x3e800000	0.25
160	0x3ec00000	0.375
161	0x3f000000	0.5
162	0x3f200000	0.625
163	0x3f400000	0.75
164	0x3f600000	0.875
165	0x3f800000	1.0
166	0x3f900000	1.125
167	0x3fa00000	1.25
168	0xbfa00000	-1.25
169	0xbf900000	-1.125
170	0xbf800000	-1.0
171	0xbf600000	-0.875
172	0xbf400000	-0.75
173	0xbf200000	-0.625
174	0xbf000000	-0.5
175	0xbec00000	-0.375
176	0xbe800000	-0.25
177	0xbe000000	-0.125
178	0x00000000	0.0
179	0x3e000000	0.125
180	0x3e800000	0.25
181	0x3ec00000	0.375
182	0x3f000000	0.5
183	0x3f200000	0.625
184	0x3f400000	0.75
185	0x3f600000	0.875
186	0x3f800000	1.0
187	0x3f900000	1.125
188	0x3fa00000	1.25
189	0xbfa00000	-1.25
190	0xbf900000	-1.125
191	0xbf800000	-1.0
192	0xbf600000	-0.875
193	0xbf400000	-0.75
194	0xbf200000	-0.625
195	0xbf000000	-0.5
196	0xbec00000	-0.375
197	0xbe800000	-0.25
198	0xbe000000	-0.125
199	0x00000000	0.0
200	0x3e000000	0.125
201	0x3e800000	0.25
202	0x3ec00000	0.375
203	0x3f000000	0.5
204	0x3f200000	0.625
205	0x3f400000	0.75
206	0x3f600000	0.875
207	0x3f800000	1.0
208	0x3f900000	1.125
209	0x3fa00000	1.25
210	0xbfa00000	-1.25
211	0xbf900000	-1.125
212	0xbf800000	-1.0
213	0xbf600000	-0.875
214	0xbf400000	-0.75
215	0xbf200000	-0.625
216	0xbf000000	-0.5
217	0xbec00000	-0.375
218	0xbe800000	-0.25
219	0xbe000000	-0.125
220	0x00000000	0.0
221	0x3e000000	0.125
222	0x3e800000	0.25
223	0x3ec00000	0.375
224	0x3f000000	0.5
225	0x3f200000	0.625
226	0x3f400000	0.75
227	0x3f600000	0.875
228	0x3f800000	1.0
229	0x3f900000	1.125
230	0x3fa00000	1.25
231	0xbfa00000	-1.25
232	0xbf900000	-1.125
233	0xbf800000	-1.0
234	0xbf600000	-0.875
235	0xbf400000	-0.75
236	0xbf200000	-0.625
237	0xbf000000	-0.5
238	0xbec00000	-0.375
239	0xbe800000	-0.25
240	0xbe000000	-0.125
241	0x00000000	0.0
242	0x3e000000	0.125
243	0x3e800000	0.25
244	0x3ec00000	0.375
245	0x3f000000	0.5
246	0x3f200000	0.625
247	0x3f400000	0.75
248	0x3f600000	0.875
249	0x3f800000	1.0
250	0x3f900000	1.125
251	0x3fa00000	1.25

act_fun.2.coef f4 [12, 1, 18]
0	0x3dacd4d5	0.08439032
1	0x3f8a9137	1.0825566
2	0x3f6fbdd5	0.93649036
3	0x3f370e64	0.71506333
4	0x3f0f1c03	0.5590212
5	0x3ed80491	0.42190984
6	0x3ea9b6f2	0.3314739
7	0x3edd1bd2	0.43185288
8	0xbf277244	-0.6540873
9	0xbeb59bc5	-0.35470405
10	0xbea92206	-0.3303377
11	0xbe9d28f4	-0.30695307
12	0xbef9ba4c	-0.48774946
13	0x3e068a29	0.13138641
14	0x3e7e3424	0.24824578
15	0x3d9d589a	0.07682915
16	0x3d2f9c76	0.042873822
17	0xbd60b296	-0.054857813
18	0xbcf86f7a	-0.030326594
19	0x3c8b17fd	0.016979212
20	0xbcabf17a	-0.020989168
21	0x3bc796e2	0.0060909847
22	0x3eef91cb	0.4679092
23	0x3f4b2788	0.79357195
24	0x3ec684be	0.3877315
25	0x3eb68aeb	0.3565286
26	0xbec3472f	-0.38140246
27	0xbe40c6a8	-0.18825781
28	0x3e37ffa7	0.17968617
29	0x3dea3093	0.11435046
30	0xbd6167e9	-0.055030737
31	0xbe132822	-0.14370778
32	0x3ef3838a	0.47561294
33	0x3eb19b5a	0.34688836
34	0x3e4e1851	0.20126463
35	0x3d96d2b0	0.07364404
36	0x3f5c46f0	0.8604574
37	0x3f44b108	0.7683263
38	0x3f21d7be	0.6321982
39	0x3f109463	0.5647642
40	0x3ebb0d89	0.36533764
41	0x3eae1fa4	0.34008515
42	0x3e87f8eb	0.26557097
43	0x3eabe96b	0.3357652
44	0x3eaf3620	0.34220982
45	0xbef5aaaf	-0.47981784
46	0xbead61d6	-0.33863705
47	0xbe8f802c	-0.28027475
48	0xbe5660b2	-0.20935324
49	0xbe6485a5	-0.22316606
50	0xbe262dab	-0.16228358
51	0xbe3f5411	-0.18684413
52	0xbe221354	-0.15827686
53	0xbe2fde25	-0.17174585
54	0xbcb83583	-0.022486454
55	0x3d006a80	0.031351566
56	0xbd18db39	-0.037318442
57	0x3e52a028	0.20568907
58	0x3f544297	0.8291411
59	0x3f32d2d5	0.69852954
60	0x3ec2281d	0.3792123
61	0x3f13dd46	0.5775951
62	0xbf1c05cc	-0.60946345
63	0xbebae1df	-0.3650045
64	0xbe305530	-0.17219996
65	0x3a8748cb	0.0010321377
66	0x3e8ae5f7	0.27128574
67	0x3eba2661	0.36357406
68	0x3edd09ba	0.43171483
69	0x3ec59505	0.38590255
70	0x3f07e34c	0.530812
71	0x3f51632d	0.81791955
72	0x3f6a101b	0.91430825
73	0x3f2fb88a	0.6864096
74	0x3f2fa1dc	0.6860635
75	0x3ee41f48	0.44555116
76	0x3ef810cc	0.48450315
77	0x3e96ad8c	0.2942928
78	0x3eb6c5ee	0.35697883
79	0x3e6b63fa	0.22987357
80	0xbf0d40a0	-0.55176735
81	0xbea2509a	-0.3170212
82	0xbeb5b619	-0.35490492
83	0xbe8eb257	-0.27870438
84	0xbe9445c4	-0.28959477
85	0xbe56f16c	-0.20990533
86	0xbe8a941e	-0.2706613
87	0xbe4fe5e6	-0.20302543
88	0xbe94a557	-0.29032394
89	0xbe6b5d2c	-0.22984761
90	0x3d546b85	0.05186035
91	0xbd3192e5	-0.04335298
92	0x3d1a4077	0.037659135
93	0xbcd0ddb0	-0.025496334
94	0x3e4a75f8	0.19771564
95	0x3e7930d1	0.24335028
96	0x3e0824d6	0.13295302
97	0xbe876d9c	-0.26450813
98	0xbeb37619	-0.3505104
99	0xbee7d24e	-0.45277637
100	0x3e7cb280	0.24677467
101	0x3eac3ab3	0.33638534
102	0x3e9e513b	0.3092135
103	0x3ed581cb	0.41700587
104	0x3e90cbb2	0.28280407
105	0x3f83c5b4	1.0294709
106	0x3f38b921	0.72157484
107	0x3e02f16e	0.1278741
108	0x3ef49142	0.47767073
109	0x3eb86bce	0.36019748
110	0x3ec59769	0.3859208
111	0x3e990126	0.2988369
112	0x3e8638af	0.2621512
113	0x3e8ce44b	0.27517924
114	0x3c256abe	0.01009625
115	0xbedf8417	-0.43655464
116	0xbe429ce3	-0.1900516
117	0x3d8c85c4	0.06861451
118	0xbdb98ff5	-0.09060661
119	0xbdc5ab44	-0.09651807
120	0xbe096a10	-0.13419366
121	0xbcab8a55	-0.020939985
122	0x3e207bfb	0.15672295
123	0xbeda9dca	-0.42698509
124	0xbeb9d7d8	-0.36297488
125	0xbe3b9995	-0.18320306
126	0xbf456e5d	-0.77121526
127	0xbf1a7a58	-0.6034293
128	0xbf15d2c4	-0.5852473
129	0xbedfbbf4	-0.43698084
130	0xbe804738	-0.25054336
131	0xbe75cd92	-0.240042
132	0xbe5c4c0c	-0.21513385
133	0xbe2132c7	-0.15742026
134	0xbe02f261	-0.12787773
135	0x3d94eab4	0.072713286
136	0x3de5b85c	0.112168044
137	0x3ddc17bb	0.10746714
138	0x3e17f226	0.14838466
139	0x3dfa190b	0.12211808
140	0x3d0c674f	0.03427821
141	0xbe8d7136	-0.27625436
142	0x3e3bbdc0	0.18334103
143	0x3f3a663f	0.72812265
144	0x3f6108ce	0.8790406
145	0x3f330473	0.69928664
146	0x3ee65944	0.4498998
147	0x3eabcba7	0.33553812
148	0x3ea2cb9f	0.31795976
149	0x3ecea180	0.4035759
150	0x3eaa99d7	0.33320495
151	0x3f06eded	0.52706796
152	0xbecf0529	-0.40433624
153	0xbec4f821	-0.38470557
154	0xbe0b6aa1	-0.13614894
155	0xbe3a12ed	-0.18171282
156	0xbe4056c6	-0.18783101
157	0xbe4432d7	-0.19160019
158	0xbe03dd53	-0.12877397
159	0xbe3ce2a6	-0.18445835
160	0xbe0108d0	-0.12601018
161	0xbe4b5282	-0.19855693
162	0x3f588c91	0.8458949
163	0x3f93c4ed	1.1544472
164	0x3f56fb56	0.8397726
165	0x3f40cabf	0.75309366
166	0x3f190971	0.5978003
167	0x3ee2c0fc	0.4428786
168	0x3e834128	0.25635648
169	0x3e9f8c93	0.31161937
170	0x3f0ccf13	0.5500347
171	0xbeebf3e7	-0.4608452
172	0xbea50461	-0.32229903
173	0xbe8fef85	-0.28112426
174	0xbe0a1887	-0.13485919
175	0xbe318305	-0.17335136
176	0xbdf94c3d	-0.121727444
177	0xbdfbd119	-0.122957416
178	0xbda8a1d4	-0.08233991
179	0xbdb756c6	-0.089520976
180	0xbd3285ed	-0.043584753
181	0x3e103038	0.14080894
182	0x3f1fef15	0.62474185
183	0x3f60a78d	0.8775566
184	0x3f5906d2	0.8477603
185	0x3f3facb3	0.74872893
186	0x3ebccf52	0.36876923
187	0x3ed5f359	0.41787222
188	0xbe3300dc	-0.17480797
189	0xbee759fc	-0.4518584
190	0xbe85ba64	-0.26118767
191	0x3d3bc918	0.045846075
192	0x3e1068e5	0.14102514
193	0xbc09e61a	-0.008416677
194	0x3c9f8014	0.019470252
195	0xbc8c69e4	-0.017140336
196	0x3d052f79	0.032515977
197	0xbc81f6d4	-0.015864767
198	0xbf4f0c51	-0.8087817
199	0xbf48f35e	-0.7849635
200	0xbf380cf2	-0.7189475
201	0xbf34c799	-0.7061706
202	0xbf2a53e4	-0.66534257
203	0xbf28551c	-0.65754867
204	0xbee71235	-0.45131078
205	0xbe458dc8	-0.19292367
206	0xbe7c5f99	-0.24645843
207	0x3e03357a	0.12813368
208	0x3e0f339e	0.13984534
209	0x3e438d21	0.19096805
210	0x3e346f4a	0.17620578
211	0x3e832f09	0.25621822
212	0x3dce1e8a	0.100644186
213	0xbdea6a2a	-0.114460304
214	0x3f279f16	0.6547712
215	0x3f0bdfe7	0.5463852

act_fun.2.mask f4 [12, 1]
0	0x3f800000	1.0
1	0x3f800000	1.0
2	0x3f800000	1.0
3	0x3f800000	1.0
4	0x3f800000	1.0
5	0x3f800000	1.0
6	0x3f800000	1.0
7	0x3f800000	1.0
8	0x3f800000	1.0
9	0x3f800000	1.0
10	0x3f800000	1.0
11	0x3f800000	1.0

act_fun.2.scale_base f4 [12, 1]
0	0xbef54028	-0.4790051
1	0x3f064702	0.524521
2	0xbf0f3f27	-0.5595574
3	0x3eab838a	0.33498794
4	0xbf244b20	-0.6417713
5	0x3ef42e9f	0.4769182
6	0xbf3c7414	-0.7361462
7	0x3f0d8ab8	0.55289793
8	0xbf17c62b	-0.59286755
9	0xbf15ba28	-0.58487177
10	0xbee66808	-0.45001245
11	0x3f0f4566	0.5596527

act_fun.2.scale_sp f4 [12, 1]
0	0x3f6d129c	0.9260652
1	0x3f3f9596	0.74837625
2	0x3f62b20e	0.8855294
3	0x3f649785	0.892937
4	0x3f7261a2	0.94680226
5	0x3f533905	0.8250888
6	0x3f6b85d0	0.92001057
7	0x3f4609c0	0.7735863
8	0x3f819d13	1.012606
9	0x3f804c1b	1.0023226
10	0x3f558210	0.83401585
11	0x3f53eec6	0.82786214

symbolic_fun.0.mask f4 [12, 4]
0	0x00000000	0.0
1	0x00000000	0.0
2	0x00000000	0.0
3	0x00000000	0.0
4	0x00000000	0.0
5	0x00000000	0.0
6	0x00000000	0.0
7	0x00000000	0.0
8	0x00000000	0.0
9	0x00000000	0.0
10	0x00000000	0.0
11	0x00000000	0.0
12	0x00000000	0.0
13	0x00000000	0.0
14	0x00000000	0.0
15	0x00000000	0.0
16	0x00000000	0.0
17	0x00000000	0.0
18	0x00000000	0.0
19	0x00000000	0.0
20	0x00000000	0.0
21	0x00000000	0.0
22	0x00000000	0.0
23	0x00000000	0.0
24	0x00000000	0.0
25	0x00000000	0.0
26	0x00000000	0.0
27	0x00000000	0.0
28	0x00000000	0.0
29	0x00000000	0.0
30	0x00000000	0.0
31	0x00000000	0.0
32	0x00000000	0.0
33	0x00000000	0.0
34	0x00000000	0.0
35	0x00000000	0.0
36	0x00000000	0.0
37	0x00000000	0.0
38	0x00000000	0.0
39	0x00000000	0.0
40	0x00000000	0.0
41	0x00000000	0.0
42	0x00000000	0.0
43	0x00000000	0.0
44	0x00000000	0.0
45	0x00000000	0.0
46	0x00000000	0.0
47	0x00000000	0.0
