models_grid/purkinje_I20_T1000_W[16, 0]_G16_K3.pt (torch, 51933 bytes, 29 tensors)

node_bias_0 f4 [16]
0.0 0.0 0.0 0.0 0.0 0.0 0.0 0.0
0.0 0.0 0.0 0.0 0.0 0.0 0.0 0.0
00000000: 0000 0000 0000 0000 0000 0000 0000 0000
00000010: 0000 0000 0000 0000 0000 0000 0000 0000
00000020: 0000 0000 0000 0000 0000 0000 0000 0000
00000030: 0000 0000 0000 0000 0000 0000 0000 0000

node_scale_0 f4 [16]
1.0 1.0 1.0 1.0 1.0 1.0 1.0 1.0
1.0 1.0 1.0 1.0 1.0 1.0 1.0 1.0
00000000: 0000 803f 0000 803f 0000 803f 0000 803f
00000010: 0000 803f 0000 803f 0000 803f 0000 803f
00000020: 0000 803f 0000 803f 0000 803f 0000 803f
00000030: 0000 803f 0000 803f 0000 803f 0000 803f

subnode_bias_0 f4 [16]
0.0 0.0 0.0 0.0 0.0 0.0 0.0 0.0
0.0 0.0 0.0 0.0 0.0 0.0 0.0 0.0
00000000: 0000 0000 0000 0000 0000 0000 0000 0000
00000010: 0000 0000 0000 0000 0000 0000 0000 0000
00000020: 0000 0000 0000 0000 0000 0000 0000 0000
00000030: 0000 0000 0000 0000 0000 0000 0000 0000

subnode_scale_0 f4 [16]
1.0 1.0 1.0 1.0 1.0 1.0 1.0 1.0
1.0 1.0 1.0 1.0 1.0 1.0 1.0 1.0
00000000: 0000 803f 0000 803f 0000 803f 0000 803f
00000010: 0000 803f 0000 803f 0000 803f 0000 803f
00000020: 0000 803f 0000 803f 0000 803f 0000 803f
00000030: 0000 803f 0000 803f 0000 803f 0000 803f

node_bias_1 f4 [16]
0.0 0.0 0.0 0.0 0.0 0.0 0.0 0.0
0.0 0.0 0.0 0.0 0.0 0.0 0.0 0.0
00000000: 0000 0000 0000 0000 0000 0000 0000 0000
00000010: 0000 0000 0000 0000 0000 0000 0000 0000
00000020: 0000 0000 0000 0000 0000 0000 0000 0000
00000030: 0000 0000 0000 0000 0000 0000 0000 0000

node_scale_1 f4 [16]
1.0 1.0 1.0 1.0 1.0 1.0 1.0 1.0
1.0 1.0 1.0 1.0 1.0 1.0 1.0 1.0
00000000: 0000 803f 0000 803f 0000 803f 0000 803f
00000010: 0000 803f 0000 803f 0000 803f 0000 803f
00000020: 0000 803f 0000 803f 0000 803f 0000 803f
00000030: 0000 803f 0000 803f 0000 803f 0000 803f

subnode_bias_1 f4 [16]
0.0 0.0 0.0 0.0 0.0 0.0 0.0 0.0
0.0 0.0 0.0 0.0 0.0 0.0 0.0 0.0
00000000: 0000 0000 0000 0000 0000 0000 0000 0000
00000010: 0000 0000 0000 0000 0000 0000 0000 0000
00000020: 0000 0000 0000 0000 0000 0000 0000 0000
00000030: 0000 0000 0000 0000 0000 0000 0000 0000

subnode_scale_1 f4 [16]
1.0 1.0 1.0 1.0 1.0 1.0 1.0 1.0
1.0 1.0 1.0 1.0 1.0 1.0 1.0 1.0
00000000: 0000 803f 0000 803f 0000 803f 0000 803f
00000010: 0000 803f 0000 803f 0000 803f 0000 803f
00000020: 0000 803f 0000 803f 0000 803f 0000 803f
00000030: 0000 803f 0000 803f 0000 803f 0000 803f

act_fun.0.grid f4 [4, 23]
-1.375 -1.25 -1.125 -1.0 -0.875 -0.75 -0.625 -0.5
-0.375 -0.25 -0.125 0.0 0.125 0.25 0.375 0.5
0.625 0.75 0.875 1.0 1.125 1.25 1.375 -1.375
-1.25 -1.125 -1.0 -0.875 -0.75 -0.625 -0.5 -0.375
-0.25 -0.125 0.0 0.125 0.25 0.375 0.5 0.625
0.75 0.875 1.0 1.125 1.25 1.375 -1.375 -1.25
-1.125 -1.0 -0.875 -0.75 -0.625 -0.5 -0.375 -0.25
-0.125 0.0 0.125 0.25 0.375 0.5 0.625 0.75
0.875 1.0 1.125 1.25 1.375 -1.375 -1.25 -1.125
-1.0 -0.875 -0.75 -0.625 -0.5 -0.375 -0.25 -0.125
0.0 0.125 0.25 0.375 0.5 0.625 0.75 0.875
1.0 1.125 1.25 1.375
00000000: 0000 b0bf 0000 a0bf 0000 90bf 0000 80bf
00000010: 0000 60bf 0000 40bf 0000 20bf 0000 00bf
00000020: 0000 c0be 0000 80be 0000 00be 0000 0000
00000030: 0000 003e 0000 803e 0000 c03e 0000 003f
00000040: 0000 203f 0000 403f 0000 603f 0000 803f
00000050: 0000 903f 0000 a03f 0000 b03f 0000 b0bf
00000060: 0000 a0bf 0000 90bf 0000 80bf 0000 60bf
00000070: 0000 40bf 0000 20bf 0000 00bf 0000 c0be
00000080: 0000 80be 0000 00be 0000 0000 0000 003e
00000090: 0000 803e 0000 c03e 0000 003f 0000 203f
000000a0: 0000 403f 0000 603f 0000 803f 0000 903f
000000b0: 0000 a03f 0000 b03f 0000 b0bf 0000 a0bf
000000c0: 0000 90bf 0000 80bf 0000 60bf 0000 40bf
000000d0: 0000 20bf 0000 00bf 0000 c0be 0000 80be
000000e0: 0000 00be 0000 0000 0000 003e 0000 803e
000000f0: 0000 c03e 0000 003f 0000 203f 0000 403f
00000100: 0000 603f 0000 803f 0000 903f 0000 a03f
00000110: 0000 b03f 0000 b0bf 0000 a0bf 0000 90bf
00000120: 0000 80bf 0000 60bf 0000 40bf 0000 20bf
00000130: 0000 00bf 0000 c0be 0000 80be 0000 00be
00000140: 0000 0000 0000 003e 0000 803e 0000 c03e
00000150: 0000 003f 0000 203f 0000 403f 0000 603f
00000160: 0000 803f 0000 903f 0000 a03f 0000 b03f

act_fun.0.coef f4 [4, 16, 19]
-0.4229895 -0.20603803 -0.22706126 -0.19787066 -0.223888 -0.19671233 -0.20910469 -0.2049365
-0.19060026 -0.17840222 -0.14464468 -0.10378624 -0.052747335 -0.0016377183 0.00792487 -0.013618137
0.016266381 0.06383541 0.20092194 0.35620537 0.23501131 0.23084575 0.24850477 0.22603855
0.2441618 0.225776 0.2520283 0.21843027 0.24633892 0.22395667 0.18308178 0.1273787
0.08286073 0.026824588 -0.034625724 -0.081096426 -0.10826102 -0.19991247 0.23254631 0.20011586
0.20626073 0.18759951 0.21056913 0.1921681 0.19238582 0.19253826 0.17341407 0.15610504
0.12404924 0.09310481 0.06096288 0.027004277 -0.01579939 -0.078306235 -0.13005078 -0.15445843
-0.23532134 0.44303554 0.20536305 0.19638628 0.20090444 0.18267961 0.18660748 0.17419028
0.16819514 0.16899763 0.1384571 0.1308291 0.10775823 0.08005724 0.049325503 0.012939514
-0.02979981 -0.076576084 -0.12074925 -0.23418832 -0.38425332 -0.21150872 -0.21414536 -0.19075257
-0.2059998 -0.1933661 -0.19605419 -0.20405145 -0.16873845 -0.18017103 -0.14164874 -0.10768759
-0.06979322 -0.047712848 -0.021415992 0.022754347 0.09767509 0.14283842 0.23991872 -0.4121555
-0.21138036 -0.23231825 -0.20383261 -0.21328688 -0.19980572 -0.21649359 -0.20800887 -0.19769776
-0.19490159 -0.17017676 -0.14246762 -0.10671652 -0.06754161 -0.02698461 0.016987909 0.040449582
0.10565448 0.23967506 0.27013204 0.22583212 0.24202265 0.23271498 0.24272668 0.21734674
0.22217244 0.21965456 0.22232285 0.18684678 0.1573756 0.12512898 0.0861768 0.02458685
-0.04882315 -0.12735176 -0.16520947 -0.1795972 -0.24151069 0.5301719 0.11502537 0.07001222
0.08881429 0.048414215 0.07506237 0.04884472 0.059407964 0.05765041 0.061145023 0.06955849
0.07831257 0.08774492 0.098596826 0.1115987 0.12777264 0.14351398 0.15454042 0.20961462
-0.1546047 -0.24401501 -0.2431548 -0.23401871 -0.2321777 -0.2141077 -0.22470668 -0.19698203
-0.19454183 -0.17699319 -0.14209603 -0.106412075 -0.049833085 0.02214784 0.08664852 0.13219036
0.17142081 0.19072567 0.2489207 0.5286627 0.2263049 0.24214672 0.24938077 0.23113342
0.23458926 0.24281743 0.24638636 0.25256553 0.26027608 0.27158707 0.27432296 0.27245885
0.26873875 0.26402092 0.25864846 0.25234088 0.24679735 0.28112867 0.5377319 0.14803107
0.13862132 0.10297177 0.104043685 0.045564696 0.0014954379 -0.001551416 0.006643513 0.034735914
0.05725196 0.07728955 0.09481926 0.113152705 0.132832 0.1518917 0.16580951 0.17485617
0.23353028 -0.4545843 -0.2085625 -0.20883368 -0.23014966 -0.21519518 -0.23016661 -0.21136233
-0.22953705 -0.24957399 -0.26074702 -0.26956928 -0.27537012 -0.2792904 -0.2820543 -0.28283882
-0.279713 -0.27229536 -0.26460296 -0.3096902 0.43317893 0.22886467 0.23316813 0.21749593
0.23546326 0.23435587 0.2340123 0.2316797 0.22277887 0.19722201 0.17167126 0.13036117
0.104936376 0.09057027 0.06511421 0.024958208 -0.02500668 -0.073174246 -0.1949162 0.41132626
0.2265525 0.24127734 0.22690494 0.23635158 0.2278268 0.22705352 0.24239352 0.21582367
00000000: 1492 d8be a2fb 52be bf82 68be 9b9e 4abe
00000010: e542 65be f56e 49be 8a1f 56be e0da 51be
00000020: b72c 43be 12af 36be bc1d 14be e18d d4bd
00000030: 970d 58bd b5a8 d6ba 50d7 013c 9b1e 5fbc
00000040: 1341 853c 24bc 823d 7bbe 4d3e 8d60 b63e
00000050: cea6 703e d462 6c3e 0978 7e3e a676 673e
00000060: 8d05 7a3e d331 673e da09 813e 2fac 5f3e
00000070: 4540 7c3e e654 653e ca79 3b3e 906f 023e
00000080: e3b2 a93d 3dbf db3c b4d3 0dbd e215 a6bd
00000090: f4b7 ddbd dbb5 4cbe 9f20 6e3e 2ceb 4c3e
000000a0: 0336 533e 161a 403e 6f9f 573e b7c7 443e
000000b0: ca00 453e c028 453e 7593 313e 00da 1f3e
000000c0: 870d fe3d bcad be3d 36b4 793d 1338 dd3c
000000d0: b96d 81bc 055f a0bd 082c 05be 5a2a 1ebe
000000e0: 14f8 70be 8ed5 e23e b14a 523e 7c19 493e
000000f0: e5b9 4d3e 5d10 3b3e 0816 3f3e f05e 323e
00000100: 593b 2c3e b70d 2d3e b3c7 0d3e 10f8 053e
00000110: 59b0 dc3d 0df5 a33d 8a09 4a3d 4100 543c
00000120: bb1e f4bc ecd3 9cbd 624b f7bd 10cf 6fbe
00000130: dabc c4be be95 58be ec48 5bbe a454 43be
00000140: 9df1 52be c301 46be 6ec2 48be ddf2 50be
00000150: c6c9 2cbe c17e 38be 5e0c 11be 508b dcbd
00000160: bfef 8ebd 8c6e 43bd 9770 afbc 5367 ba3c
00000170: e109 c83d 3c44 123e 41ad 753e 0c06 d3be
00000180: 1874 58be d6e4 6dbe 7fb9 50be e067 5abe
00000190: df99 4cbe 7fb0 5dbe 4700 55be 4871 4abe
000001a0: 4894 47be d142 2ebe 08e3 11be 318e dabd
000001b0: 4153 8abd d40e ddbc 3a2a 8b3c 76ae 253d
000001c0: 6061 d83d 616d 753e bf4e 8a3e 8940 673e
000001d0: c9d4 773e d64c 6e3e 588d 783e 2590 5e3e
000001e0: 2c81 633e 20ed 603e 9aa8 633e c354 3f3e
000001f0: 1227 213e d021 003e 767d b03d 5d6a c93c
00000200: c9fa 47bd 8068 02be ac2c 29be 54e8 37be
00000210: 944e 77be 58b9 073f 6c92 eb3d 9162 8f3d
00000220: 44e4 b53d fc4d 463d 4dba 993d 6711 483d
00000230: c455 733d d622 6c3d 3473 7a3d ae74 8e3d
00000240: 5762 a03d 9cb3 b33d 22ed c93d dc8d e43d
00000250: d5d6 023e 54f5 123e d83f 1e3e 37a5 563e
00000260: b250 1ebe 12df 79be 92fd 78be 9aa2 6fbe
00000270: febf 6dbe 0d3f 5bbe 8219 66be a8b5 49be
00000280: f935 47be b43d 35be 9f81 11be 93ee d9bd
00000290: c71d 4cbd 636f b53c c774 b13d e95c 073e
000002a0: f088 2f3e 974d 433e 11e5 7e3e 7056 073f
000002b0: 79bc 673e 4ff5 773e ac5d 7f3e 3dae 6c3e
000002c0: 2b38 703e 22a5 783e b54c 7c3e 4550 813e
000002d0: e842 853e 760d 8b3e 0f74 8c3e ba7f 8b3e
000002e0: 2098 893e c02d 873e 926d 843e d332 813e
000002f0: 72b8 7c3e 19f0 8f3e cca8 093f 7595 173e
00000300: bff2 0d3e dde2 d23d db14 d53d 0ca2 3a3d
00000310: 9202 c43a e258 cbba d4b1 d93b 3f47 0e3d
00000320: 0881 6a3d fc49 9e3d 9a30 c23d 9bbc e73d
00000330: 1d05 083e 7f89 1b3e f8c9 293e 7f0d 333e
00000340: 9022 6f3e 46bf e8be 6891 55be 7fd8 55be
00000350: 5aac 6bbe 205c 5cbe ccb0 6bbe 5e6f 58be
00000360: c30b 6bbe 5390 7fbe a280 85be fc04 8abe
00000370: 50fd 8cbe 27ff 8ebe 6c69 90be 40d0 90be
00000380: 8b36 8fbe 4c6a 8bbe 0a7a 87be b78f 9ebe
00000390: a1c9 dd3e 805b 6a3e a0c3 6e3e 41b7 5e3e
000003a0: 481d 713e fcfa 6f3e eca0 6f3e 713d 6d3e
000003b0: 2520 643e 91f4 493e 97ca 2f3e 667d 053e
000003c0: e2e8 d63d e87c b93d 995a 853d 2875 cc3c
000003d0: cfda ccbc 61dc 95bd 1d98 47be 5b99 d23e
000003e0: 61fd 673e 6811 773e c559 683e 2606 723e
000003f0: 6e4b 693e b880 683e 0236 783e e100 5d3e

act_fun.0.mask f4 [4, 16]
1.0 1.0 1.0 1.0 1.0 1.0 1.0 1.0
1.0 1.0 1.0 1.0 1.0 1.0 1.0 1.0
1.0 1.0 1.0 1.0 1.0 1.0 1.0 1.0
1.0 1.0 1.0 1.0 1.0 1.0 1.0 1.0
1.0 1.0 1.0 1.0 1.0 1.0 1.0 1.0
1.0 1.0 1.0 1.0 1.0 1.0 1.0 1.0
1.0 1.0 1.0 1.0 1.0 1.0 1.0 1.0
1.0 1.0 1.0 1.0 1.0 1.0 1.0 1.0
00000000: 0000 803f 0000 803f 0000 803f 0000 803f
00000010: 0000 803f 0000 803f 0000 803f 0000 803f
00000020: 0000 803f 0000 803f 0000 803f 0000 803f
00000030: 0000 803f 0000 803f 0000 803f 0000 803f
00000040: 0000 803f 0000 803f 0000 803f 0000 803f
00000050: 0000 803f 0000 803f 0000 803f 0000 803f
00000060: 0000 803f 0000 803f 0000 803f 0000 803f
00000070: 0000 803f 0000 803f 0000 803f 0000 803f
00000080: 0000 803f 0000 803f 0000 803f 0000 803f
00000090: 0000 803f 0000 803f 0000 803f 0000 803f
000000a0: 0000 803f 0000 803f 0000 803f 0000 803f
000000b0: 0000 803f 0000 803f 0000 803f 0000 803f
000000c0: 0000 803f 0000 803f 0000 803f 0000 803f
000000d0: 0000 803f 0000 803f 0000 803f 0000 803f
000000e0: 0000 803f 0000 803f 0000 803f 0000 803f
000000f0: 0000 803f 0000 803f 0000 803f 0000 803f

act_fun.0.scale_base f4 [4, 16]
-0.10543481 0.44625407 0.41313788 0.13917325 -0.29430586 -0.23962636 0.4897895 -0.1344202
-0.5761625 -0.18218026 -0.36246482 0.1715009 0.14500658 0.17824437 -0.4718811 0.14962195
-0.24778628 0.33821416 0.24759138 0.27444082 0.45457172 0.24560124 -0.49964595 0.12616497
-0.34309274 0.066770434 0.005344391 0.49591058 -0.34161127 -0.48988062 -0.13403958 0.08057219
0.44784307 0.261416 0.2565888 0.04959368 -0.04084496 -0.012605439 -0.33674395 0.030158559
-0.29994118 0.13440324 0.45546725 0.3803 -0.5685301 0.2875695 -0.18165809 0.047703713
0.3939814 0.22343612 -0.30669987 0.43989363 -0.35581368 0.52410114 0.6266178 -0.06006916
-0.009933224 -0.12371284 -0.18312232 -0.34243155 -0.043333128 -0.4406916 -0.26390055 0.10716123
00000000: 35ee d7bd 6a7b e43e cf86 d33e 6f83 0e3e
00000010: 42af 96be 9d60 75be b0c5 fa3e 73a5 09be
00000020: 637f 13bf 768d 3abe fd94 b9be ef9d 2f3e
00000030: 9b7c 143e b185 363e 669a f1be 7f36 193e
00000040: b0bb 7dbe 682a ad3e 9888 7d3e 8283 8c3e
00000050: a0bd e83e e47e 7b3e 98d1 ffbe 6431 013e
00000060: daa9 afbe f0be 883d 0020 af3b fee7 fd3e
00000070: ace7 aebe a2d1 fabe ac41 09be 0803 a53d
00000080: b04b e53e 51d8 853e 9b5f 833e be22 4b3d
00000090: 0b4d 27bd 0b87 4ebc b469 acbe 150f f73c
000000a0: e491 99be 01a1 093e 0133 e93e aeb6 c23e
000000b0: 308b 11bf 4f3c 933e 9404 3abe f864 433d
000000c0: eeb7 c93e 70cc 643e c407 9dbe bd39 e13e
000000d0: 362d b6be 7e2b 063f 066a 203f 140b 76bd
000000e0: f6be 22bc 285d fdbd 6b84 3bbe 3053 afbe
000000f0: 147e 31bd 54a2 e1be f91d 87be 5977 db3d

act_fun.0.scale_sp f4 [4, 16]
0.8521582 0.8262073 0.80861855 0.89933556 0.88023317 0.84295756 0.7873612 0.9669011
0.8041214 0.91532356 0.9718161 0.8980036 0.8571022 0.82683873 0.82451165 0.9106891
0.66764593 0.6858686 0.5991057 0.5972877 0.6817695 0.6909837 0.62578785 0.5405139
0.5484811 0.71423674 0.59727997 0.65910393 0.5661926 0.6621813 0.6011133 0.59016985
0.7739488 0.62672794 0.51897895 0.82857454 0.6922357 0.7738007 0.27368844 0.72914934
0.34411138 0.74961346 0.68199897 0.6680473 0.7231806 1.0999032 0.6279201 0.79705316
0.5073522 0.44141123 0.43115276 0.37588957 0.46606985 0.5391083 0.34969378 0.56747806
0.5397116 0.6237252 0.6726778 0.5516602 0.4064436 0.31933066 0.39552537 0.6015768
00000000: 0a27 5a3f 5282 533f a001 4f3f db3a 663f
00000010: f656 613f 11cc 573f 8190 493f d586 773f
00000020: e6da 4d3f a552 6a3f f1c8 783f 90e3 653f
00000030: 0d6b 5b3f b4ab 533f 3213 533f ec22 693f
00000040: d8ea 2a3f 1695 2f3f fe5e 193f d9e7 183f
00000050: 7288 2e3f 4fe4 303f a233 203f 1e5f 0a3f
00000060: 4269 0c3f 38d8 363f 57e7 183f 09bb 283f
00000070: 00f2 103f b784 293f 90e2 193f 5f15 173f
00000080: 8221 463f 3e71 203f cedb 043f 761d 543f
00000090: 5c36 313f cd17 463f e420 8c3e 88a9 3a3f
000000a0: 5e2f b03e abe6 3f3f 7c97 2e3f 2605 2b3f
000000b0: 5d22 393f a1c9 8c3f 5fbf 203f ad0b 4c3f
000000c0: d5e1 013f a700 e23e 0ec0 dc3e 9974 c03e
000000d0: b5a0 ee3e 0003 0a3f 100b b33e 3e46 113f
000000e0: 8a2a 0a3f 74ac 1f3f 9d34 2c3f 9a39 0d3f
000000f0: 6019 d03e 4f7f a33e 4d82 ca3e f000 1a3f

act_fun.1.grid f4 [16, 23]
-1.375 -1.25 -1.125 -1.0 -0.875 -0.75 -0.625 -0.5
-0.375 -0.25 -0.125 0.0 0.125 0.25 0.375 0.5
0.625 0.75 0.875 1.0 1.125 1.25 1.375 -1.375
-1.25 -1.125 -1.0 -0.875 -0.75 -0.625 -0.5 -0.375
-0.25 -0.125 0.0 0.125 0.25 0.375 0.5 0.625
0.75 0.875 1.0 1.125 1.25 1.375 -1.375 -1.25
-1.125 -1.0 -0.875 -0.75 -0.625 -0.5 -0.375 -0.25
-0.125 0.0 0.125 0.25 0.375 0.5 0.625 0.75
0.875 1.0 1.125 1.25 1.375 -1.375 -1.25 -1.125
-1.0 -0.875 -0.75 -0.625 -0.5 -0.375 -0.25 -0.125
0.0 0.125 0.25 0.375 0.5 0.625 0.75 0.875
1.0 1.125 1.25 1.375 -1.375 -1.25 -1.125 -1.0
-0.875 -0.75 -0.625 -0.5 -0.375 -0.25 -0.125 0.0
0.125 0.25 0.375 0.5 0.625 0.75 0.875 1.0
1.125 1.25 1.375 -1.375 -1.25 -1.125 -1.0 -0.875
-0.75 -0.625 -0.5 -0.375 -0.25 -0.125 0.0 0.125
0.25 0.375 0.5 0.625 0.75 0.875 1.0 1.125
1.25 1.375 -1.375 -1.25 -1.125 -1.0 -0.875 -0.75
-0.625 -0.5 -0.375 -0.25 -0.125 0.0 0.125 0.25
0.375 0.5 0.625 0.75 0.875 1.0 1.125 1.25
1.375 -1.375 -1.25 -1.125 -1.0 -0.875 -0.75 -0.625
-0.5 -0.375 -0.25 -0.125 0.0 0.125 0.25 0.375
0.5 0.625 0.75 0.875 1.0 1.125 1.25 1.375
-1.375 -1.25 -1.125 -1.0 -0.875 -0.75 -0.625 -0.5
-0.375 -0.25 -0.125 0.0 0.125 0.25 0.375 0.5
0.625 0.75 0.875 1.0 1.125 1.25 1.375 -1.375
-1.25 -1.125 -1.0 -0.875 -0.75 -0.625 -0.5 -0.375
-0.25 -0.125 0.0 0.125 0.25 0.375 0.5 0.625
0.75 0.875 1.0 1.125 1.25 1.375 -1.375 -1.25
-1.125 -1.0 -0.875 -0.75 -0.625 -0.5 -0.375 -0.25
-0.125 0.0 0.125 0.25 0.375 0.5 0.625 0.75
0.875 1.0 1.125 1.25 1.375 -1.375 -1.25 -1.125
00000000: 0000 b0bf 0000 a0bf 0000 90bf 0000 80bf
00000010: 0000 60bf 0000 40bf 0000 20bf 0000 00bf
00000020: 0000 c0be 0000 80be 0000 00be 0000 0000
00000030: 0000 003e 0000 803e 0000 c03e 0000 003f
00000040: 0000 203f 0000 403f 0000 603f 0000 803f
00000050: 0000 903f 0000 a03f 0000 b03f 0000 b0bf
00000060: 0000 a0bf 0000 90bf 0000 80bf 0000 60bf
00000070: 0000 40bf 0000 20bf 0000 00bf 0000 c0be
00000080: 0000 80be 0000 00be 0000 0000 0000 003e
00000090: 0000 803e 0000 c03e 0000 003f 0000 203f
000000a0: 0000 403f 0000 603f 0000 803f 0000 903f
000000b0: 0000 a03f 0000 b03f 0000 b0bf 0000 a0bf
000000c0: 0000 90bf 0000 80bf 0000 60bf 0000 40bf
000000d0: 0000 20bf 0000 00bf 0000 c0be 0000 80be
000000e0: 0000 00be 0000 0000 0000 003e 0000 803e
000000f0: 0000 c03e 0000 003f 0000 203f 0000 403f
00000100: 0000 603f 0000 803f 0000 903f 0000 a03f
00000110: 0000 b03f 0000 b0bf 0000 a0bf 0000 90bf
00000120: 0000 80bf 0000 60bf 0000 40bf 0000 20bf
00000130: 0000 00bf 0000 c0be 0000 80be 0000 00be
00000140: 0000 0000 0000 003e 0000 803e 0000 c03e
00000150: 0000 003f 0000 203f 0000 403f 0000 603f
00000160: 0000 803f 0000 903f 0000 a03f 0000 b03f
00000170: 0000 b0bf 0000 a0bf 0000 90bf 0000 80bf
00000180: 0000 60bf 0000 40bf 0000 20bf 0000 00bf
00000190: 0000 c0be 0000 80be 0000 00be 0000 0000
000001a0: 0000 003e 0000 803e 0000 c03e 0000 003f
000001b0: 0000 203f 0000 403f 0000 603f 0000 803f
000001c0: 0000 903f 0000 a03f 0000 b03f 0000 b0bf
000001d0: 0000 a0bf 0000 90bf 0000 80bf 0000 60bf
000001e0: 0000 40bf 0000 20bf 0000 00bf 0000 c0be
000001f0: 0000 80be 0000 00be 0000 0000 0000 003e
00000200: 0000 803e 0000 c03e 0000 003f 0000 203f
00000210: 0000 403f 0000 603f 0000 803f 0000 903f
00000220: 0000 a03f 0000 b03f 0000 b0bf 0000 a0bf
00000230: 0000 90bf 0000 80bf 0000 60bf 0000 40bf
00000240: 0000 20bf 0000 00bf 0000 c0be 0000 80be
00000250: 0000 00be 0000 0000 0000 003e 0000 803e
00000260: 0000 c03e 0000 003f 0000 203f 0000 403f
00000270: 0000 603f 0000 803f 0000 903f 0000 a03f
00000280: 0000 b03f 0000 b0bf 0000 a0bf 0000 90bf
00000290: 0000 80bf 0000 60bf 0000 40bf 0000 20bf
000002a0: 0000 00bf 0000 c0be 0000 80be 0000 00be
000002b0: 0000 0000 0000 003e 0000 803e 0000 c03e
000002c0: 0000 003f 0000 203f 0000 403f 0000 603f
000002d0: 0000 803f 0000 903f 0000 a03f 0000 b03f
000002e0: 0000 b0bf 0000 a0bf 0000 90bf 0000 80bf
000002f0: 0000 60bf 0000 40bf 0000 20bf 0000 00bf
00000300: 0000 c0be 0000 80be 0000 00be 0000 0000
00000310: 0000 003e 0000 803e 0000 c03e 0000 003f
00000320: 0000 203f 0000 403f 0000 603f 0000 803f
00000330: 0000 903f 0000 a03f 0000 b03f 0000 b0bf
00000340: 0000 a0bf 0000 90bf 0000 80bf 0000 60bf
00000350: 0000 40bf 0000 20bf 0000 00bf 0000 c0be
00000360: 0000 80be 0000 00be 0000 0000 0000 003e
00000370: 0000 803e 0000 c03e 0000 003f 0000 203f
00000380: 0000 403f 0000 603f 0000 803f 0000 903f
00000390: 0000 a03f 0000 b03f 0000 b0bf 0000 a0bf
000003a0: 0000 90bf 0000 80bf 0000 60bf 0000 40bf
000003b0: 0000 20bf 0000 00bf 0000 c0be 0000 80be
000003c0: 0000 00be 0000 0000 0000 003e 0000 803e
000003d0: 0000 c03e 0000 003f 0000 203f 0000 403f
000003e0: 0000 603f 0000 803f 0000 903f 0000 a03f
000003f0: 0000 b03f 0000 b0bf 0000 a0bf 0000 90bf

act_fun.1.coef f4 [16, 16, 19]
-0.0007468413 -0.0061617056 -0.011206769 0.0042119455 -0.0050983755 -0.06068316 -0.13007373 -0.118023485
0.34462702 0.28428468 -0.24925958 -0.31920376 0.5430402 0.0 0.0 0.0
0.0 0.0 0.0 -0.0032325005 -0.009653932 0.011251275 0.0033096122 -0.015935503
0.07263296 0.15656807 0.1530541 -0.26415956 -0.17712456 0.25207746 0.33267292 0.16974339
0.0 0.0 0.0 0.0 0.0 0.0 -0.0014261822 -0.0019505937
0.008742109 -0.011195143 0.00885615 -0.071334004 -0.15147762 -0.14332928 0.33574292 0.33836752
-0.29218143 -0.3318022 0.04465752 0.0 0.0 0.0 0.0 0.0
0.0 -0.0034428835 -0.009665129 0.012459492 -0.001480436 -0.009415702 -0.050270677 -0.21681798
-0.1205704 0.3502951 0.25559992 -0.2368199 -0.30713943 0.28412318 0.0 0.0
0.0 0.0 0.0 0.0 0.0063273404 0.01675103 -0.021263737 0.012352333
-0.013654321 0.07380002 0.1622392 0.16050881 -0.342831 -0.24257177 0.20203717 0.36412668
0.14139915 0.0 0.0 0.0 0.0 0.0 0.0 0.0012754458
-0.001075998 -0.017277664 0.016643275 -0.0038062073 0.063353844 0.19281788 0.06454418 -0.32129395
-0.18947509 0.17935228 0.3311312 0.22985521 0.0 0.0 0.0 0.0
0.0 0.0 -0.0011037746 -0.005826512 -0.006866864 -0.0066292733 -0.013283598 0.08311907
0.1762315 0.2658036 -0.25745443 -0.14172359 0.2924118 0.40024975 0.27260467 0.0
0.0 0.0 0.0 0.0 0.0 -1.3766923e-05 -0.0019842363 -0.0070346724
0.0004902354 0.0039602816 -0.046926063 -0.15525661 -0.119867906 0.30326378 0.32858422 -0.24725017
-0.34103394 0.10266151 0.0 0.0 0.0 0.0 0.0 0.0
-0.003763549 -0.011952199 0.0056794835 -0.010889611 -0.008012076 0.06498552 0.1599756 0.13241343
-0.3040985 -0.23636842 0.19196469 0.34662506 -0.021631703 0.0 0.0 0.0
0.0 0.0 0.0 0.0010704063 0.0056588505 0.005271828 -0.0024147478 -0.0005928483
-0.06615013 -0.15033656 -0.16671962 0.37152052 0.3359864 -0.27538654 -0.34568927 0.51687866
0.0 0.0 0.0 0.0 0.0 0.0 0.0025048684 0.010182936
0.005093121 0.0023768134 -0.016083807 0.08882253 0.20355125 0.23178196 -0.31487224 -0.23374891
0.21055947 0.35512686 0.23398189 0.0 0.0 0.0 0.0 0.0
0.0 -0.0008267539 -0.0054377606 -0.009862216 -0.0034942916 0.0003838851 0.06827848 0.19238423
0.23495793 -0.3226919 -0.20298122 0.21162708 0.34917653 0.2316245 0.0 0.0
0.0 0.0 0.0 0.0 -0.001770305 -0.006012668 0.0049103787 0.008804312
-0.0056263134 0.07360893 0.19499683 0.24249056 -0.27416715 -0.21803568 0.20179732 0.31437734
0.18691446 0.0 0.0 0.0 0.0 0.0 0.0 0.005394457
0.015505221 -0.01491904 0.011641087 0.0069480035 -0.067308515 -0.11600374 -0.1871489 0.32999367
00000000: acc7 43ba 22e8 c9bb 999c 37bc 5c04 8a3b
00000010: 4610 a7bb e88e 78bd 0c32 05be 4cb6 f1bd
00000020: f472 b03e c38d 913e e73d 7fbe ad6e a3be
00000030: af04 0b3f 0000 0000 0000 0000 0000 0000
00000040: 0000 0000 0000 0000 0000 0000 5cd8 53bb
00000050: 872b 1ebc 4557 383c 14e6 583b 2c8b 82bc
00000060: 97c0 943d 6153 203e 37ba 1c3e ec3f 87be
00000070: 2460 35be 4c10 813e 1b54 aa3e 36d1 2d3e
00000080: 0000 0000 0000 0000 0000 0000 0000 0000
00000090: 0000 0000 0000 0000 bcee baba 10ab ffba
000000a0: 103b 0f3c d56b 37bc 6319 113c 9017 92bd
000000b0: f31c 1bbe e9c4 12be 7fe6 ab3e 823e ad3e
000000c0: ce98 95be fae1 a9be ceea 363d 0000 0000
000000d0: 0000 0000 0000 0000 0000 0000 0000 0000
000000e0: 0000 0000 00a2 61bb 7d5a 1ebc e622 4c3c
000000f0: 300b c2ba 5144 1abc a0e8 4dbd 8805 5ebe
00000100: 9ded f6bd e159 b33e fedd 823e ea80 72be
00000110: 6141 9dbe 9878 913e 0000 0000 0000 0000
00000120: 0000 0000 0000 0000 0000 0000 0000 0000
00000130: 9455 cf3b 7539 893c 4a31 aebc 7161 4a3c
00000140: 60b6 5fbc 7724 973d 0822 263e 6c5c 243e
00000150: 8b87 afbe bc64 78be d5e2 4e3e d06e ba3e
00000160: f0ca 103e 0000 0000 0000 0000 0000 0000
00000170: 0000 0000 0000 0000 0000 0000 dc2c a73a
00000180: 8008 8dba e389 8dbc 7a57 883c 9071 79bb
00000190: a9bf 813d 0d72 453e bd2f 843d a480 a4be
000001a0: c205 42be 20a8 373e 078a a93e 2a5f 6b3e
000001b0: 0000 0000 0000 0000 0000 0000 0000 0000
000001c0: 0000 0000 0000 0000 88ac 90ba 53ec bebb
000001d0: 6e03 e1bb 603a d9bb 73a3 59bc 553a aa3d
000001e0: 0876 343e 6917 883e 11d1 83be fd1f 11be
000001f0: 00b7 953e 89ed cc3e d792 8b3e 0000 0000
00000200: 0000 0000 0000 0000 0000 0000 0000 0000
00000210: 0000 0000 7cf8 66b7 f609 02bb 1c83 e6bb
00000220: 2483 003a 40c5 813b 8b35 40bd 97fb 1ebe
00000230: 4e7d f5bd 6445 9b3e 313c a83e 262f 7dbe
00000240: 009c aebe 3340 d23d 0000 0000 0000 0000
00000250: 0000 0000 0000 0000 0000 0000 0000 0000
00000260: e0a5 76bb 28d3 43bc f61a ba3b 576a 32bc
00000270: 1545 03bc 2117 853d a5d0 233e 6397 073e
00000280: ccb2 9bbe 900a 72be 6492 443e d778 b13e
00000290: f834 b1bc 0000 0000 0000 0000 0000 0000
000002a0: 0000 0000 0000 0000 0000 0000 e04c 8c3a
000002b0: e16d b93b 4cbf ac3b bf40 1ebb 6069 1bba
000002c0: b879 87bd d4f1 19be 8cb8 2abe f037 be3e
000002d0: 6906 ac3e 77ff 8cbe 2ffe b0be 2952 043f
000002e0: 0000 0000 0000 0000 0000 0000 0000 0000
000002f0: 0000 0000 0000 0000 b828 243b 54d6 263c
00000300: 32e4 a63b 50c4 1b3b 30c2 83bc 96e8 b53d
00000310: bd6f 503e 4058 6d3e ef36 a1be e05b 6fbe
00000320: e79c 573e 30d3 b53e f398 6f3e 0000 0000
00000330: 0000 0000 0000 0000 0000 0000 0000 0000
00000340: 0000 0000 84ba 58ba 3e2f b2bb 2295 21bc
00000350: 7c00 65bb 3044 c939 96d5 8b3d 5f00 453e
00000360: d098 703e df37 a5be 4fda 4fbe c5b4 583e
00000370: 44c7 b23e f92e 6d3e 0000 0000 0000 0000
00000380: 0000 0000 0000 0000 0000 0000 0000 0000
00000390: 9409 e8ba ea05 c5bb 3ee7 a03b f63f 103c
000003a0: f05c b8bb 47c0 963d 40ad 473e 724f 783e
000003b0: a35f 8cbe bf44 5fbe f5a3 4e3e 11f6 a03e
000003c0: 8166 3f3e 0000 0000 0000 0000 0000 0000
000003d0: 0000 0000 0000 0000 0000 0000 fcc3 b03b
000003e0: 9c09 7e3c fd6e 74bc 42ba 3e3c 14ac e33b
000003f0: 0cd9 89bd 5e93 edbd f6a3 3fbe eef4 a83e

act_fun.1.mask f4 [16, 16]
1.0 1.0 1.0 1.0 1.0 1.0 1.0 1.0
1.0 1.0 1.0 1.0 1.0 1.0 1.0 1.0
1.0 1.0 1.0 1.0 1.0 1.0 1.0 1.0
1.0 1.0 1.0 1.0 1.0 1.0 1.0 1.0
1.0 1.0 1.0 1.0 1.0 1.0 1.0 1.0
1.0 1.0 1.0 1.0 1.0 1.0 1.0 1.0
1.0 1.0 1.0 1.0 1.0 1.0 1.0 1.0
1.0 1.0 1.0 1.0 1.0 1.0 1.0 1.0
1.0 1.0 1.0 1.0 1.0 1.0 1.0 1.0
1.0 1.0 1.0 1.0 1.0 1.0 1.0 1.0
1.0 1.0 1.0 1.0 1.0 1.0 1.0 1.0
1.0 1.0 1.0 1.0 1.0 1.0 1.0 1.0
1.0 1.0 1.0 1.0 1.0 1.0 1.0 1.0
1.0 1.0 1.0 1.0 1.0 1.0 1.0 1.0
1.0 1.0 1.0 1.0 1.0 1.0 1.0 1.0
1.0 1.0 1.0 1.0 1.0 1.0 1.0 1.0
1.0 1.0 1.0 1.0 1.0 1.0 1.0 1.0
1.0 1.0 1.0 1.0 1.0 1.0 1.0 1.0
1.0 1.0 1.0 1.0 1.0 1.0 1.0 1.0
1.0 1.0 1.0 1.0 1.0 1.0 1.0 1.0
1.0 1.0 1.0 1.0 1.0 1.0 1.0 1.0
1.0 1.0 1.0 1.0 1.0 1.0 1.0 1.0
1.0 1.0 1.0 1.0 1.0 1.0 1.0 1.0
1.0 1.0 1.0 1.0 1.0 1.0 1.0 1.0
1.0 1.0 1.0 1.0 1.0 1.0 1.0 1.0
1.0 1.0 1.0 1.0 1.0 1.0 1.0 1.0
1.0 1.0 1.0 1.0 1.0 1.0 1.0 1.0
1.0 1.0 1.0 1.0 1.0 1.0 1.0 1.0
1.0 1.0 1.0 1.0 1.0 1.0 1.0 1.0
1.0 1.0 1.0 1.0 1.0 1.0 1.0 1.0
1.0 1.0 1.0 1.0 1.0 1.0 1.0 1.0
1.0 1.0 1.0 1.0 1.0 1.0 1.0 1.0
00000000: 0000 803f 0000 803f 0000 803f 0000 803f
00000010: 0000 803f 0000 803f 0000 803f 0000 803f
00000020: 0000 803f 0000 803f 0000 803f 0000 803f
00000030: 0000 803f 0000 803f 0000 803f 0000 803f
00000040: 0000 803f 0000 803f 0000 803f 0000 803f
00000050: 0000 803f 0000 803f 0000 803f 0000 803f
00000060: 0000 803f 0000 803f 0000 803f 0000 803f
00000070: 0000 803f 0000 803f 0000 803f 0000 803f
00000080: 0000 803f 0000 803f 0000 803f 0000 803f
00000090: 0000 803f 0000 803f 0000 803f 0000 803f
000000a0: 0000 803f 0000 803f 0000 803f 0000 803f
000000b0: 0000 803f 0000 803f 0000 803f 0000 803f
000000c0: 0000 803f 0000 803f 0000 803f 0000 803f
000000d0: 0000 803f 0000 803f 0000 803f 0000 803f
000000e0: 0000 803f 0000 803f 0000 803f 0000 803f
000000f0: 0000 803f 0000 803f 0000 803f 0000 803f
00000100: 0000 803f 0000 803f 0000 803f 0000 803f
00000110: 0000 803f 0000 803f 0000 803f 0000 803f
00000120: 0000 803f 0000 803f 0000 803f 0000 803f
00000130: 0000 803f 0000 803f 0000 803f 0000 803f
00000140: 0000 803f 0000 803f 0000 803f 0000 803f
00000150: 0000 803f 0000 803f 0000 803f 0000 803f
00000160: 0000 803f 0000 803f 0000 803f 0000 803f
00000170: 0000 803f 0000 803f 0000 803f 0000 803f
00000180: 0000 803f 0000 803f 0000 803f 0000 803f
00000190: 0000 803f 0000 803f 0000 803f 0000 803f
000001a0: 0000 803f 0000 803f 0000 803f 0000 803f
000001b0: 0000 803f 0000 803f 0000 803f 0000 803f
000001c0: 0000 803f 0000 803f 0000 803f 0000 803f
000001d0: 0000 803f 0000 803f 0000 803f 0000 803f
000001e0: 0000 803f 0000 803f 0000 803f 0000 803f
000001f0: 0000 803f 0000 803f 0000 803f 0000 803f
00000200: 0000 803f 0000 803f 0000 803f 0000 803f
00000210: 0000 803f 0000 803f 0000 803f 0000 803f
00000220: 0000 803f 0000 803f 0000 803f 0000 803f
00000230: 0000 803f 0000 803f 0000 803f 0000 803f
00000240: 0000 803f 0000 803f 0000 803f 0000 803f
00000250: 0000 803f 0000 803f 0000 803f 0000 803f
00000260: 0000 803f 0000 803f 0000 803f 0000 803f
00000270: 0000 803f 0000 803f 0000 803f 0000 803f
00000280: 0000 803f 0000 803f 0000 803f 0000 803f
00000290: 0000 803f 0000 803f 0000 803f 0000 803f
000002a0: 0000 803f 0000 803f 0000 803f 0000 803f
000002b0: 0000 803f 0000 803f 0000 803f 0000 803f
000002c0: 0000 803f 0000 803f 0000 803f 0000 803f
000002d0: 0000 803f 0000 803f 0000 803f 0000 803f
000002e0: 0000 803f 0000 803f 0000 803f 0000 803f
000002f0: 0000 803f 0000 803f 0000 803f 0000 803f
00000300: 0000 803f 0000 803f 0000 803f 0000 803f
00000310: 0000 803f 0000 803f 0000 803f 0000 803f
00000320: 0000 803f 0000 803f 0000 803f 0000 803f
00000330: 0000 803f 0000 803f 0000 803f 0000 803f
00000340: 0000 803f 0000 803f 0000 803f 0000 803f
00000350: 0000 803f 0000 803f 0000 803f 0000 803f
00000360: 0000 803f 0000 803f 0000 803f 0000 803f
00000370: 0000 803f 0000 803f 0000 803f 0000 803f
00000380: 0000 803f 0000 803f 0000 803f 0000 803f
00000390: 0000 803f 0000 803f 0000 803f 0000 803f
000003a0: 0000 803f 0000 803f 0000 803f 0000 803f
000003b0: 0000 803f 0000 803f 0000 803f 0000 803f
000003c0: 0000 803f 0000 803f 0000 803f 0000 803f
000003d0: 0000 803f 0000 803f 0000 803f 0000 803f
000003e0: 0000 803f 0000 803f 0000 803f 0000 803f
000003f0: 0000 803f 0000 803f 0000 803f 0000 803f

act_fun.1.scale_base f4 [16, 16]
-0.013294172 0.25366983 -0.18573797 -0.26974916 0.23564734 0.13334206 -0.033589967 -0.40687886
-0.0072548892 -0.033505082 0.08788646 -0.1011055 0.08835414 -0.11266962 -0.3490532 0.27455735
0.18427649 0.27106294 -0.18015759 -0.13424769 -0.06639084 0.31347904 0.070501864 0.1615662
0.0073327417 0.0297096 0.3394891 0.027261943 0.25311965 0.02971666 -0.02979498 0.07231063
-0.22309707 0.16933218 -0.29548445 -0.14139709 0.17044231 0.20669411 0.3939641 -0.2822386
-0.0061150603 -0.1341846 0.22055171 0.15270866 0.071260475 -0.17344771 -0.11976391 0.07082974
0.00035127334 -0.10677737 -0.043240435 0.13270012 0.0042309565 0.33405322 0.012320208 -0.19866967
0.35082436 -0.022057686 0.38802716 0.35893628 0.38032988 0.09886587 0.070748456 0.002537198
-0.066663735 -0.100134656 -0.047071677 0.15213019 -0.038414773 -0.26119766 -0.11222413 0.0021842623
0.031018965 -0.060927168 0.030912815 -0.3413397 0.030363325 0.30942598 -0.13574962 -0.35236534
0.052854385 -0.21658736 -0.01696686 -0.15085955 0.25746843 0.37645054 0.18845506 0.043194506
0.27174044 -0.29851002 0.19521044 0.34282494 0.25290215 -0.2510639 0.013074359 0.17269526
-0.24142161 -0.120947346 -0.08030604 -0.16402113 0.055275805 0.1481042 0.060896814 -0.11201712
0.04628093 0.03347594 -0.0397839 0.38218156 0.38274616 0.11312249 0.09591475 0.13201307
0.1685142 -0.009540961 0.09199734 0.008845185 -0.08562578 -0.3830944 -0.09844801 0.18307465
-0.43624654 0.15809684 -0.30919534 -0.2757481 -0.34010136 0.35788867 0.35590836 -0.4127141
0.033448435 -0.19397022 0.053789876 -0.08749478 -0.24882278 0.26750168 -0.3769824 0.049490713
-0.30961788 0.19433166 -0.067815416 -0.47257692 -0.363416 -0.15078269 0.10787422 -0.47463784
0.36315653 0.010448693 0.31897956 0.4068052 -0.45315868 -0.15961754 -0.2929819 0.49346957
0.0008664299 0.13806032 -0.2954464 -0.39115667 -0.12676544 0.49585137 0.172362 -0.035799947
0.3859329 -0.20763767 0.46482223 0.42649943 -0.19953722 -0.41708428 -0.10651612 0.07503572
-0.19200696 0.10000103 -0.011785504 -0.37301987 -0.32570472 0.4197358 -0.04072105 0.00077177526
-0.06739316 0.36436254 -0.47900426 -0.33003202 0.26945394 0.19829427 0.24368721 -0.09266341
0.195573 -0.2630181 -0.092660554 0.33892712 0.30155092 -0.2883756 -0.041782986 0.29932755
0.25318432 -0.0201098 0.15187065 -0.10006283 0.11120713 -0.08214877 0.24267203 0.16843015
0.043828573 0.17100374 0.12356607 0.054078158 0.42205137 -0.046224743 -0.08849605 0.27519476
0.09863716 0.039626878 -0.102474354 -0.09570061 0.058645166 0.01949677 -0.035824142 0.20907931
0.06279289 -0.04202641 0.28148305 0.23878868 0.27972108 -0.07280514 -0.067173064 0.05065856
0.12326258 0.16391042 0.10675018 -0.2797147 0.050537873 0.04266062 -0.4186387 0.21249782
0.12212403 0.27054164 -0.41321126 -0.25400892 -0.16210194 -0.0463356 0.06680419 -0.24542204
-0.1964871 0.05918107 -0.27396482 -0.058788486 0.4334076 0.2942855 0.078913875 -0.49441034
0.47792184 -0.29675442 0.22706136 0.02893898 0.12161332 -0.53531975 -0.077073805 0.27952826
00000000: cccf 59bc 03e1 813e 1832 3ebe 901c 8abe
00000010: 894d 713e d28a 083e a295 09bd 6d52 d0be
00000020: 6cba edbb a03c 09bd d1fd b33d 6610 cfbd
00000030: 04f3 b43d 54bf e6bd 1ab7 b2be c892 8c3e
00000040: fab2 3c3e c3c8 8a3e 3b7b 38be 3a78 09be
00000050: ecf7 87bd 5380 a03e 4863 903d 9c71 253e
00000060: 7f47 f03b 8c61 f33c 84d1 ad3e 7054 df3c
00000070: e698 813e 5a70 f33c 9a14 f4bc 9817 943d
00000080: 8f73 64be 6a65 2d3e bd49 97be 66ca 10be
00000090: 6e88 2e3e 9fa7 533e aab5 c93e 9481 90be
000000a0: d860 c8bb b067 09be 4fd8 613e a95f 1c3e
000000b0: 03f1 913d 479c 31be c846 f5bd 2f0f 913d
000000c0: 1c2b b839 18ae dabd e21c 31bd 8ae2 073e
000000d0: d6a3 8a3b 0609 ab3e b3da 493c 1070 4bbe
000000e0: 409f b33e 52b2 b4bc 7fab c63e 7fc6 b73e
000000f0: 99ba c23e 307a ca3d 91e4 903d 1e47 263b
00000100: ff86 88bd 6613 cdbd 3bce 40bd 04c8 1b3e
00000110: cf58 1dbd b3bb 85be c4d5 e5bd d725 0f3b
00000120: 7c1b fe3c c48e 79bd df3c fd3c 14c4 aebe
00000130: 82bc f83c 156d 9e3e f301 0bbe 3b69 b4be
00000140: d77d 583d 14c9 5dbe 16fe 8abc ed7a 1abe
00000150: e7d2 833e 20be c03e 5dfa 403e b9ec 303d
00000160: 9021 8b3e 4ed6 98be 3fe5 473e c086 af3e
00000170: 647c 813e 738b 80be d635 563c 07d7 303e
00000180: 3a37 77be 3eb3 f7bd 7e77 a4bd 28f5 27be
00000190: e268 623d a1a8 173e f06e 793d 3b69 e5bd
000001a0: 1391 3d3d 111e 093d 71f4 22bd 4dad c33e
000001b0: 4ef7 c33e c4ac e73d f46e c43d 6f2e 073e
000001c0: fd8e 2c3e b151 1cbc 1a69 bc3d 65eb 103c
000001d0: 925c afbd f324 c4be 1c9f c9bd ec77 3b3e
000001e0: b55b dfbe 23e4 213e da4e 9ebe db2e 8dbe
000001f0: c421 aebe 2f3d b73e 9f39 b63e 434f d3be
00000200: 3a01 093d 21a0 46be c652 5c3d 7730 b3bd
00000210: 66cb 7ebe fbf5 883e d603 c1be c6b6 4a3d
00000220: 3c86 9ebe e1fe 463e cfe2 8abd 9af5 f1be
00000230: a911 babe c766 1abe 29ed dc3d bb03 f3be
00000240: a7ef b93e ff30 2b3c 4a51 a33e c548 d03e
00000250: 6a04 e8be c872 23be b901 96be 0ba8 fc3e
00000260: 2021 633a af5f 0d3e c044 97be b045 c8be
00000270: cdce 01be 3be0 fd3e aa7f 303e f7a2 12bd
00000280: ff98 c53e f89e 54be 2efd ed3e 225e da3e
00000290: 7c53 4cbe 128c d5be 2025 dabd 54ac 993d
000002a0: 799d 44be 57cd cc3d fd17 41bc 76fc bebe
000002b0: c5c2 a6be 9ce7 d63e 1ecb 26bd f650 4a3a
000002c0: 6d05 8abd ba8d ba3e 0c40 f5be f5f9 a8be
000002d0: def5 893e a70d 4b3e 2489 793e 50c6 bdbd
000002e0: 4a44 483e 4faa 86be d1c4 bdbd db87 ad3e
000002f0: e264 9a3e f7a5 93be a324 2bbd 7641 993e
00000300: 60a1 813e 4fbd a4bc fb83 1b3e beed ccbd
00000310: 90c0 e33d 9d3d a8bd 047f 783e f478 2c3e
00000320: 9785 333d 9b1b 2f3e 3510 fd3d 0f81 5d3d
00000330: 1e17 d83e 2856 3dbd 6b3d b5bd 54e6 8c3e
00000340: 4802 ca3d cb4f 223d 13de d1bd aefe c3bd
00000350: ea35 703d b1b7 9f3c 56bc 12bd e318 563e
00000360: 8f99 803d e323 2cbd 8c1e 903e 0585 743e
00000370: 9a37 8f3e dc1a 95bd 0892 89bd 5a7f 4f3d
00000380: 1771 fc3d 22d8 273e d79f da3d c436 8fbe
00000390: cd00 4f3d e7bc 2e3d d057 d6be 0799 593e
000003a0: 2a1c fa3d 6f84 8a3e 6d90 d3be 750d 82be
000003b0: 0dfe 25be 66ca 3dbd a3d0 883d ea4f 7bbe
000003c0: ea33 49be da67 723d 1e45 8cbe 32cc 70bd
000003d0: 9ae7 dd3e 97ac 963e 999d a13d 5a23 fdbe
000003e0: 2cb2 f43e 32f0 97be c682 683e 7111 ed3c
000003f0: 6810 f93d b70a 09bf dfd8 9dbd 541e 8f3e

act_fun.1.scale_sp f4 [16, 16]
0.7431576 0.5807847 0.6381119 0.7742684 0.7352407 0.70533556 0.5808747 0.6677489
0.7861926 0.74673164 0.6283772 0.6163871 0.6146453 0.7008503 0.57045805 0.6213179
0.594542 0.5581115 0.6203826 0.59783745 0.53213024 0.5416803 0.57538617 0.57817435
0.5372782 0.6041671 0.54096717 0.55199826 0.53267026 0.5936196 0.5636171 0.54443556
0.6612798 0.6035451 0.67485756 0.62747675 0.68213624 0.72905874 0.6285883 0.60713667
0.6682897 0.6434057 0.5970538 0.60814613 0.5956571 0.6225025 0.63899964 0.6190401
0.64355266 0.5343331 0.6546412 0.63582885 0.54905546 0.4970823 0.58148044 0.65411925
0.5267343 0.6733571 0.53727597 0.5298547 0.5150253 0.61726624 0.384386 0.5636684
0.5685288 0.562706 0.5983559 0.5477739 0.51231277 0.5025224 0.5704667 0.5668765
0.49585834 0.5976123 0.5312182 0.53683245 0.5166324 0.5577469 0.44866875 0.5346135
0.5835992 0.5274321 0.59610826 0.5790275 0.50280577 0.4998481 0.5456549 0.5785876
0.5133038 0.5602353 0.5269099 0.5301278 0.4958923 0.5750394 0.511931 0.516096
0.67784745 0.5973919 0.6375723 0.65165335 0.6022693 0.595832 0.61845744 0.63091487
0.61918044 0.6563385 0.5620182 0.5810712 0.54897946 0.63376874 0.7475496 0.59389204
0.5310227 0.5249684 0.5055581 0.5299901 0.6364676 0.8932985 0.6078836 0.5351442
0.5249913 0.59567857 0.6989319 0.70998293 0.5998881 0.448052 0.8746422 0.6950051
0.71855474 0.8631199 0.7464212 0.9873662 0.84657145 0.7372552 0.6981291 0.73902166
0.85572404 0.81967837 0.6745417 0.657805 0.60762733 0.7292598 1.103322 0.67005426
0.5975121 0.42483842 0.6010085 0.5844886 0.5529124 0.58834803 0.68727624 0.5864
0.52936274 0.59458745 0.53542674 0.6801464 0.6008024 0.5606679 0.8533395 0.5844062
0.48779193 0.604797 0.61286134 0.5238475 0.53226954 0.6436657 0.617076 0.60832715
0.56615907 0.5683492 0.5777435 0.60039854 0.60823137 0.5291212 0.41777307 0.57030696
0.49693784 0.3788558 0.49988225 0.4639034 0.45453468 0.6387981 0.70300996 0.55273044
0.3860644 0.506881 0.5307092 0.6834289 0.6255526 0.46066383 0.60800254 0.5916696
0.6278119 0.49266744 0.6117934 0.6152324 0.5220921 0.48327124 0.5523003 0.6006573
0.53290534 0.62505955 0.50699264 0.5236117 0.49759877 0.58285356 0.495519 0.53440934
0.58829546 0.4743909 0.60975075 0.57930154 0.47671577 0.4653101 0.5482317 0.5859382
0.47797808 0.598488 0.4872072 0.506379 0.4834504 0.5823235 0.33809566 0.5197371
0.61824226 0.5942277 0.62926614 0.60507154 0.57360595 0.5599829 0.5831689 0.6093342
0.5853243 0.641414 0.56751853 0.5544729 0.5303739 0.5768008 0.71360403 0.5805906
0.6824693 0.54848623 0.5694609 0.6124907 0.6538007 0.6200409 0.65762657 0.60046965
0.5591293 0.70390177 0.6793333 0.74416417 0.74150145 0.57746685 0.6856944 0.7434908
00000000: 943f 3e3f 4eae 143f 4d5b 233f 7436 463f
00000010: bc38 3c3f df90 343f 34b4 143f 98f1 2a3f
00000020: eb43 493f ce29 3f3f 54dd 203f 8ccb 1d3f
00000030: 6559 1d3f ed6a 333f 8a09 123f b10e 1f3f
00000040: e833 183f 65e0 0e3f 65d1 1e3f e00b 193f
00000050: b039 083f 8fab 0a3f 824c 133f 3c03 143f
00000060: 108b 093f b2aa 1a3f d37c 0a3f c24f 0d3f
00000070: 145d 083f 74f7 173f 3649 103f 2160 0b3f
00000080: a249 293f ef81 1a3f 77c3 2c3f 51a2 203f
00000090: 7ba0 2e3f 98a3 3a3f 2aeb 203f 4f6d 1b3f
000000a0: 0915 2b3f 3cb6 243f 85d8 183f 77af 1b3f
000000b0: fc7c 183f 535c 1f3f 7b95 233f 6979 1e3f
000000c0: debf 243f 0eca 083f 9196 273f aec5 223f
000000d0: e68e 0c3f 9281 fe3e e7db 143f 5c74 273f
000000e0: 0fd8 063f 2261 2c3f eb8a 093f 8fa4 073f
000000f0: b3d8 033f 2905 1e3f 3ece c43e 924c 103f
00000100: 1a8b 113f 800d 103f da2d 193f e93a 0c3f
00000110: ee26 033f 4fa5 003f 1b0a 123f d11e 113f
00000120: 25e1 fd3e 1ffd 183f eafd 073f da6d 093f
00000130: 0542 043f 80c8 0e3f e9b7 e53e 6edc 083f
00000140: c266 153f ca05 073f 8d9a 183f 253b 143f
00000150: e1b7 003f 17ec ff3e 0ab0 0b3f 511e 143f
00000160: e167 033f 956b 0f3f 91e3 063f 75b6 073f
00000170: 98e5 fd3e c835 133f e90d 033f de1e 043f
00000180: 6987 2d3f adee 183f f037 233f c1d2 263f
00000190: 522e 1a3f 7288 183f 3a53 1e3f a383 213f
000001a0: 9c82 1e3f cd05 283f 6de0 0f3f 15c1 143f
000001b0: eb89 0c3f ab3e 223f 695f 3f3f 4f09 183f
000001c0: 1bf1 073f 5464 063f 416c 013f 6ead 073f
000001d0: 8aef 223f 36af 643f 429e 1b3f 36ff 083f
000001e0: d465 063f 647e 183f 33ed 323f 71c1 353f
000001f0: 4492 193f 1267 e53e 8de8 5f3f dbeb 313f
00000200: 34f3 373f 6df5 5c3f 7615 3f3f 08c4 7c3f
00000210: e8b8 583f c2bc 3c3f 97b8 323f 8630 3d3f
00000220: bb10 5b3f 71d6 513f c4ae 2c3f e965 283f
00000230: 778d 1b3f c5b0 3a3f a839 8d3f ad88 2b3f
00000240: 8ef6 183f 6c84 d93e b1db 193f 0ba1 153f
00000250: ab8b 0d3f fa9d 163f 56f1 2f3f 4f1e 163f
00000260: 5184 073f e236 183f ba11 093f 131e 2e3f
00000270: 30ce 193f ee87 0f3f 7574 5a3f a59b 153f
00000280: ddbf f93e fad3 1a3f 7be4 1c3f df1a 063f
00000290: d142 083f 46c7 243f b1f8 1d3f 54bb 1b3f
000002a0: cdef 103f 557f 113f ffe6 133f b8b3 193f
000002b0: 0db5 1b3f 7d74 073f 5ae6 d53e a3ff 113f
000002c0: a36e fe3e 63f9 c13e 91f0 ff3e bf84 ed3e
000002d0: c5b8 e83e 4688 233f 76f8 333f be7f 0d3f
000002e0: 3caa c53e f4c2 013f 8fdc 073f 32f5 2e3f
000002f0: 3724 203f 21dc eb3e 0ea6 1b3f a977 173f
00000300: 48b8 203f e83e fc3e 7e9e 1c3f df7f 1d3f
00000310: d4a7 053f 546f f73e 8d63 0d3f adc4 193f
00000320: 7c6c 083f e703 203f 45ca 013f 6b0b 063f
00000330: 44c5 fe3e e435 153f abb4 fd3e 0dcf 083f
00000340: 889a 163f 5de3 f23e a018 1c3f 1b4d 143f
00000350: 1714 f43e 203d ee3e ea58 0c3f 0c00 163f
00000360: 8bb9 f43e 8236 193f 3973 f93e 0ea2 013f
00000370: d086 f73e 2713 153f e01a ad3e 7e0d 053f
00000380: 2045 1e3f 4e1f 183f 9617 213f f8e5 1a3f
00000390: d7d7 123f 0a5b 0f3f 8f4a 153f 53fd 1b3f
000003a0: d0d7 153f b533 243f e548 113f f0f1 0d3f
000003b0: 95c6 073f 38a9 133f c1ae 363f 96a1 143f
000003c0: 4fb6 2e3f 9869 0c3f 31c8 113f 31cc 1c3f
000003d0: 7c5f 273f 00bb 1e3f 375a 283f 61b8 193f
000003e0: 1923 0f3f e832 343f cae8 2d3f 8b81 3e3f
000003f0: 0ad3 3d3f ded4 133f ab89 2f3f 6a55 3e3f

act_fun.2.grid f4 [16, 23]
-1.375 -1.25 -1.125 -1.0 -0.875 -0.75 -0.625 -0.5
-0.375 -0.25 -0.125 0.0 0.125 0.25 0.375 0.5
0.625 0.75 0.875 1.0 1.125 1.25 1.375 -1.375
-1.25 -1.125 -1.0 -0.875 -0.75 -0.625 -0.5 -0.375
-0.25 -0.125 0.0 0.125 0.25 0.375 0.5 0.625
0.75 0.875 1.0 1.125 1.25 1.375 -1.375 -1.25
-1.125 -1.0 -0.875 -0.75 -0.625 -0.5 -0.375 -0.25
-0.125 0.0 0.125 0.25 0.375 0.5 0.625 0.75
0.875 1.0 1.125 1.25 1.375 -1.375 -1.25 -1.125
-1.0 -0.875 -0.75 -0.625 -0.5 -0.375 -0.25 -0.125
0.0 0.125 0.25 0.375 0.5 0.625 0.75 0.875
1.0 1.125 1.25 1.375 -1.375 -1.25 -1.125 -1.0
-0.875 -0.75 -0.625 -0.5 -0.375 -0.25 -0.125 0.0
0.125 0.25 0.375 0.5 0.625 0.75 0.875 1.0
1.125 1.25 1.375 -1.375 -1.25 -1.125 -1.0 -0.875
-0.75 -0.625 -0.5 -0.375 -0.25 -0.125 0.0 0.125
0.25 0.375 0.5 0.625 0.75 0.875 1.0 1.125
1.25 1.375 -1.375 -1.25 -1.125 -1.0 -0.875 -0.75
-0.625 -0.5 -0.375 -0.25 -0.125 0.0 0.125 0.25
0.375 0.5 0.625 0.75 0.875 1.0 1.125 1.25
1.375 -1.375 -1.25 -1.125 -1.0 -0.875 -0.75 -0.625
-0.5 -0.375 -0.25 -0.125 0.0 0.125 0.25 0.375
0.5 0.625 0.75 0.875 1.0 1.125 1.25 1.375
-1.375 -1.25 -1.125 -1.0 -0.875 -0.75 -0.625 -0.5
-0.375 -0.25 -0.125 0.0 0.125 0.25 0.375 0.5
0.625 0.75 0.875 1.0 1.125 1.25 1.375 -1.375
-1.25 -1.125 -1.0 -0.875 -0.75 -0.625 -0.5 -0.375
-0.25 -0.125 0.0 0.125 0.25 0.375 0.5 0.625
0.75 0.875 1.0 1.125 1.25 1.375 -1.375 -1.25
-1.125 -1.0 -0.875 -0.75 -0.625 -0.5 -0.375 -0.25
-0.125 0.0 0.125 0.25 0.375 0.5 0.625 0.75
0.875 1.0 1.125 1.25 1.375 -1.375 -1.25 -1.125
00000000: 0000 b0bf 0000 a0bf 0000 90bf 0000 80bf
00000010: 0000 60bf 0000 40bf 0000 20bf 0000 00bf
00000020: 0000 c0be 0000 80be 0000 00be 0000 0000
00000030: 0000 003e 0000 803e 0000 c03e 0000 003f
00000040: 0000 203f 0000 403f 0000 603f 0000 803f
00000050: 0000 903f 0000 a03f 0000 b03f 0000 b0bf
00000060: 0000 a0bf 0000 90bf 0000 80bf 0000 60bf
00000070: 0000 40bf 0000 20bf 0000 00bf 0000 c0be
00000080: 0000 80be 0000 00be 0000 0000 0000 003e
00000090: 0000 803e 0000 c03e 0000 003f 0000 203f
000000a0: 0000 403f 0000 603f 0000 803f 0000 903f
000000b0: 0000 a03f 0000 b03f 0000 b0bf 0000 a0bf
000000c0: 0000 90bf 0000 80bf 0000 60bf 0000 40bf
000000d0: 0000 20bf 0000 00bf 0000 c0be 0000 80be
000000e0: 0000 00be 0000 0000 0000 003e 0000 803e
000000f0: 0000 c03e 0000 003f 0000 203f 0000 403f
00000100: 0000 603f 0000 803f 0000 903f 0000 a03f
00000110: 0000 b03f 0000 b0bf 0000 a0bf 0000 90bf
00000120: 0000 80bf 0000 60bf 0000 40bf 0000 20bf
00000130: 0000 00bf 0000 c0be 0000 80be 0000 00be
00000140: 0000 0000 0000 003e 0000 803e 0000 c03e
00000150: 0000 003f 0000 203f 0000 403f 0000 603f
00000160: 0000 803f 0000 903f 0000 a03f 0000 b03f
00000170: 0000 b0bf 0000 a0bf 0000 90bf 0000 80bf
00000180: 0000 60bf 0000 40bf 0000 20bf 0000 00bf
00000190: 0000 c0be 0000 80be 0000 00be 0000 0000
000001a0: 0000 003e 0000 803e 0000 c03e 0000 003f
000001b0: 0000 203f 0000 403f 0000 603f 0000 803f
000001c0: 0000 903f 0000 a03f 0000 b03f 0000 b0bf
000001d0: 0000 a0bf 0000 90bf 0000 80bf 0000 60bf
000001e0: 0000 40bf 0000 20bf 0000 00bf 0000 c0be
000001f0: 0000 80be 0000 00be 0000 0000 0000 003e
00000200: 0000 803e 0000 c03e 0000 003f 0000 203f
00000210: 0000 403f 0000 603f 0000 803f 0000 903f
00000220: 0000 a03f 0000 b03f 0000 b0bf 0000 a0bf
00000230: 0000 90bf 0000 80bf 0000 60bf 0000 40bf
00000240: 0000 20bf 0000 00bf 0000 c0be 0000 80be
00000250: 0000 00be 0000 0000 0000 003e 0000 803e
00000260: 0000 c03e 0000 003f 0000 203f 0000 403f
00000270: 0000 603f 0000 803f 0000 903f 0000 a03f
00000280: 0000 b03f 0000 b0bf 0000 a0bf 0000 90bf
00000290: 0000 80bf 0000 60bf 0000 40bf 0000 20bf
000002a0: 0000 00bf 0000 c0be 0000 80be 0000 00be
000002b0: 0000 0000 0000 003e 0000 803e 0000 c03e
000002c0: 0000 003f 0000 203f 0000 403f 0000 603f
000002d0: 0000 803f 0000 903f 0000 a03f 0000 b03f
000002e0: 0000 b0bf 0000 a0bf 0000 90bf 0000 80bf
000002f0: 0000 60bf 0000 40bf 0000 20bf 0000 00bf
00000300: 0000 c0be 0000 80be 0000 00be 0000 0000
00000310: 0000 003e 0000 803e 0000 c03e 0000 003f
00000320: 0000 203f 0000 403f 0000 603f 0000 803f
00000330: 0000 903f 0000 a03f 0000 b03f 0000 b0bf
00000340: 0000 a0bf 0000 90bf 0000 80bf 0000 60bf
00000350: 0000 40bf 0000 20bf 0000 00bf 0000 c0be
00000360: 0000 80be 0000 00be 0000 0000 0000 003e
00000370: 0000 803e 0000 c03e 0000 003f 0000 203f
00000380: 0000 403f 0000 603f 0000 803f 0000 903f
00000390: 0000 a03f 0000 b03f 0000 b0bf 0000 a0bf
000003a0: 0000 90bf 0000 80bf 0000 60bf 0000 40bf
000003b0: 0000 20bf 0000 00bf 0000 c0be 0000 80be
000003c0: 0000 00be 0000 0000 0000 003e 0000 803e
000003d0: 0000 c03e 0000 003f 0000 203f 0000 403f
000003e0: 0000 603f 0000 803f 0000 903f 0000 a03f
000003f0: 0000 b03f 0000 b0bf 0000 a0bf 0000 90bf
