models_grid/purkinje_I20_T2000_W[12, 0]_G8_K3.pt (torch, 29430 bytes, 29 tensors)

node_bias_0 f4 [12]
000000 00 00 00 00 00 00 00 00 00 00 00 00 00 00 00 00
       0.0 0.0 0.0 0.0
000010 00 00 00 00 00 00 00 00 00 00 00 00 00 00 00 00
       0.0 0.0 0.0 0.0
000020 00 00 00 00 00 00 00 00 00 00 00 00 00 00 00 00
       0.0 0.0 0.0 0.0

node_scale_0 f4 [12]
000000 00 00 80 3f 00 00 80 3f 00 00 80 3f 00 00 80 3f
       1.0 1.0 1.0 1.0
000010 00 00 80 3f 00 00 80 3f 00 00 80 3f 00 00 80 3f
       1.0 1.0 1.0 1.0
000020 00 00 80 3f 00 00 80 3f 00 00 80 3f 00 00 80 3f
       1.0 1.0 1.0 1.0

subnode_bias_0 f4 [12]
000000 00 00 00 00 00 00 00 00 00 00 00 00 00 00 00 00
       0.0 0.0 0.0 0.0
000010 00 00 00 00 00 00 00 00 00 00 00 00 00 00 00 00
       0.0 0.0 0.0 0.0
000020 00 00 00 00 00 00 00 00 00 00 00 00 00 00 00 00
       0.0 0.0 0.0 0.0

subnode_scale_0 f4 [12]
000000 00 00 80 3f 00 00 80 3f 00 00 80 3f 00 00 80 3f
       1.0 1.0 1.0 1.0
000010 00 00 80 3f 00 00 80 3f 00 00 80 3f 00 00 80 3f
       1.0 1.0 1.0 1.0
000020 00 00 80 3f 00 00 80 3f 00 00 80 3f 00 00 80 3f
       1.0 1.0 1.0 1.0

node_bias_1 f4 [12]
000000 00 00 00 00 00 00 00 00 00 00 00 00 00 00 00 00
       0.0 0.0 0.0 0.0
000010 00 00 00 00 00 00 00 00 00 00 00 00 00 00 00 00
       0.0 0.0 0.0 0.0
000020 00 00 00 00 00 00 00 00 00 00 00 00 00 00 00 00
       0.0 0.0 0.0 0.0

node_scale_1 f4 [12]
000000 00 00 80 3f 00 00 80 3f 00 00 80 3f 00 00 80 3f
       1.0 1.0 1.0 1.0
000010 00 00 80 3f 00 00 80 3f 00 00 80 3f 00 00 80 3f
       1.0 1.0 1.0 1.0
000020 00 00 80 3f 00 00 80 3f 00 00 80 3f 00 00 80 3f
       1.0 1.0 1.0 1.0

subnode_bias_1 f4 [12]
000000 00 00 00 00 00 00 00 00 00 00 00 00 00 00 00 00
       0.0 0.0 0.0 0.0
000010 00 00 00 00 00 00 00 00 00 00 00 00 00 00 00 00
       0.0 0.0 0.0 0.0
000020 00 00 00 00 00 00 00 00 00 00 00 00 00 00 00 00
       0.0 0.0 0.0 0.0

subnode_scale_1 f4 [12]
000000 00 00 80 3f 00 00 80 3f 00 00 80 3f 00 00 80 3f
       1.0 1.0 1.0 1.0
000010 00 00 80 3f 00 00 80 3f 00 00 80 3f 00 00 80 3f
       1.0 1.0 1.0 1.0
000020 00 00 80 3f 00 00 80 3f 00 00 80 3f 00 00 80 3f
       1.0 1.0 1.0 1.0

act_fun.0.grid f4 [4, 15]
000000 00 00 e0 bf 00 00 c0 bf 00 00 a0 bf 00 00 80 bf
       -1.75 -1.5 -1.25 -1.0
000010 00 00 40 bf 00 00 00 bf 00 00 80 be 00 00 00 00
       -0.75 -0.5 -0.25 0.0
000020 00 00 80 3e 00 00 00 3f 00 00 40 3f 00 00 80 3f
       0.25 0.5 0.75 1.0
000030 00 00 a0 3f 00 00 c0 3f 00 00 e0 3f 00 00 e0 bf
       1.25 1.5 1.75 -1.75
000040 00 00 c0 bf 00 00 a0 bf 00 00 80 bf 00 00 40 bf
       -1.5 -1.25 -1.0 -0.75
000050 00 00 00 bf 00 00 80 be 00 00 00 00 00 00 80 3e
       -0.5 -0.25 0.0 0.25
000060 00 00 00 3f 00 00 40 3f 00 00 80 3f 00 00 a0 3f
       0.5 0.75 1.0 1.25
000070 00 00 c0 3f 00 00 e0 3f 00 00 e0 bf 00 00 c0 bf
       1.5 1.75 -1.75 -1.5
000080 00 00 a0 bf 00 00 80 bf 00 00 40 bf 00 00 00 bf
       -1.25 -1.0 -0.75 -0.5
000090 00 00 80 be 00 00 00 00 00 00 80 3e 00 00 00 3f
       -0.25 0.0 0.25 0.5
0000a0 00 00 40 3f 00 00 80 3f 00 00 a0 3f 00 00 c0 3f
       0.75 1.0 1.25 1.5
0000b0 00 00 e0 3f 00 00 e0 bf 00 00 c0 bf 00 00 a0 bf
       1.75 -1.75 -1.5 -1.25
0000c0 00 00 80 bf 00 00 40 bf 00 00 00 bf 00 00 80 be
       -1.0 -0.75 -0.5 -0.25
0000d0 00 00 00 00 00 00 80 3e 00 00 00 3f 00 00 40 3f
       0.0 0.25 0.5 0.75
0000e0 00 00 80 3f 00 00 a0 3f 00 00 c0 3f 00 00 e0 3f
       1.0 1.25 1.5 1.75

act_fun.0.coef f4 [4, 12, 11]
000000 61 15 53 3f 4a e1 a6 3e 53 20 96 3e 2e 9a a4 3e
       0.82454497 0.32593757 0.29321536 0.3214888
000010 58 30 a6 3e 8d bf a1 3e 24 aa a0 3e 7f f2 ae 3e
       0.32458758 0.31591454 0.31379807 0.34169385
000020 c1 46 a6 3e 89 ec af 3e 39 ad 13 3f 16 0c 4c bf
       0.32475856 0.3436015 0.5768619 -0.7970594
000030 db a4 98 be 22 ed 8c be 39 97 81 be 4a 28 83 be
       -0.29813275 -0.27524668 -0.25310686 -0.25616676
000040 59 a9 6c be 08 b6 7a be ec 16 67 be 07 73 87 be
       -0.23111476 -0.24483502 -0.22567338 -0.26454946
000050 19 48 82 be f1 63 e0 be cb 84 44 3f 10 31 9a 3e
       -0.2544563 -0.4382625 0.76765126 0.30115557
000060 de 98 8e 3e 75 83 97 3e 3e 48 96 3e 95 84 86 3e
       0.27851003 0.2959248 0.2935199 0.26273027
000070 ce 00 5f 3e 31 95 0c 3e d6 67 26 3d a6 2f e1 bd
       0.2177765 0.13728787 0.04062637 -0.10995416
000080 12 02 f4 be 08 ed 1e bf 68 bd 62 be a3 5f 7b be
       -0.4765783 -0.6208043 -0.22142565 -0.24548201
000090 99 9e 6b be cc 3e 3e be b7 9d 49 be 53 51 e5 bd
       -0.23009719 -0.18578643 -0.1968907 -0.11197152
0000a0 13 ae 90 bd af c5 cc 3d 2d 40 73 3e 0e c1 e2 3e
       -0.07064452 0.09998643 0.2375495 0.44287914
0000b0 c1 35 3c 3f 89 be 3e 3e a6 a4 5f 3e 16 7a 4b 3e
       0.7351952 0.18627371 0.21840152 0.19870791
0000c0 eb c5 26 3e b1 29 0c 3e 66 09 f1 3c bc 6e e9 bc
       0.16286437 0.13687779 0.029423427 -0.028495185
0000d0 a1 70 1f be 5a 26 73 be 1b d9 e5 be 24 72 51 bf
       -0.15570308 -0.23745099 -0.448922 -0.8181479
0000e0 12 6b 94 be d5 c7 a3 be 24 44 a3 be f6 80 99 be
       -0.28987938 -0.31988397 -0.31887925 -0.29981202
0000f0 62 09 9e be fb e5 ae be 5e 21 9d be c1 16 b4 be
       -0.30866534 -0.34159836 -0.3068952 -0.3517361
000100 7c 28 b1 be b2 68 10 bf ed 20 26 3f f3 2d 93 3e
       -0.346012 -0.5640975 0.6489399 0.28745994
000110 e5 b4 a3 3e 22 1e 9b 3e 17 09 83 3e ef ce 9a 3e
       0.3197395 0.30296427 0.25592873 0.30236003
000120 4a cd 14 3e 7b 12 00 3e 14 4d c3 bd 92 22 4b be
       0.14531437 0.1250705 -0.09536186 -0.19837406
000130 5b 57 dc be 5e c5 25 3f 6a e7 9c 3e c2 01 a0 3e
       -0.43035397 0.64754283 0.30645305 0.3125134
000140 c8 d0 91 3e af b4 9f 3e ea 93 74 3e 8e a2 6d 3e
       0.284796 0.31192538 0.2388455 0.23206541
000150 43 88 c5 3d 66 40 48 bd 6f 15 4f be b5 5d e6 be
       0.096451305 -0.04888954 -0.2022302 -0.44993368
000160 db 58 2c bf fc 29 9a be ca 7f 99 be 63 1a a3 be
       -0.6732308 -0.30110157 -0.29980308 -0.3185607
000170 1d d0 99 be c0 61 8e be f6 97 88 be 80 c7 ca bd
       -0.3004159 -0.27808952 -0.26678437 -0.09901333
000180 e5 9b b2 3c 8f 29 33 3e d3 39 ce 3e d4 ba 23 3f
       0.021802852 0.17496322 0.4027849 0.6395695
000190 01 87 84 3e b1 1e 76 3e c9 42 5d 3e 2a 9a 63 3e
       0.2588425 0.24035145 0.21607508 0.22226778
0001a0 30 db 04 3e 77 ac ec 3d 23 60 9a bd d4 0c 49 be
       0.12974238 0.115563326 -0.07537868 -0.196338
0001b0 2c 99 8d be b4 57 ed be 66 c3 25 bf 84 fd 96 be
       -0.27655923 -0.46355975 -0.6475128 -0.29490292
0001c0 0f f2 94 be e3 b4 82 be 48 51 a3 be 77 a3 6a be
       -0.29090926 -0.2552863 -0.3189795 -0.2291392
0001d0 67 e9 48 be 46 41 ef bd a5 c4 2b 3d 5a 8b 78 3e
       -0.19620286 -0.11682372 0.04193558 0.24271908
0001e0 0e cd ec 3e 8b 0c 32 3f 9e 1e 96 3e 09 8f 97 3e
       0.46250194 0.6955039 0.29320234 0.29601315
0001f0 16 e6 92 3e 06 b7 83 3e 6e d7 80 3e 33 01 34 3e
       0.28691167 0.25725573 0.2516436 0.17578582
000200 44 a3 cf 3d 42 74 c8 bc 86 c0 3b be af f3 dc be
       0.10138562 -0.024469499 -0.1833516 -0.43154666
000210 44 77 f3 3b 8c 58 84 3c e9 a7 fd bc bd 44 0f 3d
       0.007429989 0.016155504 -0.030963855 0.034977663
000220 f9 6c 80 be 43 fd 44 be 6b 58 67 be a0 56 c8 3b
       -0.2508314 -0.19237237 -0.22592323 0.006113842
000230 af 8a 0c bd 6f 6f e7 3c 5c c4 27 3c c4 95 af bb
       -0.034311946 0.028251378 0.010239687 -0.0053584296
000240 22 bd 73 bc b8 39 ac 3c d6 b3 7c 3b 15 16 61 3e
       -0.014876636 0.021023616 0.003855934 0.2198108
000250 eb 1c 6f 3e 36 1e 7d 3e 74 e7 f0 bb ff 21 8d bc
       0.23350875 0.24718556 -0.00735181 -0.017228125
000260 80 72 27 3c d8 cd 76 3b e4 82 4c bb b4 82 c4 bb
       0.01022017 0.0037659314 -0.0031205947 -0.0059970263
000270 bc e1 9a 3c 60 4f ae ba 80 9e 39 be d9 0b 5a be
       0.018906467 -0.0013298802 -0.18126869 -0.21293582
000280 fe b8 4b be 7c e3 3c 3b e0 07 37 3c aa a2 ad 3c
       -0.19894788 0.0028822115 0.011171311 0.021195728
000290 93 19 a0 3b 64 65 47 bb 38 59 ed bb ca 4d b3 3c
       0.004885861 -0.0030425424 -0.0072433017 0.021887679
0002a0 e8 7b 9f 3c 34 be 15 3e bc b0 2c 3e 29 ea 16 3e
       0.019468263 0.14623338 0.16864294 0.14737763
0002b0 ba 5e 99 bb e8 ce 74 3b 97 dc 6b 3c 09 51 6b 3b
       -0.0046804817 0.003735477 0.014395854 0.0035906455
0002c0 d8 fe ba 3b ee 76 21 3c ff 18 ec bc f1 85 2d 3d
       0.0057066493 0.009855015 -0.028820513 0.042364065
0002d0 b7 bb 62 be cf 51 36 be 24 27 30 be 02 3c cd bb
       -0.2214192 -0.17804645 -0.17202431 -0.006263257
0002e0 d8 75 ad bb 94 aa 48 bc 5e 45 49 bb 80 3a 2d ba
       -0.005293589 -0.0122477 -0.0030711512 -0.00066081434
0002f0 a0 2c 6f b9 80 4b 93 3a f3 a7 ba bc 39 ea 37 3e
       -0.0002280944 0.0011237711 -0.022785163 0.17960443
000300 72 e8 2c 3e 8e db 3b 3e 4a bd 49 bc 94 5d 53 bc
       0.16885546 0.18345472 -0.012313196 -0.012900729
000310 16 51 af 3c ce 31 cf 3b 94 2f eb 3b 72 37 ca 3c
       0.02140097 0.006323076 0.0071773026 0.024684642
000320 a4 1f f8 bb 9c 6e 60 3b 32 40 68 be 25 87 6f be
       -0.007572131 0.0034245616 -0.22680739 -0.23391397
000330 9c 75 69 be ec df 0c bd 4d 69 e5 3c d0 a8 bc bb
       -0.2279877 -0.034393236 0.028004313 -0.0057574287
000340 14 4b 8b bb f8 81 3b 3b 16 16 0f 3c c0 8b 36 bb
       -0.0042508934 0.0028611403 0.008733293 -0.0027854294
000350 20 56 9a 3c 09 18 5d be 31 0a 60 be 30 19 74 be
       0.018839896 -0.215912 -0.21878888 -0.23837733
000360 a8 1e b4 3c 29 16 ae 3c ae 22 d4 bc 76 a8 02 bc
       0.021987274 0.021250801 -0.025895443 -0.0079747345
000370 e0 d3 d2 3a 00 7f 7b bb 5f a3 e6 bc 02 92 fe 3c
       0.0016084872 -0.0038375258 -0.028154073 0.031075481
000380 c8 60 e8 3d 06 82 c7 3d 23 4b 28 3e 2a be 44 bc
       0.113465846 0.09741597 0.16434912 -0.012008229
000390 44 3d 08 3d b8 48 4f bc e4 1c cc bb a0 28 45 ba
       0.033261552 -0.012651615 -0.00622903 -0.0007521007
0003a0 d8 b5 33 bc 57 07 bf bc 4f fb c7 3c 3b d5 03 be
       -0.010968648 -0.02331893 0.024411825 -0.1287431
0003b0 da 40 da bd f9 eb de bd f8 da 99 3c cc 2a 24 3c
       -0.10656901 -0.10884852 0.01878117 0.010019969
0003c0 92 5a d5 bc 18 10 f2 bb b8 69 94 bb d6 8b 1a bc
       -0.026044164 -0.0073871724 -0.004529204 -0.009432754
0003d0 9e b8 bf 3c c1 41 bc bc 5f 4b 54 3e ef f7 81 3e
       0.023403462 -0.022980573 0.20731877 0.2538447
0003e0 5b 6e 49 3e 98 30 5d bb 07 a6 9a 3c da b5 91 bc
       0.19671004 -0.0033750888 0.018877996 -0.017786909
0003f0 1a 29 c5 bb d8 28 64 bb b7 ba 3c bc 20 48 87 3a
       -0.0060168626 -0.0034814384 -0.011519126 0.0010321178

act_fun.0.mask f4 [4, 12]
000000 00 00 80 3f 00 00 80 3f 00 00 80 3f 00 00 80 3f
       1.0 1.0 1.0 1.0
000010 00 00 80 3f 00 00 80 3f 00 00 80 3f 00 00 80 3f
       1.0 1.0 1.0 1.0
000020 00 00 80 3f 00 00 80 3f 00 00 80 3f 00 00 80 3f
       1.0 1.0 1.0 1.0
000030 00 00 80 3f 00 00 80 3f 00 00 80 3f 00 00 80 3f
       1.0 1.0 1.0 1.0
000040 00 00 80 3f 00 00 80 3f 00 00 80 3f 00 00 80 3f
       1.0 1.0 1.0 1.0
000050 00 00 80 3f 00 00 80 3f 00 00 80 3f 00 00 80 3f
       1.0 1.0 1.0 1.0
000060 00 00 80 3f 00 00 80 3f 00 00 80 3f 00 00 80 3f
       1.0 1.0 1.0 1.0
000070 00 00 80 3f 00 00 80 3f 00 00 80 3f 00 00 80 3f
       1.0 1.0 1.0 1.0
000080 00 00 80 3f 00 00 80 3f 00 00 80 3f 00 00 80 3f
       1.0 1.0 1.0 1.0
000090 00 00 80 3f 00 00 80 3f 00 00 80 3f 00 00 80 3f
       1.0 1.0 1.0 1.0
0000a0 00 00 80 3f 00 00 80 3f 00 00 80 3f 00 00 80 3f
       1.0 1.0 1.0 1.0
0000b0 00 00 80 3f 00 00 80 3f 00 00 80 3f 00 00 80 3f
       1.0 1.0 1.0 1.0

act_fun.0.scale_base f4 [4, 12]
000000 64 03 0a be 19 aa cb 3e eb 8a a7 3e 63 ac d4 be
       -0.13477856 0.39778212 0.32723173 -0.4153777
000010 3d 35 09 3f 80 42 00 3e 86 00 d6 3e fb f6 d3 3e
       0.5359686 0.12525368 0.41797274 0.4139937
000020 ca 37 c7 be ce 5f 1c 3f 42 fd cd be 14 81 9a 3e
       -0.3890975 0.61083686 -0.40232283 0.30176604
000030 90 25 10 3d 6c 48 72 3e aa 6f 8a be 02 e8 99 3e
       0.035192072 0.23660439 -0.27038318 0.3005982
000040 b8 5a 7d be 02 47 e2 be 78 89 2b 3e c0 1f 8c 3e
       -0.24741638 -0.441948 0.16751659 0.27367973
000050 34 c3 fd 3e c0 0a 56 bd 3c 44 f6 3e ce 76 a4 3e
       0.4956299 -0.052256346 0.48098934 0.3212189
000060 08 ba 79 be 24 60 85 be 87 71 0f 3e 48 20 55 be
       -0.24387372 -0.26049912 0.14008151 -0.20813096
000070 fe 8c ba 3d 5b 61 96 be ee d9 81 3e f2 a4 f8 3c
       0.091089234 -0.2937115 0.2536158 0.03035209
000080 1b f4 3b 3d f7 d2 40 3e ce 46 8d be e7 3c 8b be
       0.045887094 0.18830477 -0.27593082 -0.27194902
000090 dd 79 de bd 30 18 ef be f3 85 e9 bc 4d b7 87 be
       -0.10863087 -0.4669814 -0.028506255 -0.26507035
0000a0 a9 f4 24 3f c4 81 15 3f 48 11 b4 3e cd 44 b5 3e
       0.6443582 0.5840113 0.35169435 0.35404053
0000b0 6a c4 1f bf 8e 7c aa 3e 78 55 b6 3e 1d a7 72 be
       -0.6240908 0.33298153 0.35612082 -0.23696561

act_fun.0.scale_sp f4 [4, 12]
000000 f6 06 99 3f a3 26 93 3f ea dd 99 3f 2f e4 90 3f
       1.1955249 1.1496166 1.2020848 1.1319636
000010 36 e6 9e 3f 91 e0 9b 3f 10 1c 89 3f dc 7d 86 3f
       1.2414005 1.2177907 1.0711689 1.0507159
000020 4d 5a 8b 3f fe a1 90 3f b9 ea 83 3f 7c f4 88 3f
       1.0886933 1.1299436 1.0306007 1.0699611
000030 68 d6 28 3f dd f8 39 3f 63 3d 36 3f 6a 9f 24 3f
       0.6595216 0.7264536 0.7118742 0.64305747
000040 b1 2e 25 3f b8 83 27 3f 78 e8 37 3f cc fb 33 3f
       0.6452437 0.6543536 0.71839094 0.70306087
000050 bb 7f 0b 3f 3c 51 10 3f 27 24 3b 3f d9 b2 34 3f
       0.54491776 0.56373954 0.7310204 0.705854
000060 2c cc 1e 3f 85 98 17 3f ef c3 08 3f fb e2 d3 3e
       0.6203029 0.592171 0.5342397 0.4138411
000070 c9 96 e8 3e ea 02 17 3f a2 af 12 3f ee bd 0b 3f
       0.4542754 0.5898882 0.57299244 0.54586685
000080 7b 3d e7 3e 51 54 c0 3e 3f 48 fc 3e a8 1b 21 3f
       0.45164093 0.37564328 0.4927387 0.62932825
000090 4a 82 23 3f fd 09 f5 3e 17 68 db 3e 2d df bf 3e
       0.6387068 0.47859183 0.42852852 0.37474957
0000a0 d3 74 f8 3e 9d d8 25 3f af 5b 0c 3f 3e fd 19 3f
       0.4852663 0.6478365 0.548274 0.6015204
0000b0 fa f4 b2 3e b3 30 ce 3e 37 d1 0f 3f 11 f6 ec 3e
       0.34952527 0.4027153 0.5617861 0.46281484

act_fun.1.grid f4 [12, 15]
000000 00 00 e0 bf 00 00 c0 bf 00 00 a0 bf 00 00 80 bf
       -1.75 -1.5 -1.25 -1.0
000010 00 00 40 bf 00 00 00 bf 00 00 80 be 00 00 00 00
       -0.75 -0.5 -0.25 0.0
000020 00 00 80 3e 00 00 00 3f 00 00 40 3f 00 00 80 3f
       0.25 0.5 0.75 1.0
000030 00 00 a0 3f 00 00 c0 3f 00 00 e0 3f 00 00 e0 bf
       1.25 1.5 1.75 -1.75
000040 00 00 c0 bf 00 00 a0 bf 00 00 80 bf 00 00 40 bf
       -1.5 -1.25 -1.0 -0.75
000050 00 00 00 bf 00 00 80 be 00 00 00 00 00 00 80 3e
       -0.5 -0.25 0.0 0.25
000060 00 00 00 3f 00 00 40 3f 00 00 80 3f 00 00 a0 3f
       0.5 0.75 1.0 1.25
000070 00 00 c0 3f 00 00 e0 3f 00 00 e0 bf 00 00 c0 bf
       1.5 1.75 -1.75 -1.5
000080 00 00 a0 bf 00 00 80 bf 00 00 40 bf 00 00 00 bf
       -1.25 -1.0 -0.75 -0.5
000090 00 00 80 be 00 00 00 00 00 00 80 3e 00 00 00 3f
       -0.25 0.0 0.25 0.5
0000a0 00 00 40 3f 00 00 80 3f 00 00 a0 3f 00 00 c0 3f
       0.75 1.0 1.25 1.5
0000b0 00 00 e0 3f 00 00 e0 bf 00 00 c0 bf 00 00 a0 bf
       1.75 -1.75 -1.5 -1.25
0000c0 00 00 80 bf 00 00 40 bf 00 00 00 bf 00 00 80 be
       -1.0 -0.75 -0.5 -0.25
0000d0 00 00 00 00 00 00 80 3e 00 00 00 3f 00 00 40 3f
       0.0 0.25 0.5 0.75
0000e0 00 00 80 3f 00 00 a0 3f 00 00 c0 3f 00 00 e0 3f
       1.0 1.25 1.5 1.75
0000f0 00 00 e0 bf 00 00 c0 bf 00 00 a0 bf 00 00 80 bf
       -1.75 -1.5 -1.25 -1.0
000100 00 00 40 bf 00 00 00 bf 00 00 80 be 00 00 00 00
       -0.75 -0.5 -0.25 0.0
000110 00 00 80 3e 00 00 00 3f 00 00 40 3f 00 00 80 3f
       0.25 0.5 0.75 1.0
000120 00 00 a0 3f 00 00 c0 3f 00 00 e0 3f 00 00 e0 bf
       1.25 1.5 1.75 -1.75
000130 00 00 c0 bf 00 00 a0 bf 00 00 80 bf 00 00 40 bf
       -1.5 -1.25 -1.0 -0.75
000140 00 00 00 bf 00 00 80 be 00 00 00 00 00 00 80 3e
       -0.5 -0.25 0.0 0.25
000150 00 00 00 3f 00 00 40 3f 00 00 80 3f 00 00 a0 3f
       0.5 0.75 1.0 1.25
000160 00 00 c0 3f 00 00 e0 3f 00 00 e0 bf 00 00 c0 bf
       1.5 1.75 -1.75 -1.5
000170 00 00 a0 bf 00 00 80 bf 00 00 40 bf 00 00 00 bf
       -1.25 -1.0 -0.75 -0.5
000180 00 00 80 be 00 00 00 00 00 00 80 3e 00 00 00 3f
       -0.25 0.0 0.25 0.5
000190 00 00 40 3f 00 00 80 3f 00 00 a0 3f 00 00 c0 3f
       0.75 1.0 1.25 1.5
0001a0 00 00 e0 3f 00 00 e0 bf 00 00 c0 bf 00 00 a0 bf
       1.75 -1.75 -1.5 -1.25
0001b0 00 00 80 bf 00 00 40 bf 00 00 00 bf 00 00 80 be
       -1.0 -0.75 -0.5 -0.25
0001c0 00 00 00 00 00 00 80 3e 00 00 00 3f 00 00 40 3f
       0.0 0.25 0.5 0.75
0001d0 00 00 80 3f 00 00 a0 3f 00 00 c0 3f 00 00 e0 3f
       1.0 1.25 1.5 1.75
0001e0 00 00 e0 bf 00 00 c0 bf 00 00 a0 bf 00 00 80 bf
       -1.75 -1.5 -1.25 -1.0
0001f0 00 00 40 bf 00 00 00 bf 00 00 80 be 00 00 00 00
       -0.75 -0.5 -0.25 0.0
000200 00 00 80 3e 00 00 00 3f 00 00 40 3f 00 00 80 3f
       0.25 0.5 0.75 1.0
000210 00 00 a0 3f 00 00 c0 3f 00 00 e0 3f 00 00 e0 bf
       1.25 1.5 1.75 -1.75
000220 00 00 c0 bf 00 00 a0 bf 00 00 80 bf 00 00 40 bf
       -1.5 -1.25 -1.0 -0.75
000230 00 00 00 bf 00 00 80 be 00 00 00 00 00 00 80 3e
       -0.5 -0.25 0.0 0.25
000240 00 00 00 3f 00 00 40 3f 00 00 80 3f 00 00 a0 3f
       0.5 0.75 1.0 1.25
000250 00 00 c0 3f 00 00 e0 3f 00 00 e0 bf 00 00 c0 bf
       1.5 1.75 -1.75 -1.5
000260 00 00 a0 bf 00 00 80 bf 00 00 40 bf 00 00 00 bf
       -1.25 -1.0 -0.75 -0.5
000270 00 00 80 be 00 00 00 00 00 00 80 3e 00 00 00 3f
       -0.25 0.0 0.25 0.5
000280 00 00 40 3f 00 00 80 3f 00 00 a0 3f 00 00 c0 3f
       0.75 1.0 1.25 1.5
000290 00 00 e0 3f 00 00 e0 bf 00 00 c0 bf 00 00 a0 bf
       1.75 -1.75 -1.5 -1.25
0002a0 00 00 80 bf 00 00 40 bf 00 00 00 bf 00 00 80 be
       -1.0 -0.75 -0.5 -0.25
0002b0 00 00 00 00 00 00 80 3e 00 00 00 3f 00 00 40 3f
       0.0 0.25 0.5 0.75
0002c0 00 00 80 3f 00 00 a0 3f 00 00 c0 3f 00 00 e0 3f
       1.0 1.25 1.5 1.75

act_fun.1.coef f4 [12, 12, 11]
000000 51 e2 dd 3d 23 cd 8a 3e 39 18 7e 3e e3 24 05 3d
       0.10834182 0.27109632 0.24813928 0.03250588
000010 65 63 4b be 23 ce 66 be 34 fa e1 3e cc 3b 01 3f
       -0.19862135 -0.22539572 0.44136202 0.5048187
000020 09 d3 70 3f 16 59 56 3f 55 42 e2 3c c1 e8 f5 3e
       0.94072014 0.83729684 0.02761952 0.4802914
000030 05 a8 f2 3e a0 ab 88 3e 0a 51 24 3e d5 a6 de 3e
       0.47393814 0.2669344 0.16046539 0.43486658
000040 92 68 b4 3e bc 42 a2 be 5b 34 3a be 8f 1d 37 3f
       0.3523603 -0.3169154 -0.18184035 0.7152948
000050 cb 09 47 bf 84 a7 09 bd d5 68 07 3d 29 bb d1 3e
       -0.7774932 -0.03360702 0.03305896 0.40963104
000060 9d 9c 5c 3e 06 d5 25 bf 01 d8 29 be 08 42 91 3e
       0.21544118 -0.6477817 -0.16586305 0.2837069
000070 01 b7 8d be c4 bb 8a bd 03 05 22 3f 5b 92 d3 be
       -0.27678683 -0.06774095 0.632889 -0.41322598
000080 fd 32 09 3d 38 6a 1b 3f 1f ca 02 3f 2d 2d 87 3e
       0.03349589 0.6070895 0.5108966 0.26401654
000090 22 8e 20 3e e3 76 aa 3e 17 65 de 3e 64 0c d9 be
       0.1567922 0.33293828 0.434365 -0.42392266
0000a0 98 1a d6 be f5 06 0b 3e 04 42 14 bf cb ff 4a bc
       -0.41817164 0.13576873 -0.5791323 -0.012390087
0000b0 49 ab da bd d2 1a 29 3e a5 fc 2d 3e 0c f1 0e 3e
       -0.10677201 0.16514137 0.16990907 0.1395914
0000c0 03 a7 f6 bd 28 22 a6 be 7a 1c 00 3f 47 cd 80 3e
       -0.12043574 -0.32447934 0.5004345 0.25156614
0000d0 7d 6d b1 be 22 1a 20 3f 81 d9 39 3c ec be c8 3d
       -0.34653845 0.62539876 0.011343361 0.098020405
0000e0 92 68 99 3e 70 8c 58 3e 53 3a 01 3e 29 78 8f be
       0.29962593 0.21147323 0.12619905 -0.28021362
0000f0 f9 d5 68 be f0 22 bf 3e c1 13 0f 3f 84 ad 7f 3f
       -0.22737874 0.37331343 0.5588952 0.9987414
000100 b9 31 59 3f c6 3c fd 3c 8e c0 15 3f 23 c8 e1 3e
       0.84841496 0.030912768 0.5849694 0.44098005
000110 b5 33 79 3e 48 6f 40 3e da 3a a0 3e c7 a5 a9 3e
       0.24336131 0.1879245 0.312949 0.3313429
000120 95 be c2 be 1e 09 85 be 9d a1 f7 3e c5 f6 27 bf
       -0.38036028 -0.25983518 0.4836549 -0.65610915
000130 5d 86 6f bc 90 5c 19 bf 5d 09 36 bf 73 84 96 be
       -0.014619437 -0.59906864 -0.7110804 -0.29397926
000140 f1 9c 91 bd bc c5 b6 3e 34 4d c0 3e 78 21 d4 be
       -0.07110012 0.35697734 0.375589 -0.41431785
000150 cd 3a 23 be 5c b3 8b 3e 7f 2c 16 bf c0 ff 26 3b
       -0.159404 0.27285278 -0.58661646 0.0025482029
000160 55 10 d9 3d 52 26 b1 3e 8e 6e 90 3e be 0e 00 3e
       0.10598818 0.3459955 0.28209347 0.12505624
000170 4b 36 96 be d8 22 d3 be 3b 21 d1 3e a9 47 12 3f
       -0.29338297 -0.4123752 0.40845665 0.57140595
000180 ec be 83 3f 94 83 4f 3f 81 0b a9 3c 7a ca 16 3f
       1.029264 0.8106015 0.020635368 0.58902705
000190 8b 17 eb 3e 2f 67 4d 3e 89 43 14 3e 94 5b a7 3e
       0.459164 0.20058893 0.14478888 0.32687056
0001a0 9c 4d b1 3e d1 52 e0 be 02 1c 8d be 90 9b fe 3e
       0.34629524 -0.43813184 -0.2756043 0.4972806
0001b0 4f 8c 23 bf e8 70 ba b8 c0 cc 1f 3f 37 0f e9 3e
       -0.6388597 -8.8902016e-05 0.624218 0.4551942
0001c0 bd 81 a8 b9 53 39 3b 3e 92 a7 a6 3e 40 2c c3 3e
       -0.0003214012 0.18283586 0.3254972 0.38119698
0001d0 21 c8 94 be c0 e4 84 be 12 1a 20 3e 9d 86 37 bf
       -0.29058936 -0.25955772 0.15634945 -0.7168978
0001e0 ab 45 5c bc dc d1 fa 3d 91 4b 93 3e dd a2 17 3e
       -0.0134443445 0.12247059 0.2876859 0.14808221
0001f0 26 64 ee 3d de 40 7c be e4 81 9c be dd 4e ca 3e
       0.116401955 -0.2463412 -0.3056785 0.39513293
000200 33 62 02 3f fe 98 75 3f 6c c2 56 3f ae 2f e5 3c
       0.5093109 0.9593657 0.83890414 0.027976837
000210 80 94 78 3b ef a9 01 3f d9 60 a1 3f 7b e4 c0 3e
       0.003793031 0.50649923 1.260768 0.37674317
000220 26 ae 0a 3f 0d da 28 3e 2d c1 3e be 50 06 d1 be
       0.5417198 0.1648943 -0.18628378 -0.4082513
000230 f7 78 88 be cf 3c e4 3c b5 c9 7d bb fc 4d 97 bb
       -0.2665479 0.027861027 -0.0038724963 -0.0046174508
000240 7d 03 ea be ed c3 9f be e6 07 ef bd aa 45 94 be
       -0.45705786 -0.31204167 -0.116714284 -0.289594
000250 ce bd d9 3d 34 da a4 3e 8e 95 99 3e 10 fa f7 3e
       0.106319055 0.32197726 0.29996914 0.4843297
000260 e8 b5 19 3e 64 2b eb 3a 90 b0 a2 3b b6 31 83 3d
       0.15010798 0.0017942009 0.0049648955 0.06405966
000270 5f 20 39 be 61 e7 26 3d 16 af e9 be 1e 8d 6b 3e
       -0.18078755 0.040748004 -0.45641392 0.2300305
000280 7f b1 d1 3e 64 57 c2 be 49 f3 f4 3d 8f 86 bf 3e
       0.4095573 -0.379573 0.119604655 0.37407348
000290 90 3e 7d bb b8 a9 c9 3b 68 ac 98 be a9 da 98 be
       -0.0038642026 0.0061542653 -0.29819036 -0.29854324
0002a0 96 a1 3f be 26 d1 18 bf d4 89 39 3e 9f 3a 95 3e
       -0.18713984 -0.59694135 0.18118984 0.29146287
0002b0 17 36 a0 3e 59 60 12 3f 90 65 78 3e 60 8b 8c 3b
       0.31291267 0.57178265 0.24257493 0.0042890757
0002c0 92 a1 87 3b 92 ad df 3e 76 52 d0 3e 43 d6 fa 3d
       0.0041391337 0.4368711 0.40687913 0.122478984
0002d0 30 c4 19 3f 9e d1 d3 bd 34 cd b7 be d7 6f 98 be
       0.60064983 -0.10342716 -0.35898745 -0.29772827
0002e0 2f d8 b6 3d 9c 4d d0 3e 31 59 31 3b d0 2d 8b bb
       0.089279525 0.4068421 0.002706122 -0.0042474046
0002f0 aa 9c f2 3e a1 52 a1 3f 1a de b8 3e b2 17 0f 3f
       0.4738515 1.2603341 0.3610695 0.5589553
000300 f2 b6 54 3e 42 ae 40 be dc a2 c9 be 3b 58 8b be
       0.20772913 -0.18816474 -0.39382064 -0.27215752
000310 78 68 71 3d de cb 51 3b ac 7d 2a bc 29 e0 93 be
       0.05893752 0.0032012383 -0.010405939 -0.28881958
000320 e6 0e d5 bc 67 5a 3a be b8 1c d3 be bf 66 19 be
       -0.02600808 -0.18198548 -0.41232848 -0.14980601
000330 97 8c 77 3e e4 4d 93 3e 16 de 13 3f b0 94 51 3e
       0.24174725 0.28770363 0.5776075 0.20466876
000340 7c 9e 9c bb e4 73 ad ba 30 75 cc be 33 f3 f6 bd
       -0.004779635 -0.0013233391 -0.39933157 -0.12058105
000350 f7 24 28 be 6c 22 11 bf 25 11 52 3d 39 bf 5f 3e
       -0.16420351 -0.5669315 0.05128588 0.2185029
000360 87 f2 02 3f 7f 8b 60 3f 2b 57 56 3e 06 d4 16 3b
       0.5115132 0.87712854 0.2093169 0.002301456
000370 18 cc fd bb 82 49 d6 3e 19 15 a2 3f 36 9d ec 3e
       -0.007745277 0.41852957 1.2662688 0.46213692
000380 7f 99 10 3f 02 51 63 3e b8 1f 9d be 85 a7 ae be
       0.56484216 0.22198871 -0.30688262 -0.34112182
000390 06 a9 58 3e 05 6f 08 3e 09 8d cb 3b 9a 4b 06 bc
       0.21158227 0.133236 0.006211881 -0.008196736
0003a0 c9 1b a3 be ff 89 a6 bd 42 62 10 be 81 51 0b bf
       -0.31857136 -0.081317894 -0.14099982 -0.5442124
0003b0 2c 9c 9a 3d aa ec 37 3e b5 74 a2 3e 1d af 32 3f
       0.07549319 0.17961374 0.31729665 0.6979845
0003c0 85 7f 56 3e 86 5f 6a bb a4 fa aa bb e9 88 f6 be
       0.20947082 -0.0035762503 -0.005217867 -0.4815133
0003d0 4b f6 bb be ea 5f 25 be e7 27 17 bf 02 1d 2c 3e
       -0.36711344 -0.1614987 -0.5904526 0.1680794
0003e0 ab dc 87 3e b7 fd b9 3e 7f bc 1d 3f 76 54 8b 3e
       0.26535544 0.36326382 0.6161575 0.27212876
0003f0 6b 45 e4 3b 8c 87 0c bc 0c d1 f0 3e 03 2f a6 3f
       0.006966283 -0.008577239 0.4703449 1.2983097

act_fun.1.mask f4 [12, 12]
000000 00 00 80 3f 00 00 80 3f 00 00 80 3f 00 00 80 3f
       1.0 1.0 1.0 1.0
000010 00 00 80 3f 00 00 80 3f 00 00 80 3f 00 00 80 3f
       1.0 1.0 1.0 1.0
000020 00 00 80 3f 00 00 80 3f 00 00 80 3f 00 00 80 3f
       1.0 1.0 1.0 1.0
000030 00 00 80 3f 00 00 80 3f 00 00 80 3f 00 00 80 3f
       1.0 1.0 1.0 1.0
000040 00 00 80 3f 00 00 80 3f 00 00 80 3f 00 00 80 3f
       1.0 1.0 1.0 1.0
000050 00 00 80 3f 00 00 80 3f 00 00 80 3f 00 00 80 3f
       1.0 1.0 1.0 1.0
000060 00 00 80 3f 00 00 80 3f 00 00 80 3f 00 00 80 3f
       1.0 1.0 1.0 1.0
000070 00 00 80 3f 00 00 80 3f 00 00 80 3f 00 00 80 3f
       1.0 1.0 1.0 1.0
000080 00 00 80 3f 00 00 80 3f 00 00 80 3f 00 00 80 3f
       1.0 1.0 1.0 1.0
000090 00 00 80 3f 00 00 80 3f 00 00 80 3f 00 00 80 3f
       1.0 1.0 1.0 1.0
0000a0 00 00 80 3f 00 00 80 3f 00 00 80 3f 00 00 80 3f
       1.0 1.0 1.0 1.0
0000b0 00 00 80 3f 00 00 80 3f 00 00 80 3f 00 00 80 3f
       1.0 1.0 1.0 1.0
0000c0 00 00 80 3f 00 00 80 3f 00 00 80 3f 00 00 80 3f
       1.0 1.0 1.0 1.0
0000d0 00 00 80 3f 00 00 80 3f 00 00 80 3f 00 00 80 3f
       1.0 1.0 1.0 1.0
0000e0 00 00 80 3f 00 00 80 3f 00 00 80 3f 00 00 80 3f
       1.0 1.0 1.0 1.0
0000f0 00 00 80 3f 00 00 80 3f 00 00 80 3f 00 00 80 3f
       1.0 1.0 1.0 1.0
000100 00 00 80 3f 00 00 80 3f 00 00 80 3f 00 00 80 3f
       1.0 1.0 1.0 1.0
000110 00 00 80 3f 00 00 80 3f 00 00 80 3f 00 00 80 3f
       1.0 1.0 1.0 1.0
000120 00 00 80 3f 00 00 80 3f 00 00 80 3f 00 00 80 3f
       1.0 1.0 1.0 1.0
000130 00 00 80 3f 00 00 80 3f 00 00 80 3f 00 00 80 3f
       1.0 1.0 1.0 1.0
000140 00 00 80 3f 00 00 80 3f 00 00 80 3f 00 00 80 3f
       1.0 1.0 1.0 1.0
000150 00 00 80 3f 00 00 80 3f 00 00 80 3f 00 00 80 3f
       1.0 1.0 1.0 1.0
000160 00 00 80 3f 00 00 80 3f 00 00 80 3f 00 00 80 3f
       1.0 1.0 1.0 1.0
000170 00 00 80 3f 00 00 80 3f 00 00 80 3f 00 00 80 3f
       1.0 1.0 1.0 1.0
000180 00 00 80 3f 00 00 80 3f 00 00 80 3f 00 00 80 3f
       1.0 1.0 1.0 1.0
000190 00 00 80 3f 00 00 80 3f 00 00 80 3f 00 00 80 3f
       1.0 1.0 1.0 1.0
0001a0 00 00 80 3f 00 00 80 3f 00 00 80 3f 00 00 80 3f
       1.0 1.0 1.0 1.0
0001b0 00 00 80 3f 00 00 80 3f 00 00 80 3f 00 00 80 3f
       1.0 1.0 1.0 1.0
0001c0 00 00 80 3f 00 00 80 3f 00 00 80 3f 00 00 80 3f
       1.0 1.0 1.0 1.0
0001d0 00 00 80 3f 00 00 80 3f 00 00 80 3f 00 00 80 3f
       1.0 1.0 1.0 1.0
0001e0 00 00 80 3f 00 00 80 3f 00 00 80 3f 00 00 80 3f
       1.0 1.0 1.0 1.0
0001f0 00 00 80 3f 00 00 80 3f 00 00 80 3f 00 00 80 3f
       1.0 1.0 1.0 1.0
000200 00 00 80 3f 00 00 80 3f 00 00 80 3f 00 00 80 3f
       1.0 1.0 1.0 1.0
000210 00 00 80 3f 00 00 80 3f 00 00 80 3f 00 00 80 3f
       1.0 1.0 1.0 1.0
000220 00 00 80 3f 00 00 80 3f 00 00 80 3f 00 00 80 3f
       1.0 1.0 1.0 1.0
000230 00 00 80 3f 00 00 80 3f 00 00 80 3f 00 00 80 3f
       1.0 1.0 1.0 1.0

act_fun.1.scale_base f4 [12, 12]
000000 1c 3c 27 3f 45 89 ed be 72 5a 83 bd e8 32 90 be
       0.65326095 -0.4639379 -0.064137354 -0.28163838
000010 1c 50 bc 3e e4 3c a8 3e 71 da 10 bf e8 b0 0c be
       0.3677987 0.32858956 -0.56583315 -0.1373936
000020 3a c8 2b 3f 6e 8c 0d bf f1 11 e1 be 43 59 d9 3e
       0.67102396 -0.55292404 -0.43959 0.42450914
000030 36 7b ac be 31 63 97 3e 9b 7e 6f bc 4c 5b 06 3f
       -0.33687752 0.29567865 -0.014617587 0.5248306
000040 c8 5b 0b bf a7 da 23 be 7a e9 a2 3e 04 1d 06 3f
       -0.5443692 -0.16001378 0.31818753 0.52388024
000050 89 8a a6 be f1 ef c5 3e ac bd 01 3f 1b b6 bb be
       -0.3252757 0.38659623 0.5068004 -0.36662373
000060 c2 d4 c3 3e 02 e4 16 3a bc 87 f1 be 0e 56 b6 3e
       0.3824826 0.0005756022 -0.4717387 0.3561253
000070 32 aa 89 be 37 6f 80 3e 26 e3 05 3e ee 3f e0 3d
       -0.2688766 0.2508485 0.13074932 0.109496936
000080 5a dd 64 3e 47 3e 09 3e 0a af 46 3d fd 99 52 3e
       0.22350064 0.13402663 0.048506774 0.20566554
000090 86 78 4f bd 4b 1b 86 be 13 23 ba 3e f7 3a bd be
       -0.05065205 -0.26192698 0.36354885 -0.3695905
0000a0 8b c1 3f be 07 04 6d 3a 94 0a f5 3d eb 0f b4 3d
       -0.18726175 0.00090414326 0.11964908 0.087920986
0000b0 66 e7 a6 be e0 52 2a bd f3 78 86 be 5d 99 23 3d
       -0.32598418 -0.041582942 -0.26264152 0.03994118
0000c0 8a c3 b7 bd 6c b2 38 3e 1f 56 a0 be 84 af ba 3e
       -0.08972843 0.18036813 -0.31315705 0.36462033
0000d0 c7 6f e0 3e fa 3f 88 be 21 e4 8a 3e 56 88 df bd
       0.4383528 -0.2661131 0.27127174 -0.10914676
0000e0 e4 f9 f5 bd a2 66 d1 3e fe 30 9a bd 20 07 c9 bd
       -0.120105535 0.40898615 -0.07528876 -0.09815812
0000f0 37 e6 2f be 13 9c af 3e b0 63 26 3e e9 a5 56 3d
       -0.17177664 0.34298763 0.16248965 0.052404318
000100 fc 95 2c 3e ca 4c ed be 16 cc 68 3e a7 58 a4 bd
       0.1685409 -0.46347648 0.22734103 -0.080247216
000110 f8 71 6b be a5 10 dc 3e 83 11 c8 3b cb 57 ae be
       -0.22992694 0.4298145 0.006105603 -0.34051356
000120 f5 34 06 be a6 09 93 3e 74 56 b7 3d 6e 15 3e 3c
       -0.13106139 0.287183 0.089520365 0.011601789
000130 fb d0 ae 3e d8 3a 8b 3e 0a 54 bd bd 4c 1d e1 3d
       0.34143814 0.27193332 -0.09244545 0.10991916
000140 53 63 2e 3e 4b 74 ad 3d 8e 0e c2 3e 67 4e 80 3d
       0.17030077 0.08469447 0.3790173 0.06264954
000150 52 3e 8d 3d 62 bf 8e 3e 5d 40 de be 20 81 ab bd
       0.06896652 0.27880388 -0.4340848 -0.08374238
000160 36 5a 53 3e 0c 09 01 3e 57 1e 36 3e 19 60 20 be
       0.20639881 0.12601107 0.17785011 -0.15661658
000170 b1 6c 8f 3e 44 d9 28 bd e6 72 76 3d 77 38 23 be
       0.28012612 -0.041222826 0.06016817 -0.15939508
000180 8b 86 06 bf 8e bb c8 3d 46 2e c9 3d 71 65 8b 3d
       -0.52549046 0.09801398 0.09823279 0.06806458
000190 c9 bf 8e 3d f5 44 c6 bd 53 78 33 3e 22 f6 1b be
       0.06970174 -0.09681121 0.17526369 -0.15230611
0001a0 e9 9b 95 bd 60 43 0d 3e 37 58 29 be 16 af 38 be
       -0.07305128 0.13795233 -0.16537558 -0.1803554
0001b0 67 80 7a be 50 4e 1a 3e cc 21 d5 be 2d a5 33 3d
       -0.24463044 0.15068936 -0.41627347 0.043858696
0001c0 a2 57 55 be b8 a2 be bd 81 aa 5d 3e fe 15 07 be
       -0.2083421 -0.0930838 0.21647073 -0.13191983
0001d0 28 e3 df bd b5 81 ad 3e 6f 00 5b 3e 18 91 a4 3c
       -0.109319985 0.3388802 0.21386884 0.020088717
0001e0 8f bc 9a be 55 0b 4a 3e 10 72 9d bd 38 81 95 3e
       -0.30221984 0.19730885 -0.07687771 0.2920015
0001f0 04 b1 37 3e 40 b0 3f 3c d1 3e c5 3e e1 78 65 3e
       0.1793862 0.011699736 0.38524488 0.22409393
000200 1f 86 d2 be 44 95 97 3e 28 52 9d be d6 27 f1 3b
       -0.4111795 0.29606068 -0.30726743 0.007359485
000210 87 5b 38 be 51 59 e4 3d 7c c7 ef be 2a 66 9f 3e
       -0.18003665 0.11149848 -0.46831882 0.31132632
000220 bb fe ed 3d 2b cd df 3d eb d7 82 bd d9 56 81 3e
       0.116208516 0.109278046 -0.06388839 0.25261572
000230 82 08 08 be ab 5e 1b be a7 cd a0 3e 8f 64 33 3d
       -0.13284495 -0.15172832 0.314069 0.043797072

act_fun.1.scale_sp f4 [12, 12]
000000 3b 75 48 3f 52 be 73 3f c9 7f 64 3f 0e 23 53 3f
       0.7830388 0.9521228 0.89257485 0.82475364
000010 e5 e5 79 3f 3f ef 47 3f 67 f6 52 3f 0c 06 80 3f
       0.97616416 0.78099436 0.8240723 1.0001845
000020 f4 dc 7b 3f eb 49 52 3f f2 cd 49 3f 29 73 40 3f
       0.9838402 0.8214404 0.7882987 0.7517572
000030 9a bf 59 3f b4 41 23 3f 57 37 84 3f 5f 4b 47 3f
       0.85057986 0.6377213 1.0329388 0.7784938
000040 70 e8 84 3f 48 d9 55 3f d9 86 32 3f 21 7b 7d 3f
       1.0383434 0.8353467 0.6973701 0.99016005
000050 15 ec 4e 3f 46 8b 3e 3f f5 16 46 3f 3b 7f 41 3f
       0.8082898 0.74431264 0.7737878 0.75584763
000060 6b 56 50 3f 3a 54 63 3f 21 56 37 3f cb 37 3e 3f
       0.81381863 0.88800395 0.716158 0.74303883
000070 5f 51 6b 3f e5 5e 55 3f 5a 8b 37 3f 28 a3 58 3f
       0.9192104 0.8334792 0.7169701 0.84623957
000080 c3 4e 48 3f 55 8e 36 3f 38 33 4a 3f 92 7d 54 3f
       0.7824518 0.7131093 0.78984404 0.83004105
000090 da fa 43 3f 2f 93 2f 3f 26 c3 3b 3f f0 e2 36 3f
       0.76554644 0.6858396 0.7334465 0.7144003
0000a0 00 35 04 3f 55 94 42 3f 04 58 29 3f 8a f3 1a 3f
       0.5164337 0.76007587 0.66149926 0.6052786
0000b0 2a 50 53 3f 98 c0 20 3f 16 9e 2d 3f 2f 12 38 3f
       0.82544196 0.62793875 0.67819345 0.71902746
0000c0 b1 bf 5c 3f 51 bf 4e 3f 6c 80 68 3f dd 0a 2d 3f
       0.8623 0.80760676 0.90820956 0.675947
0000d0 5a 3a 1c 3f 54 1f 5a 3f e0 dc 1c 3f 7b cf 49 3f
       0.6102654 0.8520405 0.6127453 0.78832215
0000e0 17 cc 66 3f ce 52 24 3f 4d ac 39 3f b7 bd 5a 3f
       0.90155166 0.6418885 0.72528535 0.8544573
0000f0 73 16 42 3f ab 73 6d 3f bb 28 6a 3f d6 fc 52 3f
       0.75815505 0.9275462 0.914684 0.8241705
000100 26 33 7a 3f 80 cb 53 3f 66 9f 4e 3f b8 e4 6e 3f
       0.97734296 0.8273239 0.8071197 0.9331775
000110 9c 89 71 3f 14 be 54 3f cf cb 4b 3f d2 31 4e 3f
       0.943506 0.83102536 0.7960786 0.8054477
000120 d4 7e 3d 3f b7 12 38 3f 7e 9d 40 3f e5 c9 24 3f
       0.7402165 0.71903557 0.75240314 0.64370567
000130 b5 c0 18 3f 5c 3d 3e 3f 4b ea 2b 3f 9f 14 25 3f
       0.5966905 0.74312377 0.6715438 0.6448459
000140 fe 17 4d 3f 0d 1e 2e 3f 43 89 37 3f 5d 49 33 3f
       0.80114734 0.68014604 0.7169382 0.7003382
000150 e5 7f 32 3f 84 10 37 3f 1b 76 42 3f 41 20 29 3f
       0.697264 0.71509576 0.75961465 0.6606484
000160 62 a9 1c 3f 55 69 38 3f 77 c3 29 3f e6 fa 20 3f
       0.6119596 0.72035724 0.6631388 0.6288284
000170 d1 18 3b 3f c8 84 21 3f cc 57 32 3f f8 f3 3b 3f
       0.7308474 0.63093233 0.6966522 0.7341914
000180 60 fa 40 3f ad d3 32 3f 5a dc 6d 3f d4 b1 22 3f
       0.7538204 0.6985424 0.92914355 0.63552594
000190 ba 4e 2c 3f 09 34 38 3f 4c 2d 1f 3f 60 15 2a 3f
       0.6730763 0.719544 0.6217849 0.66438866
0001a0 da e2 4b 3f 7a 69 28 3f fe 34 2d 3f 7d 24 40 3f
       0.79643023 0.65785944 0.67658985 0.75055677
0001b0 d5 ff 35 3f 82 71 2d 3f d2 4d 36 3f e6 e4 2b 3f
       0.71093494 0.67751324 0.71212494 0.67146146
0001c0 90 b6 1c 3f 61 ec 45 3f 39 69 22 3f 92 74 2b 3f
       0.6121607 0.7731381 0.6344181 0.6697475
0001d0 ee 2c 4b 3f e3 ba 1f 3f 72 71 32 3f 4f 6e 2e 3f
       0.7936543 0.6239454 0.69704354 0.6813707
0001e0 b4 fc 37 3f 54 db 31 3f bf f9 33 3f f0 47 2f 3f
       0.7186997 0.69475293 0.7030296 0.6846914
0001f0 a2 a2 12 3f 5b 3e 37 3f c1 ca 28 3f c3 a0 22 3f
       0.5727941 0.7157952 0.6593438 0.6352655
000200 6b 44 41 3f 68 05 1d 3f ce 1a 2a 3f d1 4b 36 3f
       0.7549502 0.61336374 0.6644715 0.71209437
000210 47 b2 48 3f de 87 4b 3f cd f0 46 3f 22 be 39 3f
       0.7839703 0.7950419 0.7771118 0.72555745
000220 9d 8b 56 3f 11 37 3d 3f 66 33 36 3f d3 f9 35 3f
       0.8380678 0.7391215 0.7117218 0.71084327
000230 e1 f3 57 3f 84 77 2e 3f 64 dc 31 3f 78 cc 48 3f
       0.84356505 0.68151116 0.69476914 0.78436995

act_fun.2.grid f4 [12, 15]
000000 00 00 e0 bf 00 00 c0 bf 00 00 a0 bf 00 00 80 bf
       -1.75 -1.5 -1.25 -1.0
000010 00 00 40 bf 00 00 00 bf 00 00 80 be 00 00 00 00
       -0.75 -0.5 -0.25 0.0
000020 00 00 80 3e 00 00 00 3f 00 00 40 3f 00 00 80 3f
       0.25 0.5 0.75 1.0
000030 00 00 a0 3f 00 00 c0 3f 00 00 e0 3f 00 00 e0 bf
       1.25 1.5 1.75 -1.75
000040 00 00 c0 bf 00 00 a0 bf 00 00 80 bf 00 00 40 bf
       -1.5 -1.25 -1.0 -0.75
000050 00 00 00 bf 00 00 80 be 00 00 00 00 00 00 80 3e
       -0.5 -0.25 0.0 0.25
000060 00 00 00 3f 00 00 40 3f 00 00 80 3f 00 00 a0 3f
       0.5 0.75 1.0 1.25
000070 00 00 c0 3f 00 00 e0 3f 00 00 e0 bf 00 00 c0 bf
       1.5 1.75 -1.75 -1.5
000080 00 00 a0 bf 00 00 80 bf 00 00 40 bf 00 00 00 bf
       -1.25 -1.0 -0.75 -0.5
000090 00 00 80 be 00 00 00 00 00 00 80 3e 00 00 00 3f
       -0.25 0.0 0.25 0.5
0000a0 00 00 40 3f 00 00 80 3f 00 00 a0 3f 00 00 c0 3f
       0.75 1.0 1.25 1.5
0000b0 00 00 e0 3f 00 00 e0 bf 00 00 c0 bf 00 00 a0 bf
       1.75 -1.75 -1.5 -1.25
0000c0 00 00 80 bf 00 00 40 bf 00 00 00 bf 00 00 80 be
       -1.0 -0.75 -0.5 -0.25
0000d0 00 00 00 00 00 00 80 3e 00 00 00 3f 00 00 40 3f
       0.0 0.25 0.5 0.75
0000e0 00 00 80 3f 00 00 a0 3f 00 00 c0 3f 00 00 e0 3f
       1.0 1.25 1.5 1.75
0000f0 00 00 e0 bf 00 00 c0 bf 00 00 a0 bf 00 00 80 bf
       -1.75 -1.5 -1.25 -1.0
000100 00 00 40 bf 00 00 00 bf 00 00 80 be 00 00 00 00
       -0.75 -0.5 -0.25 0.0
000110 00 00 80 3e 00 00 00 3f 00 00 40 3f 00 00 80 3f
       0.25 0.5 0.75 1.0
000120 00 00 a0 3f 00 00 c0 3f 00 00 e0 3f 00 00 e0 bf
       1.25 1.5 1.75 -1.75
000130 00 00 c0 bf 00 00 a0 bf 00 00 80 bf 00 00 40 bf
       -1.5 -1.25 -1.0 -0.75
000140 00 00 00 bf 00 00 80 be 00 00 00 00 00 00 80 3e
       -0.5 -0.25 0.0 0.25
000150 00 00 00 3f 00 00 40 3f 00 00 80 3f 00 00 a0 3f
       0.5 0.75 1.0 1.25
000160 00 00 c0 3f 00 00 e0 3f 00 00 e0 bf 00 00 c0 bf
       1.5 1.75 -1.75 -1.5
000170 00 00 a0 bf 00 00 80 bf 00 00 40 bf 00 00 00 bf
       -1.25 -1.0 -0.75 -0.5
000180 00 00 80 be 00 00 00 00 00 00 80 3e 00 00 00 3f
       -0.25 0.0 0.25 0.5
000190 00 00 40 3f 00 00 80 3f 00 00 a0 3f 00 00 c0 3f
       0.75 1.0 1.25 1.5
0001a0 00 00 e0 3f 00 00 e0 bf 00 00 c0 bf 00 00 a0 bf
       1.75 -1.75 -1.5 -1.25
0001b0 00 00 80 bf 00 00 40 bf 00 00 00 bf 00 00 80 be
       -1.0 -0.75 -0.5 -0.25
0001c0 00 00 00 00 00 00 80 3e 00 00 00 3f 00 00 40 3f
       0.0 0.25 0.5 0.75
0001d0 00 00 80 3f 00 00 a0 3f 00 00 c0 3f 00 00 e0 3f
       1.0 1.25 1.5 1.75
0001e0 00 00 e0 bf 00 00 c0 bf 00 00 a0 bf 00 00 80 bf
       -1.75 -1.5 -1.25 -1.0
0001f0 00 00 40 bf 00 00 00 bf 00 00 80 be 00 00 00 00
       -0.75 -0.5 -0.25 0.0
000200 00 00 80 3e 00 00 00 3f 00 00 40 3f 00 00 80 3f
       0.25 0.5 0.75 1.0
000210 00 00 a0 3f 00 00 c0 3f 00 00 e0 3f 00 00 e0 bf
       1.25 1.5 1.75 -1.75
000220 00 00 c0 bf 00 00 a0 bf 00 00 80 bf 00 00 40 bf
       -1.5 -1.25 -1.0 -0.75
000230 00 00 00 bf 00 00 80 be 00 00 00 00 00 00 80 3e
       -0.5 -0.25 0.0 0.25
000240 00 00 00 3f 00 00 40 3f 00 00 80 3f 00 00 a0 3f
       0.5 0.75 1.0 1.25
000250 00 00 c0 3f 00 00 e0 3f 00 00 e0 bf 00 00 c0 bf
       1.5 1.75 -1.75 -1.5
000260 00 00 a0 bf 00 00 80 bf 00 00 40 bf 00 00 00 bf
       -1.25 -1.0 -0.75 -0.5
000270 00 00 80 be 00 00 00 00 00 00 80 3e 00 00 00 3f
       -0.25 0.0 0.25 0.5
000280 00 00 40 3f 00 00 80 3f 00 00 a0 3f 00 00 c0 3f
       0.75 1.0 1.25 1.5
000290 00 00 e0 3f 00 00 e0 bf 00 00 c0 bf 00 00 a0 bf
       1.75 -1.75 -1.5 -1.25
0002a0 00 00 80 bf 00 00 40 bf 00 00 00 bf 00 00 80 be
       -1.0 -0.75 -0.5 -0.25
0002b0 00 00 00 00 00 00 80 3e 00 00 00 3f 00 00 40 3f
       0.0 0.25 0.5 0.75
0002c0 00 00 80 3f 00 00 a0 3f 00 00 c0 3f 00 00 e0 3f
       1.0 1.25 1.5 1.75

act_fun.2.coef f4 [12, 1, 11]
000000 74 62 75 3e 6a ec 3d 3e e3 f7 a7 3e b5 93 a2 3e
       0.23963338 0.18547216 0.3280631 0.31753317
000010 5d 01 a7 3e 22 f6 ef 3e 37 7c d1 be a2 a8 a9 be
       0.32618228 0.46867472 -0.4091508 -0.3313647
000020 ea 60 92 be 07 2c 56 be cc fe 40 be 43 97 2b bf
       -0.28589565 -0.20915233 -0.18847197 -0.6702768
000030 27 6c f2 be 9c b2 b8 be 9a ac 91 be 82 e2 9c be
       -0.4734814 -0.36073768 -0.28451997 -0.30641562
000040 99 7e 83 be e5 95 56 3c a7 34 0f 3e 15 b6 01 3f
       -0.25682524 0.013097261 0.13984929 0.5066846
000050 4e d7 a1 3e aa ac e0 3e 58 f8 58 3f ee 24 32 3f
       0.31609577 0.43881732 0.8475394 0.695876
000060 a8 c8 db 3e 99 3d 90 3e 92 ef 81 3e dd 1e 9c be
       0.42926526 0.28171995 0.2537809 -0.30492297
000070 de 6a c4 be ab 58 bf be 11 41 10 3f bb 69 20 3f
       -0.38362783 -0.37372336 0.56349283 0.6266133
000080 e3 c7 50 3f 5e 24 86 bb e5 f9 bb bd 24 e2 ba bd
       0.81555 -0.004093691 -0.09178523 -0.09125164
000090 59 a4 2b be 3c 0b f0 bd fc 7e 26 be 23 62 90 3c
       -0.16761912 -0.11720893 -0.16259378 0.01762492
0000a0 c9 9a de 3e bf c1 a0 3e 1e ed 76 3e 03 68 da 3e
       0.43477467 0.31397817 0.2411389 0.4265748
0000b0 f3 88 8e 3f 22 4b 71 3f e3 34 54 3f 08 e3 36 3f
       1.1135544 0.9425527 0.828932 0.7144017
0000c0 39 67 d6 3e f0 cd d0 3e 8d f7 b2 be 71 62 bc be
       0.41875628 0.40782118 -0.3495449 -0.36793855
0000d0 d3 43 ae be 50 fb 38 bf 14 51 50 bf 43 62 74 3e
       -0.3403612 -0.7225847 -0.81373715 0.23865609
0000e0 62 0c 2c 3e 5e 25 b1 3e a3 88 a1 3e 69 8e b9 3e
       0.16801599 0.3459882 0.31549558 0.36241463
0000f0 f3 bc f4 3e 07 b9 b7 be 7a 4c a7 be a7 80 87 be
       0.47800407 -0.35883352 -0.32675534 -0.2646534
000100 ef 90 66 be 44 27 47 be 1a 04 8c be 6d f0 74 be
       -0.22516225 -0.19448572 -0.2734688 -0.2391984
000110 a3 c5 5d be 99 f4 44 be 30 09 42 be 89 36 89 be
       -0.21657424 -0.19233932 -0.18948817 -0.2679942
000120 7d 19 b6 3e a0 ee ac 3e 33 5e ba 3e de 21 ad 3e
       0.3556632 0.33775806 0.36399993 0.338149
000130 25 a4 cf 3e c6 95 af 3d c8 b1 bb 3d e1 80 4a be
       0.4055492 0.08573489 0.091647685 -0.19775726
000140 49 6b 76 be f7 79 66 be f9 97 99 be 48 0c c4 3e
       -0.24064364 -0.22507463 -0.29998758 0.3829062
000150 6a 60 ef 3e 00 75 fe 3e df 41 51 3f 73 cc 65 3f
       0.46753246 0.4969864 0.81741136 0.8976509
000160 1f ea 1d 3f 90 eb d3 3e d6 b6 b6 3e 1d 5a d9 3e
       0.61685365 0.41390657 0.35686368 0.42451563
000170 65 19 dd 3e e6 cc 55 be 7f 2b 67 be d5 c6 84 be
       0.43183437 -0.20878944 -0.22575186 -0.25932947
000180 c3 01 4e be e5 89 4f be a9 db 45 be 4f 9f a4 be
       -0.2011786 -0.20267446 -0.19322075 -0.32152793
000190 ab 5f 7c be b9 4a 75 be d6 8e 67 be 23 ac 65 be
       -0.2464587 -0.23954286 -0.22613081 -0.22428946
0001a0 9b 7f 8e be 48 10 a4 3e f5 06 b1 3e bc 81 86 3e
       -0.2783173 0.32043672 0.3457562 0.26270854
0001b0 a0 15 bb 3e d5 d3 c1 3e 63 4f ab be 5f 69 a3 be
       0.36539936 0.37856928 -0.33459005 -0.3191633
0001c0 75 5e a5 be 84 0c 76 be 03 ba 91 be 00 84 0b be
       -0.32298627 -0.24028212 -0.28462228 -0.13624573
0001d0 e2 6e 8b 3d ae 9e f5 3d 54 83 25 3e cc f8 90 3e
       0.068082586 0.119931564 0.16163379 0.28314817
0001e0 fc df c8 3e 49 39 95 3e 0a bf 09 3f 57 fb e2 3e
       0.39233387 0.29145268 0.5380713 0.44332382
0001f0 b8 51 a2 3e 41 83 f5 3e ea c7 46 be df 5a a7 be
       0.3170297 0.479517 -0.19412199 -0.32686517
000200 85 05 86 be be c7 89 be 5b e4 56 be a0 9c 3f be
       -0.26176086 -0.26910204 -0.20985548 -0.18712091

act_fun.2.mask f4 [12, 1]
000000 00 00 80 3f 00 00 80 3f 00 00 80 3f 00 00 80 3f
       1.0 1.0 1.0 1.0
000010 00 00 80 3f 00 00 80 3f 00 00 80 3f 00 00 80 3f
       1.0 1.0 1.0 1.0
000020 00 00 80 3f 00 00 80 3f 00 00 80 3f 00 00 80 3f
       1.0 1.0 1.0 1.0

act_fun.2.scale_base f4 [12, 1]
000000 01 39 1d bf ed be bb 3e be bb 27 be 21 e3 13 3f
       -0.61415106 0.36669102 -0.16380212 0.57768446
000010 80 8c 92 bd 88 d3 1b bf 59 51 15 3f 8f fb ba 3e
       -0.071557045 -0.60869646 0.5832725 0.3652005
000020 4f 65 f7 be 60 87 0e 3f 20 74 2c 3f 7e 86 31 bf
       -0.4831948 0.55675316 0.6736469 -0.69345844

act_fun.2.scale_sp f4 [12, 1]
000000 ef 37 4a 3f 0a 73 4c 3f bb 13 52 3f 2b b1 45 3f
       0.789916 0.79863036 0.82061356 0.7722346
000010 86 6d 4f 3f 8f e8 4f 3f 99 e8 40 3f f6 63 4e 3f
       0.81026495 0.8121423 0.75354916 0.8062128
000020 77 43 5f 3f 48 95 4b 3f 82 99 26 3f 3a e7 53 3f
       0.8721232 0.7952466 0.65077984 0.827747

symbolic_fun.0.mask f4 [12, 4]
000000 00 00 00 00 00 00 00 00 00 00 00 00 00 00 00 00
       0.0 0.0 0.0 0.0
000010 00 00 00 00 00 00 00 00 00 00 00 00 00 00 00 00
       0.0 0.0 0.0 0.0
000020 00 00 00 00 00 00 00 00 00 00 00 00 00 00 00 00
       0.0 0.0 0.0 0.0
000030 00 00 00 00 00 00 00 00 00 00 00 00 00 00 00 00
       0.0 0.0 0.0 0.0
000040 00 00 00 00 00 00 00 00 00 00 00 00 00 00 00 00
       0.0 0.0 0.0 0.0
000050 00 00 00 00 00 00 00 00 00 00 00 00 00 00 00 00
       0.0 0.0 0.0 0.0
000060 00 00 00 00 00 00 00 00 00 00 00 00 00 00 00 00
       0.0 0.0 0.0 0.0
000070 00 00 00 00 00 00 00 00 00 00 00 00 00 00 00 00
       0.0 0.0 0.0 0.0
000080 00 00 00 00 00 00 00 00 00 00 00 00 00 00 00 00
       0.0 0.0 0.0 0.0
000090 00 00 00 00 00 00 00 00 00 00 00 00 00 00 00 00
       0.0 0.0 0.0 0.0
0000a0 00 00 00 00 00 00 00 00 00 00 00 00 00 00 00 00
       0.0 0.0 0.0 0.0
0000b0 00 00 00 00 00 00 00 00 00 00 00 00 00 00 00 00
       0.0 0.0 0.0 0.0

symbolic_fun.0.affine f4 [12, 4, 4]
000000 00 00 00 00 00 00 00 00 00 00 00 00 00 00 00 00
       0.0 0.0 0.0 0.0
000010 00 00 00 00 00 00 00 00 00 00 00 00 00 00 00 00
       0.0 0.0 0.0 0.0
000020 00 00 00 00 00 00 00 00 00 00 00 00 00 00 00 00
       0.0 0.0 0.0 0.0
000030 00 00 00 00 00 00 00 00 00 00 00 00 00 00 00 00
       0.0 0.0 0.0 0.0
000040 00 00 00 00 00 00 00 00 00 00 00 00 00 00 00 00
       0.0 0.0 0.0 0.0
000050 00 00 00 00 00 00 00 00 00 00 00 00 00 00 00 00
       0.0 0.0 0.0 0.0
000060 00 00 00 00 00 00 00 00 00 00 00 00 00 00 00 00
       0.0 0.0 0.0 0.0
000070 00 00 00 00 00 00 00 00 00 00 00 00 00 00 00 00
       0.0 0.0 0.0 0.0
000080 00 00 00 00 00 00 00 00 00 00 00 00 00 00 00 00
       0.0 0.0 0.0 0.0
000090 00 00 00 00 00 00 00 00 00 00 00 00 00 00 00 00
       0.0 0.0 0.0 0.0
0000a0 00 00 00 00 00 00 00 00 00 00 00 00 00 00 00 00
       0.0 0.0 0.0 0.0
0000b0 00 00 00 00 00 00 00 00 00 00 00 00 00 00 00 00
       0.0 0.0 0.0 0.0
0000c0 00 00 00 00 00 00 00 00 00 00 00 00 00 00 00 00
       0.0 0.0 0.0 0.0
0000d0 00 00 00 00 00 00 00 00 00 00 00 00 00 00 00 00
       0.0 0.0 0.0 0.0
0000e0 00 00 00 00 00 00 00 00 00 00 00 00 00 00 00 00
       0.0 0.0 0.0 0.0
0000f0 00 00 00 00 00 00 00 00 00 00 00 00 00 00 00 00
       0.0 0.0 0.0 0.0
000100 00 00 00 00 00 00 00 00 00 00 00 00 00 00 00 00
       0.0 0.0 0.0 0.0
000110 00 00 00 00 00 00 00 00 00 00 00 00 00 00 00 00
       0.0 0.0 0.0 0.0
000120 00 00 00 00 00 00 00 00 00 00 00 00 00 00 00 00
       0.0 0.0 0.0 0.0
000130 00 00 00 00 00 00 00 00 00 00 00 00 00 00 00 00
       0.0 0.0 0.0 0.0
000140 00 00 00 00 00 00 00 00 00 00 00 00 00 00 00 00
       0.0 0.0 0.0 0.0
000150 00 00 00 00 00 00 00 00 00 00 00 00 00 00 00 00
       0.0 0.0 0.0 0.0
000160 00 00 00 00 00 00 00 00 00 00 00 00 00 00 00 00
       0.0 0.0 0.0 0.0
000170 00 00 00 00 00 00 00 00 00 00 00 00 00 00 00 00
       0.0 0.0 0.0 0.0
000180 00 00 00 00 00 00 00 00 00 00 00 00 00 00 00 00
       0.0 0.0 0.0 0.0
000190 00 00 00 00 00 00 00 00 00 00 00 00 00 00 00 00
       0.0 0.0 0.0 0.0
0001a0 00 00 00 00 00 00 00 00 00 00 00 00 00 00 00 00
       0.0 0.0 0.0 0.0
0001b0 00 00 00 00 00 00 00 00 00 00 00 00 00 00 00 00
       0.0 0.0 0.0 0.0
0001c0 00 00 00 00 00 00 00 00 00 00 00 00 00 00 00 00
       0.0 0.0 0.0 0.0
0001d0 00 00 00 00 00 00 00 00 00 00 00 00 00 00 00 00
       0.0 0.0 0.0 0.0
0001e0 00 00 00 00 00 00 00 00 00 00 00 00 00 00 00 00
       0.0 0.0 0.0 0.0
0001f0 00 00 00 00 00 00 00 00 00 00 00 00 00 00 00 00
       0.0 0.0 0.0 0.0
000200 00 00 00 00 00 00 00 00 00 00 00 00 00 00 00 00
       0.0 0.0 0.0 0.0
000210 00 00 00 00 00 00 00 00 00 00 00 00 00 00 00 00
       0.0 0.0 0.0 0.0
000220 00 00 00 00 00 00 00 00 00 00 00 00 00 00 00 00
       0.0 0.0 0.0 0.0
000230 00 00 00 00 00 00 00 00 00 00 00 00 00 00 00 00
       0.0 0.0 0.0 0.0
000240 00 00 00 00 00 00 00 00 00 00 00 00 00 00 00 00
       0.0 0.0 0.0 0.0
000250 00 00 00 00 00 00 00 00 00 00 00 00 00 00 00 00
       0.0 0.0 0.0 0.0
000260 00 00 00 00 00 00 00 00 00 00 00 00 00 00 00 00
       0.0 0.0 0.0 0.0
000270 00 00 00 00 00 00 00 00 00 00 00 00 00 00 00 00
       0.0 0.0 0.0 0.0
000280 00 00 00 00 00 00 00 00 00 00 00 00 00 00 00 00
       0.0 0.0 0.0 0.0
000290 00 00 00 00 00 00 00 00 00 00 00 00 00 00 00 00
       0.0 0.0 0.0 0.0
0002a0 00 00 00 00 00 00 00 00 00 00 00 00 00 00 00 00
       0.0 0.0 0.0 0.0
0002b0 00 00 00 00 00 00 00 00 00 00 00 00 00 00 00 00
       0.0 0.0 0.0 0.0
0002c0 00 00 00 00 00 00 00 00 00 00 00 00 00 00 00 00
       0.0 0.0 0.0 0.0
0002d0 00 00 00 00 00 00 00 00 00 00 00 00 00 00 00 00
       0.0 0.0 0.0 0.0
0002e0 00 00 00 00 00 00 00 00 00 00 00 00 00 00 00 00
       0.0 0.0 0.0 0.0
0002f0 00 00 00 00 00 00 00 00 00 00 00 00 00 00 00 00
       0.0 0.0 0.0 0.0
